benchmark/training/image_classification/trained_models/trainedRes.tflite (tflite, 318960 bytes, 20 tensors)

arith.constant f4 [64]
00000000: 602b b1bc 5a73 39bf 03b8 c33f bc8b 203f
00000010: 461c d63f ed91 eabf ec44 9a3f bb9b 0540
00000020: 9f24 8240 a089 f73f 5962 b13e 685b 043c
00000030: 3404 7440 03db c63f 0406 4240 6a2d cc3f
00000040: abe7 0ac0 c402 4140 33a8 c33f 70de 943e
00000050: a98a d93f bef4 4c3f 2852 3840 3f60 cd3f
00000060: 3049 6dbe 919a 05bd 1a5a 40bf f857 2c40
00000070: 7bf4 6240 3627 d83f 2832 4840 8c82 0540
00000080: 6b25 3840 b7fc c03f 9759 7040 84c3 8d3f
00000090: 1450 5040 1722 20bf ed45 6f3f 8d72 3840
000000a0: 9e3c ca3f 95a5 5440 2cf8 8c3f 8a22 16bf
000000b0: d7f1 8040 e2df e73f c1c5 e33d e620 5340
000000c0: 7c73 93bf aa4a af3f 2da3 0b40 8c59 ab40
000000d0: 7fe4 cb3f 2e4e 993f 4774 863f 5cb2 a33f
000000e0: 6511 d93f 31f3 3740 e6aa e13e 9b4f cb3f
000000f0: adec 8e3f 0f9b 2c40 cf3a 43bf 1b28 2abf
-0.021627128 -0.7244164 1.5290531 0.6271322 1.6727378 -1.8325783 1.2052283 2.08763
4.0669703 1.9338875 0.34645346 0.008078434 3.8127565 1.5535587 3.0316172 1.5951359
-2.17039 3.0157938 1.5285705 0.29075956 1.6995441 0.80060947 2.8800144 1.6044997
-0.2317245 -0.03261811 -0.75137484 2.6928692 3.546172 1.6886966 3.1280613 2.086093
2.8772838 1.5077122 3.7554681 1.1075292 3.2548876 -0.62552017 0.93466073 2.8819916
1.5799749 3.3226063 1.1013236 -0.5864645 4.0295215 1.8115199 0.11121703 3.298883
-1.1519618 1.3694661 2.1818345 5.354681 1.5929106 1.1976984 1.0504235 1.2788806
1.6958433 2.8742182 0.44075698 1.5883669 1.1165978 2.696964 -0.7626161 -0.66467446

arith.constant1 f4 [64]
00000000: af82 afbf e4e7 a5be 3451 72be 363e 09bf
00000010: 5c21 5dbf 7aa4 cebf 1a4a 6abf e7ae f6be
00000020: 57c9 05be fbe4 69be b46e 103f 0a95 bebf
00000030: 62da 8abd d630 75bf d86e 0cbf 76ea d23d
00000040: a460 0cbf d276 613f 5c03 9e3f b4a0 9fbf
00000050: 65d9 0cbf d1b3 553d e20a 0340 dba2 6ebf
00000060: 692f 203e 12ca 34be 1d50 f6be 3e9f b63f
00000070: 1656 5abf fd82 073e 5945 933f 47eb 583e
00000080: 146f febd e2fb 393e 09f3 4d3f d78b cfbe
00000090: 3c11 6c3c bab1 c7bf 2663 173e b6a9 9e3f
000000a0: 3e53 9a3e 66dd dbbe b182 99bf 92ba 9fbe
000000b0: e7fb c53f d537 2cbf 62d8 b3be b5c5 3b3f
000000c0: 3a95 f7bd dac8 d53f 0c59 a4bf 9336 803f
000000d0: 1ff9 703f c819 233f 92c2 18bf 3132 433f
000000e0: 80d7 be3e 7682 f3bf d937 afbe 41ad 83be
000000f0: 22c3 82bf b2c4 0bbf 5fe1 d8bf bbd2 03c0
-1.3711756 -0.3240348 -0.23663789 -0.5361055 -0.8637903 -1.6143944 -0.9151932 -0.48180315
-0.13065086 -0.22841255 0.5641892 -1.4889233 -0.067799345 -0.9577764 -0.54856634 0.10298626
-0.5483496 0.8807193 1.2344775 -1.2470918 -0.5501922 0.05217344 2.0475392 -0.9321725
0.15643086 -0.17655209 -0.48107997 1.4267347 -0.85287607 0.13233562 1.1505538 0.21183501
-0.1242353 0.18162492 0.8044897 -0.40536377 0.014408406 -1.5601113 0.14783916 1.2395542
0.30141634 -0.4294235 -1.1993009 -0.3119703 1.54675 -0.6727269 -0.35126024 0.7334855
-0.120890096 1.670192 -1.2839675 1.0016655 0.9413013 0.63711214 -0.5967189 0.7624846
0.37273788 -1.9024189 -0.34222296 -0.2571812 -1.02158 -0.5459701 -1.6943778 -2.059737

arith.constant2 f4 [32]
00000000: 4385 c43e 72c4 c03f 847a e4be 806a 90bf
00000010: d4c2 523e c615 b73e 5774 10be 107d 933f
00000020: becf e43e f59f 3e40 1502 0740 42c1 0b3f
00000030: 0cb6 1840 0992 143e c665 e33f a573 02c0
00000040: 48ce 5b3e 67eb 84be 129d 763f 748a dc3b
00000050: 4638 00bf 475d 8fbe 62cf e33f d7bc 0fbf
00000060: 3bd0 733e ce3d 113e af65 ee3f 6ada f03f
00000070: ccc0 b33f 32ac d13f 683e 96bc 0122 0840
0.3838292 1.505995 -0.44624722 -1.1282501 0.20582134 0.357588 -0.1410688 1.1522541
0.44689745 2.978513 2.109502 0.54591763 2.3861113 0.14508833 1.7765434 -2.0383084
0.21465409 -0.25960848 0.9633342 0.006730372 -0.50085866 -0.28000852 1.7797663 -0.5614752
0.23809902 0.14183733 1.8624781 1.8816655 1.4043212 1.6380675 -0.018340304 2.1270754

arith.constant3 f4 [32]
00000000: 5fbe b13f 3639 943e ac9c c73f 2678 d83f
00000010: d5b0 1cbe 5ca2 c63f 049a c33e 632d 5d40
00000020: 9ce6 e7be 8557 d6bd ce9d 8f3f fa81 afbe
00000030: d9ef 4abe d186 0140 c0e3 d93e 10f1 10be
00000040: 3f28 0d3f a691 243f 5463 d43e 8d54 653f
00000050: d0fc 973e 9308 183f 9abf 993f 068e 623f
00000060: 918e d53d c6e6 41bf f27c 643f 6f50 37be
00000070: 1cef e73f cefb f9bf 329b df3f b2b4 843f
1.3886222 0.28949898 1.5594687 1.6911666 -0.15301831 1.5518298 0.38203442 3.4558952
-0.45293128 -0.10465912 1.1220033 -0.34278852 -0.19818057 2.0238535 0.42556572 -0.14154458
0.55139536 0.6428474 0.4148203 0.8958214 0.29685068 0.59388083 1.2011597 0.8849796
0.10427583 -0.7574276 0.8925315 -0.17901777 1.8119845 -1.952997 1.7469237 1.0367644

arith.constant4 f4 [16]
00000000: 77b7 acbd a79a 84bf 90ab 053f 5e3e fd3e
00000010: cdb9 3f3f 8eec 483e 9c96 05be c912 1fbf
00000020: 867c f4be 4719 163f 6189 b23f d15b 143e
00000030: 8dfd 833f 555e dcbe fa82 3c3f bfb6 d1be
-0.08433431 -1.0359696 0.5221491 0.49461645 0.74892884 0.19621488 -0.13045734 -0.6213804
-0.47751254 0.5863232 1.3948175 0.1448815 1.0311753 -0.4304072 0.73637354 -0.40959737

arith.constant5 f4 [16]
00000000: 99fc 3fbe 6a06 953f 64ab d93f c6a2 44be
00000010: b164 633e 9f20 a73f 9dbb e63e 0ef9 ea3e
00000020: 2ede edbe b36a ae3e 14ab 09bf 344e 4bc0
00000030: 2e64 c03d 1222 cb3f 983b 0540 8042 b03f
-0.18748702 1.1642582 1.7005429 -0.19202718 0.2220638 1.305683 0.45065013 0.4589314
-0.46458572 0.3406578 -0.5377667 -3.1766481 0.09394108 1.5869772 2.0817623 1.3770294

arith.constant6 f4 [64]
00000000: 15d6 18bf 0064 a9bd 91c4 afbe 4031 f1bd
00000010: 7ef2 a7be 66b6 21be ef6f 5ebe 65e1 81be
00000020: 172c 27be 2bcc bcbd 2c5d 1bbd bae5 b3be
00000030: 82ea 89be b0ea f7bc 8055 0fbe ebd3 20be
00000040: 831f cabd 95f6 533d 12ee ea3b 06c3 7ebe
00000050: c390 cdbe 304e d7bd 752e ccbe f04e 7bbe
00000060: a03e d3be 6a27 05be a3f5 03be bcc6 88be
00000070: 4c10 9fbe fd64 30bc 418b 21be 78fe 61bd
00000080: e2bd 61be 32b4 dbbe 325c 93be 7d1e 89bd
00000090: 4f1b 8ebe 58f0 bebe b18c 3fbe 722d 4bbf
000000a0: aa23 b3bd e985 a1be b383 85be 9f3d ddbd
000000b0: b5bf 19bb b79e 60be 34f8 8ebe e51e 07bd
000000c0: 04bd f6bd e3af 8dbe 41b6 1fbe eaf5 56be
000000d0: b3bf c8bd bbb8 f2bd 2ebe acbd 57e0 b1be
000000e0: 3a60 8dbe 3b26 fdbe 4089 69be 92e5 ccbe
000000f0: b62c 07be b8f5 773d 2473 fdbd 8d47 81be
-0.59701663 -0.082710266 -0.34329656 -0.11776972 -0.32802194 -0.15792236 -0.21722387 -0.25367275
-0.16325413 -0.092186294 -0.037930652 -0.35136205 -0.26936728 -0.030263275 -0.1399746 -0.1570584
-0.09869292 0.05174883 0.0071694935 -0.24879083 -0.40149507 -0.1051296 -0.39879194 -0.24541831
-0.41258717 -0.13003317 -0.12886672 -0.26714122 -0.3106712 -0.010766265 -0.15775777 -0.05517432
-0.22045091 -0.42910916 -0.28781277 -0.06695268 -0.2775521 -0.37292743 -0.18706013 -0.7936622
-0.08747037 -0.31547478 -0.2607704 -0.10802769 -0.0023460214 -0.21935545 -0.2792374 -0.032988448
-0.120477706 -0.27673253 -0.15596868 -0.20992246 -0.09802189 -0.11851641 -0.084347114 -0.3474147
-0.27612478 -0.4944323 -0.22806263 -0.40018898 -0.1320065 0.06053707 -0.12375477 -0.252499

arith.constant7 f4 [32]
00000000: 6807 883c 0ded 8d3e 8ede 813d 355c a0be
00000010: fb14 82ba 9418 583d 8c1a b03c cb8d 233d
00000020: 31d5 c33c 8c90 e73c 0097 b93c 0404 26be
00000030: 4d2e 43bd 766f 373d 850a 3f3e bd32 853c
00000040: 2fba 8c3d 6c85 dabd 61d9 c7bd fe04 823e
00000050: 759f d3bc 3969 5fbe 2e8e 623e b7e7 a2bd
00000060: 8caa 2a3e a863 85be fe18 33bd 6901 a73e
00000070: 6710 0b3e 0e4a 47bc 3c15 4dbd 9482 02be
0.016605094 0.27719918 0.06341277 -0.31320348 -0.0009924466 0.052757815 0.021497034 0.039930146
0.023905369 0.028267168 0.02265501 -0.1621247 -0.047651578 0.04478403 0.18656357 0.016259545
0.06871449 -0.106699795 -0.097582586 0.25394434 -0.025832871 -0.21817483 0.2212455 -0.07954352
0.16666621 -0.26052594 -0.043725006 0.32618263 0.13580476 -0.012163652 -0.05006908 -0.12745124

arith.constant8 f4 [64, 1, 1, 32]
00000000: 03c2 ddbd 95c3 883e 2283 75bd 25a9 fbbd
00000010: 9f12 89bd 0b38 a3bd 0fc7 32bb 20a5 8abd
00000020: 338e f1bc 6022 2fbe 877a 1bbd 50cc 6bbd
00000030: 179d ebbd 4a1a 5bbe b939 b33c f95c 71bd
00000040: 2200 923b a34b 17be d823 fabb cfa2 24be
00000050: 691f b0bd 9aca 4bbd d249 acbe b1ce 813d
00000060: 5a0a e73d ae77 723d 9366 8fbd 9a38 b6bd
00000070: b6b7 2bbd 5e10 153e 8900 08bd 5c0d 4abd
00000080: 3cfd 1ebe d0a2 e3bd 7a36 84bd dd1a 16be
00000090: 96a5 30bd 2622 343e 816d cfbd 2f2e 0d3e
000000a0: b72e 443d d8e5 bcbb 3873 90bc d0ca d33d
000000b0: 4e1b 5b3e e5bb 9c3e 0057 7fbc 5e6d efbd
000000c0: 9a20 bdbe 87a6 ca3d 5868 35be 87b0 21be
000000d0: 679c 1c3a abf7 8e3e d776 d4be c7f0 f43d
000000e0: e8a9 e3bd 1425 c1bd 3c87 d33d 7a9b 2f3e
000000f0: 8ad5 263e bb48 29be ad89 2ebd 9d09 a03e
00000100: a4b2 04be ba35 c0bd 3ceb 1abd f3ba 99bd
00000110: e99c 39bb e7b4 443e 5ca0 ae3d 8289 b53e
00000120: 5305 e9bc d1fe c93c 14e5 403d 7d9d c4bd
00000130: e5af 973d 11f5 513d df2f c6bc 9f44 22be
00000140: fa18 07be b9f3 b43d 4cbb 2cbe ff9b c7bd
00000150: c3cd 5f3d f74f 6cbd 9dbb acbe 99e3 1cbd
00000160: ee0c 80be 1a54 fabd 81a8 893d 1d9b 40bd
00000170: 8c53 ce3d 39d7 383c 8dbd 483c d2d6 a3bd
00000180: cade 463c f17e 23be 9388 a7bc d780 413d
00000190: 6334 c8bd 9f36 b23a 4587 2b3e 145f 103e
000001a0: 5035 3b3d 904e 0d3d ea08 75bc d227 8fbd
000001b0: 3d9a 933d 22c9 12be 92a8 22bd 1d36 3f3e
000001c0: 538a 983a a53d ba3d 6e99 3bbe 6ea8 cdbd
000001d0: 4dba 013c 5ea1 993c 7c77 023d fd39 6b3d
000001e0: 4623 06be 0b03 1abe f3ab 54be c25c 66bd
000001f0: 9030 9d3d 9245 973d b005 113d 8c96 6cbc
00000200: 1881 4cbe 320b b73d c1ef 48be c2f1 59be
00000210: 7247 963c 4672 ccbc a31c 43be 44a6 5fbd
00000220: c51b e83d 9e28 2fbd 21be df3d 7523 123d
00000230: ae6b f53b aa6e 593e 2895 143d 9da0 a4be
00000240: 5617 a0be ee3c c7bd 8c28 80be f6d0 e1bd
00000250: 5d8e 013e 43b9 edbd cc21 fcbe 1bfc 2b3d
00000260: 7e2b 6abd 37c7 9e3d 7b73 143d 48a0 393e
00000270: 096b ecbd e6a8 5abd 228f cfbd b2b8 50bd
00000280: 0602 80bc 3dc0 3bbe a6a8 23be 996a 29be
00000290: 0a2f c3bd be5e 89bd 8643 1abe fd9c 01be
000002a0: 62ec 13be 48aa cfbb 80ff 34bd 7113 18be
000002b0: 4be3 693e 86af c3bd f647 f03c fbd6 1dbe
000002c0: cfb8 8e3d 14e6 fabc 0c04 093f f97d 473d
000002d0: eac5 66bd 9f0a 0abd ec75 933d 2023 02bd
000002e0: 1161 583e 0b42 4dbc f1ac cdbb 3f75 afbe
000002f0: 7282 f5bc 4365 02be 8f92 dfbd 4638 163d
00000300: 4eb2 87bd 76db 8b3d 0826 14be 4494 dabd
00000310: 53ee 59be c798 f7bd 9645 9fbd 2b37 18bc
00000320: 9c84 f2bc 0e6d 6ebe 16c7 74bd 2c15 5b3d
00000330: 2e05 cdbd 9a3f 25ba 7785 edbd a28e 7fbb
00000340: 99be f03d 1113 853d 3e1d 80be 678b 093e
00000350: 2274 e83b e506 24bd 4032 9c3d 6285 0cbe
00000360: 1434 9e3d 6864 af3d 536e 94bc 2e2d 5cbe
00000370: 44ba 063c b792 1abd 33e7 cabb 220f 3ebe
00000380: 4d6e 0bbc 4df1 bbbd 25e2 8ebd 268c 62be
00000390: 8d3f 0e3e 710c 49be 6db2 273e 9b26 71bd
000003a0: eca2 0e3d c923 0ebe 4683 c6bb 101e c2bc
000003b0: ca57 52be f1bf 7ebd 11d9 67bd fe9d 71be
000003c0: 0486 4cbe 9cdc f4bc ad81 303e 392d 0bbd
000003d0: 11db babd 6357 733c 26da 3cbe 942e c73c
000003e0: a4ae ecbd 91d3 ccbc 85bd 01bd fb5d 49bd
000003f0: 38ce 65be 44e3 753d 5e99 44bd fe2f 4f3d
-0.108280204 0.26711717 -0.05993951 -0.12288121 -0.06693005 -0.07969674 -0.0027279293 -0.06769776
-0.029486751 -0.17102957 -0.037958648 -0.057567894 -0.11504572 -0.21396747 0.02187811 -0.058926556
0.0044555822 -0.14774947 -0.0076336674 -0.16077732 -0.08599741 -0.049753763 -0.3365007 0.063382514
0.11281271 0.059196167 -0.07001986 -0.08897515 -0.041923247 0.14557025 -0.033203635 -0.049329147
-0.15526289 -0.111150384 -0.06455703 -0.14658685 -0.043126665 0.17591152 -0.10128308 0.13787149
0.047896113 -0.005764704 -0.017633066 0.10341418 0.21397135 0.30612102 -0.015584707 -0.11690782
-0.36938936 0.09895044 -0.17715585 -0.15789996 0.00059742335 0.2792333 -0.41496918 0.11959987
-0.111163914 -0.094309 0.10328528 0.17149153 0.16292396 -0.1653165 -0.042611767 0.31257334
-0.12958771 -0.093852475 -0.037821993 -0.07506361 -0.0028322286 0.19209634 0.0852668 0.35456473
-0.028444922 0.024657639 0.047093466 -0.09600351 0.07406596 0.051259104 -0.024192749 -0.1584649
-0.13193122 0.08835549 -0.16868323 -0.09746551 0.05463959 -0.057693448 -0.33736888 -0.03830299
-0.25009865 -0.12223072 0.06721593 -0.047022928 0.10074529 0.011281782 0.012252224 -0.07999958
0.012138078 -0.15966393 -0.020450866 0.047242012 -0.09775617 0.0013596601 0.1675082 0.1409877
0.04570514 0.03449875 -0.014955739 -0.06990017 0.07207153 -0.14334539 -0.039711542 0.18672986
0.0011637904 0.09093789 -0.18320248 -0.10041891 0.007917953 0.018753704 0.03185223 0.05742835
-0.13099393 -0.15040223 -0.20768718 -0.056240804 0.07675278 0.07386316 0.035405815 -0.01444019
-0.1997112 0.08937682 -0.19622709 -0.2128363 0.018344615 -0.024956834 -0.19053893 -0.054601923
0.113334216 -0.042763345 0.10924936 0.035678346 0.007489643 0.21233621 0.03627506 -0.32153788
-0.31267804 -0.09728418 -0.25030935 -0.11026184 0.12651964 -0.116076015 -0.49244535 0.041988473
-0.057170384 0.07752841 0.036242943 0.18127549 -0.11543853 -0.05338373 -0.10134722 -0.05095739
-0.015625965 -0.18335052 -0.15982303 -0.1654457 -0.09530456 -0.06707524 -0.1506482 -0.12657543
-0.14445642 -0.006337438 -0.044188976 -0.14851166 0.22840612 -0.09554963 0.029331189 -0.1541404
0.06968843 -0.030627288 0.535218 0.04870412 -0.05634109 -0.033701535 0.07200226 -0.03177178
0.21130778 -0.012527953 -0.0062767197 -0.3426914 -0.029969428 -0.12733941 -0.10916626 0.03667476
-0.06625806 0.06828968 -0.14467633 -0.10672811 -0.2128232 -0.12089687 -0.07776944 -0.009290497
-0.029604249 -0.23283789 -0.059760176 0.053486988 -0.100107536 -0.0006303728 -0.11597722 -0.0038994928
0.117551036 0.06497777 -0.2502231 0.13432084 0.0070939222 -0.040045638 0.07626772 -0.13722757
0.07724777 0.08564073 -0.018119013 -0.2150161 0.00822312 -0.037737574 -0.006192112 -0.1856046
-0.0085101845 -0.09176884 -0.069767274 -0.22123775 0.1389143 -0.19633652 0.16376658 -0.058874708
0.034823343 -0.13880838 -0.0060581295 -0.023695976 -0.20541301 -0.06219477 -0.056603495 -0.23595425
-0.19972998 -0.029890351 0.17236967 -0.033978675 -0.09123815 0.014852378 -0.18442592 0.024314202
-0.115567476 -0.025003226 -0.03167488 -0.049161892 -0.22441947 0.06003119 -0.047997825 0.05058288

arith.constant9 f4 [64, 3, 3, 64]
00000000: 6be3 bcbe 251b f53d b2b3 50be cf85 2a3f
00000010: 1574 fa3d 1d4b 263f 5be7 203e 8f65 32be
00000020: f83a c0be 4d6a ea3d 5887 4ebe d9b2 72be
00000030: b43c e13e fa40 5fbf 34e1 d93e df0c 8b3e
00000040: 0ca1 b53e a886 f5be ec18 043d 5ed1 2fbe
00000050: 4e8f 54be f6ab 613e 678b b3bb b3bd bdbd
00000060: 9b79 713e 991c 96bd e630 973e 8931 123f
00000070: 92d8 6fbe 4e64 adbe f28e 4c3e ef0b 563e
00000080: dcfd 17bf 69f2 0fbe c3c5 c1be 17b9 cbbd
00000090: 8c17 9cbe 6c2b 9a3e 067d 04bf a592 233e
000000a0: b8b6 503f 132f 45bd 80ca 61be 959b c3be
000000b0: 77db b9be 4577 8dbe 2170 be3e 9b4f 7fbe
000000c0: 5b4e f7bc 81c6 d43c 7b4f 04bf 27bd 103f
000000d0: 5e1f d23c c643 853f 2bef 253e 5291 81bd
000000e0: 9326 f9be f072 02bf 9e05 343e 13f2 4f3e
000000f0: e014 76bf ded0 1a3f 8016 63be 76ca 80be
00000100: 7bbc 29bf 3198 06be 4f92 ddbe 230f 023f
00000110: 55c6 72be 40f1 203e 45f8 ca3d d982 21bf
00000120: e859 09bd df9d b93e 13e4 9fbe 59dc 6bbe
00000130: 8933 74be e986 e2bd cf34 693f 2e81 ab3e
00000140: 260a 0abe 83fd dfbc f474 25be bd99 4fbe
00000150: d265 403e 53ed 333e 162a 12bf 593b bd3e
00000160: 6763 503e 41a9 4a3e 8b16 1fbe 6ee0 843e
00000170: 2589 6cbe 6572 0e3e d3be e53d efbc bb3d
00000180: 5991 43bf 766e 13bf d6b6 493e ad7f 9e3e
00000190: 8d73 a83d c7fe e7bd 51a0 b5be a3b6 ae3e
000001a0: 88ad 4c3f b886 08be 13e0 033f b3ba f5bd
000001b0: 6615 35b9 f8fc 66be 0f04 803e ae81 023d
000001c0: 68a8 e93d 559f 97be d033 cabe 387c b3bd
000001d0: 1a5d 5abd 8278 253f 3b1a 803e 21a5 a8bd
000001e0: 6930 63be 843d 573e 6f76 e8ba 342f e2be
000001f0: aad7 76be a18a 7b3e 91ce 00bd 3b72 ae3d
00000200: 5f08 63bd 0649 e23e dd19 d53d cfe3 c63e
00000210: 1df9 2ebf a1ac f13d 2663 68be d082 8fbe
00000220: 9814 c2be 3873 e33d 9a4f 81be 33a7 17bf
00000230: 0901 4a3b 3220 133e ed6a e53c 8c92 51be
00000240: 84ed a43d 04cc 8cbe 6dc7 d33e d344 5ebe
00000250: d848 bd3e 2a13 a9be e21e 01bf 5590 08be
00000260: 9cec 82bd c39f 803e 7c71 a3be 84df b1bc
00000270: c6b8 aabe 00dc 333e 9655 a6bc 383f 163e
00000280: ed44 99bf 7dff a6bf bb0e 0cbe ac2e 253e
00000290: b38b 50bf ee93 e13e 7122 fe3e 5a34 093f
000002a0: 9152 063f 28a0 4bbb 036a 94be b0d9 483d
000002b0: 1f52 59be e06e 39bf f223 f7be f78b d1bd
000002c0: 833e ab3e b2a1 b03e 5cd3 b1be 5fce 993e
000002d0: 3f59 203f 0512 8e3f 1f14 b9bd 2c93 7fbe
000002e0: 204b 1abd fa25 783f 78c5 c9be 91ca 1cbe
000002f0: 462d 1dbf 32d2 d13e cb11 09bd 0afc 0a3e
00000300: 116c 8f3e 6c54 ed3e e4ec 2ebf dbc7 c03d
00000310: 224e 60be 7add b2be 7bf7 04bf 624f 703e
00000320: 0533 85be 3103 923e 21a8 a13b ed62 633e
00000330: ce08 f5be fb57 db3e e8f5 a43e 630a da3e
00000340: d3bb 27bf e3f6 1e3e 9589 313e a961 463d
00000350: f769 57bf 77ff 24bd c135 943d a51d fcbc
00000360: 33e8 1f3f fe2f be3e 5065 c6be 5365 c03e
00000370: a573 febd e963 803e 79d7 03be c4f6 8cbd
00000380: 6af5 99bf 1c37 bcbe 384d a8be f1aa 6abe
00000390: 85a5 4abd 2948 85be f529 16be e79e 323f
000003a0: df00 c43e 8b83 233f 62c1 1dbd da20 9fbd
000003b0: 5298 f5be e667 953d d126 233f 6c64 863c
000003c0: c95e 85be 7c74 2f3d a343 693a 1438 93be
000003d0: d83a 533f d6d4 2b3e 065e 80be 0d33 f63d
000003e0: aff0 483e 83ea 583e 4e3b 09be 5891 363c
000003f0: 7e81 d2bd 9e7c 143e 71a5 5f3e 6fbb d33d
-0.36892256 0.11968068 -0.20381048 0.66610426 0.12229172 0.64958364 0.15713255 -0.17421554
-0.3754499 0.114460565 -0.20168817 -0.23701037 0.43991625 -0.8720852 0.4255463 0.27158257
0.35474432 -0.47954297 0.03225033 -0.17169711 -0.20757791 0.22038254 -0.0054792645 -0.09264698
0.23581545 -0.07329673 0.29529494 0.57106835 -0.23422459 -0.3386559 0.19976404 0.2090299
-0.59371734 -0.14057316 -0.37846193 -0.099474125 -0.30486715 0.30111253 -0.5175327 0.15973909
0.81528807 -0.048140597 -0.22049904 -0.38204637 -0.3630025 -0.27630058 0.37194923 -0.24932711
-0.03018873 0.02597356 -0.5168378 0.56538624 0.025649723 1.0411308 0.16204517 -0.06326546
-0.48662242 -0.5095663 0.17580268 0.20307188 -0.961256 0.60474956 -0.22176552 -0.25154465
-0.66303223 -0.13143994 -0.43275687 0.50804347 -0.2370847 0.1571703 0.09910635 -0.6309028
-0.033533007 0.3625326 -0.31228694 -0.23033275 -0.23847784 -0.11060888 0.91096205 0.33496994
-0.13480434 -0.027342563 -0.16157895 -0.2027349 0.18788841 0.17571001 -0.5709547 0.3695934
0.20350419 0.19791128 -0.15535943 0.25952476 -0.23099191 0.13910826 0.112180375 0.091668956
-0.7639366 -0.57590425 0.19698653 0.30956784 0.082251646 -0.11327892 -0.35473874 0.34123716
0.7995229 -0.13332641 0.51513785 -0.11998501 -0.00017269477 -0.22557437 0.25003096 0.031861953
0.11409074 -0.29613748 -0.39492655 -0.08763927 -0.053311445 0.64637005 0.25020012 -0.08234621
-0.22186436 0.2101956 -0.0017735491 -0.44176638 -0.24105707 0.24564601 -0.031446997 0.085178815
-0.055427905 0.44196337 0.10405324 0.3884568 -0.68348867 0.118005045 -0.22694072 -0.2802949
-0.37906337 0.111059606 -0.25256044 -0.592395 0.003082337 0.1436775 0.028005088 -0.2046606
0.08053115 -0.27499402 0.41363087 -0.21705942 0.36969638 -0.33022434 -0.5043775 -0.13336308
-0.06392786 0.2512189 -0.3192252 -0.021713026 -0.33344096 0.17564392 -0.020304482 0.14672554
-1.197416 -1.3046719 -0.13677494 0.16131085 -0.81463164 0.44058174 0.49635652 0.5359551
0.52469736 -0.0031070802 -0.2898713 0.049035728 -0.21222733 -0.72434807 -0.48269612 -0.10231774
0.3344613 0.34498364 -0.34731567 0.3004026 0.6263618 1.1099249 -0.09037041 -0.24958485
-0.0376693 0.9693295 -0.3940847 -0.15311648 -0.61397207 0.4098068 -0.033464234 0.13572708
0.28012136 0.4635347 -0.68330216 0.094131194 -0.21904805 -0.34934598 -0.51940125 0.23467782
-0.26015487 0.2851806 0.0049333726 0.22205706 -0.4785828 0.4284056 0.32218862 0.4258605
-0.6552097 0.15523867 0.1733764 0.04843298 -0.84146065 -0.040282693 0.07236815 -0.030775854
0.6246368 0.3714599 -0.3874917 0.37577304 -0.12424401 0.25076225 -0.12875165 -0.06883004
-1.202802 -0.36760795 -0.32871413 -0.22916771 -0.049474258 -0.26031616 -0.14664443 0.69773716
0.38281915 0.63872594 -0.038514502 -0.07769938 -0.47967774 0.07295208 0.63731104 0.016405307
-0.26048878 0.042835698 0.0008898323 -0.28753722 0.82511663 0.16780409 -0.25071734 0.12021456
0.19623064 0.21183209 -0.13401529 0.011143051 -0.10278605 0.14500663 0.21840455 0.103384845

arith.constant10 f4 [64, 3, 3, 32]
00000000: c059 a7bc 2a89 0e3b 4fc3 0abc 0497 1ebd
00000010: 91a2 41bc c1f4 033c 8cd2 47bd 429e 9c3b
00000020: c5e6 5cbc e8ae 023d af3c ac3d aa24 83bd
00000030: 45c4 903c 00dc 3bbd 0de8 983c 2f19 a03c
00000040: 799e f9ba e90d 073b 827e 03bc 449f b63b
00000050: dc34 663b 8a64 25bd 7920 b73c 866a 83ba
00000060: 8a5c 043d 5605 55ba 308b 253b fe06 08bd
00000070: ac5a c2ba 9737 2d3d 7dc4 4c3d 90f4 4abc
00000080: e828 523c 6709 9dbc 40fc 833b ed3e 32bd
00000090: 786f 9cbc 66a3 77bc 615b 48bd fffc 69bd
000000a0: 0381 a6bb 3b25 343d d2ba cd3c 9697 f5bc
000000b0: 2101 963b 44ac 29bd 53a3 673c 8f26 e93c
000000c0: f144 98b8 4eff 543d a434 913c 4321 843d
000000d0: 11d3 e7bb eb7e 45bd 32c8 873d affe 0fbd
000000e0: 5be0 023d 7616 dcbb 6916 abbb 0491 8fbd
000000f0: 0561 833d 6fb4 013c cbc0 e73c 6c4f 9ab9
00000100: ce12 1dbb 49a7 543d 23dc a7bc 2f50 a5bc
00000110: c054 cbbb 2379 63bd 720b 4abd fa13 7ebc
00000120: b130 973c 74ba 16bc 3b94 27bc 09e8 363c
00000130: 7686 a2bc 871b 82bc 365b 8fbb 8672 413d
00000140: d6be e0bc 20fe 463d c232 663c c5c7 6c3d
00000150: 0e13 3b3d a7d7 71bc 7b75 4c3d f230 a8bc
00000160: 4f18 b3bc 88c2 cc3c 967d 72bc 1254 57bd
00000170: 97ce 233d f11c 243c 9d72 8ebc 5c45 093d
00000180: 9fc8 433c f987 f03c 4c2e b93c 75a1 5abd
00000190: 8da2 b23c 9360 aa3a 6fc8 9e3b fb43 693c
000001a0: 68f4 a0bc ad4c cd3c 9036 1b3d c188 60bd
000001b0: 3245 b73c 1c52 abbb 96bd 5c3d 925b 46bb
000001c0: 1ce4 193b 7297 7f3d e73c a43c e0cb 81bb
000001d0: 8a94 03bd b79c 5abc 78a3 6d3c bcaf 163c
000001e0: 4f64 523d d257 e2ba 34fe 803d 8608 84bd
000001f0: 7589 473d 32b7 ef3c 457f d8bb e1fe 143c
00000200: 0855 a13c 7a86 603d c0d3 ef3b be77 6ebd
00000210: 7fec 633d 0859 b1bc 3043 b739 9db1 2a3b
00000220: 5dd8 083c 7e58 603d 9117 173d 346d 22bd
00000230: 5543 673c 8a7a ebba 8cf7 563d d125 933c
00000240: 8e8b 59bc d9d0 963d a0f6 1d3d 4f8c 9abb
00000250: ddd4 17bd d316 393c 0c3f 313d 49ee e6bc
00000260: 1530 aabb 9a71 a3bc d64b 803d fd4d bfbd
00000270: 6e24 ac3d 5fe0 f93c 0b3b de3c bbeb b03c
00000280: d638 263c 32ec a63d b51d 8e3c 35d7 55bd
00000290: d315 673d 113f 6ebb 0aec 85bc 8467 98bc
000002a0: c799 4a3d 2fc0 933c 74c0 bc3c 7043 57bb
000002b0: ab2f a0bc 0c4e 8c3c fa6b d4bb 49ba f63b
000002c0: 2c2e 963b cb14 933d 74af f33a 061d d83b
000002d0: 2d73 13ba 68e2 d83c 38ab 6d3d cfba a3bc
000002e0: 330b 6bbc 8b98 a0b8 54e1 823d 1fa3 29bd
000002f0: 008a 4e3d 0af7 2e3d 0aa2 9c3c b55f b53c
00000300: f68f bfbb 279a 0f3d 9f45 f33c ce69 41bd
00000310: ef54 5f3d 8bdf a2bc e526 b3bb 1886 593c
00000320: 6baa a4bc 5772 1d3c 5132 113c bbd4 febc
00000330: 755b ea3c 1c6b 7ebb ef94 873d 3215 b6bc
00000340: 8b11 3ebd 2213 5b3c 8fcd b93c c04c 6dbb
00000350: f6db d6bc f79c 773c 7487 50bd a2a3 d73c
00000360: f0b8 d0bb 20f9 e13c 7fa1 103d 2d45 9dbc
00000370: 03c4 cb3c 83c3 a539 d8f8 10bb ba53 f43b
00000380: c072 1bbc 73c5 3a3d 35e6 a6bc da07 a4bc
00000390: eeed 003e f0c5 cdbc f1ce 853c fd97 5b3c
000003a0: 5924 ddbb af23 b83b fe1b d53c d4f1 97bc
000003b0: b6a7 a8bb 8f4e c63c e09c 6d3d 601d 61bc
000003c0: 51d6 64bd 92c1 f03c f4e0 143d c05e 0ebd
000003d0: 2e68 05bd 2e46 0b3d dc43 b93a fea5 a43b
000003e0: 7460 b3bc 0b8d 363b 56c6 243d a88c 9abd
000003f0: 6b54 323d 8c9c 353d 15d2 90bb 84ae 2dbc
-0.020428538 0.0021749237 -0.008469417 -0.03871824 -0.011818544 0.008053959 -0.048784778 0.004779608
-0.013482754 0.031905085 0.08410012 -0.064034775 0.017671714 -0.045864105 0.018665338 0.019543258
-0.0019044421 0.0020607656 -0.008025767 0.005573185 0.0035126721 -0.040379085 0.022354351 -0.0010026253
0.032314815 -0.00081261003 0.0025259964 -0.033209793 -0.0014828048 0.042289343 0.049992073 -0.01238741
0.012827136 -0.019169522 0.0040278733 -0.043517042 -0.019096121 -0.015114641 -0.04891527 -0.05712604
-0.0050812974 0.04398082 0.025113497 -0.029979508 0.0045777713 -0.04142405 0.014138061 0.028460769
-7.260766e-05 0.05200129 0.017725296 0.06451657 -0.0070747216 -0.04821674 0.06629981 -0.035154995
0.031952243 -0.0067165447 -0.0052211774 -0.070100814 0.064149894 0.007916554 0.028290173 -0.00029432343
-0.0023967507 0.051917348 -0.020490712 -0.020179836 -0.0062051713 -0.055535447 -0.04932732 -0.0155076925
0.018455835 -0.009199727 -0.010228212 0.01116372 -0.019839507 -0.015882267 -0.004374887 0.04722836
-0.027434748 0.048582196 0.014050188 0.057807703 0.04567247 -0.014760888 0.049916726 -0.020531151
-0.021862177 0.024995103 -0.01480045 -0.05257041 0.03999194 0.010016666 -0.017388636 0.033513412
0.011949687 0.029361712 0.022605084 -0.053376634 0.021806026 0.0012998752 0.004845671 0.014237399
-0.019647792 0.025060976 0.03789383 -0.05481792 0.022371862 -0.005228294 0.05389174 -0.0030266983
0.002348191 0.06240029 0.020048572 -0.0039610714 -0.03212408 -0.013343028 0.014504306 0.009197172
0.051365193 -0.0017268604 0.062984854 -0.06446938 0.048715074 0.029262159 -0.0066069686 0.009093971
0.019693866 0.054815747 0.0073189437 -0.058219664 0.055645462 -0.021648899 0.0003495454 0.0026045807
0.008352366 0.054771893 0.03688771 -0.039654925 0.014115174 -0.0017965597 0.052482173 0.017962368
-0.013277901 0.07364053 0.038565278 -0.004716433 -0.037068237 0.011296946 0.043273017 -0.028189795
-0.00519372 -0.01995163 0.062644646 -0.09341047 0.08405386 0.030502496 0.027127763 0.02159678
0.010145387 0.081505194 0.01734815 -0.05220719 0.056417298 -0.0036353508 -0.016347904 -0.018604048
0.04946306 0.018035976 0.023040988 -0.0032846592 -0.01955398 0.01712706 -0.0064825984 0.007529531
0.004583141 0.071817 0.0018591718 0.0065952567 -0.00056247675 0.026475146 0.058024615 -0.019986538
-0.014345932 -7.657808e-05 0.06390634 -0.04141533 0.050424576 0.042716064 0.019120235 0.022140363
-0.005846019 0.03505912 0.029696284 -0.047220044 0.05452436 -0.019881984 -0.005467283 0.013276599
-0.020100793 0.00960978 0.008862094 -0.031107297 0.028608063 -0.0038821166 0.06620204 -0.022226904
-0.04640345 0.013371261 0.022681026 -0.0036209077 -0.026227932 0.015113107 -0.05091043 0.026323143
-0.0063697025 0.027584612 0.035310265 -0.019198025 0.02487374 0.0003161692 -0.0022120979 0.00745627
-0.009487808 0.04559846 -0.020373443 -0.020023275 0.12590763 -0.025118798 0.016334029 0.013402936
-0.0067487177 0.005619488 0.026014324 -0.01854793 -0.005146946 0.024207382 0.058010936 -0.013739914
-0.05586845 0.029389177 0.036347345 -0.03475833 -0.032570057 0.034002475 0.0014134604 0.0050246706
-0.021896578 0.0027855064 0.04022821 -0.07546359 0.04353754 0.044338748 -0.004419575 -0.01060069

arith.constant11 f4 [32, 1, 1, 16]
00000000: 58f1 92bd 132c 3dbe af78 46bd 45fa 353d
00000010: cc49 f3bc 2e99 293e 826a babd 5b26 a63d
00000020: acf3 6cbb 3785 48bc a12d 5a3c f7c2 3e3e
00000030: 02c8 7d39 7b74 3a3e 6f57 d83d e541 f83d
00000040: 41ae 82bc 0076 c4bd f42f 2b3d 4909 3ebe
00000050: d38e fa3a 12b7 0dbd f9a1 0a3e 65a5 bf3e
00000060: 547a 453d 20fb 67bd c6e7 373d f64d 27be
00000070: e148 463e 3531 8d3d 76f5 d0bd 12ad 18be
00000080: 152e 9fbd 34d2 57bd 1b0c 6d3d d88a 853e
00000090: 7cff 8d3d 05a1 54be 3cfd 48be d18a ef3d
000000a0: 8b26 fe3c deef 233e 98da 0e3d ceaf 23be
000000b0: baf3 f73d 9b85 38be c611 83bd 7931 3bbe
000000c0: ce47 61bc e6c2 1d3c a6ad eabb 0fc7 90bd
000000d0: 575b 8bbc 752b 83bd b71a 593e b96e 6b3e
000000e0: 0f0c 01be 6a59 a9bd 88d9 cc3d 352c 98bd
000000f0: 4166 15bd dc9b 063e c624 3cbd 2052 f73d
00000100: 6ecd ce3c 960e 973d 402a 233c 4613 35bc
00000110: ec15 1abc beec 8fbd b5d4 84bd d4a1 f03d
00000120: 1f69 2fbd 1a0c 853d 28bf b8bd a143 1d3e
00000130: f9fc febd 3170 09be 6faf b5bc da3d 28bd
00000140: 6516 e2bd 8250 463c a80e 813d 5da4 953d
00000150: cfa0 433e 1422 b93c 9eb5 14bd 7521 5c3d
00000160: e29a c23d 3288 523e caed 053d 0e92 053d
00000170: 04c4 79be ce05 423e 28d1 f03d e204 febb
00000180: 8ea7 633b a958 a1bd eca3 bbbd 7451 cdbd
00000190: ef4b 5d3d 5261 42be b0a4 4d39 8ddf 90bb
000001a0: 2349 dd3d b2dc 373e 959a 313b aad2 1cbc
000001b0: ce2e 28be 38bc 0b3e 58b1 fb3d 8142 07bd
000001c0: 34d1 383e d2f9 f4bd ec5f 063d 8931 b13d
000001d0: 00be 723d b954 5cbd b1f5 a5bd 9fc3 3c3d
000001e0: 1ae3 1f3e 293f 8b3e a8a8 09be 8a9b cf3d
000001f0: 8155 83be 9ec2 033e b3d2 f03d 6d88 08bc
00000200: 03ef 75bd 3289 d63d abe0 8a3c e46d 7a3d
00000210: d330 e2bc 420f 093e 33b5 a7bd 3ed7 2c3e
00000220: 346d c2bd 0b26 02be 0db9 53bb dc5e 8cbd
00000230: 8396 003d e0b2 ac3d 3cc9 1b3c b7b8 c43b
00000240: 45a6 213d e910 0bbe 39a0 243e 101e 89bd
00000250: 7a0e fa3d 24f1 9a3d a9b0 843d bb8f 953d
00000260: 6571 51bd dce9 693d 8325 4c3d 7901 153a
00000270: a146 eb3d 8f41 3e3d 5d04 52bd 8315 213d
00000280: 9cbe b93c 90cf a5bd 362a 87bc c289 4fbe
00000290: ac5a aebc 4628 683d 37e5 a8bd f9e9 4fbd
000002a0: 2e93 f23c 607b e83d 17f0 96bd b4f1 f0bc
000002b0: 85d1 06be d613 323e c0b1 18be 755d 203d
000002c0: bd59 e7bd dcb4 97bd 190c 0bbd 399b 2ebe
000002d0: 56e3 3dbe 1b56 303e a0bf e23d f20e fc3b
000002e0: 280d ccbc bbb2 6ebe 9248 b73d cb5b 863e
000002f0: b3b5 f63d 3bb1 eabd 3ffd de3c ffa4 90bd
00000300: d2ca dd3b 1c5b b03e 76ec ce3c 3832 7c3d
00000310: c985 34bd 75f6 9fbd c222 75bc 9412 63bc
00000320: c80a b3bc b9de 3bbe 0d1e 433e 39c8 8fbe
00000330: dcd1 4cbe f12f dabd 6715 fbbd db2f 98bc
00000340: 0c3a 283d 0bae 613e 2393 603d b338 67bd
00000350: e3e1 4abe bc52 12bd 26fc 8f3b 8283 05bd
00000360: aefc aa3e b12d 4f3d 27b0 dc3b 6a8d 3ebd
00000370: 3006 63bd e7a4 503e 1bc8 1d3e af69 e13d
00000380: 719c cebd cece 18be 7332 c0bd 8fc9 bbbc
00000390: 2b1c e43b 4715 aabd cb35 7c3e 43e3 1b3e
000003a0: c4c5 47bd 9d2c 0bbe 3a88 53be 6c6f 8dbe
000003b0: 42d1 723d 7838 02be ca2a 0cbd 7cd9 ea3d
000003c0: 91a7 543d caec 153e d10a a03e dafc bfbd
000003d0: 8e2b f1bd 853a efbc 9cea 753d e6f7 243e
000003e0: e99a 713e a3e8 193d 01b9 653d 331b 8abd
000003f0: 205d 453e ec20 4f3d d777 783c c7fe 91bd
-0.07174939 -0.18473844 -0.048454937 0.04442813 -0.029698275 0.1656234 -0.09102346 0.081127845
-0.0036155982 -0.012238792 0.013316543 0.1862906 0.00024202469 0.18208496 0.10563552 0.121219434
-0.015952231 -0.09592819 0.04179378 -0.1855823 0.0019116051 -0.034598418 0.1353835 0.37430874
0.048212364 -0.056635976 0.04489877 -0.16338333 0.19363739 0.06894151 -0.10203068 -0.14909771
-0.07772461 -0.0526907 0.057872873 0.26082492 0.069334954 -0.20764549 -0.19627851 0.11696399
0.031024238 0.16009471 0.034876436 -0.15985033 0.12107034 -0.18019716 -0.063998744 -0.18280591
-0.01375003 0.009628987 -0.007161814 -0.070692174 -0.017011328 -0.06404773 0.21201597 0.22991456
-0.12602256 -0.082690075 0.10002428 -0.07430307 -0.03647447 0.13145393 -0.045933507 0.12076211
0.02524444 0.07375829 0.009958804 -0.011051958 -0.009404641 -0.07027577 -0.06485883 0.11749616
-0.04282486 0.06496449 -0.09020835 0.1535783 -0.124505945 -0.13421704 -0.02217838 -0.04107461
-0.11039428 0.0121041555 0.063016236 0.073067404 0.19104312 0.022599258 -0.036306016 0.053742845
0.09502198 0.20559767 0.032697476 0.03260999 -0.2439118 0.18947527 0.117586434 -0.007752047
0.0034737322 -0.07878239 -0.09162125 -0.100253016 0.054027494 -0.18982437 0.00019611674 -0.0044211806
0.10804965 0.17955282 0.0027100195 -0.009571711 -0.16424105 0.13646019 0.12289685 -0.033022407
0.18048555 -0.11961712 0.032806322 0.08652026 0.05926323 -0.053791735 -0.081035025 0.046084996
0.15613976 0.27196625 -0.13443244 0.101370886 -0.25651172 0.1286721 0.11758938 -0.008333308
-0.060042392 0.10475387 0.016952833 0.061139956 -0.027611172 0.13384727 -0.08188858 0.16878983
-0.09493485 -0.12709825 -0.0032306344 -0.068540305 0.03139354 0.08432555 0.009508427 0.006003465
0.039465208 -0.1358067 0.16076745 -0.06695187 0.122097924 0.07565525 0.06479008 0.07302805
-0.051133532 0.05710779 0.04984046 0.00056841184 0.11488081 0.04644924 -0.051273692 0.039327156
0.022673897 -0.0809623 -0.01649962 -0.20267394 -0.02128347 0.056679033 -0.08246844 -0.050760243
0.029611196 0.11351657 -0.07370012 -0.029412128 -0.13165863 0.1739038 -0.14911556 0.039151628
-0.11296413 -0.07407543 -0.033947084 -0.170514 -0.18543753 0.17220347 0.11071706 0.0076922113
-0.024908617 -0.23310368 0.089493886 0.26241907 0.12046375 -0.11459585 0.027220367 -0.070627205
0.006768563 0.3444451 0.025259238 0.06157133 -0.0440729 -0.0781068 -0.0149619 -0.01385941
-0.021855727 -0.1834668 0.19054432 -0.28082445 -0.2000193 -0.10653675 -0.122599415 -0.018577507
0.041070983 0.22039048 0.05482782 -0.056450557 -0.19812731 -0.035723433 0.004394072 -0.03259612
0.33395904 0.050580684 0.006734866 -0.04652158 -0.055425823 0.20375405 0.15408365 0.11006486
-0.100884326 -0.1492264 -0.093846224 -0.022923259 0.0069613657 -0.083048396 0.24629895 0.15223412
-0.04877259 -0.13591237 -0.20657435 -0.2762407 0.059281595 -0.12716854 -0.034220494 0.11467263
0.051917616 0.14641109 0.31258252 -0.093743995 -0.117758855 -0.029202709 0.060038194 0.16110191
0.2359425 0.037575375 0.056084637 -0.06743469 0.19273806 0.050568506 0.015165291 -0.07128673

arith.constant12 f4 [32, 3, 3, 32]
00000000: d1a8 ccbd bbe9 8b3d c96a 2a3e 6d90 053e
00000010: 95be d43c b2e5 5dbd de88 cbbd dcab bfbc
00000020: 0edb 6dbc 5a0a 983d a1f8 33be dacb 7b3e
00000030: 5394 afbd 0e20 2fbd 4624 86bd 15fb 4fbd
00000040: 552f 9cbd c416 ab3d 3029 c73d 5854 c4bd
00000050: d0f1 fcbd 7213 c43d 13b5 413e 6227 94bc
00000060: 0ac1 d13d cd30 983b c639 d13c 9b48 cb3c
00000070: 08cb aebd 5d2a 62bc 1082 fa3d 0ab2 ccbc
00000080: 1d03 db3c 1f85 0e3e 0523 42bd 0791 503d
00000090: 7c4c 2fbd 605d a8bd 68a3 92bd da79 08be
000000a0: d4d2 8dbd a0c6 1f3d 5e82 07be 9c22 cd3d
000000b0: 2d11 50be 151b 313d eff9 3dbe 0a60 febd
000000c0: d103 d33b 3b0e 453c b082 873d a09c f8bc
000000d0: 03ce ddbd 4d33 023e 479d c23d b434 bebd
000000e0: a558 643d 3a64 77bd 29bf ec3c 8398 c1bc
000000f0: 881b 08be 76bc 66bd e656 9ebd d761 01bd
00000100: 9e8a 283d 4926 163d 8eb8 5ebe f649 73bd
00000110: 90f3 60bd 0a49 a3bd 60bc d03b 573b 533d
00000120: ce70 a2bd 6876 853d bc83 afbd 7671 07bb
00000130: de63 0ebe ef1b 0f3c fefa 0ebe ee86 713d
00000140: 08d3 e0bb fee3 093e e447 5b3d 1e0b aabd
00000150: 055d 4fbd a8fd d8bd e182 fdbd 7a3b 54bd
00000160: 105b d3bd 5050 97bc fd1d 76bc 7a78 57be
00000170: 241b 39be fcd4 99be f9dd 2ebd 62d2 02be
00000180: 4f9b f6bd 7ca9 933d 8bd5 6c3d 9b56 533d
00000190: a1ac 683c de69 4dbb b7b7 163e 2afa 823d
000001a0: 5bbe 393d a889 323e ea67 1dbe e083 bc3c
000001b0: 0ff4 5cbe f0df 493e f855 0bbe 92e9 93bd
000001c0: 367d 433e 2e9b 95bd dc59 1bbd 7bb4 483e
000001d0: faf5 6ebe db09 4b3d 741b 7c3e b081 d23d
000001e0: ad1a 3a3b 076f 9abc 47b9 96bd 4c33 8d3e
000001f0: 197f 81bd a453 5cbd 63a3 043e 5922 643d
00000200: bf29 ff3d 4e9c 623e d5ed d5bd 58ca 39bd
00000210: 8f7f ca3c c2f8 8f3d 100c 0c3e 3aa4 bcbd
00000220: 6dc4 2fbd 247f f13d 3105 82be 9076 a23c
00000230: 9cb2 88be 9263 d93d 22b8 6dbe 98dc 71bc
00000240: 13ed 843d 2ea0 4a3d e28f 8e3d 629e b93d
00000250: a085 4dbe 5143 e23d 116e f83d e650 d43d
00000260: fbeb be3b 22d3 593d e129 cc3d 4dda c83d
00000270: 8a69 1fbd fd3d b4bd 67d7 303d 89a4 833c
00000280: 8510 0a3e a40f d93d 2e58 88bd c74f 17bd
00000290: d136 893d d0bf 82bd d9eb 9d3d cdbb 753e
000002a0: 094b 4dbd cdd7 47bc c929 aebc 338b 8ebd
000002b0: 6761 0abe 5a31 e23d 4710 ffbc 296c 983d
000002c0: 96f3 6abd 27ae 673e d59d 343c ce8b 2c3d
000002d0: 0e66 19be fae0 c2bd 02de eebd f611 e5bd
000002e0: 4b57 ff3c d503 d73d 4ab5 603c 5ca3 54be
000002f0: af5f d4bd dead f2bd 5525 d439 d54d 86bd
00000300: bbb9 ddbd 67d9 a83d 650a 903d 6176 99b9
00000310: 1ec8 b5bd 43ec 1a3e fbb3 273e 72a3 323e
00000320: 8664 9bbd f4e2 1d3e 4203 3d3b 6ed8 fe3c
00000330: d2ca 8cbe c14f 113e b5d9 9fbd 5fe6 973c
00000340: 2190 ca3e 91eb 0bbe 16c0 7abd 370b 283e
00000350: 8c79 28be 06b1 8d3b c4f5 9b3e fe7a 293e
00000360: 4628 34be ece2 d8bd 2b8f f7bd d030 833e
00000370: 5e49 98bd b22b 30bd 1df0 df3d 8ef2 8abc
00000380: 2e1e 94bd a8d1 d93d 89d8 fbbd c2c8 13bc
00000390: 6ce1 1a3d fc2a b83d 9792 0d3e 0c1a 75bd
000003a0: cf0a 09be 40dd adbd 6138 a2ba ce21 bfbc
000003b0: 6a6b 60be 18ef 923d 8a1e 5f3c e1d7 613d
000003c0: ffed d03d 3530 4f3e 92a8 15bd 87f9 5b3e
000003d0: 5cf5 98bd e542 17bd 3a6c 4d3e 540c 54bd
000003e0: 64f6 3ebe 87b1 603d 7b20 12bd 9aa9 983d
000003f0: 8350 34be ea5f 8dbd e945 16bc 2a9a c3bd
-0.09993137 0.0683169 0.16642298 0.13043375 0.025969783 -0.054174133 -0.09938215 -0.023397379
-0.014517559 0.074238494 -0.17575313 0.24589482 -0.085732125 -0.04275518 -0.06549887 -0.05077656
-0.07626215 0.083539516 0.09724653 -0.095864 -0.123508096 0.095740214 0.1891673 -0.018085185
0.102418974 0.0046444894 0.025540244 0.024814894 -0.08534819 -0.0138040455 0.12231839 -0.02498724
0.026734883 0.13917969 -0.04739668 0.05091956 -0.04279755 -0.08220935 -0.071600735 -0.13327733
-0.06924978 0.039007783 -0.13233325 0.10016367 -0.20319052 0.043238718 -0.18552373 -0.12420662
0.006439664 0.012027319 0.066167235 -0.030348122 -0.10830309 0.12714882 0.095026545 -0.09287396
0.0557486 -0.060398318 0.028899746 -0.023632294 -0.13291752 -0.056332074 -0.07731418 -0.031587448
0.04114782 0.036657605 -0.2175009 -0.059396707 -0.05491978 -0.079729155 0.0063701123 0.051570263
-0.07931672 0.06516725 -0.08570048 -0.0020666993 -0.13905284 0.008734687 -0.13962933 0.05896657
-0.0068610944 0.13465878 0.053535357 -0.08302902 -0.05062582 -0.10595256 -0.12378479 -0.051814534
-0.10320103 -0.018470913 -0.015021798 -0.21042052 -0.1807676 -0.30045307 -0.04269216 -0.12775567
-0.120413415 0.07210061 0.057820838 0.051596265 0.014201314 -0.003134362 0.14718519 0.06395371
0.045347553 0.17435324 -0.15371671 0.023012102 -0.21577476 0.19714332 -0.13607013 -0.072222844
0.19090733 -0.07304989 -0.037927493 0.19600098 -0.2333602 0.049569946 0.24619848 0.10278642
0.0028397248 -0.01885177 -0.073595576 0.275782 -0.0632307 -0.053790703 0.12952952 0.05569682
0.12459134 0.22129938 -0.104457535 -0.045358986 0.024719028 0.07029869 0.13676476 -0.09211011
-0.042911936 0.11791828 -0.25394586 0.019831926 -0.26698768 0.10614695 -0.23214772 -0.014762066
0.06490531 0.049469166 0.06961037 0.09063412 -0.20070505 0.11047996 0.121303685 0.10366993
0.005826471 0.053179868 0.09968925 0.098072626 -0.03891901 -0.08800886 0.043174174 0.016069667
0.13482864 0.10598686 -0.06657444 -0.036941316 0.066999085 -0.063842416 0.07711 0.23997422
-0.050120387 -0.012197447 -0.02126016 -0.06960144 -0.13513719 0.11044569 -0.031135691 0.07442505
-0.057361208 0.22625028 0.011023958 0.042125516 -0.14980337 -0.09515567 -0.116634384 -0.111850664
0.031169554 0.10498778 0.013715098 -0.20765442 -0.10369813 -0.11849569 0.00040463606 -0.06557814
-0.10826441 0.08244591 0.070332326 -0.00029270633 -0.0887606 0.15129189 0.16377251 0.17445162
-0.07587533 0.15418607 0.0028841053 0.031109061 -0.2749849 0.1419058 -0.07805196 0.018542467
0.39563087 -0.1366408 -0.061218344 0.16410528 -0.16452616 0.0043240814 0.30460942 0.16550824
-0.17593488 -0.10590157 -0.12087854 0.25623178 -0.07435869 -0.04301042 0.1093447 -0.016961362
-0.07232319 0.10635692 -0.1229716 -0.009020032 0.037812635 0.089925736 0.13825451 -0.059839293
-0.1338303 -0.08489466 -0.0012376421 -0.023331549 -0.21915975 0.0717451 0.013618121 0.05513752
0.10201644 0.20233233 -0.036537714 0.21481906 -0.074686736 -0.03692903 0.20060816 -0.05176957
-0.18648678 0.054856803 -0.035675507 0.07454224 -0.17608838 -0.0690306 -0.009171941 -0.09550889

arith.constant13 f4 [32, 3, 3, 16]
00000000: 380d 803d fb9d c2bd f649 c93d e194 30bc
00000010: 45a2 58bd bf32 afbd 5ee2 debb 5f67 4fbc
00000020: 5479 973d a3aa 1a3e 4a9b e0bd 3435 b33d
00000030: df95 fcbd bcdb c7bd 99c5 16be 41cf 063d
00000040: 2df3 02be 503f 37be d606 d83d 231a e9bd
00000050: 04a1 2cbe 569f 33be 079d 88bd 760b cb3d
00000060: 28fb 71bd 4bd4 873d ad10 0a3d 695c 913d
00000070: 9d33 4cbd ffc0 2bbe 55e2 89bc 5c63 f1bb
00000080: fc83 04be 89db 5a3d 3e20 c7bc ffb6 8abd
00000090: 0f47 23be 5c0e dabd d426 44be be88 083e
000000a0: d061 fc3c 1f2c 8d3c 0c41 563d a161 803d
000000b0: 8ce0 ebbd 1a4e c0bd e432 5aba 03a7 353d
000000c0: dde2 ae3d c649 10be 5fcb 663e 5ee7 ad3d
000000d0: b1e0 183d c801 153e a5cb 603d 7889 97bc
000000e0: b4d7 a13d 4062 12be 5d16 6cbd 2790 1f3d
000000f0: e7b9 3cbd d178 b13b b2f8 69be b483 c9bd
00000100: 3638 f7bd 620f 2fbe 868e 7e3d 15a3 b0bc
00000110: 04d1 cbbd b04a c03d 63b8 923d 93fc f53b
00000120: 36db 02be 60b0 48be d2ed ae3b dd00 88bd
00000130: 3cb9 f93d 1a5f d83c 2f45 8abd 034a ddbd
00000140: 1d0d c1bd 0547 b23b 17e0 e4bd fc80 55bd
00000150: 2d83 a5bd d984 bb3c eaf8 393d 6f7e 3fbd
00000160: 34b5 89bd bdfe 6cbe fcf3 073e 4044 1bbd
00000170: fccf 0c3e 1a43 c43d a108 753d 51e1 11be
00000180: b323 d13d 00fa c0bb ab3a 383e 4b1a f53b
00000190: 87c0 103e 7fbd 233e e796 ff3d e9d4 1d3d
000001a0: f7c5 133e 52ae dfbd 4b68 d13c 2a2d a03d
000001b0: c3fe 76bd ce7e a4b9 f86b 40be 6a23 35bc
000001c0: b95e 683c b8de a8bd 8159 5b3c a5b8 1bbc
000001d0: 76b3 4a3d f5cd 013e 2820 233e 6e34 d4bd
000001e0: 9452 afbd b0f9 61be a7a7 973c a583 0cbd
000001f0: 9a7c e93d 3620 3a3c 4a02 debd 5db8 94bd
00000200: 5e4b b6bd 0542 62bd 3c2e fdbd 9e2e 3e3d
00000210: 6af0 c73d af1b cc3d 7341 3d3e 2bb2 e2bd
00000220: 15e0 b6bd 33c8 7cbe 88ff 123e 4634 a6bd
00000230: 922d 5f3e d75f 233e abdb 5ebd 08b8 2cbd
00000240: 0326 3a3e 1599 08be eb6f f73d 8328 b93d
00000250: 52a0 0abe fbd5 983d 5369 df3c fd80 95bd
00000260: 667b 69be a7f1 ba3d 4e4f 4a3d 0332 a03d
00000270: 1997 923c e39f 1f3e e568 383d b934 c93c
00000280: feab 96bd b1da ffbc b380 5dba f06a 993d
00000290: 2117 5bbd af57 c23d 57a2 9e3d 7f09 a23c
000002a0: c3f1 69bd 1f07 7f3d 9502 313e eaeb 033d
000002b0: 5b6f a6bc 68f0 e83d 8156 083d f50b b63d
000002c0: 86e3 f4bd 16fd 01be 8c62 a4bd 632c b13c
000002d0: 5f2e bf3d ddd0 94bc 36a2 923c 3813 0b3e
000002e0: 9622 af3c d153 793c 3a79 a33d dd26 c5bd
000002f0: 43f8 ecbd da65 be3c 01d8 d7bd f4b7 c73c
00000300: 335c 78bd 0575 623d 38d7 d8bc b479 37bc
00000310: dfc6 d3bc 6e24 8b3e e9d8 1b3d e80d 89bd
00000320: 8ff6 43be 2b73 84bd 2dbf 923e 1229 9cbd
00000330: 4e8b 2fbd c91f d93d 40a7 0f3e 6f4d ed3d
00000340: c98f 34be b85e 293d 7b3a 76be 9e71 c8bd
00000350: bf24 1f3d 2cbb 1e3d 299d d7bc 26a6 983d
00000360: 2796 af3c f79f d5bd 32b5 b13d e137 eabd
00000370: 59c6 07be d7a8 8d3d 12fd 743c af34 c5bc
00000380: 30ce 4fbd a899 d3bd 2efc 56be 2283 b8bd
00000390: 4860 b23d 2679 ecbd 50c5 6ebd ecdc 063e
000003a0: 47e4 0f3d a7ae 30be 6c13 72bd 3f60 89bb
000003b0: 5905 1dbe ba2a 12bd 5dfb 99bd e233 b8bd
000003c0: e1ec 27be 0639 fa3d d5f3 48be 4b36 453c
000003d0: 3c6b c03c e00b f83c 2c0e 6ebd e878 723d
000003e0: ed14 e6bc dcbd 19be 9861 b43d a9dd e2bd
000003f0: dfb8 433c 4e5f cf3d 2e94 0c3e 6578 133e
0.06252521 -0.09502789 0.0982856 -0.010777683 -0.052889127 -0.08554601 -0.0068018874 -0.012658923
0.073961884 0.15104155 -0.10967119 0.08750382 -0.12333273 -0.09758708 -0.14723815 0.032912496
-0.12788077 -0.17895246 0.10548179 -0.11381938 -0.16858298 -0.1754125 -0.066705756 0.099142954
-0.059077412 0.066322885 0.03370731 0.07097704 -0.04985391 -0.16772841 -0.016831556 -0.007366581
-0.12940973 0.05343202 -0.024307366 -0.06773185 -0.15945075 -0.1064727 -0.19155437 0.13333413
0.03080836 0.017232953 0.052308127 0.06268621 -0.11517438 -0.09389897 -0.00083236233 0.044348728
0.085393645 -0.14090642 0.22538517 0.084913954 0.037323657 0.1455146 0.05488171 -0.018498167
0.0790247 -0.14295292 -0.057638515 0.038955834 -0.046075728 0.0054160138 -0.22848776 -0.098395735
-0.12071268 -0.17095712 0.06214764 -0.021562139 -0.09951976 0.093892455 0.07164075 0.007506916
-0.12778935 -0.19598532 0.005338409 -0.0664079 0.12193534 0.026412535 -0.06751477 -0.10805132
-0.09426329 0.005440595 -0.11175554 -0.052124962 -0.080816604 0.022890495 0.0454034 -0.046751436
-0.06724015 -0.2314405 0.13276666 -0.037906885 0.13751215 0.09583111 0.059822682 -0.14246108
0.10211887 -0.0058891773 0.1799113 0.007479941 0.14135943 0.15990256 0.12479954 0.038533125
0.14430986 -0.10921921 0.025562426 0.07821114 -0.060301553 -0.00031374994 -0.18791187 -0.011055807
0.01418274 -0.08245605 0.013388039 -0.009504472 0.049487554 0.12676223 0.15930235 -0.10361563
-0.085606724 -0.22067904 0.01851256 -0.034305234 0.11400719 0.011360219 -0.1084028 -0.07261727
-0.08901094 -0.055238742 -0.12362334 0.046431176 0.09762652 0.09966218 0.18481998 -0.11069139
-0.08929459 -0.24685745 0.1435529 -0.08115439 0.21794727 0.15954529 -0.05440871 -0.042167693
0.18178563 -0.13339646 0.120818935 0.0904093 -0.1353772 0.074626885 0.027271902 -0.07299993
-0.22800979 0.09128123 0.049392037 0.07822039 0.017894315 0.15588336 0.04502191 0.024561273
-0.07357024 -0.03123221 -0.00084496586 0.074911 -0.053488854 0.094893806 0.077458076 0.019779919
-0.057115328 0.06226265 0.17286141 0.032207407 -0.02031677 0.11373979 0.03328562 0.088889994
-0.11957459 -0.12694201 -0.08026609 0.02162761 0.093350165 -0.018166 0.017899614 0.1358155
0.021378797 0.015217737 0.079821065 -0.09626553 -0.1157079 0.023241926 -0.10539246 0.024379708
-0.060634803 0.05528738 -0.026469812 -0.01119845 -0.025851665 0.2717623 0.03804866 -0.066921055
-0.19137023 -0.06467279 0.2866148 -0.07625021 -0.04285746 0.10601766 0.14028645 0.11587035
-0.17632975 0.041350096 -0.24045746 -0.09787296 0.038853403 0.03875272 -0.026320057 0.07453565
0.021433903 -0.104309015 0.086771384 -0.11436439 -0.13259257 0.06916969 0.014952915 -0.024072973
-0.050733745 -0.10332042 -0.20994636 -0.090093866 0.087097704 -0.11546545 -0.05829364 0.13170213
0.03512981 -0.17254125 -0.059100553 -0.0041923816 -0.15334071 -0.03568528 -0.07518647 -0.08994271
-0.16398956 0.122179076 -0.19624265 0.01203687 0.023488633 0.0302791 -0.058118984 0.059197336
-0.02808615 -0.15013832 0.08807677 -0.110774346 0.011945932 0.101256 0.13728401 0.14401396
