benchmark/training/image_classification/trained_models/trainedRes_quant.tflite (tflite, 96024 bytes, 10 tensors)

tfl.pseudo_qconst1 i1 [10, 64]
00000000: b34b d738 b2d8 06df aec9 fb04 8cb2 bec6
00000010: 8147 fbea eb0f b133 b725 9972 b8de b9eb
00000020: c2be 131a 4aea 2bd4 c74a 2fd2 c8bc 43c5
00000030: 22f9 4906 bb08 5413 0858 3eb1 dd21 f424
00000040: cd1c 51ae 5e04 ea05 050e 8a51 e9f3 bde7
00000050: 02eb da81 7efd ffc9 31fa 0bb7 c90d dd4b
00000060: a641 2704 eb18 e411 c2c9 08e9 309b 1be8
00000070: 27dd e21d dc08 0fff 14f0 bd55 cb0b ec31
00000080: 7fcc 9c0a c3cd 18ce 21ae 20c4 e241 c9c9
00000090: 0028 da44 04be cc59 0a37 11de 1cc6 e3c4
000000a0: fe65 23a9 c422 1dfc bcd3 f7fa c3fc c92e
000000b0: 1f60 f0e7 dfc8 ca49 e651 012a 1cfd 1d34
000000c0: e100 d705 dbe4 e7b3 b9e8 ede2 e5e2 29fc
000000d0: e6f3 1bff e33c 7ffe 3d11 13dd 7117 13d5
000000e0: 18f8 ad1a ead4 ed8a 026b 081c 2818 211c
000000f0: 26ff d8be fbec fca4 05be e8f0 14bc c335
-77 75 -41 56 -78 -40 6 -33
-82 -55 -5 4 -116 -78 -66 -58
-127 71 -5 -22 -21 15 -79 51
-73 37 -103 114 -72 -34 -71 -21
-62 -66 19 26 74 -22 43 -44
-57 74 47 -46 -56 -68 67 -59
34 -7 73 6 -69 8 84 19
8 88 62 -79 -35 33 -12 36
-51 28 81 -82 94 4 -22 5
5 14 -118 81 -23 -13 -67 -25
2 -21 -38 -127 126 -3 -1 -55
49 -6 11 -73 -55 13 -35 75
-90 65 39 4 -21 24 -28 17
-62 -55 8 -23 48 -101 27 -24
39 -35 -30 29 -36 8 15 -1
20 -16 -67 85 -53 11 -20 49
127 -52 -100 10 -61 -51 24 -50
33 -82 32 -60 -30 65 -55 -55
0 40 -38 68 4 -66 -52 89
10 55 17 -34 28 -58 -29 -60
-2 101 35 -87 -60 34 29 -4
-68 -45 -9 -6 -61 -4 -55 46
31 96 -16 -25 -33 -56 -54 73
-26 81 1 42 28 -3 29 52
-31 0 -41 5 -37 -28 -25 -77
-71 -24 -19 -30 -27 -30 41 -4
-26 -13 27 -1 -29 60 127 -2
61 17 19 -35 113 23 19 -43
24 -8 -83 26 -22 -44 -19 -118
2 107 8 28 40 24 33 28
38 -1 -40 -66 -5 -20 -4 -92
5 -66 -24 -16 20 -68 -61 53

tfl.pseudo_qconst3 i1 [64, 1, 1, 32]
00000000: d765 e9d2 e7e2 ffe6 f5bf f2ea d5af 08ea
00000010: 02c8 fdc3 e0ed 8118 2b16 e6de f037 f3ed
00000020: d0de ecd3 f336 e12a 0ffe fb20 415e fbdc
00000030: 8f1e cad0 0055 8125 dee3 2034 32cd f360
00000040: d2de f2e5 ff45 1f7f f609 11de 1b12 f7c7
00000050: d120 c4dd 14eb 87f2 a6d4 18ef 2404 04e3
00000060: 079e f31d c401 6656 1c15 f7d5 2ca8 e872
00000070: 0138 90c3 050b 1323 b0a4 81de 2f2d 16f7
00000080: cc17 cdc9 05fa cff2 1df5 1c09 0237 09ad
00000090: afe7 bfe4 21e2 810b f114 092f e2f2 e6f3
000000a0: fcd4 dad9 e9f0 dce2 defe f6dd 36e9 07db
000000b0: 11f9 7f0c f3f8 11f8 32fd ffaf f9e2 e609
000000c0: de23 b7ca 94c3 d9fb f18a e21b cd00 c5fe
000000d0: 3c21 8144 04ec 27ba 272b f793 04ed fda2
000000e0: fbcf da89 4b96 58e0 13b5 fdf3 91df e281
000000f0: 94f0 5dee cf08 9d0d c2f3 efe6 8720 e61b
-41 101 -23 -46 -25 -30 -1 -26
-11 -65 -14 -22 -43 -81 8 -22
2 -56 -3 -61 -32 -19 -127 24
43 22 -26 -34 -16 55 -13 -19
-48 -34 -20 -45 -13 54 -31 42
15 -2 -5 32 65 94 -5 -36
-113 30 -54 -48 0 85 -127 37
-34 -29 32 52 50 -51 -13 96
-46 -34 -14 -27 -1 69 31 127
-10 9 17 -34 27 18 -9 -57
-47 32 -60 -35 20 -21 -121 -14
-90 -44 24 -17 36 4 4 -29
7 -98 -13 29 -60 1 102 86
28 21 -9 -43 44 -88 -24 114
1 56 -112 -61 5 11 19 35
-80 -92 -127 -34 47 45 22 -9
-52 23 -51 -55 5 -6 -49 -14
29 -11 28 9 2 55 9 -83
-81 -25 -65 -28 33 -30 -127 11
-15 20 9 47 -30 -14 -26 -13
-4 -44 -38 -39 -23 -16 -36 -30
-34 -2 -10 -35 54 -23 7 -37
17 -7 127 12 -13 -8 17 -8
50 -3 -1 -81 -7 -30 -26 9
-34 35 -73 -54 -108 -61 -39 -5
-15 -118 -30 27 -51 0 -59 -2
60 33 -127 68 4 -20 39 -70
39 43 -9 -109 4 -19 -3 -94
-5 -49 -38 -119 75 -106 88 -32
19 -75 -3 -13 -111 -33 -30 -127
-108 -16 93 -18 -49 8 -99 13
-62 -13 -17 -26 -121 32 -26 27

tfl.pseudo_qconst5 i1 [64, 3, 3, 64]
00000000: dc0c ec41 0c3f 0fef db0b ece9 2bab 291a
00000010: 23d1 03ef ec15 fff7 17f9 1d38 e9df 1314
00000020: c6f2 dbf6 e21d ce10 4ffb ebdb dde5 24e8
00000030: fd03 ce37 0265 10fa d1ce 1114 a23b eae8
00000040: bff3 d631 e90f 0ac3 fd23 e2ea e9f5 5921
00000050: f3fd f0ec 1211 c824 1413 f119 ea0e 0b09
00000060: b6c8 131e 08f5 dd21 4ef3 32f4 00ea 1803
00000070: 0be3 daf7 fb3f 18f8 ea14 00d5 e918 fd08
00000080: fb2b 0a26 bd0b eae5 db0b e7c6 000e 03ec
00000090: 08e5 28eb 24e0 cff3 fa18 e1fe e011 fe0e
000000a0: 8b81 f310 b12b 3034 3300 e405 ebb9 d1f6
000000b0: 2122 de1d 3d6c f7e8 fc5e daf1 c428 fd0d
000000c0: 1b2d bd09 ebde cd17 e71c 0016 d12a 1f29
000000d0: c00f 1105 aefc 07fd 3d24 da25 f418 f3f9
000000e0: 8bdc e0ea fbe7 f244 253e fcf8 d107 3e02
000000f0: e704 00e4 5010 e80c 1315 f301 f60e 150a
-36 12 -20 65 12 63 15 -17
-37 11 -20 -23 43 -85 41 26
35 -47 3 -17 -20 21 -1 -9
23 -7 29 56 -23 -33 19 20
-58 -14 -37 -10 -30 29 -50 16
79 -5 -21 -37 -35 -27 36 -24
-3 3 -50 55 2 101 16 -6
-47 -50 17 20 -94 59 -22 -24
-65 -13 -42 49 -23 15 10 -61
-3 35 -30 -22 -23 -11 89 33
-13 -3 -16 -20 18 17 -56 36
20 19 -15 25 -22 14 11 9
-74 -56 19 30 8 -11 -35 33
78 -13 50 -12 0 -22 24 3
11 -29 -38 -9 -5 63 24 -8
-22 20 0 -43 -23 24 -3 8
-5 43 10 38 -67 11 -22 -27
-37 11 -25 -58 0 14 3 -20
8 -27 40 -21 36 -32 -49 -13
-6 24 -31 -2 -32 17 -2 14
-117 -127 -13 16 -79 43 48 52
51 0 -28 5 -21 -71 -47 -10
33 34 -34 29 61 108 -9 -24
-4 94 -38 -15 -60 40 -3 13
27 45 -67 9 -21 -34 -51 23
-25 28 0 22 -47 42 31 41
-64 15 17 5 -82 -4 7 -3
61 36 -38 37 -12 24 -13 -7
-117 -36 -32 -22 -5 -25 -14 68
37 62 -4 -8 -47 7 62 2
-25 4 0 -28 80 16 -24 12
19 21 -13 1 -10 14 21 10

tfl.pseudo_qconst7 i1 [64, 3, 3, 32]
00000000: eb02 f7d9 f408 cf05 f220 55bf 12d2 1314
00000010: fe02 f806 04d7 17ff 21ff 03df ff2b 32f4
00000020: 0ded 04d4 edf1 cfc6 fb2c 19e2 05d6 0e1d
00000030: 0034 1241 f9cf 43dd 20f9 fbb9 4108 1d00
00000040: fe34 ebec fac8 cef0 13f7 f60b ecf0 fc30
00000050: e431 0e3a 2ef1 32eb ea19 f1cb 280a ee22
00000060: 0c1e 17ca 1601 050e ec19 26c9 17fb 36fd
00000070: 023f 14fc e0f3 0f09 34fe 40bf 311e f909
00000080: 1437 07c5 38ea 0003 0837 25d8 0efe 3512
00000090: f34a 27fb db0b 2ce4 fbec 3fa2 551f 1b16
000000a0: 0a52 11cb 39fc f0ed 3212 17fd ec11 f908
000000b0: 0548 0207 ff1b 3bec f200 40d6 332b 1316
000000c0: fa23 1ed0 37ec fa0d ec0a 09e1 1dfc 43ea
000000d0: d10d 17fc e60f cd1b fa1c 24ed 1900 fe08
000000e0: f62e ebec 7fe7 100e f906 1aed fb18 3bf2
000000f0: c81e 25dd df22 0105 ea03 29b4 2c2d fcf5
-21 2 -9 -39 -12 8 -49 5
-14 32 85 -65 18 -46 19 20
-2 2 -8 6 4 -41 23 -1
33 -1 3 -33 -1 43 50 -12
13 -19 4 -44 -19 -15 -49 -58
-5 44 25 -30 5 -42 14 29
0 52 18 65 -7 -49 67 -35
32 -7 -5 -71 65 8 29 0
-2 52 -21 -20 -6 -56 -50 -16
19 -9 -10 11 -20 -16 -4 48
-28 49 14 58 46 -15 50 -21
-22 25 -15 -53 40 10 -18 34
12 30 23 -54 22 1 5 14
-20 25 38 -55 23 -5 54 -3
2 63 20 -4 -32 -13 15 9
52 -2 64 -65 49 30 -7 9
20 55 7 -59 56 -22 0 3
8 55 37 -40 14 -2 53 18
-13 74 39 -5 -37 11 44 -28
-5 -20 63 -94 85 31 27 22
10 82 17 -53 57 -4 -16 -19
50 18 23 -3 -20 17 -7 8
5 72 2 7 -1 27 59 -20
-14 0 64 -42 51 43 19 22
-6 35 30 -48 55 -20 -6 13
-20 10 9 -31 29 -4 67 -22
-47 13 23 -4 -26 15 -51 27
-6 28 36 -19 25 0 -2 8
-10 46 -21 -20 127 -25 16 14
-7 6 26 -19 -5 24 59 -14
-56 30 37 -35 -33 34 1 5
-22 3 41 -76 44 45 -4 -11

tfl.pseudo_qconst9 i1 [32, 1, 1, 16]
00000000: cf82 df1e ec71 c237 fef8 097f 007c 4853
00000010: fbdf 0ec1 01f4 2e7f 10ed 0fc9 4217 ddcd
00000020: dae6 1c7f 229b a039 0f4e 11b2 3ba8 e1a7
00000030: f805 fcd9 f7dd 757f bad2 37d7 ec49 e743
00000040: 153d 08f7 f8c6 ca61 dd36 b57f 9991 eede
00000050: c706 2126 630c ed1c 316b 1111 8163 3dfc
00000060: 02cb c3bd 2481 00fd 4878 02fa 925b 52ea
00000070: 54c8 0f28 1ce7 da16 497f c12f 883c 37fc
00000080: d34f 0d2e eb65 c27f b9a0 fecc 183f 0705
00000090: 1f95 7fcb 603c 333a d82d 2700 5b25 d71f
000000a0: 0ecd f681 f324 cce0 1347 d2ee ad6d a319
000000b0: c9dc f0ad a653 3604 f48f 2b7f 3ac9 0dde
000000c0: 027f 0917 f0e3 fafb f8bc 4698 b6d9 d3f9
000000d0: 1054 15eb b5f2 02f4 7f13 03ee eb4d 3b2a
000000e0: d2bb d5f5 03da 7146 eac2 a181 1bc6 f035
000000f0: 153b 7fda d0f4 1841 600f 17e5 4e15 06e3
-49 -126 -33 30 -20 113 -62 55
-2 -8 9 127 0 124 72 83
-5 -33 14 -63 1 -12 46 127
16 -19 15 -55 66 23 -35 -51
-38 -26 28 127 34 -101 -96 57
15 78 17 -78 59 -88 -31 -89
-8 5 -4 -39 -9 -35 117 127
-70 -46 55 -41 -20 73 -25 67
21 61 8 -9 -8 -58 -54 97
-35 54 -75 127 -103 -111 -18 -34
-57 6 33 38 99 12 -19 28
49 107 17 17 -127 99 61 -4
2 -53 -61 -67 36 -127 0 -3
72 120 2 -6 -110 91 82 -22
84 -56 15 40 28 -25 -38 22
73 127 -63 47 -120 60 55 -4
-45 79 13 46 -21 101 -62 127
-71 -96 -2 -52 24 63 7 5
31 -107 127 -53 96 60 51 58
-40 45 39 0 91 37 -41 31
14 -51 -10 -127 -13 36 -52 -32
19 71 -46 -18 -83 109 -93 25
-55 -36 -16 -83 -90 83 54 4
-12 -113 43 127 58 -55 13 -34
2 127 9 23 -16 -29 -6 -5
-8 -68 70 -104 -74 -39 -45 -7
16 84 21 -21 -75 -14 2 -12
127 19 3 -18 -21 77 59 42
-46 -69 -43 -11 3 -38 113 70
-22 -62 -95 -127 27 -58 -16 53
21 59 127 -38 -48 -12 24 65
96 15 23 -27 78 21 6 -29

tfl.pseudo_qconst11 i1 [32, 3, 3, 32]
00000000: e016 352a 08ef e0f8 fb18 c84f e4f2 ebf0
00000010: e81b 1fe1 d81f 3dfa 2101 0808 e5fc 27f8
00000020: 092d f110 f2e6 e9d5 ea0d d620 bf0e c4d8
00000030: 0204 15f6 dd29 1fe2 12ed 09f8 d5ee e7f6
00000040: 0d0c baed eee6 0211 e715 e4ff d303 d313
00000050: fe2b 11e5 f0de d8ef dffa fbbc c6a0 f2d7
00000060: d917 1311 05ff 2f15 0f38 cf07 bb3f d4e9
00000070: 3de9 f43f b510 4f21 01fa e859 ecef 2a12
00000080: 2847 def1 0817 2ce2 f226 ae06 aa22 b5fb
00000090: 1510 161d c023 2721 0211 201f f4e4 0e05
000000a0: 2b22 ebf4 16ec 194d f0fc f9ea d523 f618
000000b0: ee49 040e d0e1 dbdc 0a22 04bd dfda 00eb
000000c0: dd1a 1700 e431 3538 e831 010a a82e e706
000000d0: 7fd4 ec35 cb01 6235 c8de d952 e8f2 23fb
000000e0: e922 d9fd 0c1d 2ced d5e5 00f9 ba17 0412
000000f0: 2141 f445 e8f4 40ef c412 f518 c7ea fde1
-32 22 53 42 8 -17 -32 -8
-5 24 -56 79 -28 -14 -21 -16
-24 27 31 -31 -40 31 61 -6
33 1 8 8 -27 -4 39 -8
9 45 -15 16 -14 -26 -23 -43
-22 13 -42 32 -65 14 -60 -40
2 4 21 -10 -35 41 31 -30
18 -19 9 -8 -43 -18 -25 -10
13 12 -70 -19 -18 -26 2 17
-25 21 -28 -1 -45 3 -45 19
-2 43 17 -27 -16 -34 -40 -17
-33 -6 -5 -68 -58 -96 -14 -41
-39 23 19 17 5 -1 47 21
15 56 -49 7 -69 63 -44 -23
61 -23 -12 63 -75 16 79 33
1 -6 -24 89 -20 -17 42 18
40 71 -34 -15 8 23 44 -30
-14 38 -82 6 -86 34 -75 -5
21 16 22 29 -64 35 39 33
2 17 32 31 -12 -28 14 5
43 34 -21 -12 22 -20 25 77
-16 -4 -7 -22 -43 35 -10 24
-18 73 4 14 -48 -31 -37 -36
10 34 4 -67 -33 -38 0 -21
-35 26 23 0 -28 49 53 56
-24 49 1 10 -88 46 -25 6
127 -44 -20 53 -53 1 98 53
-56 -34 -39 82 -24 -14 35 -5
-23 34 -39 -3 12 29 44 -19
-43 -27 0 -7 -70 23 4 18
33 65 -12 69 -24 -12 64 -17
-60 18 -11 24 -57 -22 -3 -31

tfl.pseudo_qconst13 i1 [32, 3, 3, 16]
00000000: 20cf 33fa e5d4 fdf9 264e c82d c1ce b411
00000010: bea4 36c5 a9a6 de33 e222 1125 e6aa f7fc
00000020: bd1b f3dd aec9 9d45 1009 1b20 c5d0 0017
00000030: 2cb8 742c 134b 1cf6 29b6 e214 e803 8acd
00000040: c2a8 20f5 cd30 2504 be9b 03de 3f0e ddc8
00000050: d003 c7e5 d60c 17e8 dd89 44ec 4731 1fb7
00000060: 35fd 5d04 4952 4014 4ac8 0d28 e100 9ffa
00000070: 07d6 07fb 1941 52cb d48e 0aee 3b06 c8db
00000080: d2e4 c018 3233 5fc7 d281 4ad6 7052 e4ea
00000090: 51c5 3628 c421 0ce0 9b28 1623 0845 140b
000000a0: dff2 0021 e82a 2209 e71c 4d0e f732 0f27
000000b0: cbc8 dc0a 29f8 083c 0907 23d5 cd0a d10b
000000c0: e518 f4fb f578 11e2 abe3 7fde ed2f 3e33
000000d0: b212 95d5 1111 f421 09d2 26cd c51f 07f5
000000e0: ead2 a3d8 27cd e63a 10b4 e6fe bcf0 dfd8
000000f0: b736 a905 0a0d e61a f4bd 27cf 052d 3d40
32 -49 51 -6 -27 -44 -3 -7
38 78 -56 45 -63 -50 -76 17
-66 -92 54 -59 -87 -90 -34 51
-30 34 17 37 -26 -86 -9 -4
-67 27 -13 -35 -82 -55 -99 69
16 9 27 32 -59 -48 0 23
44 -72 116 44 19 75 28 -10
41 -74 -30 20 -24 3 -118 -51
-62 -88 32 -11 -51 48 37 4
-66 -101 3 -34 63 14 -35 -56
-48 3 -57 -27 -42 12 23 -24
-35 -119 68 -20 71 49 31 -73
53 -3 93 4 73 82 64 20
74 -56 13 40 -31 0 -97 -6
7 -42 7 -5 25 65 82 -53
-44 -114 10 -18 59 6 -56 -37
-46 -28 -64 24 50 51 95 -57
-46 -127 74 -42 112 82 -28 -22
81 -59 54 40 -60 33 12 -32
-101 40 22 35 8 69 20 11
-33 -14 0 33 -24 42 34 9
-25 28 77 14 -9 50 15 39
-53 -56 -36 10 41 -8 8 60
9 7 35 -43 -51 10 -47 11
-27 24 -12 -5 -11 120 17 -30
-85 -29 127 -34 -19 47 62 51
-78 18 -107 -43 17 17 -12 33
9 -46 38 -51 -59 31 7 -11
-22 -46 -93 -40 39 -51 -26 58
16 -76 -26 -2 -68 -16 -33 -40
-73 54 -87 5 10 13 -26 26
-12 -67 39 -49 5 45 61 64

tfl.pseudo_qconst15 i1 [16, 3, 3, 16]
00000000: e5eb 0611 42fa 0c18 28f3 22c4 3322 1618
00000010: dff8 0f23 3ae9 2f52 190c f5dd 08fd e820
00000020: d43b d615 47e9 0efd 3b5b dfdd 16d7 e11d
00000030: 0cc7 fcf1 7325 fe12 06b7 62f2 1ff5 4507
00000040: ebbf bee3 7f2f 3146 36f6 4015 aeb3 3c2b
00000050: d72b bed0 0ad7 1629 3d45 f7f1 be9a 3906
00000060: 0ed3 57f2 6522 e829 d1b9 51df 2c15 efe6
00000070: edd6 d29e 6f34 3ef6 1df7 59e1 f7ef 020a
00000080: fe07 01d4 e5fb 2917 3d21 04d9 c5af 100e
00000090: f201 3cec f5fd f505 27fb 13e2 2639 160c
000000a0: 2522 0f18 53c4 d510 0139 f1c3 5c53 00e5
000000b0: 2203 2f35 4cfd e117 1445 29f2 4110 12e3
000000c0: e8db 46a1 cb05 13ef 401c dfd3 dd16 e813
000000d0: 0bd7 7fd0 c3f5 3d31 2962 cafa ec03 1dd3
000000e0: 4ad4 6112 deea 240f 0561 1035 d0aa 0300
000000f0: ec19 5fa4 d5e9 f5cd ef20 14ec fe2d f6dc
-27 -21 6 17 66 -6 12 24
40 -13 34 -60 51 34 22 24
-33 -8 15 35 58 -23 47 82
25 12 -11 -35 8 -3 -24 32
-44 59 -42 21 71 -23 14 -3
59 91 -33 -35 22 -41 -31 29
12 -57 -4 -15 115 37 -2 18
6 -73 98 -14 31 -11 69 7
-21 -65 -66 -29 127 47 49 70
54 -10 64 21 -82 -77 60 43
-41 43 -66 -48 10 -41 22 41
61 69 -9 -15 -66 -102 57 6
14 -45 87 -14 101 34 -24 41
-47 -71 81 -33 44 21 -17 -26
-19 -42 -46 -98 111 52 62 -10
29 -9 89 -31 -9 -17 2 10
-2 7 1 -44 -27 -5 41 23
61 33 4 -39 -59 -81 16 14
-14 1 60 -20 -11 -3 -11 5
39 -5 19 -30 38 57 22 12
37 34 15 24 83 -60 -43 16
1 57 -15 -61 92 83 0 -27
34 3 47 53 76 -3 -31 23
20 69 41 -14 65 16 18 -29
-24 -37 70 -95 -53 5 19 -17
64 28 -33 -45 -35 22 -24 19
11 -41 127 -48 -61 -11 61 49
41 98 -54 -6 -20 3 29 -45
74 -44 97 18 -34 -22 36 15
5 97 16 53 -48 -86 3 0
-20 25 95 -92 -43 -23 -11 -51
-17 32 20 -20 -2 45 -10 -36

tfl.pseudo_qconst17 i1 [16, 3, 3, 16]
00000000: f4b8 e7d3 e91d e2d7 e708 e20e 0b32 fe6c
00000010: fe10 f425 0d01 0033 d8ef 02f7 022c fbb2
00000020: 1547 edf9 ed19 f0f9 15e7 10fb 1202 02e5
00000030: ff56 1b26 0ad1 2757 b10f e7ff f121 0fc2
00000040: 1432 15de 0f22 17c6 f8fd 1510 f1ac e9de
00000050: 0a85 faf0 00d1 f410 2609 0918 f7e6 ed7f
00000060: 141e fffb 19e2 1eeb fefc ebff 0406 ec18
00000070: faaa fb15 0304 f9f1 12d9 0cf4 0410 ef1c
00000080: dc33 e40a e10a 070e 23f5 05e3 0306 0abb
00000090: 21e0 f7dc a99a 9dde 10ea 02eb 2200 489e
000000a0: 049d 0fab 81ae 8222 e505 e7f5 40b5 e7cd
000000b0: 0d8b 0edb a300 ea2b cd38 bf0e 0fb7 dd3b
000000c0: 1cf5 1dbb 336e 1426 240f 231a f94b 3c19
000000d0: fb13 edae 2731 14ab 5c48 180b e946 340f
000000e0: 2846 e82e 35cb 2ead 0f2f 0f1b f70d 29c2
000000f0: ef03 125d 1634 f1f4 fc0a 3c28 3527 e73b
-12 -72 -25 -45 -23 29 -30 -41
-25 8 -30 14 11 50 -2 108
-2 16 -12 37 13 1 0 51
-40 -17 2 -9 2 44 -5 -78
21 71 -19 -7 -19 25 -16 -7
21 -25 16 -5 18 2 2 -27
-1 86 27 38 10 -47 39 87
-79 15 -25 -1 -15 33 15 -62
20 50 21 -34 15 34 23 -58
-8 -3 21 16 -15 -84 -23 -34
10 -123 -6 -16 0 -47 -12 16
38 9 9 24 -9 -26 -19 127
20 30 -1 -5 25 -30 30 -21
-2 -4 -21 -1 4 6 -20 24
-6 -86 -5 21 3 4 -7 -15
18 -39 12 -12 4 16 -17 28
-36 51 -28 10 -31 10 7 14
35 -11 5 -29 3 6 10 -69
33 -32 -9 -36 -87 -102 -99 -34
16 -22 2 -21 34 0 72 -98
4 -99 15 -85 -127 -82 -126 34
-27 5 -25 -11 64 -75 -25 -51
13 -117 14 -37 -93 0 -22 43
-51 56 -65 14 15 -73 -35 59
28 -11 29 -69 51 110 20 38
36 15 35 26 -7 75 60 25
-5 19 -19 -82 39 49 20 -85
92 72 24 11 -23 70 52 15
40 70 -24 46 53 -53 46 -83
15 47 15 27 -9 13 41 -62
-17 3 18 93 22 52 -15 -12
-4 10 60 40 53 39 -25 59

tfl.pseudo_qconst19 i1 [16, 3, 3, 3]
00000000: bc2d faef 2744 81ee 2f0f cef2 6174 51ce
00000010: de3a 142c b52c d4df e212 e97f ed04 fdbc
00000020: d7f4 44d0 d5a8 8a55 ef5d f02a 120a 1815
00000030: f0f3 3bad fc34 8e0a fdbc ddf7 9d2f 5e71
00000040: e541 5da7 e73c e44e 2bb4 d37f 8c59 55b8
00000050: a669 4e16 f3e5 8e07 be81 1139 5ca0 f838
00000060: 00e3 0bf1 d319 f313 1314 ea22 cb0a dc1e
00000070: ecf4 eee6 f3cb a1ac bfd3 8143 0e85 da58
00000080: 63fd 251f 2e71 3cf9 1712 4310 ec7f 4118
00000090: ecdc 03ff be24 b8a1 f1f1 1fff f734 d3bd
000000a0: 17f7 2aea 0fb2 2f25 3a43 580b cc8f 81cd
000000b0: bd43 1821 fa22 06f9 c905 1412 0735 b410
000000c0: fe81 2019 0e34 2c4b 4a81 c3eb ec62 caf6
000000d0: f9cd f372 0824 f8c3 0b32 e704 53fa dbd2
000000e0: 3215 1481 ba70 13e3 d034 e71f 01b7 2bdd
000000f0: 18f1 032c 0600 76dc eb40 d231 7f2e 0f1a
-68 45 -6 -17 39 68 -127 -18
47 15 -50 -14 97 116 81 -50
-34 58 20 44 -75 44 -44 -33
-30 18 -23 127 -19 4 -3 -68
-41 -12 68 -48 -43 -88 -118 85
-17 93 -16 42 18 10 24 21
-16 -13 59 -83 -4 52 -114 10
-3 -68 -35 -9 -99 47 94 113
-27 65 93 -89 -25 60 -28 78
43 -76 -45 127 -116 89 85 -72
-90 105 78 22 -13 -27 -114 7
-66 -127 17 57 92 -96 -8 56
0 -29 11 -15 -45 25 -13 19
19 20 -22 34 -53 10 -36 30
-20 -12 -18 -26 -13 -53 -95 -84
-65 -45 -127 67 14 -123 -38 88
99 -3 37 31 46 113 60 -7
23 18 67 16 -20 127 65 24
-20 -36 3 -1 -66 36 -72 -95
-15 -15 31 -1 -9 52 -45 -67
23 -9 42 -22 15 -78 47 37
58 67 88 11 -52 -113 -127 -51
-67 67 24 33 -6 34 6 -7
-55 5 20 18 7 53 -76 16
-2 -127 32 25 14 52 44 75
74 -127 -61 -21 -20 98 -54 -10
-7 -51 -13 114 8 36 -8 -61
11 50 -25 4 83 -6 -37 -46
50 21 20 -127 -70 112 19 -29
-48 52 -25 31 1 -73 43 -35
24 -15 3 44 6 0 118 -36
-21 64 -46 49 127 46 15 26
