v0.1/reference_submissions/person_detection/vww_96_int8.tflite (tflite, 334416 bytes, 28 tensors)

sequential/mobilenet_0.25_96/conv1/Conv2D i1 [8, 3, 3, 1]
0	0xf8	-8
1	0xea	-22
2	0xd5	-43
3	0x33	51
4	0x2e	46
5	0x5b	91
6	0x7f	127
7	0x12	18
8	0x25	37
9	0x97	-105
10	0xd5	-43
11	0x81	-127
12	0x08	8
13	0xd8	-40
14	0x89	-119
15	0x75	117
16	0x14	20
17	0x24	36
18	0xb6	-74
19	0xc7	-57
20	0xf9	-7
21	0xdb	-37
22	0x18	24
23	0xfc	-4
24	0x7f	127
25	0x77	119
26	0xdf	-33
27	0xee	-18
28	0x7f	127
29	0x73	115
30	0x23	35
31	0x1b	27
32	0x09	9
33	0xe4	-28
34	0xec	-20
35	0xf7	-9
36	0xb9	-71
37	0x5c	92
38	0x02	2
39	0x5a	90
40	0x7f	127
41	0x3c	60
42	0x08	8
43	0xf4	-12
44	0x09	9
45	0x66	102
46	0x81	-127
47	0x03	3
48	0x7e	126
49	0x86	-122
50	0xea	-22
51	0xdc	-36
52	0x28	40
53	0xe0	-32
54	0x16	22
55	0x10	16
56	0xd2	-46
57	0xd0	-48
58	0x87	-121
59	0x01	1
60	0xb4	-76
61	0x81	-127
62	0x43	67
63	0x7f	127
64	0x22	34
65	0x0b	11
66	0x68	104
67	0xe5	-27
68	0x9a	-102
69	0xed	-19
70	0xee	-18
71	0x94	-108

sequential/mobilenet_0.25_96/conv_pw_1/Conv2D i1 [16, 1, 1, 8]
0	0x59	89
1	0x4f	79
2	0xa3	-93
3	0x40	64
4	0x12	18
5	0xaa	-86
6	0xb7	-73
7	0x7f	127
8	0xc6	-58
9	0x58	88
10	0xf6	-10
11	0xae	-82
12	0xad	-83
13	0x7f	127
14	0x8e	-114
15	0x83	-125
16	0x7f	127
17	0x0d	13
18	0xa1	-95
19	0x60	96
20	0x52	82
21	0x12	18
22	0xfd	-3
23	0x1a	26
24	0x7b	123
25	0xfb	-5
26	0x1a	26
27	0x04	4
28	0xc1	-63
29	0x4d	77
30	0xe7	-25
31	0x7f	127
32	0x7c	124
33	0x95	-107
34	0x77	119
35	0xd7	-41
36	0xb6	-74
37	0x81	-127
38	0xb6	-74
39	0x65	101
40	0x81	-127
41	0x65	101
42	0xab	-85
43	0xb0	-80
44	0x4d	77
45	0xc3	-61
46	0x98	-104
47	0x0e	14
48	0x9f	-97
49	0x9c	-100
50	0xb3	-77
51	0x9b	-101
52	0xc2	-62
53	0x2d	45
54	0x97	-105
55	0x7f	127
56	0xa2	-94
57	0x28	40
58	0x2b	43
59	0x81	-127
60	0x1a	26
61	0xf8	-8
62	0x54	84
63	0xe9	-23
64	0xd5	-43
65	0xff	-1
66	0xe5	-27
67	0xdd	-35
68	0xf6	-10
69	0x7f	127
70	0x10	16
71	0x03	3
72	0x2f	47
73	0x5a	90
74	0x30	48
75	0x24	36
76	0xc9	-55
77	0xe9	-23
78	0x4a	74
79	0x81	-127
80	0x0c	12
81	0x83	-125
82	0x7f	127
83	0xbb	-69
84	0x8a	-118
85	0x9d	-99
86	0x7c	124
87	0x94	-108
88	0xcf	-49
89	0x66	102
90	0x70	112
91	0xc9	-55
92	0x81	-127
93	0xa1	-95
94	0x98	-104
95	0xf9	-7
96	0x16	22
97	0x35	53
98	0xdf	-33
99	0xfb	-5
100	0x5d	93
101	0x05	5
102	0x7f	127
103	0x3f	63
104	0x24	36
105	0x21	33
106	0x62	98
107	0x48	72
108	0x29	41
109	0x7f	127
110	0xec	-20
111	0xbc	-68
112	0x35	53
113	0x7f	127
114	0x4b	75
115	0xd8	-40
116	0x95	-107
117	0x0c	12
118	0x38	56
119	0xb6	-74
120	0xce	-50
121	0xe1	-31
122	0xd1	-47
123	0x0b	11
124	0xf0	-16
125	0xfa	-6
126	0x34	52
127	0x7f	127

sequential/mobilenet_0.25_96/conv_pw_2/Conv2D i1 [32, 1, 1, 16]
0	0xeb	-21
1	0x17	23
2	0xd5	-43
3	0x7f	127
4	0xd7	-41
5	0x09	9
6	0x04	4
7	0x13	19
8	0x04	4
9	0x76	118
10	0x12	18
11	0xfd	-3
12	0xf5	-11
13	0x01	1
14	0x01	1
15	0xa5	-91
16	0x3d	61
17	0x57	87
18	0xbd	-67
19	0x0c	12
20	0x7b	123
21	0xdc	-36
22	0x21	33
23	0xf2	-14
24	0x8c	-116
25	0x0f	15
26	0x44	68
27	0x94	-108
28	0x7f	127
29	0x42	66
30	0xc5	-59
31	0xac	-84
32	0x14	20
33	0xc5	-59
34	0x29	41
35	0xdc	-36
36	0xf4	-12
37	0x43	67
38	0xef	-17
39	0x7f	127
40	0x31	49
41	0xf9	-7
42	0xa0	-96
43	0x16	22
44	0xfb	-5
45	0x0e	14
46	0x07	7
47	0xb4	-76
48	0xe3	-29
49	0xb3	-77
50	0xb2	-78
51	0x24	36
52	0xe0	-32
53	0xd3	-45
54	0x2f	47
55	0x2d	45
56	0x81	-127
57	0x22	34
58	0x8c	-116
59	0xf0	-16
60	0x35	53
61	0x41	65
62	0x39	57
63	0xd6	-42
64	0x64	100
65	0xcd	-51
66	0x08	8
67	0xcb	-53
68	0x33	51
69	0x41	65
70	0x4f	79
71	0x20	32
72	0xec	-20
73	0x7f	127
74	0xe6	-26
75	0xa5	-91
76	0x17	23
77	0x04	4
78	0xe2	-30
79	0xd4	-44
80	0x7f	127
81	0x4b	75
82	0xe7	-25
83	0xea	-22
84	0xf0	-16
85	0xf8	-8
86	0x17	23
87	0xd2	-46
88	0xee	-18
89	0x0e	14
90	0x0d	13
91	0x57	87
92	0x49	73
93	0xee	-18
94	0xe0	-32
95	0xe2	-30
96	0x81	-127
97	0xa5	-91
98	0x5e	94
99	0x62	98
100	0x8f	-113
101	0x42	66
102	0xee	-18
103	0x0d	13
104	0xda	-38
105	0xb9	-71
106	0xe8	-24
107	0x2b	43
108	0xef	-17
109	0x57	87
110	0x0b	11
111	0x14	20
112	0x4b	75
113	0x1a	26
114	0xb7	-73
115	0x45	69
116	0x31	49
117	0x05	5
118	0x13	19
119	0x18	24
120	0xda	-38
121	0x1b	27
122	0x0e	14
123	0x21	33
124	0x81	-127
125	0xa3	-93
126	0x1b	27
127	0x3c	60
128	0xdf	-33
129	0x2d	45
130	0xc2	-62
131	0x62	98
132	0x49	73
133	0xf2	-14
134	0xb2	-78
135	0xb8	-72
136	0xfa	-6
137	0x7f	127
138	0x16	22
139	0xf1	-15
140	0xd9	-39
141	0x24	36
142	0xae	-82
143	0xe1	-31
144	0x0f	15
145	0x16	22
146	0x99	-103
147	0xf3	-13
148	0x35	53
149	0x81	-127
150	0x92	-110
151	0xdf	-33
152	0x92	-110
153	0x40	64
154	0xf3	-13
155	0xec	-20
156	0x44	68
157	0x8f	-113
158	0xa3	-93
159	0x42	66
160	0xf4	-12
161	0xf4	-12
162	0xf6	-10
163	0xd6	-42
164	0xab	-85
165	0x0b	11
166	0xd7	-41
167	0x56	86
168	0x08	8
169	0x91	-111
170	0xf7	-9
171	0x10	16
172	0x7d	125
173	0xe0	-32
174	0x7f	127
175	0xd7	-41
176	0x7f	127
177	0xf8	-8
178	0xf4	-12
179	0x13	19
180	0x3f	63
181	0x17	23
182	0xd1	-47
183	0xe8	-24
184	0x33	51
185	0xd0	-48
186	0xf0	-16
187	0x5d	93
188	0xfb	-5
189	0xd0	-48
190	0xf6	-10
191	0xc9	-55
192	0x17	23
193	0xed	-19
194	0x85	-123
195	0x5e	94
196	0x30	48
197	0xc8	-56
198	0x8e	-114
199	0xb7	-73
200	0xba	-70
201	0xc7	-57
202	0x81	-127
203	0x9e	-98
204	0xdc	-36
205	0x16	22
206	0x3a	58
207	0x26	38
208	0x18	24
209	0x1d	29
210	0xf1	-15
211	0x6f	111
212	0x58	88
213	0x9f	-97
214	0x39	57
215	0x7f	127
216	0x52	82
217	0x31	49
218	0x24	36
219	0x42	66
220	0x24	36
221	0x38	56
222	0x4e	78
223	0xaa	-86
224	0xee	-18
225	0xf9	-7
226	0x7f	127
227	0x10	16
228	0x0d	13
229	0xdf	-33
230	0x11	17
231	0x15	21
232	0xe9	-23
233	0xef	-17
234	0x01	1
235	0xed	-19
236	0x34	52
237	0xfc	-4
238	0xf2	-14
239	0xbd	-67
240	0xf8	-8
241	0xfa	-6
242	0x1a	26
243	0xc6	-58
244	0xff	-1
245	0xcd	-51
246	0xf0	-16
247	0xde	-34
248	0x0f	15
249	0x17	23
250	0xaf	-81
251	0x21	33
252	0x1e	30
253	0x03	3
254	0xbd	-67
255	0x81	-127

sequential/mobilenet_0.25_96/conv_pw_3/Conv2D i1 [32, 1, 1, 32]
0	0xad	-83
1	0xce	-50
2	0x73	115
3	0x1f	31
4	0x0e	14
5	0x2d	45
6	0x3b	59
7	0x61	97
8	0xbd	-67
9	0x14	20
10	0x7f	127
11	0x9b	-101
12	0xa5	-91
13	0x58	88
14	0x00	0
15	0x06	6
16	0x15	21
17	0x5c	92
18	0xf1	-15
19	0x21	33
20	0x16	22
21	0xe8	-24
22	0xbe	-66
23	0xdf	-33
24	0x05	5
25	0xdb	-37
26	0xeb	-21
27	0x2f	47
28	0xf2	-14
29	0xc5	-59
30	0xbd	-67
31	0xbd	-67
32	0x17	23
33	0x06	6
34	0x07	7
35	0xab	-85
36	0xad	-83
37	0xcb	-53
38	0x0c	12
39	0x3c	60
40	0xbb	-69
41	0xec	-20
42	0x0f	15
43	0x05	5
44	0xbe	-66
45	0x00	0
46	0x12	18
47	0x12	18
48	0x78	120
49	0xf3	-13
50	0x2d	45
51	0xc2	-62
52	0x00	0
53	0xb4	-76
54	0xf6	-10
55	0x0c	12
56	0x04	4
57	0x59	89
58	0xf7	-9
59	0x0e	14
60	0xda	-38
61	0x99	-103
62	0x7f	127
63	0x39	57
64	0xc7	-57
65	0x31	49
66	0x09	9
67	0x41	65
68	0x3a	58
69	0x29	41
70	0x0e	14
71	0xae	-82
72	0xc7	-57
73	0xc7	-57
74	0xe7	-25
75	0x34	52
76	0x05	5
77	0xc5	-59
78	0x4f	79
79	0x15	21
80	0x03	3
81	0x81	-127
82	0x21	33
83	0x30	48
84	0x6f	111
85	0xeb	-21
86	0xe3	-29
87	0x42	66
88	0xc4	-60
89	0x1c	28
90	0xee	-18
91	0x72	114
92	0x61	97
93	0x1d	29
94	0x15	21
95	0x07	7
96	0xe8	-24
97	0x1a	26
98	0xe7	-25
99	0x01	1
100	0xa0	-96
101	0xff	-1
102	0x03	3
103	0x13	19
104	0xce	-50
105	0x0a	10
106	0x2d	45
107	0x14	20
108	0xef	-17
109	0x16	22
110	0xc3	-61
111	0x1d	29
112	0x04	4
113	0xf4	-12
114	0x16	22
115	0x14	20
116	0xf7	-9
117	0xe7	-25
118	0xb5	-75
119	0x21	33
120	0x42	66
121	0xd6	-42
122	0x81	-127
123	0xd4	-44
124	0xe4	-28
125	0x44	68
126	0x14	20
127	0x4d	77
128	0x24	36
129	0xdc	-36
130	0x48	72
131	0xf8	-8
132	0x09	9
133	0x2c	44
134	0xeb	-21
135	0x12	18
136	0x0a	10
137	0x45	69
138	0x07	7
139	0x24	36
140	0x3a	58
141	0x02	2
142	0xc7	-57
143	0xbd	-67
144	0x18	24
145	0xd7	-41
146	0xb4	-76
147	0x02	2
148	0x12	18
149	0x13	19
150	0x3e	62
151	0x12	18
152	0x1a	26
153	0xf2	-14
154	0xf5	-11
155	0xe7	-25
156	0xd7	-41
157	0x5f	95
158	0xc1	-63
159	0x7f	127
160	0xef	-17
161	0xd9	-39
162	0xe8	-24
163	0x9e	-98
164	0x38	56
165	0x64	100
166	0x14	20
167	0x39	57
168	0xfc	-4
169	0xaa	-86
170	0xb6	-74
171	0x81	-127
172	0x0f	15
173	0x1c	28
174	0xc8	-56
175	0x26	38
176	0xe8	-24
177	0x64	100
178	0xd5	-43
179	0xcf	-49
180	0xaa	-86
181	0x26	38
182	0xfe	-2
183	0xe1	-31
184	0xe8	-24
185	0x1f	31
186	0xef	-17
187	0xe0	-32
188	0xeb	-21
189	0x4d	77
190	0xf9	-7
191	0xea	-22
192	0xae	-82
193	0x04	4
194	0xf3	-13
195	0x31	49
196	0x07	7
197	0x7f	127
198	0x04	4
199	0xfd	-3
200	0xf6	-10
201	0x1c	28
202	0x0f	15
203	0x12	18
204	0xb9	-71
205	0x10	16
206	0xcb	-53
207	0x0d	13
208	0xc6	-58
209	0x3c	60
210	0x28	40
211	0x0a	10
212	0x14	20
213	0xd2	-46
214	0xfa	-6
215	0xff	-1
216	0xf3	-13
217	0x02	2
218	0xff	-1
219	0xca	-54
220	0x1b	27
221	0xd2	-46
222	0xf1	-15
223	0xff	-1
224	0x07	7
225	0x7f	127
226	0xe6	-26
227	0x04	4
228	0x61	97
229	0x69	105
230	0xd6	-42
231	0x3c	60
232	0x69	105
233	0x7a	122
234	0xe7	-25
235	0xda	-38
236	0x03	3
237	0xe0	-32
238	0xd0	-48
239	0x62	98
240	0x62	98
241	0x47	71
242	0x58	88
243	0x32	50
244	0x0d	13
245	0x08	8
246	0x07	7
247	0x28	40
248	0xe2	-30
249	0xb7	-73
250	0xb1	-79
251	0xcf	-49
252	0xad	-83
253	0xf9	-7
254	0x14	20
255	0xf8	-8

sequential/mobilenet_0.25_96/conv_pw_4/Conv2D i1 [64, 1, 1, 32]
0	0x30	48
1	0x05	5
2	0xcd	-51
3	0x1f	31
4	0xef	-17
5	0xda	-38
6	0xa8	-88
7	0xc6	-58
8	0xf2	-14
9	0x0a	10
10	0xee	-18
11	0x08	8
12	0x1c	28
13	0xd3	-45
14	0x35	53
15	0x09	9
16	0xf8	-8
17	0xd2	-46
18	0x33	51
19	0xf3	-13
20	0xeb	-21
21	0xf4	-12
22	0xbc	-68
23	0x2a	42
24	0x18	24
25	0x30	48
26	0x14	20
27	0x24	36
28	0x7f	127
29	0x0f	15
30	0xf1	-15
31	0xf8	-8
32	0xfb	-5
33	0x18	24
34	0xd4	-44
35	0x4b	75
36	0xb2	-78
37	0xdb	-37
38	0x24	36
39	0xec	-20
40	0x0c	12
41	0xfa	-6
42	0xe0	-32
43	0x5b	91
44	0x2c	44
45	0xe6	-26
46	0x39	57
47	0xd8	-40
48	0xde	-34
49	0x12	18
50	0xbc	-68
51	0xcc	-52
52	0x05	5
53	0x12	18
54	0xe6	-26
55	0x02	2
56	0x16	22
57	0xf7	-9
58	0xf0	-16
59	0xf2	-14
60	0xd6	-42
61	0xe6	-26
62	0xdd	-35
63	0x81	-127
64	0xa5	-91
65	0x2b	43
66	0xcc	-52
67	0xe7	-25
68	0xe6	-26
69	0xef	-17
70	0x35	53
71	0xdb	-37
72	0x0c	12
73	0x28	40
74	0xc8	-56
75	0xe6	-26
76	0xd6	-42
77	0x2a	42
78	0xdc	-36
79	0xe1	-31
80	0x22	34
81	0x00	0
82	0xfd	-3
83	0x00	0
84	0xdd	-35
85	0xf6	-10
86	0x11	17
87	0xa0	-96
88	0x11	17
89	0xb7	-73
90	0x81	-127
91	0xde	-34
92	0xf5	-11
93	0xee	-18
94	0x15	21
95	0xde	-34
96	0x16	22
97	0x27	39
98	0xb9	-71
99	0x21	33
100	0xf2	-14
101	0x52	82
102	0xeb	-21
103	0xe3	-29
104	0x2f	47
105	0xe2	-30
106	0x7f	127
107	0xed	-19
108	0xe7	-25
109	0xee	-18
110	0x5f	95
111	0xaf	-81
112	0x0f	15
113	0x17	23
114	0xe8	-24
115	0xf7	-9
116	0x19	25
117	0xf4	-12
118	0xad	-83
119	0xc5	-59
120	0xcb	-53
121	0x10	16
122	0x0a	10
123	0xea	-22
124	0x37	55
125	0xe4	-28
126	0x14	20
127	0xdf	-33
128	0x30	48
129	0x0a	10
130	0x09	9
131	0x44	68
132	0xc0	-64
133	0x7f	127
134	0x51	81
135	0x20	32
136	0xe6	-26
137	0xd7	-41
138	0xf2	-14
139	0xd4	-44
140	0xc9	-55
141	0x18	24
142	0x35	53
143	0x53	83
144	0x9f	-97
145	0xc0	-64
146	0x0d	13
147	0x2f	47
148	0x8f	-113
149	0x48	72
150	0xf0	-16
151	0xd8	-40
152	0x0a	10
153	0xce	-50
154	0xf3	-13
155	0x1f	31
156	0x13	19
157	0x01	1
158	0xef	-17
159	0x17	23
160	0xec	-20
161	0x61	97
162	0xde	-34
163	0x02	2
164	0x82	-126
165	0xe8	-24
166	0xe3	-29
167	0x7f	127
168	0x18	24
169	0xb2	-78
170	0x9a	-102
171	0x19	25
172	0x0c	12
173	0x16	22
174	0xe3	-29
175	0x4d	77
176	0xf9	-7
177	0x13	19
178	0xb3	-77
179	0x0b	11
180	0xba	-70
181	0xea	-22
182	0x24	36
183	0xa7	-89
184	0x5d	93
185	0x15	21
186	0x1d	29
187	0xe0	-32
188	0x1a	26
189	0xe7	-25
190	0xd8	-40
191	0x1c	28
192	0xde	-34
193	0x20	32
194	0x81	-127
195	0xba	-70
196	0xc7	-57
197	0xd2	-46
198	0x9b	-101
199	0x38	56
200	0xde	-34
201	0x90	-112
202	0xed	-19
203	0x29	41
204	0x61	97
205	0x29	41
206	0x74	116
207	0x96	-106
208	0x9f	-97
209	0xf5	-11
210	0x11	17
211	0x34	52
212	0x29	41
213	0x39	57
214	0x39	57
215	0x22	34
216	0x0c	12
217	0x55	85
218	0x78	120
219	0xe7	-25
220	0xec	-20
221	0xfc	-4
222	0xfe	-2
223	0xd2	-46
224	0xf0	-16
225	0x03	3
226	0xb1	-79
227	0xdb	-37
228	0xd0	-48
229	0x04	4
230	0xd9	-39
231	0x4f	79
232	0xdd	-35
233	0xc8	-56
234	0x81	-127
235	0x0a	10
236	0x4c	76
237	0xcf	-49
238	0x0f	15
239	0x47	71
240	0xf8	-8
241	0xa7	-89
242	0x2d	45
243	0x06	6
244	0x5e	94
245	0x37	55
246	0x22	34
247	0x02	2
248	0x1b	27
249	0x0f	15
250	0x0b	11
251	0xf0	-16
252	0x53	83
253	0xf0	-16
254	0x2b	43
255	0xfd	-3

sequential/mobilenet_0.25_96/conv_pw_5/Conv2D i1 [64, 1, 1, 64]
0	0x7f	127
1	0xce	-50
2	0x39	57
3	0xde	-34
4	0xca	-54
5	0xc2	-62
6	0xb7	-73
7	0x14	20
8	0xe7	-25
9	0xdb	-37
10	0xfb	-5
11	0xfe	-2
12	0x27	39
13	0xc5	-59
14	0x66	102
15	0x10	16
16	0x2d	45
17	0xbd	-67
18	0xbc	-68
19	0xfe	-2
20	0x24	36
21	0x1d	29
22	0x26	38
23	0x9b	-101
24	0x91	-111
25	0x2c	44
26	0x0f	15
27	0x0e	14
28	0xb4	-76
29	0x07	7
30	0xb1	-79
31	0xec	-20
32	0xc4	-60
33	0xa9	-87
34	0x29	41
35	0xee	-18
36	0x0d	13
37	0x08	8
38	0x6e	110
39	0x45	69
40	0xf6	-10
41	0xd8	-40
42	0xf2	-14
43	0x14	20
44	0xe5	-27
45	0x16	22
46	0x8a	-118
47	0x05	5
48	0xc0	-64
49	0xde	-34
50	0x1b	27
51	0xd3	-45
52	0xfc	-4
53	0xfb	-5
54	0x1a	26
55	0xbb	-69
56	0xfa	-6
57	0xa8	-88
58	0x59	89
59	0xc5	-59
60	0x0a	10
61	0xef	-17
62	0x11	17
63	0xf4	-12
64	0xdd	-35
65	0x2f	47
66	0xfd	-3
67	0xad	-83
68	0x00	0
69	0x03	3
70	0x17	23
71	0x0c	12
72	0xf6	-10
73	0x04	4
74	0xd1	-47
75	0x45	69
76	0xdc	-36
77	0x15	21
78	0xce	-50
79	0x81	-127
80	0xaf	-81
81	0xbc	-68
82	0xcf	-49
83	0x3c	60
84	0x40	64
85	0x02	2
86	0x12	18
87	0x37	55
88	0x65	101
89	0xc1	-63
90	0xd4	-44
91	0xe2	-30
92	0xdd	-35
93	0xec	-20
94	0x21	33
95	0xa8	-88
96	0xc6	-58
97	0xf5	-11
98	0xdb	-37
99	0xec	-20
100	0x03	3
101	0xcb	-53
102	0x94	-108
103	0xd6	-42
104	0xb9	-71
105	0x35	53
106	0x9b	-101
107	0xde	-34
108	0xf9	-7
109	0xa0	-96
110	0x00	0
111	0x0c	12
112	0xf5	-11
113	0xbf	-65
114	0xc0	-64
115	0xda	-38
116	0x12	18
117	0xf9	-7
118	0xe5	-27
119	0x18	24
120	0xd1	-47
121	0x52	82
122	0xa6	-90
123	0x05	5
124	0xec	-20
125	0xcd	-51
126	0x73	115
127	0x3c	60
128	0xe0	-32
129	0x41	65
130	0x21	33
131	0x22	34
132	0x22	34
133	0xca	-54
134	0xee	-18
135	0x08	8
136	0x02	2
137	0x1b	27
138	0xa1	-95
139	0x13	19
140	0x81	-127
141	0x0b	11
142	0x3c	60
143	0xd5	-43
144	0xe0	-32
145	0xe3	-29
146	0x2d	45
147	0xc3	-61
148	0x33	51
149	0x7c	124
150	0xc9	-55
151	0xbe	-66
152	0x1b	27
153	0xf1	-15
154	0xda	-38
155	0x00	0
156	0xe3	-29
157	0xf1	-15
158	0xee	-18
159	0xf2	-14
160	0x52	82
161	0xec	-20
162	0x10	16
163	0x2e	46
164	0x39	57
165	0xfe	-2
166	0x15	21
167	0xdc	-36
168	0xc9	-55
169	0x27	39
170	0x49	73
171	0x0b	11
172	0xc0	-64
173	0xe1	-31
174	0xbd	-67
175	0x98	-104
176	0x10	16
177	0xea	-22
178	0x91	-111
179	0x0c	12
180	0xcb	-53
181	0x19	25
182	0x0b	11
183	0x2b	43
184	0xdd	-35
185	0xed	-19
186	0x15	21
187	0xb1	-79
188	0xf6	-10
189	0xdd	-35
190	0x0c	12
191	0x05	5
192	0xcc	-52
193	0x35	53
194	0x2c	44
195	0x2f	47
196	0x10	16
197	0x1b	27
198	0x56	86
199	0x0c	12
200	0xee	-18
201	0xc7	-57
202	0xe8	-24
203	0x03	3
204	0xfe	-2
205	0xbe	-66
206	0x81	-127
207	0xa9	-87
208	0xe3	-29
209	0x43	67
210	0xfb	-5
211	0xff	-1
212	0xc0	-64
213	0xc8	-56
214	0xc5	-59
215	0x38	56
216	0x2b	43
217	0xe7	-25
218	0x10	16
219	0xe5	-27
220	0xa1	-95
221	0xbc	-68
222	0xfe	-2
223	0xfe	-2
224	0x23	35
225	0x18	24
226	0xf1	-15
227	0x38	56
228	0x3c	60
229	0xec	-20
230	0x27	39
231	0xd8	-40
232	0x22	34
233	0x57	87
234	0x31	49
235	0xf4	-12
236	0xf4	-12
237	0xff	-1
238	0xc9	-55
239	0xf8	-8
240	0x33	51
241	0x3a	58
242	0xe5	-27
243	0xdd	-35
244	0x27	39
245	0x3c	60
246	0x26	38
247	0xe3	-29
248	0xd1	-47
249	0xdc	-36
250	0xe8	-24
251	0x11	17
252	0x60	96
253	0x0d	13
254	0x07	7
255	0xd7	-41

sequential/mobilenet_0.25_96/conv_pw_6/Conv2D i1 [128, 1, 1, 64]
0	0xf0	-16
1	0x04	4
2	0xcd	-51
3	0xe1	-31
4	0xf9	-7
5	0x81	-127
6	0x0b	11
7	0x46	70
8	0xf3	-13
9	0xea	-22
10	0x3d	61
11	0xdf	-33
12	0xab	-85
13	0x27	39
14	0x4b	75
15	0xbc	-68
16	0xb7	-73
17	0xbd	-67
18	0x05	5
19	0x1e	30
20	0xb8	-72
21	0xda	-38
22	0x3c	60
23	0xd4	-44
24	0xf1	-15
25	0x0c	12
26	0xfe	-2
27	0x1b	27
28	0xfd	-3
29	0xfb	-5
30	0xed	-19
31	0x29	41
32	0xfc	-4
33	0xb4	-76
34	0x25	37
35	0x00	0
36	0x5b	91
37	0xf9	-7
38	0x27	39
39	0xe6	-26
40	0xd8	-40
41	0xe2	-30
42	0xec	-20
43	0x22	34
44	0xc2	-62
45	0x1f	31
46	0x0f	15
47	0xb4	-76
48	0x3a	58
49	0x09	9
50	0x9e	-98
51	0xf7	-9
52	0x46	70
53	0x04	4
54	0xa0	-96
55	0x61	97
56	0xd1	-47
57	0xdf	-33
58	0x1e	30
59	0xe1	-31
60	0x2d	45
61	0x2b	43
62	0x1b	27
63	0x43	67
64	0x26	38
65	0xd1	-47
66	0x7f	127
67	0x01	1
68	0x2f	47
69	0xd9	-39
70	0xea	-22
71	0x14	20
72	0xf7	-9
73	0x0a	10
74	0x11	17
75	0xd6	-42
76	0x24	36
77	0x0b	11
78	0xfb	-5
79	0xdf	-33
80	0xdf	-33
81	0xae	-82
82	0x3b	59
83	0xdc	-36
84	0xe2	-30
85	0xe7	-25
86	0x11	17
87	0x5f	95
88	0xfc	-4
89	0x1b	27
90	0xe1	-31
91	0xa0	-96
92	0x25	37
93	0x3b	59
94	0xa4	-92
95	0x31	49
96	0x35	53
97	0x23	35
98	0x05	5
99	0x0d	13
100	0x07	7
101	0xe4	-28
102	0xd8	-40
103	0x23	35
104	0xff	-1
105	0x9b	-101
106	0x0f	15
107	0xf4	-12
108	0x6a	106
109	0x2a	42
110	0xc8	-56
111	0x1c	28
112	0x17	23
113	0xfb	-5
114	0x03	3
115	0x0e	14
116	0x03	3
117	0x2d	45
118	0xe1	-31
119	0x1b	27
120	0xfd	-3
121	0xe1	-31
122	0x0a	10
123	0xde	-34
124	0xdb	-37
125	0x5e	94
126	0xee	-18
127	0xf1	-15
128	0x38	56
129	0xff	-1
130	0xe9	-23
131	0xec	-20
132	0x40	64
133	0xdf	-33
134	0x43	67
135	0xed	-19
136	0xc8	-56
137	0xb8	-72
138	0x14	20
139	0xc7	-57
140	0x18	24
141	0xd1	-47
142	0x03	3
143	0x25	37
144	0x9b	-101
145	0x39	57
146	0xe3	-29
147	0x1b	27
148	0x9c	-100
149	0x13	19
150	0x4f	79
151	0x24	36
152	0xc8	-56
153	0x59	89
154	0xf0	-16
155	0x43	67
156	0x5e	94
157	0x0c	12
158	0x9d	-99
159	0xf3	-13
160	0xb0	-80
161	0xfb	-5
162	0xf3	-13
163	0x32	50
164	0xdd	-35
165	0xe9	-23
166	0x5a	90
167	0xf5	-11
168	0xf7	-9
169	0xa6	-90
170	0x18	24
171	0xe9	-23
172	0xc7	-57
173	0x3b	59
174	0xf0	-16
175	0x95	-107
176	0x11	17
177	0x2b	43
178	0xc8	-56
179	0x6a	106
180	0xcb	-53
181	0xd5	-43
182	0x81	-127
183	0x1b	27
184	0xe7	-25
185	0xd1	-47
186	0x4b	75
187	0x1c	28
188	0xdf	-33
189	0x0b	11
190	0x14	20
191	0x46	70
192	0x0f	15
193	0xec	-20
194	0xff	-1
195	0xca	-54
196	0x11	17
197	0x06	6
198	0x20	32
199	0xda	-38
200	0xf0	-16
201	0xf9	-7
202	0xea	-22
203	0xe6	-26
204	0xf4	-12
205	0x1a	26
206	0x1a	26
207	0x81	-127
208	0x05	5
209	0xdf	-33
210	0x8b	-117
211	0xf4	-12
212	0xf5	-11
213	0x07	7
214	0x26	38
215	0x2d	45
216	0xb5	-75
217	0xd7	-41
218	0x4b	75
219	0x40	64
220	0x05	5
221	0xe3	-29
222	0x89	-119
223	0x28	40
224	0x37	55
225	0x1e	30
226	0x13	19
227	0xdf	-33
228	0x14	20
229	0xb8	-72
230	0x4d	77
231	0x70	112
232	0x22	34
233	0x44	68
234	0xe2	-30
235	0x39	57
236	0xdd	-35
237	0x01	1
238	0x01	1
239	0xeb	-21
240	0x0d	13
241	0x16	22
242	0x26	38
243	0xf1	-15
244	0xa6	-90
245	0x2a	42
246	0x15	21
247	0x26	38
248	0xf5	-11
249	0x38	56
250	0xf7	-9
251	0x32	50
252	0xb6	-74
253	0x08	8
254	0x07	7
255	0xd9	-39

sequential/mobilenet_0.25_96/conv_pw_7/Conv2D i1 [128, 1, 1, 128]
0	0xef	-17
1	0xf2	-14
2	0x56	86
3	0xc6	-58
4	0x2a	42
5	0xfe	-2
6	0xd4	-44
7	0x33	51
8	0xf3	-13
9	0x08	8
10	0xee	-18
11	0xbf	-65
12	0xf3	-13
13	0xe3	-29
14	0x10	16
15	0xa6	-90
16	0x20	32
17	0xfd	-3
18	0x3b	59
19	0x0b	11
20	0x40	64
21	0xf8	-8
22	0x50	80
23	0xef	-17
24	0xba	-70
25	0x12	18
26	0xbb	-69
27	0xeb	-21
28	0xf8	-8
29	0x33	51
30	0xe4	-28
31	0x00	0
32	0x37	55
33	0x12	18
34	0xae	-82
35	0x0a	10
36	0x5a	90
37	0x11	17
38	0x0d	13
39	0xef	-17
40	0xf4	-12
41	0xcc	-52
42	0x17	23
43	0x17	23
44	0x8d	-115
45	0x32	50
46	0xdf	-33
47	0xf6	-10
48	0xa3	-93
49	0x0f	15
50	0xdd	-35
51	0x05	5
52	0x0b	11
53	0xd2	-46
54	0x02	2
55	0x05	5
56	0x02	2
57	0x4c	76
58	0xf5	-11
59	0x1d	29
60	0x16	22
61	0x0d	13
62	0x16	22
63	0xfb	-5
64	0x28	40
65	0x07	7
66	0xd0	-48
67	0xde	-34
68	0xfc	-4
69	0x34	52
70	0x28	40
71	0x96	-106
72	0x1b	27
73	0x01	1
74	0xfd	-3
75	0xb3	-77
76	0x26	38
77	0x32	50
78	0xfe	-2
79	0x49	73
80	0x4e	78
81	0xf4	-12
82	0xd3	-45
83	0x13	19
84	0xee	-18
85	0x33	51
86	0x2b	43
87	0x96	-106
88	0xf5	-11
89	0x12	18
90	0x24	36
91	0x3d	61
92	0xeb	-21
93	0x38	56
94	0xdd	-35
95	0xf5	-11
96	0x26	38
97	0x11	17
98	0x15	21
99	0xfd	-3
100	0x64	100
101	0xf7	-9
102	0xf3	-13
103	0xdd	-35
104	0x24	36
105	0x23	35
106	0xd4	-44
107	0x01	1
108	0x2a	42
109	0x58	88
110	0x81	-127
111	0x37	55
112	0x38	56
113	0x2f	47
114	0x52	82
115	0x3a	58
116	0x2a	42
117	0xda	-38
118	0x31	49
119	0xd7	-41
120	0xb6	-74
121	0xe0	-32
122	0x41	65
123	0x02	2
124	0x0c	12
125	0xf6	-10
126	0xfc	-4
127	0x97	-105
128	0x01	1
129	0x39	57
130	0xcd	-51
131	0x21	33
132	0xc3	-61
133	0x01	1
134	0x10	16
135	0xf7	-9
136	0x4c	76
137	0x14	20
138	0xfa	-6
139	0xe5	-27
140	0xe5	-27
141	0x39	57
142	0xae	-82
143	0xf3	-13
144	0xcc	-52
145	0xea	-22
146	0xda	-38
147	0x0d	13
148	0x06	6
149	0xbb	-69
150	0xa5	-91
151	0x1c	28
152	0xc2	-62
153	0xf9	-7
154	0x0a	10
155	0x22	34
156	0x13	19
157	0x12	18
158	0xdc	-36
159	0x47	71
160	0x81	-127
161	0x0e	14
162	0x5d	93
163	0xe9	-23
164	0xb2	-78
165	0x07	7
166	0xc6	-58
167	0x3b	59
168	0x0e	14
169	0xfd	-3
170	0xdf	-33
171	0xbf	-65
172	0xee	-18
173	0x15	21
174	0x31	49
175	0xd3	-45
176	0xed	-19
177	0x16	22
178	0xe0	-32
179	0xf5	-11
180	0xf3	-13
181	0xf6	-10
182	0x1b	27
183	0xc6	-58
184	0x13	19
185	0x11	17
186	0x01	1
187	0x2b	43
188	0xf2	-14
189	0x59	89
190	0xdd	-35
191	0xf5	-11
192	0x4e	78
193	0x1c	28
194	0x17	23
195	0x21	33
196	0xff	-1
197	0xd2	-46
198	0xde	-34
199	0x31	49
200	0xf5	-11
201	0x63	99
202	0x40	64
203	0xcf	-49
204	0xea	-22
205	0x11	17
206	0xf1	-15
207	0xde	-34
208	0xfa	-6
209	0x06	6
210	0x04	4
211	0x0c	12
212	0xf2	-14
213	0xa5	-91
214	0x21	33
215	0x09	9
216	0xde	-34
217	0x14	20
218	0xe7	-25
219	0xd9	-39
220	0x44	68
221	0xf8	-8
222	0x1a	26
223	0x38	56
224	0x0b	11
225	0xd7	-41
226	0x03	3
227	0x5f	95
228	0x33	51
229	0xf9	-7
230	0xec	-20
231	0x2b	43
232	0xe0	-32
233	0xcd	-51
234	0x3b	59
235	0x02	2
236	0x08	8
237	0xfd	-3
238	0xfa	-6
239	0xe1	-31
240	0x26	38
241	0xe1	-31
242	0x25	37
243	0x04	4
244	0x19	25
245	0x08	8
246	0x03	3
247	0xc4	-60
248	0x55	85
249	0x2b	43
250	0xf2	-14
251	0xd7	-41
252	0x23	35
253	0xd8	-40
254	0xf0	-16
255	0xf5	-11

sequential/mobilenet_0.25_96/conv_pw_8/Conv2D i1 [128, 1, 1, 128]
0	0xe4	-28
1	0x1b	27
2	0xee	-18
3	0xd9	-39
4	0xf6	-10
5	0x24	36
6	0x38	56
7	0x64	100
8	0x02	2
9	0xbc	-68
10	0xec	-20
11	0x3b	59
12	0x36	54
13	0x08	8
14	0x24	36
15	0x9c	-100
16	0xd1	-47
17	0x15	21
18	0x15	21
19	0xa7	-89
20	0x5f	95
21	0x15	21
22	0xd5	-43
23	0x02	2
24	0x0b	11
25	0xee	-18
26	0xcd	-51
27	0x26	38
28	0x57	87
29	0xad	-83
30	0xca	-54
31	0xee	-18
32	0x61	97
33	0xb0	-80
34	0xcb	-53
35	0xe3	-29
36	0x00	0
37	0xc3	-61
38	0x10	16
39	0xd5	-43
40	0x08	8
41	0xf4	-12
42	0xf5	-11
43	0x55	85
44	0x0b	11
45	0x39	57
46	0x40	64
47	0x39	57
48	0x21	33
49	0x02	2
50	0x32	50
51	0xc1	-63
52	0xd6	-42
53	0xf7	-9
54	0xf5	-11
55	0x43	67
56	0xb8	-72
57	0xf5	-11
58	0xeb	-21
59	0x30	48
60	0xbb	-69
61	0x6c	108
62	0xcc	-52
63	0x2e	46
64	0x04	4
65	0x2b	43
66	0xf1	-15
67	0xf6	-10
68	0x14	20
69	0xe9	-23
70	0xd6	-42
71	0xd9	-39
72	0x31	49
73	0x5e	94
74	0x1d	29
75	0x6b	107
76	0x15	21
77	0x57	87
78	0x20	32
79	0x04	4
80	0x28	40
81	0xba	-70
82	0xf4	-12
83	0x2f	47
84	0x03	3
85	0x4a	74
86	0xfc	-4
87	0xc9	-55
88	0x94	-108
89	0x39	57
90	0x28	40
91	0x68	104
92	0x02	2
93	0xf2	-14
94	0x3c	60
95	0x5b	91
96	0x9f	-97
97	0xca	-54
98	0x49	73
99	0xe5	-27
100	0x1a	26
101	0x2b	43
102	0x2a	42
103	0xe9	-23
104	0xcd	-51
105	0xe6	-26
106	0x15	21
107	0x49	73
108	0xd2	-46
109	0x02	2
110	0xf2	-14
111	0x02	2
112	0x7f	127
113	0x0c	12
114	0xc1	-63
115	0x38	56
116	0x6d	109
117	0xea	-22
118	0xba	-70
119	0xf2	-14
120	0xdc	-36
121	0x01	1
122	0x3b	59
123	0x3a	58
124	0x38	56
125	0x1a	26
126	0xff	-1
127	0x00	0
128	0x0f	15
129	0x4b	75
130	0xfc	-4
131	0x1d	29
132	0x0b	11
133	0x27	39
134	0x0a	10
135	0xd7	-41
136	0xe2	-30
137	0x13	19
138	0xe2	-30
139	0xf7	-9
140	0xf7	-9
141	0xec	-20
142	0x2a	42
143	0xd3	-45
144	0xc6	-58
145	0xf4	-12
146	0xb5	-75
147	0xde	-34
148	0xf9	-7
149	0xfd	-3
150	0x28	40
151	0xdc	-36
152	0xe2	-30
153	0xed	-19
154	0x09	9
155	0x03	3
156	0x35	53
157	0x0d	13
158	0xed	-19
159	0xfd	-3
160	0xfd	-3
161	0x1d	29
162	0x2f	47
163	0xef	-17
164	0x10	16
165	0xf7	-9
166	0xde	-34
167	0x1a	26
168	0x0f	15
169	0x0c	12
170	0xef	-17
171	0xb2	-78
172	0x32	50
173	0x08	8
174	0xf8	-8
175	0xf9	-7
176	0xfd	-3
177	0xcb	-53
178	0xeb	-21
179	0x04	4
180	0xd9	-39
181	0x13	19
182	0x28	40
183	0x27	39
184	0xc4	-60
185	0xe0	-32
186	0xf8	-8
187	0x1e	30
188	0x2b	43
189	0xde	-34
190	0x1c	28
191	0x1d	29
192	0xf7	-9
193	0x7f	127
194	0xd5	-43
195	0x0e	14
196	0x0e	14
197	0x46	70
198	0xf4	-12
199	0x0b	11
200	0xce	-50
201	0x23	35
202	0x11	17
203	0xe6	-26
204	0x22	34
205	0x03	3
206	0xf3	-13
207	0xfa	-6
208	0xe2	-30
209	0xed	-19
210	0xe1	-31
211	0x17	23
212	0xf1	-15
213	0xf4	-12
214	0xe0	-32
215	0x0b	11
216	0xdb	-37
217	0x17	23
218	0x1f	31
219	0x1f	31
220	0xbe	-66
221	0xe1	-31
222	0xc7	-57
223	0xc2	-62
224	0xe8	-24
225	0x05	5
226	0xe0	-32
227	0x37	55
228	0x09	9
229	0x35	53
230	0x2c	44
231	0x03	3
232	0xe0	-32
233	0x0a	10
234	0xee	-18
235	0xcd	-51
236	0x02	2
237	0xcc	-52
238	0x26	38
239	0x0c	12
240	0x37	55
241	0x17	23
242	0xf7	-9
243	0x0f	15
244	0xf5	-11
245	0xe0	-32
246	0x4d	77
247	0xf3	-13
248	0xae	-82
249	0xe7	-25
250	0x02	2
251	0xf6	-10
252	0xe2	-30
253	0xef	-17
254	0xef	-17
255	0xf1	-15

sequential/mobilenet_0.25_96/conv_pw_9/Conv2D i1 [128, 1, 1, 128]
0	0xeb	-21
1	0xf3	-13
2	0xf5	-11
3	0x1a	26
4	0xf7	-9
5	0xe8	-24
6	0x36	54
7	0xec	-20
8	0xeb	-21
9	0x00	0
10	0x21	33
11	0x2e	46
12	0xf5	-11
13	0x22	34
14	0xfc	-4
15	0x1d	29
16	0xff	-1
17	0xd5	-43
18	0x2f	47
19	0xd4	-44
20	0xec	-20
21	0x15	21
22	0xfa	-6
23	0x1a	26
24	0x02	2
25	0xc9	-55
26	0xdd	-35
27	0x13	19
28	0x0b	11
29	0xd5	-43
30	0x23	35
31	0xe0	-32
32	0x2f	47
33	0xc6	-58
34	0xef	-17
35	0x40	64
36	0xa9	-87
37	0xe3	-29
38	0xd7	-41
39	0x2e	46
40	0xf5	-11
41	0x81	-127
42	0xc5	-59
43	0xf5	-11
44	0xf6	-10
45	0xe1	-31
46	0xff	-1
47	0xea	-22
48	0xf0	-16
49	0x05	5
50	0xe5	-27
51	0xd3	-45
52	0x21	33
53	0xf1	-15
54	0x0a	10
55	0x50	80
56	0xee	-18
57	0x04	4
58	0xf8	-8
59	0x14	20
60	0x0c	12
61	0xc6	-58
62	0xf0	-16
63	0x3b	59
64	0xf2	-14
65	0x2b	43
66	0x05	5
67	0xff	-1
68	0x17	23
69	0xae	-82
70	0x2d	45
71	0xe1	-31
72	0xf7	-9
73	0x1c	28
74	0x03	3
75	0x15	21
76	0xcd	-51
77	0xfb	-5
78	0xbc	-68
79	0xf4	-12
80	0xe5	-27
81	0xd3	-45
82	0x0b	11
83	0x41	65
84	0xec	-20
85	0x22	34
86	0xfa	-6
87	0x19	25
88	0xd7	-41
89	0xf2	-14
90	0xd4	-44
91	0x5e	94
92	0xc0	-64
93	0xc6	-58
94	0xf1	-15
95	0x10	16
96	0x24	36
97	0x12	18
98	0x53	83
99	0xdb	-37
100	0x2d	45
101	0xcc	-52
102	0x1d	29
103	0xd4	-44
104	0x46	70
105	0x02	2
106	0x0d	13
107	0xed	-19
108	0xc9	-55
109	0x22	34
110	0x24	36
111	0xf3	-13
112	0x57	87
113	0xea	-22
114	0x1d	29
115	0xd5	-43
116	0xf5	-11
117	0x18	24
118	0xea	-22
119	0xc8	-56
120	0x62	98
121	0x47	71
122	0xf0	-16
123	0x71	113
124	0x50	80
125	0x0e	14
126	0x33	51
127	0xd6	-42
128	0xec	-20
129	0xeb	-21
130	0x4b	75
131	0xce	-50
132	0x28	40
133	0x08	8
134	0xe9	-23
135	0xef	-17
136	0x11	17
137	0xca	-54
138	0xf8	-8
139	0x2e	46
140	0x31	49
141	0xc8	-56
142	0x06	6
143	0xbb	-69
144	0xee	-18
145	0x65	101
146	0x29	41
147	0x2b	43
148	0xf6	-10
149	0x17	23
150	0x51	81
151	0x0c	12
152	0xf7	-9
153	0x19	25
154	0xed	-19
155	0xf7	-9
156	0xef	-17
157	0x3a	58
158	0xb1	-79
159	0x8d	-115
160	0xfc	-4
161	0xfd	-3
162	0xf2	-14
163	0x2a	42
164	0x15	21
165	0xb9	-71
166	0xff	-1
167	0xcc	-52
168	0xed	-19
169	0x64	100
170	0x09	9
171	0xff	-1
172	0x1c	28
173	0xdf	-33
174	0x36	54
175	0xbf	-65
176	0xde	-34
177	0xd3	-45
178	0xfa	-6
179	0xef	-17
180	0xe6	-26
181	0xd9	-39
182	0xf1	-15
183	0xd6	-42
184	0x48	72
185	0xf8	-8
186	0x58	88
187	0xff	-1
188	0x92	-110
189	0xe1	-31
190	0xf2	-14
191	0x81	-127
192	0x0a	10
193	0x15	21
194	0xea	-22
195	0x4e	78
196	0xd3	-45
197	0xee	-18
198	0x15	21
199	0xd0	-48
200	0x25	37
201	0xc4	-60
202	0xe7	-25
203	0x0c	12
204	0x30	48
205	0x07	7
206	0xd9	-39
207	0x48	72
208	0xd5	-43
209	0x01	1
210	0xb7	-73
211	0x21	33
212	0x58	88
213	0x27	39
214	0x0f	15
215	0x21	33
216	0x22	34
217	0xe9	-23
218	0x45	69
219	0x29	41
220	0x27	39
221	0x35	53
222	0x4c	76
223	0xe7	-25
224	0xd6	-42
225	0xf5	-11
226	0x35	53
227	0xf6	-10
228	0x2a	42
229	0x57	87
230	0x04	4
231	0x48	72
232	0xee	-18
233	0xfc	-4
234	0xff	-1
235	0xfc	-4
236	0xcc	-52
237	0x1d	29
238	0xb7	-73
239	0xf1	-15
240	0xe4	-28
241	0x21	33
242	0x1e	30
243	0x0f	15
244	0xc9	-55
245	0xa9	-87
246	0x3f	63
247	0x10	16
248	0x03	3
249	0xfb	-5
250	0x2e	46
251	0x62	98
252	0x39	57
253	0x53	83
254	0x16	22
255	0x1e	30

sequential/mobilenet_0.25_96/conv_pw_10/Conv2D i1 [128, 1, 1, 128]
0	0xc2	-62
1	0x1d	29
2	0xda	-38
3	0xe6	-26
4	0xb0	-80
5	0xf2	-14
6	0xb8	-72
7	0x08	8
8	0xd5	-43
9	0xd5	-43
10	0xcb	-53
11	0xdc	-36
12	0x1d	29
13	0x0a	10
14	0xbf	-65
15	0x2e	46
16	0xe2	-30
17	0xee	-18
18	0xdc	-36
19	0x02	2
20	0x52	82
21	0xfe	-2
22	0x2a	42
23	0xf8	-8
24	0xfa	-6
25	0xdf	-33
26	0x44	68
27	0xef	-17
28	0x49	73
29	0x13	19
30	0x0d	13
31	0xab	-85
32	0xc6	-58
33	0xd8	-40
34	0xd8	-40
35	0xff	-1
36	0xaf	-81
37	0x17	23
38	0x46	70
39	0xf5	-11
40	0x57	87
41	0xf0	-16
42	0xa3	-93
43	0x1c	28
44	0xe2	-30
45	0x0d	13
46	0x1d	29
47	0x3c	60
48	0x4c	76
49	0x39	57
50	0x03	3
51	0x19	25
52	0x13	19
53	0xc3	-61
54	0x2f	47
55	0x2f	47
56	0x0b	11
57	0x44	68
58	0xf9	-7
59	0xae	-82
60	0xb4	-76
61	0x32	50
62	0x34	52
63	0xd6	-42
64	0x0e	14
65	0xea	-22
66	0xcb	-53
67	0x01	1
68	0xef	-17
69	0xf8	-8
70	0xb6	-74
71	0x08	8
72	0x30	48
73	0xe5	-27
74	0xb6	-74
75	0x08	8
76	0x3a	58
77	0x15	21
78	0x13	19
79	0xd2	-46
80	0xc4	-60
81	0x3b	59
82	0xed	-19
83	0xcf	-49
84	0xa7	-89
85	0x2f	47
86	0x1c	28
87	0x1a	26
88	0x37	55
89	0x54	84
90	0xd2	-46
91	0xee	-18
92	0xfb	-5
93	0xf7	-9
94	0xe3	-29
95	0xf9	-7
96	0x1e	30
97	0xbe	-66
98	0xe9	-23
99	0xdd	-35
100	0xc2	-62
101	0x0f	15
102	0xaf	-81
103	0xec	-20
104	0xa8	-88
105	0xe1	-31
106	0x81	-127
107	0x19	25
108	0x30	48
109	0x0f	15
110	0xdd	-35
111	0xde	-34
112	0x0f	15
113	0x35	53
114	0x22	34
115	0x0f	15
116	0x22	34
117	0x2f	47
118	0xff	-1
119	0x28	40
120	0xfd	-3
121	0xf9	-7
122	0xbd	-67
123	0x18	24
124	0x0e	14
125	0xf2	-14
126	0x1e	30
127	0x27	39
128	0x06	6
129	0xd6	-42
130	0xb1	-79
131	0x10	16
132	0x16	22
133	0xb8	-72
134	0xf0	-16
135	0xdb	-37
136	0xac	-84
137	0x2f	47
138	0xb9	-71
139	0x0d	13
140	0xdf	-33
141	0x36	54
142	0x4d	77
143	0xd9	-39
144	0x36	54
145	0xfc	-4
146	0x17	23
147	0xd1	-47
148	0xb0	-80
149	0x19	25
150	0x2d	45
151	0x6d	109
152	0x04	4
153	0xc5	-59
154	0x11	17
155	0xf6	-10
156	0x7f	127
157	0x09	9
158	0xc3	-61
159	0xf6	-10
160	0x05	5
161	0x0f	15
162	0xf4	-12
163	0x07	7
164	0xf2	-14
165	0x26	38
166	0x08	8
167	0xfa	-6
168	0x14	20
169	0xcf	-49
170	0xdb	-37
171	0x12	18
172	0x33	51
173	0xc9	-55
174	0xf5	-11
175	0xed	-19
176	0x0e	14
177	0xe3	-29
178	0xed	-19
179	0xe1	-31
180	0xf9	-7
181	0x30	48
182	0xd8	-40
183	0x27	39
184	0xe8	-24
185	0xee	-18
186	0xfc	-4
187	0xdc	-36
188	0xe5	-27
189	0x1c	28
190	0xad	-83
191	0xfd	-3
192	0x4b	75
193	0xc1	-63
194	0x28	40
195	0xec	-20
196	0xbb	-69
197	0x07	7
198	0x8a	-118
199	0x12	18
200	0xec	-20
201	0xc2	-62
202	0x0f	15
203	0xea	-22
204	0xf8	-8
205	0xc8	-56
206	0x50	80
207	0x4c	76
208	0xeb	-21
209	0x1e	30
210	0xdc	-36
211	0xd9	-39
212	0xed	-19
213	0x18	24
214	0xfd	-3
215	0xd7	-41
216	0x4d	77
217	0xcc	-52
218	0x0d	13
219	0xea	-22
220	0xf3	-13
221	0xbd	-67
222	0x34	52
223	0xf1	-15
224	0xf6	-10
225	0x10	16
226	0xf8	-8
227	0x9a	-102
228	0xf9	-7
229	0xa6	-90
230	0x0a	10
231	0xcc	-52
232	0x45	69
233	0x01	1
234	0xea	-22
235	0xf5	-11
236	0x29	41
237	0xc6	-58
238	0x47	71
239	0xf5	-11
240	0xf6	-10
241	0x3d	61
242	0xe0	-32
243	0xe5	-27
244	0x4b	75
245	0x12	18
246	0x31	49
247	0xae	-82
248	0x3f	63
249	0x0b	11
250	0xc3	-61
251	0x07	7
252	0xed	-19
253	0xad	-83
254	0xfd	-3
255	0xed	-19

sequential/mobilenet_0.25_96/conv_pw_11/Conv2D i1 [128, 1, 1, 128]
0	0x7f	127
1	0xc8	-56
2	0xc1	-63
3	0xeb	-21
4	0xfd	-3
5	0x11	17
6	0xfb	-5
7	0xd1	-47
8	0xd2	-46
9	0x57	87
10	0xec	-20
11	0x37	55
12	0x35	53
13	0xd5	-43
14	0xd1	-47
15	0x11	17
16	0xdd	-35
17	0x33	51
18	0x12	18
19	0x09	9
20	0xeb	-21
21	0x2a	42
22	0x03	3
23	0x12	18
24	0x2a	42
25	0x1b	27
26	0xdd	-35
27	0xc7	-57
28	0xf8	-8
29	0xc1	-63
30	0x31	49
31	0xe8	-24
32	0x49	73
33	0xd8	-40
34	0x00	0
35	0xf7	-9
36	0xfe	-2
37	0x42	66
38	0x07	7
39	0x00	0
40	0x03	3
41	0x46	70
42	0xe7	-25
43	0x38	56
44	0x9f	-97
45	0xd5	-43
46	0xc2	-62
47	0xef	-17
48	0xc5	-59
49	0xf0	-16
50	0xe9	-23
51	0xca	-54
52	0xf5	-11
53	0xf4	-12
54	0xe0	-32
55	0x0a	10
56	0xba	-70
57	0xbf	-65
58	0xca	-54
59	0xea	-22
60	0x19	25
61	0xf8	-8
62	0xb1	-79
63	0x44	68
64	0xf9	-7
65	0xce	-50
66	0xf5	-11
67	0x34	52
68	0x0c	12
69	0x06	6
70	0xf5	-11
71	0x38	56
72	0x0f	15
73	0x0b	11
74	0xe0	-32
75	0xbf	-65
76	0x4f	79
77	0xf2	-14
78	0xef	-17
79	0xfc	-4
80	0xec	-20
81	0x35	53
82	0xef	-17
83	0xe9	-23
84	0x59	89
85	0xfa	-6
86	0xff	-1
87	0xc9	-55
88	0x16	22
89	0x55	85
90	0x15	21
91	0x36	54
92	0xe6	-26
93	0xe5	-27
94	0xf1	-15
95	0x27	39
96	0x5e	94
97	0xfc	-4
98	0xa8	-88
99	0xd5	-43
100	0x6b	107
101	0xea	-22
102	0x00	0
103	0x19	25
104	0x37	55
105	0xfb	-5
106	0xf5	-11
107	0xd7	-41
108	0xee	-18
109	0x1c	28
110	0xee	-18
111	0x34	52
112	0x1b	27
113	0xbd	-67
114	0xeb	-21
115	0x46	70
116	0xe2	-30
117	0xea	-22
118	0xf3	-13
119	0xf1	-15
120	0xd8	-40
121	0x1e	30
122	0xf5	-11
123	0x04	4
124	0xf8	-8
125	0xec	-20
126	0xa1	-95
127	0xc2	-62
128	0x15	21
129	0x57	87
130	0x0f	15
131	0xe3	-29
132	0xf5	-11
133	0xfa	-6
134	0xf2	-14
135	0x88	-120
136	0x85	-123
137	0x77	119
138	0xdf	-33
139	0xe7	-25
140	0xef	-17
141	0xf4	-12
142	0x3f	63
143	0xbe	-66
144	0x17	23
145	0x12	18
146	0x01	1
147	0x14	20
148	0xf5	-11
149	0xe5	-27
150	0xf9	-7
151	0x65	101
152	0x1c	28
153	0x03	3
154	0xc4	-60
155	0xb5	-75
156	0xef	-17
157	0x16	22
158	0x23	35
159	0x2e	46
160	0xdf	-33
161	0xe9	-23
162	0xda	-38
163	0xe8	-24
164	0xda	-38
165	0xf5	-11
166	0xac	-84
167	0xd6	-42
168	0xe4	-28
169	0xeb	-21
170	0x2b	43
171	0xca	-54
172	0xf6	-10
173	0xbc	-68
174	0xb4	-76
175	0xed	-19
176	0xe8	-24
177	0x4d	77
178	0xdd	-35
179	0xf4	-12
180	0xfd	-3
181	0xcd	-51
182	0xeb	-21
183	0x3c	60
184	0x9e	-98
185	0x81	-127
186	0x06	6
187	0xee	-18
188	0x2f	47
189	0x2a	42
190	0x14	20
191	0x04	4
192	0x9a	-102
193	0x09	9
194	0xfd	-3
195	0x10	16
196	0x41	65
197	0xf6	-10
198	0x01	1
199	0x06	6
200	0x26	38
201	0x9e	-98
202	0x94	-108
203	0x85	-123
204	0x13	19
205	0x08	8
206	0xba	-70
207	0xb5	-75
208	0xdf	-33
209	0x58	88
210	0x01	1
211	0x00	0
212	0x01	1
213	0x22	34
214	0x60	96
215	0x1d	29
216	0xfa	-6
217	0x31	49
218	0x10	16
219	0x61	97
220	0xe0	-32
221	0xcc	-52
222	0xd8	-40
223	0x4e	78
224	0x4b	75
225	0x42	66
226	0xf1	-15
227	0xf4	-12
228	0x5a	90
229	0xf7	-9
230	0x41	65
231	0xfd	-3
232	0x25	37
233	0x07	7
234	0x1b	27
235	0x38	56
236	0x26	38
237	0x04	4
238	0x7a	122
239	0xbe	-66
240	0x70	112
241	0xdb	-37
242	0x0c	12
243	0xec	-20
244	0x4a	74
245	0xe6	-26
246	0x2a	42
247	0x38	56
248	0x2f	47
249	0x47	71
250	0xb7	-73
251	0x4a	74
252	0xd2	-46
253	0xf8	-8
254	0x17	23
255	0x8d	-115

sequential/mobilenet_0.25_96/conv_pw_12/Conv2D i1 [256, 1, 1, 128]
0	0xf2	-14
1	0x41	65
2	0xab	-85
3	0xdf	-33
4	0xe6	-26
5	0x04	4
6	0x0b	11
7	0x0c	12
8	0xc3	-61
9	0x13	19
10	0xcd	-51
11	0xe6	-26
12	0xd4	-44
13	0xbd	-67
14	0x26	38
15	0x14	20
16	0xc4	-60
17	0xf3	-13
18	0xfb	-5
19	0x40	64
20	0xf1	-15
21	0x32	50
22	0xf9	-7
23	0xe0	-32
24	0x35	53
25	0xce	-50
26	0xc3	-61
27	0x20	32
28	0xf6	-10
29	0x16	22
30	0x06	6
31	0xe9	-23
32	0xe4	-28
33	0x06	6
34	0xf5	-11
35	0x66	102
36	0xcb	-53
37	0x05	5
38	0xed	-19
39	0xef	-17
40	0x28	40
41	0xe0	-32
42	0x34	52
43	0x1c	28
44	0x05	5
45	0x4d	77
46	0xc7	-57
47	0x04	4
48	0x35	53
49	0xda	-38
50	0xec	-20
51	0x34	52
52	0x08	8
53	0x18	24
54	0x16	22
55	0xb1	-79
56	0xd7	-41
57	0x12	18
58	0x0c	12
59	0xf9	-7
60	0x3c	60
61	0x26	38
62	0x0c	12
63	0x25	37
64	0xef	-17
65	0x19	25
66	0x07	7
67	0x52	82
68	0xe6	-26
69	0xbb	-69
70	0x18	24
71	0xd7	-41
72	0xf3	-13
73	0xc7	-57
74	0x32	50
75	0xf8	-8
76	0x13	19
77	0x2c	44
78	0x53	83
79	0xd1	-47
80	0xc3	-61
81	0xf5	-11
82	0x24	36
83	0x28	40
84	0xde	-34
85	0x1a	26
86	0x00	0
87	0x2c	44
88	0xeb	-21
89	0x12	18
90	0x08	8
91	0xf7	-9
92	0x05	5
93	0x12	18
94	0x10	16
95	0xf4	-12
96	0xf6	-10
97	0xe0	-32
98	0xd6	-42
99	0xfe	-2
100	0xc8	-56
101	0xfa	-6
102	0x1b	27
103	0x1f	31
104	0xc3	-61
105	0x0f	15
106	0xbf	-65
107	0x27	39
108	0xfe	-2
109	0x81	-127
110	0xdc	-36
111	0x33	51
112	0xb7	-73
113	0xd3	-45
114	0x36	54
115	0x0d	13
116	0xe9	-23
117	0xcc	-52
118	0x44	68
119	0x15	21
120	0xf1	-15
121	0x09	9
122	0xce	-50
123	0x01	1
124	0x39	57
125	0xfd	-3
126	0xd3	-45
127	0x2e	46
128	0xf3	-13
129	0xa6	-90
130	0x3e	62
131	0xfc	-4
132	0x03	3
133	0x06	6
134	0x03	3
135	0xed	-19
136	0xef	-17
137	0x10	16
138	0x99	-103
139	0x0f	15
140	0x12	18
141	0xf8	-8
142	0xd3	-45
143	0xe5	-27
144	0x1f	31
145	0xff	-1
146	0xd2	-46
147	0x15	21
148	0x48	72
149	0x3f	63
150	0xd0	-48
151	0xe1	-31
152	0xd2	-46
153	0x03	3
154	0xfc	-4
155	0xbc	-68
156	0x18	24
157	0xbf	-65
158	0x90	-112
159	0x26	38
160	0x16	22
161	0xaf	-81
162	0xdb	-37
163	0xcd	-51
164	0xe3	-29
165	0xe6	-26
166	0x05	5
167	0x66	102
168	0xfe	-2
169	0xe9	-23
170	0x47	71
171	0xa5	-91
172	0xda	-38
173	0xb1	-79
174	0x5d	93
175	0xf0	-16
176	0x13	19
177	0x02	2
178	0xeb	-21
179	0xb3	-77
180	0x40	64
181	0xf0	-16
182	0x18	24
183	0xbf	-65
184	0xed	-19
185	0xab	-85
186	0x12	18
187	0xf3	-13
188	0xe7	-25
189	0xf5	-11
190	0xcc	-52
191	0xfd	-3
192	0x27	39
193	0xd5	-43
194	0x30	48
195	0xdc	-36
196	0x22	34
197	0xf0	-16
198	0x40	64
199	0xff	-1
200	0x23	35
201	0xf4	-12
202	0x2a	42
203	0xd5	-43
204	0xcd	-51
205	0xe8	-24
206	0xab	-85
207	0xe7	-25
208	0x6e	110
209	0x19	25
210	0x0b	11
211	0x19	25
212	0x16	22
213	0xc0	-64
214	0x01	1
215	0xca	-54
216	0xf6	-10
217	0xd3	-45
218	0xf8	-8
219	0xc2	-62
220	0xfa	-6
221	0x23	35
222	0xc4	-60
223	0xc9	-55
224	0x00	0
225	0x0a	10
226	0x17	23
227	0xd7	-41
228	0x0a	10
229	0x09	9
230	0xba	-70
231	0xaf	-81
232	0xdf	-33
233	0x0b	11
234	0x58	88
235	0x08	8
236	0x0c	12
237	0x51	81
238	0x17	23
239	0xd8	-40
240	0x7f	127
241	0xe5	-27
242	0xd9	-39
243	0xd8	-40
244	0x0e	14
245	0xee	-18
246	0xae	-82
247	0xd6	-42
248	0xcf	-49
249	0x4b	75
250	0x1c	28
251	0xe8	-24
252	0xa4	-92
253	0xd1	-47
254	0xea	-22
255	0xeb	-21

sequential/mobilenet_0.25_96/conv_pw_13/Conv2D i1 [256, 1, 1, 256]
0	0x23	35
1	0xf2	-14
2	0xc7	-57
3	0xef	-17
4	0xf5	-11
5	0x48	72
6	0x02	2
7	0xe7	-25
8	0x08	8
9	0x39	57
10	0xfc	-4
11	0x02	2
12	0xe6	-26
13	0x4b	75
14	0x23	35
15	0x4b	75
16	0x55	85
17	0x0f	15
18	0x17	23
19	0x4d	77
20	0x1a	26
21	0x10	16
22	0x1b	27
23	0xb2	-78
24	0xd8	-40
25	0x04	4
26	0x20	32
27	0xf6	-10
28	0x37	55
29	0xd9	-39
30	0x2a	42
31	0x36	54
32	0xd1	-47
33	0xf3	-13
34	0x32	50
35	0x17	23
36	0x1a	26
37	0x46	70
38	0xf5	-11
39	0xf0	-16
40	0x2c	44
41	0x13	19
42	0xad	-83
43	0xee	-18
44	0xf7	-9
45	0x2d	45
46	0x1e	30
47	0x40	64
48	0x46	70
49	0xf4	-12
50	0xcc	-52
51	0xc1	-63
52	0x3c	60
53	0x03	3
54	0x36	54
55	0xcc	-52
56	0xf0	-16
57	0x2b	43
58	0xe9	-23
59	0x21	33
60	0xbb	-69
61	0x35	53
62	0x13	19
63	0xaf	-81
64	0x2f	47
65	0x2a	42
66	0x12	18
67	0xec	-20
68	0x92	-110
69	0xf9	-7
70	0xcd	-51
71	0xfa	-6
72	0x0a	10
73	0x29	41
74	0xbc	-68
75	0xfd	-3
76	0xe9	-23
77	0x1b	27
78	0xfa	-6
79	0x16	22
80	0x22	34
81	0xd2	-46
82	0xec	-20
83	0xfb	-5
84	0x3d	61
85	0xf0	-16
86	0x0b	11
87	0x0e	14
88	0x01	1
89	0xea	-22
90	0xe3	-29
91	0x0b	11
92	0xcd	-51
93	0x49	73
94	0x16	22
95	0xdf	-33
96	0x20	32
97	0xfb	-5
98	0xf6	-10
99	0xf6	-10
100	0xcc	-52
101	0x0d	13
102	0x5c	92
103	0xcf	-49
104	0xdd	-35
105	0xf1	-15
106	0xf5	-11
107	0xde	-34
108	0x7f	127
109	0x4c	76
110	0xfb	-5
111	0xbe	-66
112	0x96	-106
113	0x2a	42
114	0xe1	-31
115	0x14	20
116	0xf2	-14
117	0xef	-17
118	0x21	33
119	0xa1	-95
120	0x3f	63
121	0x0f	15
122	0x0b	11
123	0x08	8
124	0xf5	-11
125	0xcf	-49
126	0x10	16
127	0x06	6
128	0xe2	-30
129	0xfe	-2
130	0x23	35
131	0x3b	59
132	0xff	-1
133	0xcd	-51
134	0xf6	-10
135	0xc1	-63
136	0xe2	-30
137	0x05	5
138	0x00	0
139	0x07	7
140	0x11	17
141	0x13	19
142	0x52	82
143	0x3d	61
144	0xe4	-28
145	0x0d	13
146	0x00	0
147	0xfc	-4
148	0x31	49
149	0x33	51
150	0xe1	-31
151	0xd0	-48
152	0x17	23
153	0xd1	-47
154	0x23	35
155	0xee	-18
156	0xfb	-5
157	0x03	3
158	0xea	-22
159	0x07	7
160	0xa6	-90
161	0xea	-22
162	0x0f	15
163	0x46	70
164	0x3f	63
165	0xcf	-49
166	0x8a	-118
167	0x0e	14
168	0x11	17
169	0xfc	-4
170	0x1f	31
171	0x0c	12
172	0x2b	43
173	0x0c	12
174	0xe7	-25
175	0xed	-19
176	0x37	55
177	0xca	-54
178	0x33	51
179	0xd8	-40
180	0xbe	-66
181	0xf8	-8
182	0xea	-22
183	0x0c	12
184	0xd8	-40
185	0x01	1
186	0x0c	12
187	0x44	68
188	0xf2	-14
189	0xc4	-60
190	0xcc	-52
191	0xc0	-64
192	0x12	18
193	0xf3	-13
194	0xac	-84
195	0x06	6
196	0xcf	-49
197	0xfd	-3
198	0xc2	-62
199	0x05	5
200	0x1b	27
201	0xe3	-29
202	0xb6	-74
203	0xbd	-67
204	0xfe	-2
205	0x11	17
206	0x3b	59
207	0xe9	-23
208	0x0a	10
209	0x0b	11
210	0x1c	28
211	0xf5	-11
212	0xcc	-52
213	0x01	1
214	0x15	21
215	0xd6	-42
216	0x2a	42
217	0xda	-38
218	0x24	36
219	0xdf	-33
220	0x15	21
221	0xc4	-60
222	0x5b	91
223	0xf4	-12
224	0xf7	-9
225	0x07	7
226	0x1c	28
227	0x4b	75
228	0xea	-22
229	0x0d	13
230	0x3e	62
231	0xd1	-47
232	0xe6	-26
233	0x15	21
234	0x0b	11
235	0xde	-34
236	0x22	34
237	0xeb	-21
238	0xd1	-47
239	0x1b	27
240	0xdf	-33
241	0x2a	42
242	0xdb	-37
243	0xc1	-63
244	0xfb	-5
245	0x10	16
246	0x63	99
247	0x7c	124
248	0xf4	-12
249	0x00	0
250	0x23	35
251	0xdc	-36
252	0x0b	11
253	0x07	7
254	0xfb	-5
255	0xb7	-73

sequential/mobilenet_0.25_96/conv_preds/Conv2D i1 [2, 1, 1, 256]
0	0xc0	-64
1	0xde	-34
2	0xe4	-28
3	0x32	50
4	0xef	-17
5	0xb4	-76
6	0x26	38
7	0x1e	30
8	0x02	2
9	0xf1	-15
10	0x48	72
11	0x44	68
12	0x91	-111
13	0x1f	31
14	0x0c	12
15	0xa6	-90
16	0x58	88
17	0x0b	11
18	0x21	33
19	0xc6	-58
20	0x04	4
21	0x20	32
22	0xca	-54
23	0x21	33
24	0x20	32
25	0xc4	-60
26	0xcc	-52
27	0x2e	46
28	0xa6	-90
29	0xb5	-75
30	0xd8	-40
31	0x2c	44
32	0xf3	-13
33	0x09	9
34	0xff	-1
35	0xb7	-73
36	0xec	-20
37	0x07	7
38	0xfa	-6
39	0x23	35
40	0x02	2
41	0xbe	-66
42	0x68	104
43	0xce	-50
44	0x0c	12
45	0xe7	-25
46	0xf8	-8
47	0x10	16
48	0x01	1
49	0xb1	-79
50	0xad	-83
51	0xa4	-92
52	0xea	-22
53	0xd3	-45
54	0x28	40
55	0xd3	-45
56	0x1f	31
57	0x2e	46
58	0x27	39
59	0x07	7
60	0x3c	60
61	0xfb	-5
62	0xdc	-36
63	0x96	-106
64	0x35	53
65	0xd9	-39
66	0x20	32
67	0x11	17
68	0xb2	-78
69	0x17	23
70	0xbe	-66
71	0xf4	-12
72	0xa3	-93
73	0xbc	-68
74	0xe4	-28
75	0x30	48
76	0xea	-22
77	0xcb	-53
78	0xb2	-78
79	0xd8	-40
80	0xbc	-68
81	0xd9	-39
82	0xc5	-59
83	0x01	1
84	0xf5	-11
85	0x8e	-114
86	0xaf	-81
87	0x9b	-101
88	0x2c	44
89	0xd8	-40
90	0x09	9
91	0xe1	-31
92	0xce	-50
93	0xf8	-8
94	0x31	49
95	0xe4	-28
96	0x24	36
97	0xc0	-64
98	0x2c	44
99	0x24	36
100	0xae	-82
101	0x0b	11
102	0xf0	-16
103	0xe6	-26
104	0x0e	14
105	0xf7	-9
106	0x42	66
107	0xee	-18
108	0x04	4
109	0x21	33
110	0x23	35
111	0xfe	-2
112	0xf2	-14
113	0x16	22
114	0xc7	-57
115	0xc0	-64
116	0xfe	-2
117	0x13	19
118	0xbd	-67
119	0x9a	-102
120	0x3c	60
121	0xa6	-90
122	0xd4	-44
123	0x37	55
124	0x1c	28
125	0x3c	60
126	0xb6	-74
127	0xff	-1
128	0x1c	28
129	0xfd	-3
130	0xf2	-14
131	0xd7	-41
132	0x8f	-113
133	0x28	40
134	0x50	80
135	0xa3	-93
136	0x07	7
137	0x4a	74
138	0x09	9
139	0xda	-38
140	0x06	6
141	0x00	0
142	0xc3	-61
143	0x4e	78
144	0xea	-22
145	0xae	-82
146	0xd5	-43
147	0x0a	10
148	0xe3	-29
149	0xed	-19
150	0xec	-20
151	0x3b	59
152	0xed	-19
153	0x22	34
154	0xf5	-11
155	0xe1	-31
156	0x3b	59
157	0x0d	13
158	0x11	17
159	0x2b	43
160	0xb8	-72
161	0x83	-125
162	0x48	72
163	0x20	32
164	0x1e	30
165	0xcd	-51
166	0xb9	-71
167	0x5d	93
168	0xcf	-49
169	0xf6	-10
170	0xcb	-53
171	0xd3	-45
172	0x2c	44
173	0x81	-127
174	0xf7	-9
175	0x12	18
176	0x07	7
177	0x27	39
178	0xa1	-95
179	0x48	72
180	0xd5	-43
181	0x02	2
182	0xe0	-32
183	0x35	53
184	0xed	-19
185	0xe0	-32
186	0xed	-19
187	0xff	-1
188	0xd7	-41
189	0xde	-34
190	0x38	56
191	0x03	3
192	0xe1	-31
193	0xda	-38
194	0xbd	-67
195	0xf7	-9
196	0x28	40
197	0xc5	-59
198	0xcf	-49
199	0x1b	27
200	0xaa	-86
201	0x2b	43
202	0x3a	58
203	0xf2	-14
204	0x08	8
205	0x48	72
206	0xe1	-31
207	0x95	-107
208	0x26	38
209	0x66	102
210	0xeb	-21
211	0x53	83
212	0xc1	-63
213	0x10	16
214	0xb3	-77
215	0xfd	-3
216	0xc7	-57
217	0x18	24
218	0x0c	12
219	0x33	51
220	0xdd	-35
221	0xec	-20
222	0xa6	-90
223	0xbd	-67
224	0xf2	-14
225	0x54	84
226	0x1d	29
227	0xd5	-43
228	0xfe	-2
229	0xe2	-30
230	0xca	-54
231	0x05	5
232	0x92	-110
233	0xaf	-81
234	0x1d	29
235	0xa9	-87
236	0x05	5
237	0xc7	-57
238	0x06	6
239	0xdc	-36
240	0x24	36
241	0xb3	-77
242	0xf2	-14
243	0x18	24
244	0x0d	13
245	0xf1	-15
246	0xf2	-14
247	0x03	3
248	0x89	-119
249	0x51	81
250	0x00	0
251	0x2f	47
252	0x02	2
253	0xe3	-29
254	0x31	49
255	0xa1	-95

sequential/mobilenet_0.25_96/conv_dw_1_bn/FusedBatchNormV3;sequential/mobilenet_0.25_96/conv_dw_1/depthwise i1 [1, 3, 3, 8]
0	0x4e	78
1	0x06	6
2	0xc6	-58
3	0xb4	-76
4	0x81	-127
5	0xec	-20
6	0x06	6
7	0xaa	-86
8	0x35	53
9	0x16	22
10	0x81	-127
11	0xce	-50
12	0xd0	-48
13	0x81	-127
14	0x30	48
15	0xfd	-3
16	0xf5	-11
17	0x4a	74
18	0x07	7
19	0xd1	-47
20	0xe4	-28
21	0xe3	-29
22	0x51	81
23	0xa0	-96
24	0x81	-127
25	0x35	53
26	0xe8	-24
27	0x6c	108
28	0x47	71
29	0x01	1
30	0xae	-82
31	0x8e	-114
32	0xdb	-37
33	0xdb	-37
34	0xa7	-89
35	0x7f	127
36	0x5f	95
37	0x44	68
38	0x7f	127
39	0x73	115
40	0xa2	-94
41	0x7f	127
42	0xf6	-10
43	0xf3	-13
44	0xeb	-21
45	0x3f	63
46	0x53	83
47	0xe9	-23
48	0xff	-1
49	0xe6	-26
50	0x1b	27
51	0xba	-70
52	0x37	55
53	0xd4	-44
54	0xb3	-77
55	0x64	100
56	0xc7	-57
57	0x4e	78
58	0x28	40
59	0xc1	-63
60	0x13	19
61	0x02	2
62	0x4e	78
63	0x7f	127
64	0x01	1
65	0xa2	-94
66	0xe7	-25
67	0xdd	-35
68	0x1a	26
69	0x7e	126
70	0xe2	-30
71	0xb5	-75

sequential/mobilenet_0.25_96/conv_dw_2_bn/FusedBatchNormV3;sequential/mobilenet_0.25_96/conv_dw_2/depthwise i1 [1, 3, 3, 16]
0	0xc4	-60
1	0x0b	11
2	0x23	35
3	0xfc	-4
4	0x17	23
5	0x51	81
6	0x43	67
7	0xf5	-11
8	0x24	36
9	0x2f	47
10	0xf5	-11
11	0xd6	-42
12	0xec	-20
13	0x31	49
14	0xec	-20
15	0x2e	46
16	0x53	83
17	0xd8	-40
18	0xd6	-42
19	0x81	-127
20	0x18	24
21	0x43	67
22	0xea	-22
23	0x4b	75
24	0x41	65
25	0xbd	-67
26	0x9e	-98
27	0x62	98
28	0x6e	110
29	0x3e	62
30	0x34	52
31	0xe6	-26
32	0xaf	-81
33	0x7f	127
34	0xb8	-72
35	0xae	-82
36	0x9c	-100
37	0x98	-104
38	0x1e	30
39	0x09	9
40	0x0c	12
41	0xc5	-59
42	0x81	-127
43	0xc0	-64
44	0xb3	-77
45	0xc4	-60
46	0x11	17
47	0xfd	-3
48	0x0a	10
49	0xe1	-31
50	0x43	67
51	0x14	20
52	0x61	97
53	0x7f	127
54	0x6e	110
55	0xc9	-55
56	0x1e	30
57	0x81	-127
58	0x68	104
59	0xd1	-47
60	0x59	89
61	0x7f	127
62	0x0a	10
63	0x82	-126
64	0xb4	-76
65	0x99	-103
66	0x2b	43
67	0x28	40
68	0x28	40
69	0x64	100
70	0xe3	-29
71	0x03	3
72	0x7f	127
73	0xb0	-80
74	0x27	39
75	0x29	41
76	0x17	23
77	0xcf	-49
78	0x7f	127
79	0x81	-127
80	0x15	21
81	0x63	99
82	0x81	-127
83	0x3e	62
84	0x81	-127
85	0xbc	-68
86	0xa5	-91
87	0x6c	108
88	0x23	35
89	0x36	54
90	0x8b	-117
91	0x15	21
92	0x81	-127
93	0xcf	-49
94	0x11	17
95	0xd7	-41
96	0xfc	-4
97	0xdd	-35
98	0x33	51
99	0x2d	45
100	0x5b	91
101	0x53	83
102	0x65	101
103	0x81	-127
104	0xef	-17
105	0x93	-109
106	0x61	97
107	0x4f	79
108	0x66	102
109	0x66	102
110	0xf1	-15
111	0xcd	-51
112	0x81	-127
113	0x0a	10
114	0x32	50
115	0x5e	94
116	0x09	9
117	0xec	-20
118	0xeb	-21
119	0x12	18
120	0x45	69
121	0x2e	46
122	0x21	33
123	0x81	-127
124	0xe4	-28
125	0x14	20
126	0x14	20
127	0xb7	-73
128	0x3e	62
129	0xb3	-77
130	0x9c	-100
131	0x3a	58
132	0xa4	-92
133	0xf8	-8
134	0x81	-127
135	0x53	83
136	0x1a	26
137	0x70	112
138	0x49	73
139	0x2f	47
140	0x9d	-99
141	0x3b	59
142	0xf8	-8
143	0xb2	-78

sequential/mobilenet_0.25_96/conv_dw_3_bn/FusedBatchNormV3;sequential/mobilenet_0.25_96/conv_dw_3/depthwise;sequential/mobilenet_0.25_96/conv_dw_4/depthwise i1 [1, 3, 3, 32]
0	0x24	36
1	0x03	3
2	0x19	25
3	0x46	70
4	0xe1	-31
5	0x8f	-113
6	0x9f	-97
7	0xff	-1
8	0x34	52
9	0xa6	-90
10	0xc5	-59
11	0x20	32
12	0x93	-109
13	0xf9	-7
14	0xf9	-7
15	0xfa	-6
16	0x33	51
17	0x1f	31
18	0x99	-103
19	0xfa	-6
20	0xe8	-24
21	0xb1	-79
22	0xb4	-76
23	0x47	71
24	0x81	-127
25	0x30	48
26	0xb4	-76
27	0xc6	-58
28	0x36	54
29	0x2b	43
30	0x6d	109
31	0x5f	95
32	0xc0	-64
33	0x50	80
34	0x58	88
35	0x81	-127
36	0xd3	-45
37	0x4a	74
38	0x33	51
39	0x0a	10
40	0x34	52
41	0xd2	-46
42	0x09	9
43	0xc6	-58
44	0xe7	-25
45	0x36	54
46	0x30	48
47	0x81	-127
48	0x34	52
49	0x29	41
50	0x5e	94
51	0x0b	11
52	0x9a	-102
53	0x81	-127
54	0x81	-127
55	0xc9	-55
56	0xec	-20
57	0x36	54
58	0xd8	-40
59	0xcb	-53
60	0xf4	-12
61	0x3a	58
62	0xe5	-27
63	0x05	5
64	0xb8	-72
65	0xf5	-11
66	0x81	-127
67	0x0d	13
68	0xec	-20
69	0xfa	-6
70	0x01	1
71	0x14	20
72	0x58	88
73	0x7f	127
74	0x10	16
75	0xd5	-43
76	0x54	84
77	0xae	-82
78	0x0e	14
79	0x0d	13
80	0x08	8
81	0xc7	-57
82	0x8f	-113
83	0x60	96
84	0x39	57
85	0xde	-34
86	0x38	56
87	0xbd	-67
88	0x78	120
89	0xf0	-16
90	0xfe	-2
91	0x22	34
92	0x1b	27
93	0x71	113
94	0xa2	-94
95	0xdd	-35
96	0x6f	111
97	0x1c	28
98	0xf6	-10
99	0x4a	74
100	0x9c	-100
101	0x7f	127
102	0x9a	-102
103	0x3a	58
104	0x41	65
105	0xb0	-80
106	0xe8	-24
107	0xed	-19
108	0x10	16
109	0x37	55
110	0x7f	127
111	0xf7	-9
112	0x81	-127
113	0xc7	-57
114	0xbc	-68
115	0x7f	127
116	0x05	5
117	0x93	-109
118	0xcd	-51
119	0x64	100
120	0x89	-119
121	0x56	86
122	0x28	40
123	0x81	-127
124	0x7f	127
125	0x03	3
126	0x72	114
127	0x7f	127
128	0x22	34
129	0x7f	127
130	0xed	-19
131	0xac	-84
132	0x82	-126
133	0x2f	47
134	0x55	85
135	0x07	7
136	0x0a	10
137	0xd7	-41
138	0x7f	127
139	0x81	-127
140	0x77	119
141	0x76	118
142	0x76	118
143	0x7c	124
144	0xc1	-63
145	0x39	57
146	0x42	66
147	0x31	49
148	0xbb	-69
149	0xb6	-74
150	0xfb	-5
151	0xb5	-75
152	0x38	56
153	0x19	25
154	0xe5	-27
155	0x9c	-100
156	0x27	39
157	0x04	4
158	0xa8	-88
159	0x60	96
160	0xc5	-59
161	0x00	0
162	0x49	73
163	0x47	71
164	0x08	8
165	0x06	6
166	0xa8	-88
167	0x81	-127
168	0x7f	127
169	0x68	104
170	0x22	34
171	0x93	-109
172	0x7f	127
173	0x31	49
174	0xf2	-14
175	0x0a	10
176	0xc5	-59
177	0x04	4
178	0x81	-127
179	0x0c	12
180	0x63	99
181	0xbb	-69
182	0xd7	-41
183	0x81	-127
184	0x31	49
185	0x30	48
186	0x83	-125
187	0x29	41
188	0x27	39
189	0x7f	127
190	0x81	-127
191	0xbb	-69
192	0x7c	124
193	0x12	18
194	0xe5	-27
195	0x36	54
196	0x85	-123
197	0xe4	-28
198	0xca	-54
199	0x22	34
200	0xf0	-16
201	0x40	64
202	0x12	18
203	0xfa	-6
204	0x99	-103
205	0x81	-127
206	0x62	98
207	0x08	8
208	0x10	16
209	0x2f	47
210	0xcd	-51
211	0x96	-106
212	0xcb	-53
213	0x1f	31
214	0x53	83
215	0x1f	31
216	0x29	41
217	0xf8	-8
218	0x62	98
219	0x86	-122
220	0x78	120
221	0xf9	-7
222	0x27	39
223	0xb4	-76
224	0x81	-127
225	0x62	98
226	0xb5	-75
227	0xa4	-92
228	0x81	-127
229	0x15	21
230	0x98	-104
231	0xc3	-61
232	0x5a	90
233	0x17	23
234	0xfd	-3
235	0x9e	-98
236	0x0f	15
237	0x14	20
238	0x88	-120
239	0x09	9
240	0x09	9
241	0x81	-127
242	0x56	86
243	0xa5	-91
244	0x81	-127
245	0x14	20
246	0x67	103
247	0xde	-34
248	0xb4	-76
249	0xd2	-46
250	0x7f	127
251	0xc0	-64
252	0x3e	62
253	0x08	8
254	0x1d	29
255	0x2d	45
