v0.1/reference_submissions/person_detection/vww_96_float.tflite (tflite, 865708 bytes, 56 tensors)

sequential/mobilenet_0.25_96/conv1_bn/FusedBatchNormV3 f4 [8]
0	0xbf911530	-1.1334591
1	0x3fcd3eaf	1.6034755
2	0xbff79273	-1.9341568
3	0x4028770c	2.632266
4	0x3fde9d9b	1.7391847
5	0x3f101051	0.56274897
6	0x3f804676	1.0021503
7	0x3e4771a1	0.1947694

sequential/mobilenet_0.25_96/conv_dw_10_bn/FusedBatchNormV3 f4 [128]
0	0x3ea6488a	0.32477218
1	0xbf129dfa	-0.57272303
2	0xbeae0f9a	-0.33996278
3	0xbf052152	-0.5200397
4	0x3f682c15	0.90692264
5	0x3f52f064	0.82398057
6	0xbf41b5e8	-0.7566819
7	0xbec51c8c	-0.38498342
8	0xbf5c74d4	-0.86115766
9	0x3d8c5250	0.06851637
10	0x3ee22412	0.44168144
11	0xbeb20879	-0.3477209
12	0x3e923656	0.2855708
13	0xbf179b09	-0.5922094
14	0xbd4b3abc	-0.04961656
15	0xbe1fcdd0	-0.15605855
16	0x3ea43f86	0.32079715
17	0xbf8e4d09	-1.1117259
18	0xbf1ff207	-0.6247868
19	0xbe5d4713	-0.21609144
20	0xbf0a125e	-0.53934276
21	0x3f8ec5b1	1.1154081
22	0xbf431960	-0.76210594
23	0xbe090b47	-0.13383208
24	0x3f1ff939	0.6248966
25	0x3f2011e6	0.6252731
26	0x3e603d8e	0.21898481
27	0xbf16a085	-0.58838683
28	0x3f86ec91	1.0540944
29	0x3e5c8524	0.21535164
30	0x3ee534cd	0.44766846
31	0x3f0a101e	0.5393084
32	0xbee7adb6	-0.45249718
33	0xbf0bbc3b	-0.5458409
34	0xbecbfd6d	-0.39841786
35	0x3f239fde	0.6391581
36	0xbece9c19	-0.40353468
37	0x3f7ccbf7	0.98748726
38	0xbc8d6e04	-0.017264374
39	0x3f3b06ad	0.7305706
40	0xbd73afbc	-0.059493765
41	0xbd8b4a56	-0.06801288
42	0xbf29f5d2	-0.6639072
43	0xbe9f0455	-0.31057993
44	0x3f2849f5	0.6573785
45	0xbe83c4c3	-0.25736055
46	0x3e54798e	0.20749494
47	0xbea615eb	-0.32438597
48	0x3f1a84e3	0.6035902
49	0xbd94054e	-0.07227574
50	0x3e915b42	0.28389937
51	0xbe20f2cd	-0.15717621
52	0xbd11a9ec	-0.03556244
53	0xbf06f7ba	-0.5272175
54	0xbf6ddcfa	-0.9291531
55	0x3e44b017	0.19207798
56	0xbf34f767	-0.70690006
57	0x3f1f08c2	0.6212274
58	0xbf32ad4b	-0.69795674
59	0xbf4ef576	-0.80843294
60	0xbefa6427	-0.48904535
61	0xbdef8f3e	-0.11697243
62	0xbef88a96	-0.48543233
63	0xbee26cb1	-0.4422355
64	0xbebc3e72	-0.36766392
65	0xbd0d298a	-0.034463443
66	0xbf7ef2ad	-0.99589044
67	0xbe447ea5	-0.19188936
68	0x3f833a02	1.0252078
69	0xbe7e8736	-0.24856266
70	0xbcb920e0	-0.022598684
71	0xbec885c1	-0.39164546
72	0x3d442be0	0.047893405
73	0xbf21d295	-0.6321195
74	0x3e9af87d	0.30267707
75	0x3ed2ca70	0.41170073
76	0xbe6088c6	-0.21927175
77	0xbf1d067c	-0.6133802
78	0x3efe18bd	0.4962825
79	0xbf17a7b2	-0.5924026
80	0xbf315b99	-0.6928039
81	0x3e5fcdb2	0.2185581
82	0xbf11720d	-0.5681465
83	0x3edb011e	0.4277429
84	0xbf5a30ee	-0.8523091
85	0xbe0bae78	-0.13640773
86	0xbf0469fe	-0.5172423
87	0x3ee18ca2	0.44052607
88	0xbe3b7cb9	-0.18309297
89	0x3ef83934	0.48481143
90	0xbf2fda04	-0.6869204
91	0x3f0ff528	0.56233454
92	0xbf29c4cc	-0.66315913
93	0xbdf935dc	-0.12168476
94	0x3d77be64	0.060484305
95	0xbe4ec985	-0.20194061
96	0x3e12ce8e	0.14336607
97	0xbe65b179	-0.22430982
98	0xbe69ee78	-0.22844875
99	0xbf658a64	-0.8966429
100	0xbdac4e65	-0.0841339
101	0x3d7def90	0.061996043
102	0xbeb16968	-0.3465073
103	0xbea75cd9	-0.32688025
104	0xbf3dcc95	-0.7414029
105	0x3f3703bf	0.7149009
106	0x3f2ccac4	0.67496896
107	0x3d852c8f	0.065026395
108	0xbf21ee2c	-0.63254046
109	0xbf169d57	-0.5883383
110	0xbf55e1a4	-0.83547425
111	0xbee03231	-0.43788293
112	0xbef14860	-0.4712553
113	0xbee429b7	-0.44563076
114	0xbf0c0f8b	-0.54711217
115	0xbdc4f396	-0.09616773
116	0xbf5b7130	-0.85719585
117	0x3f0c5ada	0.5482613
118	0x3e959d8e	0.29221767
119	0x3efa73c8	0.4891646
120	0x3dae4d24	0.08510807
121	0xbf159b08	-0.58439684
122	0xbf3c6204	-0.7358706
123	0x3fae4b7c	1.3616786
124	0xbebd552d	-0.36979046
125	0xbbd2d1a0	-0.0064336807
126	0x3f067e40	0.5253639
127	0xbf51b074	-0.8190987

sequential/mobilenet_0.25_96/conv_dw_11_bn/FusedBatchNormV3 f4 [128]
0	0x3f0f56e0	0.55991936
1	0x3f72d986	0.94863164
2	0xbea007ed	-0.31256047
3	0xbe8ec02d	-0.27880993
4	0xbe0d605f	-0.13806294
5	0xbf32b4a4	-0.69806886
6	0x3f2d2734	0.67637944
7	0x3c5eb8e0	0.013593882
8	0xbf21860b	-0.6309516
9	0xbec89a49	-0.3918021
10	0x3f02b672	0.5105964
11	0xbe69fda4	-0.22850662
12	0xbd6a8b9c	-0.057262048
13	0x3e4eed5f	0.20207737
14	0x3e344875	0.17605765
15	0x3e651211	0.22370173
16	0x3e9ab532	0.30216366
17	0x3f19f311	0.60136515
18	0x3dfc78b8	0.12327713
19	0x3dc9d8dc	0.09855816
20	0xbc2e5dac	-0.01064245
21	0x3f66f882	0.9022294
22	0xbd3f9bbc	-0.04677938
23	0x3f78a693	0.9712917
24	0xbe5177a5	-0.20455797
25	0xbf422ef8	-0.7585292
26	0x3e95e4ec	0.29276216
27	0x3eba6337	0.3640382
28	0xbf841c21	-1.0321084
29	0xbf450b56	-0.7697042
30	0xbf096c44	-0.53680825
31	0xbf4a7cd9	-0.7909675
32	0xbf1989a1	-0.5997563
33	0xbeabd3c0	-0.3355999
34	0xbeeb61e9	-0.45973137
35	0x3e904bce	0.28182834
36	0xbf3b5f89	-0.7319265
37	0xbde84408	-0.11341101
38	0xbf373696	-0.71567667
39	0x3e904ffe	0.2818603
40	0xbf45c919	-0.77259976
41	0x3e8ea91a	0.2786339
42	0xbf3aeab0	-0.73014355
43	0xbe329ca9	-0.17442574
44	0x3ee5f315	0.4491202
45	0x3e588eb5	0.21148188
46	0xbe75fbfd	-0.24021907
47	0xbcf983a0	-0.030458272
48	0xbdb80e92	-0.08987154
49	0x3e59247d	0.21205325
50	0xbe6a4814	-0.22879058
51	0xbe0566fe	-0.1302757
52	0xbe8af03c	-0.2713641
53	0xbe1a6964	-0.15079266
54	0x3f4e6737	0.80626243
55	0xbf4fa1d7	-0.81106323
56	0xbe97f4dc	-0.29679
57	0xbecc4174	-0.39893687
58	0x3e06596e	0.13120052
59	0x3f2ddd5f	0.6791591
60	0x3f5ef6f6	0.8709558
61	0x3f1e4f3c	0.6183965
62	0xbe7a8aa8	-0.24466956
63	0xbf87135b	-1.0552782
64	0xbf438014	-0.76367307
65	0x3e52758c	0.20552653
66	0xbecd5ae8	-0.40108418
67	0xbf03274d	-0.51231843
68	0x3ee0f337	0.43935558
69	0xbf329240	-0.6975441
70	0xbead2fe3	-0.33825597
71	0xbde5e5c8	-0.11225468
72	0xbf0b30bc	-0.5437124
73	0x3eb9ab28	0.36263394
74	0x3f045a91	0.51700693
75	0xbf404c80	-0.7511673
76	0xbf3bc2d1	-0.7334414
77	0xbee74a4c	-0.45173872
78	0xbe97a00c	-0.29614294
79	0x3f7f7601	0.99789435
80	0xbe0f3adf	-0.13987301
81	0xbd872dd8	-0.06600541
82	0xbf21949e	-0.63117397
83	0x3f8e9468	1.113904
84	0x3f908038	1.1289129
85	0xbec86102	-0.3913651
86	0xbe83d928	-0.25751615
87	0x3d317ee0	0.043333888
88	0xbde3d1ba	-0.111239865
89	0xbdec2e86	-0.11532311
90	0xbdc5d7d0	-0.096603036
91	0x3d80d470	0.06290519
92	0x3f1bf2e2	0.60917485
93	0xbe8f1898	-0.2794845
94	0xbf1c33d6	-0.61016595
95	0xbf1026dc	-0.56309295
96	0xbe6aa128	-0.22913039
97	0xbea09432	-0.31363064
98	0x3f0adf37	0.5424685
99	0xbe12e712	-0.14345959
100	0x3f23a013	0.6391613
101	0xbf583ffc	-0.8447263
102	0x3f1fd132	0.6242858
103	0xbf1d26d2	-0.6138736
104	0x3e9cf94e	0.30658954
105	0x3eb9cce2	0.36289126
106	0xbda12e74	-0.07870188
107	0xbed635bd	-0.41837874
108	0xbf15bc89	-0.58490807
109	0xbee178cf	-0.44037482
110	0x3f4b9e06	0.79538
111	0xbf4832aa	-0.7820231
112	0xbeeef610	-0.46672106
113	0x3ee7385c	0.45160186
114	0x3f4d25b0	0.8013563
115	0xbe8778da	-0.2645939
116	0x3f4bcc3b	0.79608506
117	0xbefbe49e	-0.4919786
118	0xbf6bf6c0	-0.92173386
119	0xbe46363b	-0.19356625
120	0x3e92e545	0.28690544
121	0xbda216dc	-0.07914516
122	0xbed75713	-0.4205862
123	0x3eba0112	0.36328942
124	0x3edecbe0	0.4351492
125	0x3f48ec8f	0.7848596
126	0xbf1bd762	-0.60875523
127	0xbf41eb74	-0.757499

sequential/mobilenet_0.25_96/conv_dw_12_bn/FusedBatchNormV3 f4 [128]
0	0x3e883294	0.26601088
1	0xbe315415	-0.17317231
2	0x3d81d1d6	0.06338851
3	0xbe87cdfe	-0.26524347
4	0x3f0cc0f2	0.5498191
5	0x3bd33910	0.0064460114
6	0x3eccdf16	0.4001395
7	0x3e88b7af	0.2670264
8	0xbea3137b	-0.318508
9	0xbf5f3eb4	-0.8720505
10	0xbec52df1	-0.38511613
11	0xbf4addba	-0.7924458
12	0x3dd306ff	0.10304069
13	0xbe641e34	-0.22277147
14	0xbebf6374	-0.37380564
15	0xbed86e04	-0.42271435
16	0x3ec52b60	0.38509655
17	0xbe34e362	-0.17664865
18	0xbef0a082	-0.46997458
19	0xbf6fd248	-0.9368024
20	0x3e5bb2f9	0.21454991
21	0xbe08c018	-0.13354528
22	0x3e1e428a	0.1545507
23	0xbe9b461c	-0.30326927
24	0xbe3b9224	-0.18317467
25	0xbdf7aefa	-0.12093921
26	0xbf55d27f	-0.83524317
27	0x3f32e7b7	0.6988482
28	0x3f46d36c	0.77666354
29	0xbf20d980	-0.6283188
30	0xbf26ee37	-0.65207237
31	0x3f3c97c8	0.736691
32	0x3eabe4db	0.3357304
33	0x3dd27720	0.102766275
34	0x3eb3bcf2	0.3510509
35	0x3f39aa35	0.7252534
36	0xbf18c246	-0.5967144
37	0x3e8ef88b	0.27923998
38	0x3dab22d0	0.08356249
39	0xbe938674	-0.28813517
40	0xbebbf382	-0.3670922
41	0x3e829880	0.25506973
42	0x3e50350d	0.20332737
43	0xbe1d7dfa	-0.15380087
44	0xbe998df2	-0.29991108
45	0xbe95c2d3	-0.29250202
46	0xbf78b251	-0.9714709
47	0x3d90c7ce	0.0706936
48	0x3e797862	0.24362329
49	0xbed2501e	-0.4107675
50	0xbe27f83f	-0.16403292
51	0x3d760480	0.060062885
52	0xbf972c3e	-1.1810377
53	0x3ef03f0d	0.46923104
54	0xbec2d16a	-0.38050395
55	0x3e1f642b	0.15565555
56	0x3e916bce	0.2840256
57	0x3e068818	0.13137853
58	0xbcbc2a38	-0.02296935
59	0x3f57aeeb	0.8425128
60	0x3dca8d0c	0.09890184
61	0xbebfc464	-0.37454522
62	0xbdb094ac	-0.08622107
63	0x3e12efaa	0.14349237
64	0xbe72cbb0	-0.23710513
65	0xbed741cb	-0.42042384
66	0xbe807f96	-0.2509734
67	0xbf28ff5a	-0.66014636
68	0xbe0542cd	-0.13013764
69	0xbf40e432	-0.753482
70	0xbf857901	-1.0427552
71	0x3f338b59	0.701345
72	0xbe6a2b7c	-0.2286815
73	0xbf1c21ee	-0.6098927
74	0x3e366a9e	0.17814109
75	0x3df3bcf4	0.11901274
76	0xbe3369ca	-0.17520824
77	0x3dd502d4	0.1040093
78	0xbef7c1a2	-0.48389918
79	0x3ea43fe6	0.3208
80	0xbdbbba1c	-0.09166357
81	0x3e8c998e	0.27460903
82	0xbf2d674e	-0.67735755
83	0xbf9b0a1b	-1.2112459
84	0xbf0cdf36	-0.5502809
85	0xbded5301	-0.11588097
86	0xbecabac9	-0.3959563
87	0x3f05648c	0.5210655
88	0xbef00684	-0.4687997
89	0xbf341ca8	-0.70356226
90	0xbeecf76e	-0.46282524
91	0x3da22fe6	0.07919292
92	0x3ef7fb21	0.48433784
93	0xbefadcec	-0.48996675
94	0x3e19aa42	0.15006354
95	0x3d890ba2	0.06691672
96	0x3eb67820	0.35638523
97	0xbed8629c	-0.42262733
98	0x3d336880	0.04380083
99	0xbe764859	-0.24051036
100	0x3d39630c	0.045260474
101	0x3ee3ca49	0.4449027
102	0xbf6c6cff	-0.92353815
103	0xbd9998c4	-0.07499841
104	0x3ec1f9bc	0.37885845
105	0xbf0cf326	-0.55058515
106	0x3f9f416e	1.2441843
107	0x3e34cd7b	0.1765651
108	0xbeda94d9	-0.42691687
109	0xbea27504	-0.317299
110	0x3e62e0e2	0.22156098
111	0x3e26aeb4	0.16277581
112	0xbea02108	-0.312752
113	0xbe455f1a	-0.1927456
114	0xbefb1a6b	-0.49043593
115	0xbecc33cb	-0.39883265
116	0x3f8e2def	1.1107768
117	0xbef096c0	-0.46990013
118	0xbe7e4160	-0.24829626
119	0x3e99b1c5	0.3001844
120	0xbf53d118	-0.82740927
121	0x3e8bc258	0.2729671
122	0xbe80e78e	-0.25176662
123	0x3ec4be21	0.38426307
124	0x3ebb1126	0.3653652
125	0xbe6c0380	-0.2304821
126	0xbefbbe19	-0.4916847
127	0x3d24bb38	0.04021761

sequential/mobilenet_0.25_96/conv_dw_13_bn/FusedBatchNormV3 f4 [256]
0	0x3ea5204e	0.3225121
1	0x3e6f8226	0.23389491
2	0xbd98c9dc	-0.074603766
3	0xbf3d3c12	-0.73919785
4	0xbd524f18	-0.05134496
5	0xbe8ba803	-0.2727662
6	0x3e9696cc	0.29411924
7	0x3e2d1cf8	0.16905582
8	0x3e75e5e2	0.24013475
9	0xbea5d819	-0.32391432
10	0x3dcdcde0	0.10049033
11	0x3f490a83	0.78531665
12	0xbf3f0488	-0.7461629
13	0x3e647bdb	0.22312872
14	0xbc1312d8	-0.008976661
15	0x3e3df738	0.18551338
16	0xbf502ee6	-0.8132156
17	0xbdd18aae	-0.10231529
18	0xbdc6db3c	-0.097097844
19	0x3e2e2dd0	0.17009664
20	0xbde46048	-0.11151177
21	0xbbcdfa88	-0.006285969
22	0x3ea71f14	0.32640898
23	0x3e840f21	0.25792792
24	0xbde0c3ee	-0.109748706
25	0xbeb8b468	-0.3607514
26	0x3dad302b	0.08456453
27	0x3f175083	0.59107226
28	0x3f33c43b	0.702213
29	0x3efd58dd	0.4948186
30	0xbe25a1b3	-0.16174965
31	0x3ed30404	0.41214
32	0x3e29bb35	0.1657532
33	0x3ebad2e6	0.36489028
34	0x3f02d55d	0.51106817
35	0xbe5003de	-0.20313975
36	0x3e02c1a2	0.12769178
37	0xbc819868	-0.015819743
38	0xbd85287a	-0.06501861
39	0xbe01aa7a	-0.12662688
40	0xbee32762	-0.44365984
41	0xbd2e0250	-0.042482674
42	0xbeb6f42f	-0.35733172
43	0x3e87538c	0.2643093
44	0x3e91c75d	0.28472415
45	0xbe8db2ee	-0.27675575
46	0xbe60a849	-0.21939196
47	0x3ea0123f	0.3126392
48	0xbe6fe884	-0.23428541
49	0x3e9d6c18	0.3074653
50	0x3e7ae7cb	0.24502485
51	0x3d08067e	0.033209316
52	0x3ea5cb18	0.3238151
53	0x3d7d8a48	0.061899453
54	0x3f04441d	0.5166643
55	0x3f0213c8	0.50811434
56	0x3e654b42	0.2239199
57	0xbf284207	-0.6572575
58	0x3ecadeec	0.396232
59	0xbf1ad6fe	-0.604843
60	0xbe27aecc	-0.16375273
61	0x3e1a87d8	0.15090883
62	0xbd2ea06c	-0.04263346
63	0x3e93969e	0.2882585
64	0x3e6349c8	0.22196114
65	0x3e30ae84	0.17254072
66	0xbdc98ace	-0.09840928
67	0x3e089d81	0.13341333
68	0x3e443665	0.19161375
69	0x3ee14f96	0.44006032
70	0x3ebe5066	0.37170714
71	0xbf3e0782	-0.74230206
72	0x3e08fc2a	0.13377443
73	0x3ebc3c90	0.36764956
74	0xbe4cc39c	-0.19996494
75	0xbd8be96e	-0.068316326
76	0x3ecb7227	0.3973553
77	0xbe825756	-0.25457257
78	0x3d455d00	0.048184395
79	0xbec95811	-0.39325002
80	0x3f840f57	1.0317181
81	0xbefe000d	-0.49609414
82	0x3df69602	0.120403305
83	0x3dddd760	0.10832095
84	0x3e9181ca	0.28419334
85	0xbecfd704	-0.4059373
86	0x3e48c7e7	0.19607507
87	0x3dd54815	0.10414139
88	0x3e4b2d04	0.19841391
89	0x3ebb391a	0.36567003
90	0xbdbc8a52	-0.0920607
91	0x3dce6c14	0.10079208
92	0xbf0a1882	-0.53943646
93	0xbcc251c7	-0.023720635
94	0xbf2d0d74	-0.6759865
95	0xbed21645	-0.41032615
96	0xbce68472	-0.028139327
97	0x3ec36670	0.3816409
98	0x3e59da10	0.2127459
99	0x3d4e0dac	0.050306007
100	0x3d8a4a38	0.06752437
101	0x3ed289ca	0.4112075
102	0xbd5880f4	-0.052857354
103	0xbea5bdbe	-0.32371324
104	0x3f442126	0.7661308
105	0xbe4ba4af	-0.1988704
106	0x3f7c9cfe	0.9867705
107	0x3dd7c32d	0.10535274
108	0xbdd8b301	-0.10581017
109	0x3c6b1aa4	0.014349613
110	0x3c9611c0	0.01831901
111	0xbf1761a3	-0.59133357
112	0x3d60f1e0	0.05491817
113	0xbedf7a8f	-0.43648192
114	0x3f17eaee	0.5934285
115	0x3ebfcb34	0.3745972
116	0x3f33596e	0.70058334
117	0x3dfb754e	0.122782335
118	0xbe9876fb	-0.29778275
119	0x3dbc3edc	0.09191677
120	0x3ec228eb	0.37921843
121	0x3c2bfcb0	0.010497257
122	0x3e7d24f9	0.24721135
123	0xbf0a27dc	-0.5396707
124	0x3e57e7eb	0.21084563
125	0x3e2e2251	0.17005278
126	0x3db661d0	0.08905375
127	0x3ea35556	0.31901044
128	0x3f5596d4	0.8343327
129	0x3e4cb555	0.19991048
130	0x3ea62232	0.32447964
131	0xbdc0b672	-0.09409799
132	0xbe6f21f3	-0.23352794
133	0xbed3b1f4	-0.41346705
134	0xbd8df590	-0.06931603
135	0xbea1fd01	-0.3163834
136	0xbd3509d2	-0.04419882
137	0x3d1a8094	0.037720278
138	0xbbe44d40	-0.0069672167
139	0xbf001ad5	-0.5004094
140	0x3e6edece	0.2332718
141	0x3f13ecba	0.5778309
142	0xbf2dcc95	-0.6789029
143	0x3dd7f0aa	0.1054395
144	0xbe96eb7c	-0.29476535
145	0x3e5430cc	0.2072174
146	0x3e8b68ab	0.27228293
147	0x3dc8b96a	0.0980099
148	0xbd99c23a	-0.07507749
149	0x3e3d32c6	0.184764
150	0x3f028640	0.509861
151	0xbe19dd93	-0.1502593
152	0xbefcc0e4	-0.49365914
153	0xbe9ad8c3	-0.302435
154	0x3eb93cf0	0.36179304
155	0x3d08d758	0.033408493
156	0xbd868c92	-0.065697804
157	0x3f0efc32	0.5585357
158	0xbdfec136	-0.12439196
159	0x3da3e290	0.08002198
160	0x3db0ccd5	0.086328186
161	0x3f701286	0.93778265
162	0x3e8bc279	0.27296808
163	0x3f631c96	0.88715494
164	0x3d1029d0	0.035196126
165	0xbe6ae8f2	-0.22940424
166	0x3e791e46	0.24327955
167	0x3eed22b4	0.4631554
168	0x3d06c2e8	0.03290072
169	0x3db3af5c	0.087736815
170	0xbd40eea8	-0.0471026
171	0xbda3cf4e	-0.079985246
172	0x3e4a48ec	0.1975438
173	0x3eb3d656	0.35124463
174	0x3e410920	0.18851137
175	0x3eaf4aa0	0.34236622
176	0x3e53294f	0.20621227
177	0xbe28357c	-0.16426653
178	0x3dc3094e	0.09523259
179	0xbe183efd	-0.14867778
180	0x3eb88dd2	0.360457
181	0x3e94ee58	0.29088092
182	0xbf6889ec	-0.9083545
183	0x3c9e2b50	0.019307762
184	0xbe08e71c	-0.13369411
185	0x3f50f5f2	0.8162528
186	0x3e0657be	0.13119408
187	0xbdee9e94	-0.1165134
188	0xbe10c16a	-0.14136282
189	0x3dd15850	0.102219224
190	0x3dbca33e	0.092108235
191	0x3e2a1382	0.16609004
192	0x3e0342d1	0.12818457
193	0x3f21725d	0.6306513
194	0xbe9d1459	-0.30679587
195	0x3f224b5a	0.6339623
196	0x3e5aee50	0.21379972
197	0xbd9e679c	-0.07734606
198	0x3f463d98	0.77437735
199	0x3ed27e56	0.41112012
200	0x3df47fce	0.11938439
201	0x3eeed0e5	0.4664375
202	0x3f073220	0.5281086
203	0x3e8cfdc8	0.2753737
204	0x3e4ce284	0.20008284
205	0xbdef36fe	-0.11680411
206	0x3d69c450	0.057071984
207	0x3e9b2fdc	0.3030995
208	0x3dfb16fb	0.122602426
209	0x3e8710d4	0.26380026
210	0x3bd4c140	0.0064927638
211	0x3ea3aec4	0.31969273
212	0x3f37335d	0.7156275
213	0xbf050ab4	-0.51969457
214	0x3e5495fd	0.20760341
215	0x3d485556	0.048909508
216	0x3e86729e	0.2625932
217	0x3e2c08a0	0.16800165
218	0xbcd675d8	-0.02617924
219	0x3e9986ec	0.2998575
220	0x3dfdbbf2	0.12389363
221	0x3d7bde9c	0.061491594
222	0x3dce6d2b	0.10079416
223	0x3d9d660c	0.076854795
224	0x3e4baa54	0.19889194
225	0x3e6d9368	0.23200762
226	0x3e3183bb	0.17335407
227	0x3dcd8374	0.10034838
228	0xbe8ee557	-0.27909347
229	0x3d8c37e0	0.06846595
230	0xbdfbbe47	-0.12292152
231	0x3e3c32fb	0.18378823
232	0x3f1e8b4d	0.61931306
233	0x3e08ae30	0.13347697
234	0x3db4f9a8	0.08836681
235	0x3e529a5e	0.20566699
236	0x3e0c4f70	0.13702178
237	0x3e954d44	0.29160511
238	0x3e8a984c	0.27069318
239	0xbf3bdeeb	-0.7338702
240	0x3e269773	0.16268711
241	0xbf4ea85f	-0.80725664
242	0x3ecf5660	0.40495586
243	0x3ea18ec4	0.31554234
244	0x3ec1e701	0.37871554
245	0x3d3a4410	0.045475066
246	0x3dcee850	0.10102904
247	0xbe3733a7	-0.17890798
248	0x3e7c7d4c	0.24657172
249	0x3e2a0049	0.16601671
250	0xbeda7c38	-0.42672896
251	0x3f2017bc	0.62536216
252	0x3d658ce0	0.056042552
253	0xbe31f066	-0.17376861
254	0x3e30a96d	0.17252131
255	0xbdc48b30	-0.095968604

sequential/mobilenet_0.25_96/conv_dw_1_bn/FusedBatchNormV3 f4 [8]
0	0xbdd7f508	-0.10544783
1	0xbeabc5a4	-0.33549225
2	0x3ecb885d	0.39752474
3	0x3f176e29	0.59152466
4	0xbe9f44fd	-0.3110732
5	0x3d9c6908	0.076372206
6	0x3f36ad10	0.7135782
7	0x3ede024a	0.4336112

sequential/mobilenet_0.25_96/conv_dw_2_bn/FusedBatchNormV3 f4 [16]
0	0xbd991bb2	-0.074759856
1	0xbe50ace6	-0.20378456
2	0x3f9a1dd6	1.2040355
3	0xbe78130a	-0.24226013
4	0xbf313ede	-0.6923655
5	0xbd4f1b60	-0.050563216
6	0xbf0392ba	-0.5139576
7	0xbf6dbdf3	-0.92867965
8	0x3e0c0fae	0.13677856
9	0x3d3181d5	0.043336708
10	0xbd4b3379	-0.049609635
11	0xbe456d54	-0.19279987
12	0x3f5edafe	0.87052906
13	0xbe3a4158	-0.18188989
14	0x3f3c8c29	0.7365137
15	0x3ddfbbd8	0.109245

sequential/mobilenet_0.25_96/conv_dw_3_bn/FusedBatchNormV3 f4 [32]
0	0x3e477656	0.19478735
1	0x3efd87ee	0.4951777
2	0x3fc51519	1.5397063
3	0x3d5246f0	0.051337183
4	0xbe8e39c5	-0.2777845
5	0xbe761c28	-0.24034178
6	0x3ea561e7	0.32301256
7	0x3f9492c2	1.1607287
8	0xbf114eae	-0.5676068
9	0xbf3b0d00	-0.7306671
10	0x3ebc6bd5	0.3680102
11	0x3ea66e65	0.325061
12	0xbf0146f1	-0.50498873
13	0xbf95aa8e	-1.1692674
14	0xbf97bcc7	-1.1854485
15	0xbd6b0cc4	-0.05738522
16	0x3f61b37e	0.8816451
17	0xbf001e30	-0.5004606
18	0x3f431b9e	0.76214015
19	0x3fd26937	1.6438359
20	0xbdc8108c	-0.09768781
21	0x3e8166b4	0.2527367
22	0xbedff934	-0.43744814
23	0xbf61fa7d	-0.8827284
24	0x3cdfc038	0.027313337
25	0x3f5bb76b	0.8582675
26	0xbd95e1a6	-0.0731843
27	0x3f78fe69	0.972632
28	0xbcfe7f91	-0.031066688
29	0xbf091d3f	-0.5356025
30	0xbd26c640	-0.04071641
31	0x3f8aa979	1.0832969

sequential/mobilenet_0.25_96/conv_dw_4_bn/FusedBatchNormV3 f4 [32]
0	0xbed6ba10	-0.4193883
1	0x3fc8fbf3	1.5701889
2	0xbd91011c	-0.0708029
3	0x3f949d24	1.1610456
4	0xbeb73a6c	-0.3578676
5	0xbefb692b	-0.49103674
6	0xbc982cc8	-0.01857604
7	0xbe896730	-0.26836538
8	0x3f52bb65	0.8231719
9	0xbf33fdb5	-0.70309
10	0x3f96bdc0	1.1776657
11	0xbe325f6a	-0.1741921
12	0xbecccf47	-0.4000189
13	0x3f8cbb84	1.0994725
14	0x3fa075da	1.2535965
15	0xbf1630c6	-0.5866817
16	0xbf5b42d2	-0.85648835
17	0x3f0ac0fe	0.5420073
18	0xbf4eb2a4	-0.80741334
19	0xbf257fb1	-0.64647967
20	0xbe588c98	-0.21147382
21	0xbee109cc	-0.43952787
22	0xbeaa4714	-0.33257353
23	0xbf9cef83	-1.2260593
24	0xbf46810e	-0.7754067
25	0xbf4418a2	-0.76600087
26	0x3f7b1d7b	0.9809186
27	0x3f010846	0.5040325
28	0xbf0c135c	-0.5471704
29	0xbf321c1b	-0.69574136
30	0xbe982680	-0.29716873
31	0x3fa68ba9	1.3011371

sequential/mobilenet_0.25_96/conv_dw_5_bn/FusedBatchNormV3 f4 [64]
0	0xbd97c7c2	-0.07411148
1	0x3e9b7101	0.30359653
2	0x3f971c4a	1.1805508
3	0xbe17e3e9	-0.14833035
4	0x3fcd439e	1.603626
5	0xbedb9936	-0.42890328
6	0xbdff3f68	-0.12463266
7	0x3facb8b1	1.3493863
8	0x3fb27ae0	1.3943748
9	0x3e74d882	0.23910716
10	0xbf0892d8	-0.53349066
11	0x3e5fd750	0.21859479
12	0xbedd30f3	-0.43201408
13	0x3f263907	0.64930767
14	0x3faf6b72	1.3704665
15	0xbec197ef	-0.3781123
16	0xbf051aa1	-0.5199376
17	0xbf2cea85	-0.6754535
18	0x3f9c9c21	1.2235147
19	0xbf6bd33a	-0.9211918
20	0xbed2939a	-0.41128236
21	0xbe6fdd69	-0.23424305
22	0xbbd0fb40	-0.0063776076
23	0xbee7eb3d	-0.4529666
24	0x3f944709	1.1584178
25	0xbeb1c9e2	-0.34724337
26	0x3f5491f5	0.8303521
27	0x3e3269b6	0.17423138
28	0xbf5d7cb2	-0.86518395
29	0xbdccd49a	-0.10001488
30	0xbe3286ed	-0.17434283
31	0xbf23b720	-0.639513
32	0xbe560eae	-0.20904037
33	0xbece9c10	-0.4035344
34	0x3eee6e2e	0.46568435
35	0xbf1c60d4	-0.6108525
36	0x3fbba5a7	1.4659928
37	0x3f60efce	0.8786591
38	0xbf3d1575	-0.73860866
39	0xbf26ff55	-0.65233356
40	0x3d207816	0.039177023
41	0xbf06930e	-0.5256814
42	0xbf8e2ec1	-1.1108018
43	0x3faddd45	1.3583151
44	0x3e8415ca	0.25797874
45	0x3f897ddf	1.0741538
46	0x3f99e37a	1.2022545
47	0xbc3058ec	-0.010763388
48	0x3fa084a0	1.2540474
49	0xbe7b9c96	-0.24571452
50	0x3df7a133	0.12091293
51	0x3f4d524a	0.8020369
52	0x3e1736ce	0.14767
53	0xbf820ea1	-1.0160714
54	0xbe81dd40	-0.25364113
55	0xbecfede4	-0.40611184
56	0xbf225304	-0.6340792
57	0xbdeb36ea	-0.114850834
58	0x3dca13d0	0.0986706
59	0x3eb3bc3a	0.35104543
60	0xbf0dcc26	-0.5538963
61	0xbea112ce	-0.3145966
62	0x3f32024e	0.69534767
63	0x3ebc0da9	0.36729172

sequential/mobilenet_0.25_96/conv_dw_6_bn/FusedBatchNormV3 f4 [64]
0	0xbd8d2296	-0.06891362
1	0xbf414cc8	-0.75507784
2	0xbf3c671a	-0.7359482
3	0xbea494ee	-0.32144874
4	0x3da32e36	0.079677984
5	0xbdaf7782	-0.08567716
6	0x3fadf52b	1.3590444
7	0xbef3ec5d	-0.47641268
8	0xbdad5cec	-0.08464989
9	0x3f67ec71	0.90595156
10	0xbef28945	-0.47370353
11	0x3fbb098e	1.4612291
12	0x3dd2a365	0.10285071
13	0xbdd33cea	-0.10314353
14	0xbf3c0cda	-0.7345711
15	0x3e2df0b1	0.16986348
16	0x3f9c1720	1.2194557
17	0xbf34b6dd	-0.7059153
18	0x3f807671	1.0036145
19	0xbe9fc5ec	-0.3120569
20	0xbf8562b4	-1.0420747
21	0xbf327e8d	-0.6972435
22	0xbe79dcd1	-0.24400641
23	0xbf0f3959	-0.5594688
24	0xbd993378	-0.0748052
25	0xbf2b9d76	-0.6703714
26	0xbe8c8240	-0.27443123
27	0x3f51a4f8	0.8189235
28	0xbee56d0b	-0.44809756
29	0x3f7864df	0.9702892
30	0xbf32e4c6	-0.6988033
31	0x3f515d22	0.81782734
32	0xbeaa340b	-0.3324283
33	0x3fb09048	1.3794031
34	0xbf3626b8	-0.7115283
35	0x3f1cda7e	0.6127089
36	0xbf7966dc	-0.97422576
37	0xbf0ea466	-0.557196
38	0xbee9b764	-0.45647728
39	0x3f713938	0.94227934
40	0x3ea100c4	0.31445897
41	0x3f6eede2	0.9333173
42	0x3f8e9336	1.1138675
43	0x3fbdc899	1.4826843
44	0xbf504bb0	-0.8136549
45	0x3f918647	1.1369103
46	0xbecd3f6c	-0.4008745
47	0xbd76ef86	-0.06028702
48	0x3f7d8985	0.99037963
49	0xbed86d18	-0.42270732
50	0xbe3d62b2	-0.1849468
51	0x3f7c8c92	0.98651993
52	0x3f929da6	1.145436
53	0xbf27b6bc	-0.65513206
54	0x3fb46c16	1.4095485
55	0x3f830b11	1.0237752
56	0x3fa572ea	1.2925694
57	0x3f9122bf	1.1338729
58	0xbe86abf2	-0.2630306
59	0x3e083796	0.13302454
60	0xbe446df8	-0.19182575
61	0x3f45107b	0.7697827
62	0xbebe7bc1	-0.37203792
63	0x3f339222	0.70144856

sequential/mobilenet_0.25_96/conv_dw_7_bn/FusedBatchNormV3 f4 [128]
0	0x3ef90c82	0.48642355
1	0xbe3a22ef	-0.18177389
2	0x3d2efa77	0.04271933
3	0xbd84f363	-0.06491735
4	0xbdb26340	-0.08710337
5	0x3fd7483d	1.681892
6	0xbee47d7a	-0.4462698
7	0xbebd34fa	-0.3695448
8	0xbedcc3c0	-0.43118095
9	0xbe3b1502	-0.18269733
10	0x3f1273cd	0.5720795
11	0x3f50af4e	0.81517494
12	0xbdec39d4	-0.11534467
13	0xbd8d8a6c	-0.069111675
14	0x3f967df3	1.1757187
15	0xbe861a30	-0.26191854
16	0xbd20f9d4	-0.039300755
17	0xbadcc000	-0.0016841888
18	0x3f4d9bdd	0.80315953
19	0x3f528f14	0.8224957
20	0xbe7fae3b	-0.24968807
21	0xbdc35f24	-0.09539631
22	0xbedbeb63	-0.42953023
23	0xbe8a2378	-0.26980186
24	0x3ded6a3a	0.11592527
25	0xbf2adce6	-0.66743314
26	0x3f4b91e3	0.7951948
27	0xbec5a518	-0.3860252
28	0xbf1fab32	-0.623706
29	0xbf2195c4	-0.6311915
30	0xbf37370b	-0.71568364
31	0xbe143fa0	-0.14477396
32	0xbec7983e	-0.3898334
33	0x3f7cf05b	0.98804253
34	0x3eb5d382	0.3551293
35	0x3effdd9a	0.49973756
36	0x3d8a246c	0.06745228
37	0xbe61ef65	-0.22063978
38	0x3ea0c570	0.31400633
39	0xbf6367ef	-0.88830465
40	0xbdb52b65	-0.088461675
41	0xbc299bd7	-0.0103520965
42	0x3d0b05c0	0.03394103
43	0xbf3390e2	-0.7014295
44	0xbe96bc0c	-0.29440343
45	0x3e2f9af4	0.17148954
46	0x3f85a9de	1.0442464
47	0xbc757ef8	-0.014983885
48	0xbf88009c	-1.0625186
49	0xbf346912	-0.70472825
50	0xbeba422d	-0.36378613
51	0xbeb1423d	-0.34620848
52	0xbec4cde0	-0.3843832
53	0xbf712dbb	-0.94210404
54	0xbe8c01c8	-0.2734511
55	0x3f2da45a	0.67828906
56	0x3dd33b9d	0.10314105
57	0x3f739e91	0.9516383
58	0x3f1c46f6	0.6104578
59	0x3ef9392c	0.4867643
60	0x3eccaa14	0.3997351
61	0x3fb22de5	1.3920256
62	0xbf10fdcc	-0.56637263
63	0xbf54640a	-0.8296515
64	0xbe9216ca	-0.28533012
65	0xbe6dd83e	-0.23227021
66	0xbf812bce	-1.0091493
67	0x3ef449ad	0.4771246
68	0xbe1dcde3	-0.15410571
69	0xbf22dcdd	-0.6361826
70	0x3ee2d0b7	0.44299862
71	0x3ee03d8e	0.43796962
72	0x3f91cdf8	1.1390982
73	0xbe3b5c0e	-0.18296835
74	0xbe9ff57d	-0.3124198
75	0x3f7abfc0	0.9794884
76	0xbf1f8c9a	-0.62323916
77	0xbf4df147	-0.80446285
78	0x3fa441b2	1.2832549
79	0xbe9f184a	-0.3107322
80	0x3fade546	1.3585594
81	0xbec86e2c	-0.39146554
82	0xbea65280	-0.32484818
83	0x3f818eb7	1.0121678
84	0xbc195240	-0.009357989
85	0xbe02763e	-0.12740418
86	0x3f46a994	0.77602506
87	0x3e9f5ec3	0.31126985
88	0x3ec2d7be	0.38055223
89	0xbe807bfa	-0.25094587
90	0x3f981527	1.1881455
91	0x3f241f34	0.6411011
92	0xbecfe892	-0.40607125
93	0xbdba289a	-0.090897754
94	0xbf126150	-0.5717974
95	0x3fa10c89	1.258195
96	0xbf364dde	-0.71212566
97	0xbdc40ab0	-0.09572351
98	0xbf21ed62	-0.6325284
99	0xbd365f68	-0.04452458
100	0xbf469fe9	-0.77587754
101	0xbf137ba6	-0.5761055
102	0xbed68692	-0.41899544
103	0x3fa83ded	1.3143898
104	0xbdbe49a1	-0.09291387
105	0xbf58057e	-0.8438338
106	0xbc8d0b30	-0.017217249
107	0x3e5ec7be	0.21755883
108	0xbeccbd40	-0.39988136
109	0x3f99cc57	1.2015485
110	0x3e8a4d74	0.27012217
111	0xbe9baa56	-0.30403394
112	0x3e5e5b5c	0.21714538
113	0xbe8e52a1	-0.27797416
114	0xbdd13a53	-0.102162026
115	0x3f5ea5b4	0.8697159
116	0xbeec9980	-0.4621086
117	0x3e48bb18	0.1960262
118	0xbf63ba0a	-0.8895575
119	0xbe556986	-0.20841035
120	0xbf713501	-0.942215
121	0xbfbad630	-1.4596615
122	0x3e92eef8	0.28697944
123	0x3ef00a30	0.46882772
124	0x3e5e8e6f	0.21734022
125	0xbe059ed9	-0.13048877
126	0xbf9973c8	-1.1988459
127	0xbecec681	-0.4038582

sequential/mobilenet_0.25_96/conv_dw_8_bn/FusedBatchNormV3 f4 [128]
0	0xbdab3388	-0.08359438
1	0xbceead68	-0.02913542
2	0xbee79d8b	-0.45237383
3	0x3f840537	1.0314091
4	0xbcb47ee8	-0.02203317
5	0x3eab439a	0.33450013
6	0xbe4a70e5	-0.19769628
7	0xbf85ec4b	-1.0462736
8	0x3f93e5ec	1.1554542
9	0x3f5097eb	0.8148181
10	0x3f55c882	0.83509076
11	0x3d889049	0.06668145
12	0x3ebe9cbe	0.3722896
13	0xbecc0d15	-0.3985373
14	0xbf625748	-0.8841443
15	0xbf0d5792	-0.55211747
16	0x3f7ebfd7	0.99511474
17	0x3f73bdc3	0.9521143
18	0xbf25b4d1	-0.6472903
19	0x3dfc2e66	0.12313537
20	0x3f9d3ffb	1.228515
21	0xbf2f4730	-0.68468
22	0xbe54e070	-0.20788741
23	0xbe0abdc2	-0.1354895
24	0xbec891f8	-0.39173865
25	0x3f64e296	0.8940824
26	0x3f9c1ee6	1.219693
27	0xbd252040	-0.04031396
28	0x3ee15673	0.44011268
29	0x3e958bd1	0.29208234
30	0xbf35ee7c	-0.71067023
31	0x3ef19e1a	0.47190934
32	0xbf3ef097	-0.7458586
33	0xbe84a5d6	-0.25907773
34	0xbf199260	-0.59988976
35	0xbef9d26b	-0.4879335
36	0x3e9542ce	0.2915253
37	0xbe8aee6c	-0.27135026
38	0xbef070ee	-0.4696116
39	0x3f034b53	0.5128681
40	0xbf42390c	-0.75868297
41	0x3f098dc6	0.53731954
42	0xbf514c55	-0.817571
43	0x3f6fa27a	0.93607295
44	0x3f0059b9	0.50136906
45	0x3edc2b09	0.43001583
46	0x3eb48165	0.3525497
47	0xbf164722	-0.5870229
48	0x3eb25ff4	0.3483883
49	0xbdba56f8	-0.09098619
50	0xbef4a344	-0.47780812
51	0xbd7d533a	-0.06184695
52	0xbec5a61a	-0.38603288
53	0xbf09ac40	-0.5377846
54	0x3e36bd5c	0.17845672
55	0x3eb52e1c	0.3538674
56	0x3f00f949	0.5038038
57	0xbf269b02	-0.65080273
58	0xbe41516f	-0.1887872
59	0xbf292959	-0.66078717
60	0xbd3de5d0	-0.046361744
61	0x3ec5de50	0.38646173
62	0x3e94f451	0.2909265
63	0xbe58dfff	-0.21179198
64	0xbec1194d	-0.37714615
65	0x3ecf0f62	0.40441424
66	0xbf0ca1c4	-0.54934335
67	0x3f90d350	1.1314487
68	0xbedf663c	-0.43632686
69	0x3f33614c	0.7007034
70	0xbf5acceb	-0.8546893
71	0x3f612e69	0.8796144
72	0x3ee5a20e	0.448502
73	0x3e570f68	0.21001971
74	0x3c976be0	0.018484056
75	0x3d96954d	0.073526956
76	0xbebaf5e1	-0.36515716
77	0x3f83e48b	1.0304121
78	0xbf039014	-0.5139172
79	0xbf13000b	-0.5742194
80	0x3f4adfba	0.7924763
81	0xbeaa0091	-0.33203557
82	0x3f2b9d79	0.6703716
83	0x3f698e3f	0.91232675
84	0xbf6ef5f6	-0.93344057
85	0x3f49e153	0.7885944
86	0xbf84b69c	-1.0368228
87	0x3e7e74e9	0.24849285
88	0x3ee2afaf	0.4427466
89	0xbf47c7dd	-0.7803934
90	0xbe5e7bfb	-0.21726982
91	0xbeb0fc0d	-0.345673
92	0x3ed43591	0.41447118
93	0xbc676050	-0.014122084
94	0x3f8494e2	1.0357935
95	0xbf63988a	-0.8890463
96	0x3f0f7335	0.56035167
97	0xbf1ad666	-0.60483396
98	0x3df3b462	0.1189964
99	0xbe26d080	-0.16290474
100	0x3f418f9c	0.75609756
101	0xbe7ea218	-0.24866521
102	0xbf30bd6e	-0.69039047
103	0xbf4a673e	-0.79063785
104	0xbe9309de	-0.28718466
105	0xbe22c896	-0.1589683
106	0xbf905f16	-1.1279018
107	0xbddb6796	-0.10713117
108	0x3e9d0606	0.30668658
109	0x3e1b6a08	0.15177166
110	0x3f8b24b1	1.0870572
111	0x3eea840e	0.45803875
112	0x3f1470a2	0.57984364
113	0x3f78796d	0.9706028
114	0x3a7899f8	0.00094833924
115	0xbf17c310	-0.59282017
116	0xbf8a27e8	-1.0793428
117	0x3e368a3c	0.1782617
118	0x3f275068	0.65357065
119	0x3e471b1d	0.19443937
120	0x3e34f935	0.1767319
121	0x3e64787f	0.2231159
122	0xbf28633c	-0.6577642
123	0xbf65bc31	-0.8974028
124	0x3f43c6c1	0.7647515
125	0x3edd5bde	0.43234152
126	0x3f925424	1.1431928
127	0x3f19a1aa	0.60012305

sequential/mobilenet_0.25_96/conv_dw_9_bn/FusedBatchNormV3 f4 [128]
0	0xbe1b31ff	-0.15155791
1	0xbf494a62	-0.78629124
2	0xbf476e8b	-0.7790305
3	0x3f218a7c	0.63101935
4	0x3f0fb220	0.5613117
5	0xbe4d7f34	-0.20068055
6	0xbb4691c7	-0.0030299292
7	0x3ed14da2	0.40879542
8	0x3ea35224	0.31898606
9	0xbe3974b0	-0.18110919
10	0xbedbfb55	-0.4296519
11	0xbe3060aa	-0.17224374
12	0xbde3d017	-0.11123674
13	0xbf440a2b	-0.76578015
14	0x3f09ca5e	0.5382441
15	0x3d9785bd	0.073985554
16	0x3d0c9b00	0.034327507
17	0xbea989fe	-0.33113092
18	0xbf0b2ebd	-0.5436819
19	0x3f85f704	1.0466008
20	0x3e6d93ce	0.23200914
21	0xbefd5875	-0.4948155
22	0xbe7785e0	-0.24172163
23	0x3e58d64c	0.21175498
24	0xbd5b5a50	-0.053552926
25	0xbe9690ec	-0.29407442
26	0x3e6bfa68	0.23044741
27	0x3dc42fa8	0.09579402
28	0x3ee77fc1	0.45214656
29	0x3f1575fa	0.5838314
30	0x3f642900	0.8912506
31	0xbf7536a8	-0.95786524
32	0xbdca4b40	-0.09877634
33	0xbe3a8c8d	-0.18217678
34	0xbf7dc69e	-0.9913119
35	0xbf22e917	-0.63636917
36	0xbeef5e2d	-0.46751538
37	0xbf33393c	-0.7000921
38	0x3ecd183d	0.40057555
39	0xbde53322	-0.111913934
40	0xbe98006f	-0.2968783
41	0x3f60fba0	0.8788395
42	0x3f3827bb	0.71935624
43	0xbf34b9b6	-0.7059587
44	0x3f0df2d9	0.5544868
45	0x3f20fd22	0.6288625
46	0x3f8bdf02	1.0927432
47	0xbea2d97b	-0.3180655
48	0xbdecd940	-0.11564875
49	0xbf4c9b79	-0.7992473
50	0xbf1a24ca	-0.60212386
51	0xbf104cd4	-0.5636723
52	0xbebb0d75	-0.36533704
53	0x3f901f23	1.1259502
54	0x3ed6cc2b	0.41952643
55	0x3cf3dc2e	0.029768076
56	0xbe948540	-0.29007912
57	0x3f8a3c2e	1.0799615
58	0x3e4bd784	0.19906431
59	0xbf854388	-1.0411234
60	0x3ea528ca	0.32257682
61	0xbf9c3420	-1.2203407
62	0xbf4e53a8	-0.805964
63	0xbe39d491	-0.18147494
64	0xbe620ea9	-0.22075905
65	0xbf190b30	-0.59782696
66	0xbf01c1ce	-0.5068635
67	0x3f12bfcc	0.5732391
68	0xbebcb0c0	-0.368536
69	0x3d4262b0	0.047457397
70	0x3f975d16	1.1825283
71	0xbef5cee7	-0.48009416
72	0xbf8a9c4e	-1.082895
73	0xbf21ee72	-0.63254464
74	0x3f2c3768	0.67272043
75	0xbf6354f1	-0.88801485
76	0xbeb45f6e	-0.35229057
77	0xbf75b79b	-0.95983285
78	0xbed88edd	-0.42296496
79	0xbe9d6b7d	-0.3074607
80	0x3f89a5a2	1.0753672
81	0xbf2a4de8	-0.66525126
82	0xbf41bc9c	-0.7567842
83	0x3de4c382	0.11170103
84	0x3e58eefc	0.21184915
85	0xbf4bd81f	-0.7962665
86	0x3f424dcd	0.75899965
87	0x3e6f1f00	0.2335167
88	0xbe8726be	-0.26396745
89	0x3f5a08d3	0.85169715
90	0xbeae776f	-0.34075496
91	0xbf037d38	-0.51362944
92	0x3f09343b	0.5359532
93	0xbd800c3a	-0.06252332
94	0x3ef76e60	0.48326397
95	0xbf5bac5d	-0.8580988
96	0xbe006816	-0.12539706
97	0x3fb6fbbb	1.4295572
98	0xbe9a88c0	-0.30182457
99	0x3e9778bf	0.2958431
100	0x3ec4a814	0.38409483
101	0xbed00ad2	-0.40633255
102	0x3f214e5e	0.63010204
103	0xbe17e724	-0.14834267
104	0x3f0dafe7	0.5534653
105	0xbe65e612	-0.22451046
106	0xbdbbef2c	-0.09176478
107	0xbe84148e	-0.25796932
108	0xbec5fc9f	-0.38669297
109	0x3f05307a	0.52027094
110	0xbf12849d	-0.572336
111	0xbe4f4559	-0.20241298
112	0xbe7e8a0a	-0.24857345
113	0x3f3f2952	0.74672425
114	0x3ed99cca	0.42502433
115	0x3f66e9e4	0.9020064
116	0x3f660270	0.8984747
117	0x3dd1c134	0.10241929
118	0xbf6369de	-0.88833416
119	0xbecc3fda	-0.39892465
120	0x3eba4a5e	0.36384863
121	0xbe3683e3	-0.17823748
122	0x3f5d2a20	0.863924
123	0xbef71f50	-0.48266077
124	0x3ee8bb68	0.4545548
125	0xbebc2840	-0.36749458
126	0xbf3dec70	-0.741889
127	0x3f78033f	0.96879953

sequential/mobilenet_0.25_96/conv_pw_10_bn/FusedBatchNormV3 f4 [128]
0	0x3e8c45fe	0.2739715
1	0x3f200580	0.6250839
2	0xbe6ee93a	-0.23331156
3	0x3f804d59	1.0023605
4	0xbeacdd8e	-0.33762783
5	0x3ee7b8a1	0.45258048
6	0x3ef69132	0.4815765
7	0xbdc982da	-0.09839411
8	0xbf67bd31	-0.9052306
9	0x3f19567b	0.59897584
10	0xbe7698d4	-0.24081737
11	0xbeee1a95	-0.46504655
12	0xbf1f2759	-0.62169415
13	0xbea561cc	-0.32301176
14	0x3eb9957e	0.36246866
15	0x3de709fc	0.11281201
16	0xbe50dd24	-0.20396858
17	0x3f196f5f	0.59935564
18	0x3ea145cd	0.31498566
19	0x3d6d5968	0.057946593
20	0xbf639873	-0.88904494
21	0xbd7d2ff6	-0.061813317
22	0xbe4ec558	-0.20192468
23	0xbe9ddfaa	-0.30834705
24	0x3f801e0b	1.0009168
25	0x3f1c5f51	0.6108294
26	0xbeb91898	-0.36151576
27	0xbf06e772	-0.5269691
28	0x3f438d8a	0.76387846
29	0x3f0275bb	0.5096089
30	0x3ed20048	0.4101584
31	0xbf6cbddb	-0.92477196
32	0xbf296629	-0.6617151
33	0xbd2ad830	-0.04171008
34	0x3d987548	0.074442446
35	0x3d89f376	0.067358896
36	0xbbd23f50	-0.006416239
37	0x3e2a5736	0.16634831
38	0xbf7b8753	-0.98253363
39	0xbf4dc71e	-0.80381954
40	0xbf14d60b	-0.58139104
41	0x3f73111a	0.9494797
42	0x3dd752f0	0.10513866
43	0x3ec01eac	0.375234
44	0x3da086d2	0.07838215
45	0xbec4d1a0	-0.3844118
46	0xbf4dfdbf	-0.8046531
47	0xbe050c99	-0.12993087
48	0x3ec704ed	0.38870946
49	0x3e56446a	0.20924535
50	0x3ecf3398	0.4046905
51	0xbf044293	-0.51664084
52	0xbecb9070	-0.39758635
53	0xbef63da2	-0.48093897
54	0x3f9cca38	1.2249212
55	0xbeff733a	-0.49892598
56	0xbf92d153	-1.1470131
57	0xbeb9eb16	-0.3631217
58	0x3ec60466	0.3867523
59	0x3e59821c	0.21241039
60	0xbf42d0b0	-0.7609968
61	0x3ef3bc5c	0.47604644
62	0xbed2bdba	-0.41160375
63	0x3e1f2f26	0.1554533
64	0x3ec38007	0.38183615
65	0xbef3a1ef	-0.47584483
66	0xbf27c860	-0.65540123
67	0x3ea5c8a4	0.3237964
68	0xbe514a13	-0.20438413
69	0x3da6912a	0.081331566
70	0xbe834cb0	-0.25644445
71	0xbce52bb0	-0.027974933
72	0x3eaab7ef	0.33343455
73	0xbe96c977	-0.2945058
74	0xbf8c3ad0	-1.0955448
75	0xbf37cf1b	-0.7180039
76	0xbf1274d4	-0.57209516
77	0xbf9f7a0d	-1.2459122
78	0xbf2bdbe4	-0.671324
79	0x3fc5992d	1.543737
80	0x3e98ba7a	0.2982977
81	0xbf1dfe43	-0.617161
82	0xbf420f7f	-0.75804895
83	0x3f910a87	1.1331338
84	0x3eb9025e	0.3613462
85	0x3f04d2fb	0.5188443
86	0xbf9cbae3	-1.2244533
87	0xbe9afe64	-0.3027221
88	0x3e7e0132	0.24805143
89	0x3e6aad02	0.2291756
90	0x3ec40d0c	0.38291204
91	0xbe8f4e3d	-0.2798938
92	0xbe83f776	-0.25774735
93	0x3e4630a9	0.193545
94	0x397f2200	0.00024331361
95	0xbea5fa7e	-0.32417673
96	0x3f874389	1.0567485
97	0xbf07b6bf	-0.53013223
98	0xbf8c35e0	-1.0953941
99	0x3f0f53cf	0.55987257
100	0xbf09d935	-0.53847057
101	0x3eb5e4ea	0.3552621
102	0x3f24ba46	0.6434673
103	0x3ecfe250	0.4060235
104	0xbfa0ccf7	-1.256255
105	0x3eab9fdf	0.3352041
106	0xbe4d942d	-0.20076056
107	0x3ed7999c	0.42109382
108	0xbf4b3cec	-0.79389834
109	0x3ebe4025	0.37158313
110	0xbf916d69	-1.1361514
111	0x3da66bfc	0.08126065
112	0x3e7474c2	0.23872665
113	0x3f8a1234	1.0786805
114	0x3f3b062e	0.73056304
115	0x3e8c94f9	0.27457407
116	0x3f8c5936	1.0964725
117	0x3ec7d928	0.39032865
118	0x3e0fe997	0.14053951
119	0xbf836380	-1.026474
120	0x3f10399e	0.56337917
121	0x3e5c74fc	0.21529001
122	0xbeaae170	-0.3337512
123	0x3edc01a8	0.42970014
124	0x3e24f878	0.16110408
125	0x3f305cde	0.68891704
126	0xbec488dc	-0.38385665
127	0xbf6f86cd	-0.93565065

sequential/mobilenet_0.25_96/conv_pw_11_bn/FusedBatchNormV3 f4 [128]
0	0x3ec97203	0.39344797
1	0x3e8bbe4c	0.27293622
2	0x3f0c3342	0.54765713
3	0xbebc4a8c	-0.36775625
4	0x3eb70427	0.35745355
5	0xbdaf4246	-0.085575625
6	0xbf9ed6dc	-1.240932
7	0x3e95aee7	0.29235002
8	0x3ccf91da	0.025338102
9	0xbea2b758	-0.31780505
10	0xbefaa656	-0.4895503
11	0xbf1f5202	-0.6223451
12	0xbbe5d5c0	-0.0070140064
13	0x3d739cea	0.059475817
14	0x3da582cd	0.08081589
15	0xbf0e5e32	-0.5561248
16	0xbf672775	-0.9029458
17	0xbe135473	-0.14387684
18	0xbec5fc35	-0.3866898
19	0xbeb51bc5	-0.3537275
20	0xbdd688de	-0.10475324
21	0xbf8026b5	-1.0011812
22	0xbef3d458	-0.47622943
23	0x3e921e90	0.28538942
24	0x3f2ff2d0	0.6872988
25	0x3db293f4	0.08719626
26	0x3f2d9dc9	0.67818886
27	0x3f1735e6	0.5906662
28	0xbd1c0e2b	-0.03809945
29	0x3f4c6545	0.79842025
30	0x3f4afcb7	0.7929186
31	0x3ec792d9	0.38979223
32	0xbe99c4be	-0.30032915
33	0xbf196835	-0.5992463
34	0xbf8d2b91	-1.102892
35	0x3f6fd3cb	0.93682545
36	0x3f1b15ac	0.60579944
37	0x3f70db49	0.940846
38	0xbe4fad69	-0.20280994
39	0x3f279940	0.65468216
40	0x3f44d4fe	0.768875
41	0xbf323b93	-0.69622153
42	0x3e13aabb	0.14420597
43	0x3dfb854b	0.12281283
44	0x3f2e00e9	0.6797014
45	0xbe0574c8	-0.1303283
46	0xbe365e74	-0.17809469
47	0xbe3bf39e	-0.18354651
48	0x3e90b15d	0.28260317
49	0x3f238d62	0.6388761
50	0xbf4625df	-0.77401537
51	0xbe0648b9	-0.13113679
52	0x3f356846	0.70862234
53	0xbee79008	-0.45227075
54	0xbea7cdd8	-0.32774234
55	0xbe931af2	-0.28731495
56	0xbf99cca9	-1.2015582
57	0x3ef92cc9	0.4866698
58	0xbf341104	-0.70338464
59	0x3eeb092c	0.45905435
60	0xbec15d5a	-0.37766534
61	0x3e703c97	0.23460613
62	0x3f5f832e	0.8730954
63	0xbf0a9073	-0.5412666
64	0xbf0e5115	-0.5559247
65	0x3ef0874e	0.4697823
66	0x3f554e80	0.83322906
67	0xbf74a270	-0.9556036
68	0xbdefc21e	-0.11706947
69	0x3ef08ca6	0.46982306
70	0x3f254961	0.6456509
71	0x3ee41367	0.44546053
72	0xbd925f93	-0.071471356
73	0xbebafcfa	-0.3652113
74	0xbee5ea1f	-0.44905183
75	0xbf40200e	-0.7504891
76	0x3f01cab4	0.50699925
77	0x3f1a6888	0.6031575
78	0x3f0745c7	0.52840847
79	0xbea35df6	-0.31907624
80	0x3d69f134	0.057114795
81	0xbe6c7ecf	-0.23095249
82	0x3f048f02	0.5178071
83	0x3f16ebe7	0.5895371
84	0xbe9cf8c0	-0.3065853
85	0xbec3748a	-0.3817485
86	0x3faac802	1.3342288
87	0x3f32a50b	0.69783086
88	0x3e159538	0.14607704
89	0xbf080762	-0.53136265
90	0x3eb0adff	0.34507748
91	0xbde27ca7	-0.11058932
92	0xbebc3e10	-0.367661
93	0xbe8bfa06	-0.2733919
94	0xbec8e6be	-0.39238542
95	0xbeeb3596	-0.4593932
96	0xbf19ba3f	-0.60049814
97	0xbea03972	-0.31293827
98	0x3e957155	0.29188028
99	0xbe2fed12	-0.17180279
100	0x3f8d8bb8	1.1058264
101	0x3edc3c5f	0.4301481
102	0x3f577055	0.8415578
103	0xbd71ac38	-0.05900213
104	0xbf22e7ba	-0.63634837
105	0x3e7060d1	0.23474433
106	0x3ecd4068	0.400882
107	0xbdae13ab	-0.08499845
108	0x3e953c93	0.29147777
109	0xba1aa500	-0.00058992207
110	0xbf96c624	-1.1779218
111	0xbec5f837	-0.38665935
112	0xbefdd330	-0.49575186
113	0xbdc447b4	-0.09583989
114	0x3d2d3410	0.04228598
115	0xbe448a76	-0.19193444
116	0x3f9b889e	1.2151067
117	0xbe17ad2a	-0.1481215
118	0xbf152c3a	-0.5827061
119	0xbf715e2c	-0.9428432
120	0x3ebf70ec	0.3739084
121	0xbf8179f0	-1.0115337
122	0x3cf742a8	0.030183151
123	0xbf25ac14	-0.64715695
124	0xbf3bfba0	-0.73430824
125	0xbe3a7928	-0.1821028
126	0x3f810986	1.0081031
127	0xbdb734ff	-0.08945655

sequential/mobilenet_0.25_96/conv_pw_12_bn/FusedBatchNormV3 f4 [256]
0	0x3f1811f7	0.5940241
1	0x3eef82af	0.4677939
2	0x3ee9960e	0.45622295
3	0x3f0fb7a3	0.5613958
4	0x3e961a81	0.29317096
5	0x3ef3bf90	0.47607088
6	0xbd9c5674	-0.07633677
7	0x3e203860	0.15646505
8	0x3eabd096	0.33557576
9	0x3eced4ec	0.40396821
10	0xbe8c34c5	-0.2738401
11	0xbeb9d558	-0.3629558
12	0xbfa970fc	-1.3237605
13	0x3e1975dd	0.14986368
14	0x3f421bb1	0.75823504
15	0xbd32c454	-0.043644264
16	0xbf1c4d14	-0.6105511
17	0x3e8d0d1c	0.27549064
18	0xbe58bc13	-0.21165495
19	0x3ead3fc0	0.338377
20	0xbe51cad5	-0.2048753
21	0xbe8a1d95	-0.26975694
22	0x3e1dd5b3	0.15413551
23	0x3e8c4628	0.27397275
24	0x3dc2537c	0.0948858
25	0x3e09d070	0.13458419
26	0xbed06d60	-0.40708447
27	0x3f3d2528	0.7388482
28	0x3d220df4	0.039564088
29	0x3eafbacb	0.343222
30	0x3da2996e	0.07939421
31	0x3e34d02e	0.17657539
32	0x3c3dd990	0.0115875155
33	0x3de9048b	0.1137782
34	0x3d362453	0.044468235
35	0x3f1e6b80	0.6188278
36	0x3e2791cc	0.16364211
37	0x3edb4002	0.42822272
38	0xbf21b0a4	-0.6316016
39	0xbeaf6835	-0.3425919
40	0x3e090de6	0.13384208
41	0x3c937a92	0.018002782
42	0xbf6667fa	-0.90002406
43	0x3ecefc52	0.4042688
44	0xbe435dbc	-0.19078726
45	0x3ddc4d30	0.1075691
46	0x3d0bfa2c	0.03417413
47	0x3d72e956	0.059304558
48	0x3e8b1116	0.27161473
49	0x3e997b92	0.2997709
50	0x3d7b8d23	0.061413895
51	0x3f0e02b4	0.55472875
52	0xbda53f7a	-0.08068748
53	0xbf07350d	-0.52815324
54	0xbf9a8b06	-1.2073677
55	0x3f750bc1	0.9572106
56	0x3dcf5072	0.101227656
57	0xbf035638	-0.51303434
58	0x3e0c76a5	0.13717134
59	0x3ebc8c36	0.36825722
60	0x3dfb66a0	0.122754335
61	0x3c1b6480	0.00948441
62	0xbf3ece4e	-0.74533546
63	0x3e96d559	0.29459646
64	0x3ea651d9	0.3248432
65	0xbf61b5f1	-0.88168246
66	0xbf1cf673	-0.6131355
67	0xbee7a37c	-0.45241916
68	0x3f05b287	0.52225536
69	0xbec2657d	-0.37968054
70	0x3f872437	1.0557927
71	0xbf762994	-0.96157193
72	0xbf1f5a73	-0.6224739
73	0xbf142dfc	-0.57882667
74	0x3ee92d52	0.4554239
75	0xbf07ab29	-0.52995545
76	0xbf30b237	-0.69021934
77	0x3eee177f	0.465023
78	0xbf7d59b0	-0.9896498
79	0x3ebb985a	0.36639673
80	0x3ed4a8b6	0.41534966
81	0x3e9ccf39	0.30626848
82	0x3ec80976	0.39069718
83	0x3eac7903	0.33686075
84	0x3e8276e4	0.2548133
85	0x3ec77672	0.38957554
86	0x3eb919f8	0.36152625
87	0x3f3d3dfc	0.73922706
88	0xbdb37aec	-0.0876368
89	0x3f101054	0.56274915
90	0x3ddeeca2	0.10884978
91	0xbe9380ce	-0.28809208
92	0xbf03d9c4	-0.5150416
93	0x3eadcbcc	0.33944547
94	0xbf6364d7	-0.88825744
95	0x3f16d5ac	0.5891979
96	0x3f00915c	0.502218
97	0xbe7f41e3	-0.24927478
98	0xbd554273	-0.052065324
99	0xbf069e30	-0.52585125
100	0xbd1e3b8d	-0.03863101
101	0xbc82f0a4	-0.015983887
102	0x3ebf9268	0.37416387
103	0x3d7db976	0.061944447
104	0x3b244c20	0.0025069788
105	0x3e210309	0.15723814
106	0x3ef6bf5a	0.48192865
107	0x3edbd017	0.42932197
108	0x3e5d9905	0.21640404
109	0xbdaf3986	-0.085558936
110	0xbf027841	-0.5096474
111	0xbeef1d71	-0.4670215
112	0x3dd780e0	0.10522628
113	0x3f12358f	0.57112974
114	0xbe014f84	-0.12627989
115	0x3ec3eaf0	0.3826518
116	0xbb8beb0c	-0.004269963
117	0xbedfcf5d	-0.43712893
118	0x3dd42c66	0.10360031
119	0x3ed5bc98	0.41745448
120	0x3f012504	0.50447106
121	0xbf82a8e2	-1.0207789
122	0x3e1528c4	0.14566332
123	0xbf8188fa	-1.0119927
124	0xbdf1836a	-0.11792643
125	0x3e96e9f3	0.29475364
126	0xbf40a87d	-0.7525709
127	0xbf1213fd	-0.5706175
128	0x3f043089	0.5163656
129	0x3e8d4f87	0.27599737
130	0xbeb6596d	-0.356151
131	0xbebd967a	-0.37028867
132	0x3df36bad	0.11885772
133	0xbd6b7699	-0.05748615
134	0x3e5e401f	0.21704148
135	0x3e3bb597	0.1833099
136	0xbc3bc47c	-0.01146042
137	0xbe378276	-0.1792086
138	0xbed240ab	-0.41064963
139	0xbe546468	-0.20741427
140	0x3f1569dc	0.58364654
141	0x3ee93bbd	0.4555339
142	0xbecae067	-0.3962433
143	0x3ecb1410	0.39663744
144	0x3db0fb7f	0.08641719
145	0x3e707f54	0.23486072
146	0x3e756627	0.2396475
147	0xbf066f8a	-0.52513945
148	0xbea81c6c	-0.32834184
149	0xbe8cba6b	-0.27485976
150	0x3ed2bad4	0.41158164
151	0xbf8f7e18	-1.1210356
152	0xbfa94554	-1.3224282
153	0x3eceec86	0.40414828
154	0xbe04a5d1	-0.12953879
155	0x3e016497	0.12636028
156	0xbf781eaf	-0.9692182
157	0xbeb83900	-0.35980988
158	0xbf513ec6	-0.8173641
159	0xbdaf353b	-0.08555075
160	0x3eea7a66	0.45796508
161	0x3f2695b4	0.6507218
162	0x3dc07ab2	0.09398402
163	0x3d36db7f	0.04464292
164	0xbea65d93	-0.32493266
165	0x3e815b18	0.25264812
166	0xbe2f94c1	-0.17146589
167	0xbef56b99	-0.47933653
168	0x3ead6455	0.3386561
169	0x3e753f8c	0.23950022
170	0x3e84848d	0.25882378
171	0xbe68cb50	-0.22733808
172	0x3f06c222	0.52639973
173	0x3f0bafae	0.5456494
174	0xbe812fea	-0.25231868
175	0x3e26aa2b	0.16275851
176	0x3d1c8487	0.038212325
177	0xbf2cc918	-0.67494345
178	0xbd6a9d02	-0.05727864
179	0xbec1ce38	-0.37852645
180	0x3ea059a4	0.3131839
181	0xbe37ce48	-0.17949784
182	0xbf93a25c	-1.1533923
183	0xbee2a19a	-0.44263917
184	0x3d2a5063	0.04158057
185	0x3f32a5cc	0.69784236
186	0x3f46014c	0.7734573
187	0x3d16f910	0.03685862
188	0xbf4bcfdd	-0.7961405
189	0xbe257f2a	-0.1616179
190	0xbe9a1f68	-0.30102086
191	0x3e18c77e	0.1491985
192	0xbd2ef134	-0.042710498
193	0xbf14f7f0	-0.5819082
194	0x3ea3a4fa	0.31961805
195	0x3f27fac0	0.6561699
196	0xbe28d78c	-0.16488475
197	0xbf77dccd	-0.9682129
198	0xbf02b726	-0.5106071
199	0x3e7e9020	0.24859667
200	0x3e1be9c2	0.1522589
201	0x3f353bb9	0.70794255
202	0x3d9d7953	0.076891564
203	0x3e9092c3	0.2823697
204	0x3cce865e	0.025210556
205	0xbf2e676b	-0.68126553
206	0x3e6ee7b6	0.23330578
207	0xbbdf7cd0	-0.0068202987
208	0x3e977338	0.29580092
209	0xbe438fa6	-0.19097766
210	0xbe591f1c	-0.21203274
211	0x3e0ccfd0	0.13751149
212	0x3ebd2d40	0.36948586
213	0xbf34e9c2	-0.70669186
214	0x3e82c2e8	0.25539327
215	0x3f0f3aa8	0.5594888
216	0x3e054136	0.13013157
217	0xbd90feec	-0.070798725
218	0x3e40df6e	0.18835232
219	0x3ed500f9	0.41602305
220	0xbd452fea	-0.048141398
221	0xbf0a73eb	-0.54083127
222	0x3ebf58ee	0.37372535
223	0xbd34a8c0	-0.044106245
224	0xbe8f8b77	-0.2803609
225	0x3dab4826	0.083633706
226	0xbd1fddb1	-0.03902978
227	0x3e640ca0	0.22270441
228	0x3d0dcebe	0.034620993
229	0x3e64efd8	0.22357118
230	0x3f88bb2d	1.0682122
231	0xbdfd61e2	-0.12372185
232	0x3f021943	0.50819796
233	0xbe1b7fe6	-0.15185508
234	0x3d00b302	0.031420715
235	0x3d8b0d3a	0.06789632
236	0xbf2f5260	-0.6848507
237	0x3dc4354a	0.095804766
238	0xbe06f6fa	-0.13180152
239	0xbf8fe20a	-1.1240857
240	0xbf0bfe01	-0.54684454
241	0xbf9ede7c	-1.2411647
242	0xbe844354	-0.25832617
243	0xbd8a0831	-0.06739844
244	0xbe969b9c	-0.29415596
245	0xbe59ebc1	-0.21281339
246	0x3d996d0d	0.07491503
247	0xbeb04b2f	-0.3443236
248	0x3ef94b7b	0.486904
249	0x3effb31b	0.49941334
250	0xbe8d8c03	-0.27645883
251	0xbda56551	-0.08075965
252	0xbeec3bcb	-0.46139368
253	0x3d428732	0.047492214
254	0xbe03a7a2	-0.12856916
255	0xbf428db6	-0.75997484
