v0.1/reference_submissions/person_detection/vww_96_int8.tflite (tflite, 334416 bytes, 28 tensors)

sequential/mobilenet_0.25_96/conv1/Conv2D i1 [8, 3, 3, 1]
0	0xfe	-2
1	0x47	71
2	0x7f	127
3	0xdb	-37
4	0x04	4
5	0x23	35
6	0xe1	-31
7	0xe6	-26
8	0x02	2
9	0xbc	-68
10	0x19	25
11	0x4f	79
12	0x81	-127
13	0x94	-108
14	0xe1	-31
15	0xf8	-8
16	0xec	-20
17	0xcd	-51
18	0x78	120
19	0xf6	-10
20	0xdc	-36
21	0x22	34
22	0x14	20
23	0x04	4
24	0x51	81
25	0x7f	127
26	0xf8	-8
27	0xd3	-45
28	0xd9	-39
29	0x99	-103
30	0x81	-127
31	0xc0	-64
32	0xb6	-74
33	0x37	55
34	0xc0	-64
35	0xe7	-25
36	0x27	39
37	0xdd	-35
38	0x08	8
39	0x2e	46
40	0x94	-108
41	0x81	-127
42	0xd9	-39
43	0xb4	-76
44	0xff	-1
45	0x78	120
46	0xe0	-32
47	0x87	-121
48	0xc8	-56
49	0x12	18
50	0x07	7
51	0xc0	-64
52	0xe6	-26
53	0x7f	127
54	0x9b	-101
55	0xdd	-35
56	0x3c	60
57	0x81	-127
58	0xfa	-6
59	0x5e	94
60	0xe5	-27
61	0xfe	-2
62	0x43	67
63	0x03	3
64	0x7f	127
65	0x04	4
66	0xb4	-76
67	0x4b	75
68	0xf5	-11
69	0xb9	-71
70	0xf8	-8
71	0xdf	-33

sequential/mobilenet_0.25_96/conv_pw_1/Conv2D i1 [16, 1, 1, 8]
0	0x23	35
1	0xff	-1
2	0x06	6
3	0xeb	-21
4	0xfb	-5
5	0x2b	43
6	0xef	-17
7	0x81	-127
8	0xf2	-14
9	0x69	105
10	0x2b	43
11	0xd4	-44
12	0x7f	127
13	0x25	37
14	0xe0	-32
15	0x9d	-99
16	0x41	65
17	0xb3	-77
18	0xbd	-67
19	0xa0	-96
20	0x7f	127
21	0xeb	-21
22	0x0d	13
23	0xc4	-60
24	0xe3	-29
25	0x40	64
26	0x81	-127
27	0xea	-22
28	0xda	-38
29	0xb9	-71
30	0xc1	-63
31	0xc2	-62
32	0x3d	61
33	0x74	116
34	0xe0	-32
35	0x7f	127
36	0x67	103
37	0xe9	-23
38	0xea	-22
39	0x07	7
40	0xd3	-45
41	0x27	39
42	0xe7	-25
43	0x91	-111
44	0xdd	-35
45	0x52	82
46	0x7f	127
47	0x70	112
48	0x71	113
49	0x6c	108
50	0xa2	-94
51	0x7f	127
52	0x9d	-99
53	0x22	34
54	0xe5	-27
55	0x02	2
56	0x50	80
57	0x81	-127
58	0x28	40
59	0x40	64
60	0x7a	122
61	0xad	-83
62	0xa5	-91
63	0x29	41
64	0x05	5
65	0xfd	-3
66	0x08	8
67	0x20	32
68	0x02	2
69	0x1f	31
70	0xd0	-48
71	0x81	-127
72	0xeb	-21
73	0x44	68
74	0x13	19
75	0x40	64
76	0x81	-127
77	0xde	-34
78	0x79	121
79	0xbb	-69
80	0xe9	-23
81	0xcc	-52
82	0x66	102
83	0x81	-127
84	0xec	-20
85	0xd8	-40
86	0x04	4
87	0x1c	28
88	0x3b	59
89	0xe6	-26
90	0xe9	-23
91	0xdf	-33
92	0xab	-85
93	0x42	66
94	0x81	-127
95	0x3f	63
96	0xfe	-2
97	0x7f	127
98	0x4b	75
99	0x3d	61
100	0x0a	10
101	0xec	-20
102	0x99	-103
103	0x25	37
104	0x2d	45
105	0x28	40
106	0xcd	-51
107	0x2e	46
108	0x2e	46
109	0xf4	-12
110	0x7f	127
111	0xee	-18
112	0x46	70
113	0xd4	-44
114	0xb1	-79
115	0x33	51
116	0xfd	-3
117	0xe0	-32
118	0x7f	127
119	0xf4	-12
120	0xca	-54
121	0xd9	-39
122	0xe4	-28
123	0x03	3
124	0x39	57
125	0x7f	127
126	0xf9	-7
127	0xf3	-13

sequential/mobilenet_0.25_96/conv_pw_2/Conv2D i1 [32, 1, 1, 16]
0	0x24	36
1	0x35	53
2	0x81	-127
3	0xfe	-2
4	0x35	53
5	0x7a	122
6	0x68	104
7	0x0b	11
8	0x01	1
9	0x47	71
10	0xbf	-65
11	0xfd	-3
12	0x5b	91
13	0x60	96
14	0xec	-20
15	0x34	52
16	0x2c	44
17	0xd0	-48
18	0x29	41
19	0x44	68
20	0x05	5
21	0xda	-38
22	0x81	-127
23	0x5e	94
24	0x12	18
25	0xa1	-95
26	0x3e	62
27	0xb7	-73
28	0xf4	-12
29	0xef	-17
30	0xd1	-47
31	0x32	50
32	0x54	84
33	0xe7	-25
34	0xdf	-33
35	0x63	99
36	0xc9	-55
37	0xbc	-68
38	0x71	113
39	0xe2	-30
40	0x7f	127
41	0x3b	59
42	0x36	54
43	0xe7	-25
44	0x46	70
45	0xe7	-25
46	0x0f	15
47	0xdb	-37
48	0xe2	-30
49	0x7f	127
50	0xf9	-7
51	0x0b	11
52	0xd1	-47
53	0x15	21
54	0x39	57
55	0xcb	-53
56	0xe8	-24
57	0x62	98
58	0xfc	-4
59	0x4f	79
60	0x45	69
61	0x3a	58
62	0x3b	59
63	0xe7	-25
64	0x20	32
65	0xcc	-52
66	0x02	2
67	0xd1	-47
68	0xb5	-75
69	0xdc	-36
70	0x26	38
71	0xe8	-24
72	0xf6	-10
73	0x00	0
74	0x27	39
75	0x7f	127
76	0x44	68
77	0x24	36
78	0xdd	-35
79	0x30	48
80	0x39	57
81	0x81	-127
82	0x08	8
83	0xee	-18
84	0xfa	-6
85	0x40	64
86	0x34	52
87	0xc1	-63
88	0x3f	63
89	0xcf	-49
90	0x59	89
91	0x6a	106
92	0xff	-1
93	0x31	49
94	0x09	9
95	0xdb	-37
96	0x01	1
97	0x81	-127
98	0x2f	47
99	0x10	16
100	0xc3	-61
101	0xdf	-33
102	0x19	25
103	0xa7	-89
104	0x18	24
105	0xd2	-46
106	0x37	55
107	0xfb	-5
108	0x8b	-117
109	0xe8	-24
110	0x2c	44
111	0x07	7
112	0x05	5
113	0x02	2
114	0x29	41
115	0xd1	-47
116	0x05	5
117	0x14	20
118	0xc1	-63
119	0xc1	-63
120	0x01	1
121	0x26	38
122	0x2a	42
123	0x14	20
124	0xc9	-55
125	0xfc	-4
126	0xdf	-33
127	0x7f	127
128	0x07	7
129	0xe8	-24
130	0xe7	-25
131	0xfa	-6
132	0x29	41
133	0x1d	29
134	0xe8	-24
135	0xfe	-2
136	0x0d	13
137	0xda	-38
138	0x53	83
139	0x0e	14
140	0x28	40
141	0xf5	-11
142	0xe2	-30
143	0x7f	127
144	0x7f	127
145	0xfd	-3
146	0x24	36
147	0xf5	-11
148	0x1a	26
149	0x73	115
150	0x31	49
151	0x32	50
152	0x63	99
153	0xec	-20
154	0xfa	-6
155	0x1c	28
156	0x1b	27
157	0x9e	-98
158	0x5d	93
159	0xe8	-24
160	0x0b	11
161	0x7b	123
162	0x21	33
163	0x3c	60
164	0x18	24
165	0x04	4
166	0x7f	127
167	0x0d	13
168	0x0d	13
169	0xda	-38
170	0xe3	-29
171	0xf2	-14
172	0x8d	-115
173	0x28	40
174	0xf9	-7
175	0x12	18
176	0x19	25
177	0x08	8
178	0xf8	-8
179	0xe3	-29
180	0x24	36
181	0x22	34
182	0x7f	127
183	0x1a	26
184	0x16	22
185	0x07	7
186	0x1e	30
187	0x2b	43
188	0xca	-54
189	0xe7	-25
190	0x00	0
191	0x03	3
192	0xe0	-32
193	0x25	37
194	0xef	-17
195	0x57	87
196	0x18	24
197	0x5e	94
198	0x58	88
199	0xcf	-49
200	0xeb	-21
201	0x3c	60
202	0xbe	-66
203	0x1d	29
204	0xd3	-45
205	0x03	3
206	0x11	17
207	0x7f	127
208	0x35	53
209	0x0b	11
210	0x06	6
211	0xa0	-96
212	0x5a	90
213	0x81	-127
214	0xe1	-31
215	0x21	33
216	0x21	33
217	0xbe	-66
218	0x12	18
219	0xb8	-72
220	0x40	64
221	0x81	-127
222	0xe1	-31
223	0x3c	60
224	0x81	-127
225	0xf5	-11
226	0x22	34
227	0x42	66
228	0x1d	29
229	0xf4	-12
230	0x0d	13
231	0x38	56
232	0xb2	-78
233	0x23	35
234	0xf7	-9
235	0x0d	13
236	0x30	48
237	0x24	36
238	0xe0	-32
239	0x93	-109
240	0x16	22
241	0x81	-127
242	0x4b	75
243	0x42	66
244	0xce	-50
245	0x30	48
246	0xfe	-2
247	0xc8	-56
248	0x14	20
249	0x5d	93
250	0xf1	-15
251	0x36	54
252	0x08	8
253	0x35	53
254	0x4a	74
255	0x08	8

sequential/mobilenet_0.25_96/conv_pw_3/Conv2D i1 [32, 1, 1, 32]
0	0x6f	111
1	0x3c	60
2	0x0f	15
3	0x00	0
4	0x2d	45
5	0x11	17
6	0xcb	-53
7	0xb7	-73
8	0xb4	-76
9	0x6b	107
10	0x62	98
11	0x03	3
12	0xc3	-61
13	0x25	37
14	0x25	37
15	0xd8	-40
16	0xe4	-28
17	0xb0	-80
18	0xb7	-73
19	0x25	37
20	0x3a	58
21	0x1a	26
22	0xab	-85
23	0xec	-20
24	0xd0	-48
25	0x81	-127
26	0xf3	-13
27	0xf7	-9
28	0x9d	-99
29	0x6c	108
30	0x13	19
31	0x3f	63
32	0xef	-17
33	0x05	5
34	0x59	89
35	0x35	53
36	0x71	113
37	0xf7	-9
38	0x5b	91
39	0xc8	-56
40	0xd2	-46
41	0xa6	-90
42	0x05	5
43	0xfe	-2
44	0xf8	-8
45	0xf5	-11
46	0x8e	-114
47	0xc6	-58
48	0x7f	127
49	0xd5	-43
50	0x8b	-117
51	0x41	65
52	0x2a	42
53	0xda	-38
54	0xf3	-13
55	0xc8	-56
56	0x35	53
57	0x1b	27
58	0xdc	-36
59	0x2f	47
60	0xca	-54
61	0xec	-20
62	0x59	89
63	0xc9	-55
64	0xd9	-39
65	0x0e	14
66	0xfb	-5
67	0x08	8
68	0x7e	126
69	0xe9	-23
70	0x26	38
71	0x09	9
72	0x1b	27
73	0xc4	-60
74	0x26	38
75	0xe2	-30
76	0xe9	-23
77	0xa3	-93
78	0xe7	-25
79	0x48	72
80	0x47	71
81	0xf3	-13
82	0x50	80
83	0xb6	-74
84	0xf2	-14
85	0x46	70
86	0xef	-17
87	0xe9	-23
88	0x47	71
89	0xd5	-43
90	0xf1	-15
91	0x1d	29
92	0xc5	-59
93	0x81	-127
94	0x34	52
95	0xfe	-2
96	0xce	-50
97	0x1d	29
98	0xca	-54
99	0xfa	-6
100	0xc9	-55
101	0xbe	-66
102	0xfe	-2
103	0x92	-110
104	0x1d	29
105	0xf8	-8
106	0xee	-18
107	0xf1	-15
108	0xbc	-68
109	0x13	19
110	0x27	39
111	0xdd	-35
112	0xc3	-61
113	0xf4	-12
114	0xc7	-57
115	0x6d	109
116	0x33	51
117	0xf8	-8
118	0x24	36
119	0xf4	-12
120	0x7f	127
121	0xf0	-16
122	0x3e	62
123	0x17	23
124	0x44	68
125	0xcd	-51
126	0x3d	61
127	0x13	19
128	0x2d	45
129	0x7f	127
130	0xbf	-65
131	0x0d	13
132	0xde	-34
133	0x0b	11
134	0x24	36
135	0x02	2
136	0x01	1
137	0xd5	-43
138	0x38	56
139	0x4b	75
140	0xe6	-26
141	0x92	-110
142	0x88	-120
143	0x40	64
144	0x01	1
145	0xef	-17
146	0x99	-103
147	0xba	-70
148	0x7c	124
149	0x5e	94
150	0x4c	76
151	0xad	-83
152	0x2f	47
153	0xe9	-23
154	0x2b	43
155	0x0b	11
156	0x7b	123
157	0xa9	-87
158	0x23	35
159	0x28	40
160	0x2a	42
161	0x56	86
162	0x06	6
163	0xb8	-72
164	0x06	6
165	0xd4	-44
166	0x1e	30
167	0x16	22
168	0x09	9
169	0xfb	-5
170	0x39	57
171	0xc5	-59
172	0x02	2
173	0x24	36
174	0x21	33
175	0xf2	-14
176	0xfa	-6
177	0x31	49
178	0x5a	90
179	0xfc	-4
180	0xd8	-40
181	0x33	51
182	0x5c	92
183	0x7f	127
184	0xee	-18
185	0x08	8
186	0x21	33
187	0xff	-1
188	0x52	82
189	0xa4	-92
190	0x12	18
191	0xf1	-15
192	0x19	25
193	0x12	18
194	0xcd	-51
195	0xb9	-71
196	0xc6	-58
197	0x72	114
198	0xe4	-28
199	0x3f	63
200	0xce	-50
201	0x0b	11
202	0x7f	127
203	0xb8	-72
204	0x3c	60
205	0x2e	46
206	0xc6	-58
207	0xe3	-29
208	0xc6	-58
209	0xf5	-11
210	0x05	5
211	0xc2	-62
212	0x5f	95
213	0xcc	-52
214	0xb4	-76
215	0xdd	-35
216	0x15	21
217	0xb2	-78
218	0xef	-17
219	0x31	49
220	0xf6	-10
221	0xfc	-4
222	0x10	16
223	0x39	57
224	0x04	4
225	0x19	25
226	0x16	22
227	0xf9	-7
228	0xf4	-12
229	0x19	25
230	0xcb	-53
231	0x0f	15
232	0x30	48
233	0x81	-127
234	0x05	5
235	0x0a	10
236	0xf9	-7
237	0x3b	59
238	0xcc	-52
239	0x2d	45
240	0xb8	-72
241	0xac	-84
242	0x1f	31
243	0x13	19
244	0x03	3
245	0x11	17
246	0x01	1
247	0xa8	-88
248	0x76	118
249	0x19	25
250	0x4c	76
251	0x1f	31
252	0xcf	-49
253	0x91	-111
254	0xe2	-30
255	0x33	51

sequential/mobilenet_0.25_96/conv_pw_4/Conv2D i1 [64, 1, 1, 32]
0	0xe1	-31
1	0x31	49
2	0x0c	12
3	0x7f	127
4	0xd7	-41
5	0x0d	13
6	0x1e	30
7	0x1c	28
8	0x2a	42
9	0x3c	60
10	0x06	6
11	0xff	-1
12	0x23	35
13	0xe1	-31
14	0xb8	-72
15	0x45	69
16	0xdc	-36
17	0x06	6
18	0x0e	14
19	0x79	121
20	0xe9	-23
21	0xe0	-32
22	0xcc	-52
23	0xf2	-14
24	0xcc	-52
25	0xd4	-44
26	0xff	-1
27	0x89	-119
28	0x3b	59
29	0x24	36
30	0x49	73
31	0xa5	-91
32	0x4f	79
33	0x9b	-101
34	0xff	-1
35	0xc7	-57
36	0xe3	-29
37	0xb8	-72
38	0xdc	-36
39	0xba	-70
40	0xd1	-47
41	0x08	8
42	0x99	-103
43	0xd3	-45
44	0x56	86
45	0x81	-127
46	0xd8	-40
47	0x15	21
48	0xec	-20
49	0x35	53
50	0xfe	-2
51	0x45	69
52	0x08	8
53	0xfe	-2
54	0x8b	-117
55	0x8c	-116
56	0x61	97
57	0xcf	-49
58	0x0c	12
59	0xac	-84
60	0x1a	26
61	0x22	34
62	0xfb	-5
63	0xcd	-51
64	0xfd	-3
65	0x84	-124
66	0x4c	76
67	0x20	32
68	0x61	97
69	0x04	4
70	0x6d	109
71	0x25	37
72	0x70	112
73	0x25	37
74	0xce	-50
75	0x2e	46
76	0xe3	-29
77	0xb2	-78
78	0x29	41
79	0xe5	-27
80	0xf4	-12
81	0xcc	-52
82	0x27	39
83	0xce	-50
84	0x7f	127
85	0x0c	12
86	0x51	81
87	0x1b	27
88	0xe8	-24
89	0xe8	-24
90	0x97	-105
91	0xf5	-11
92	0x04	4
93	0x18	24
94	0xdc	-36
95	0x8d	-115
96	0x6c	108
97	0x4b	75
98	0xe5	-27
99	0x8e	-114
100	0x4c	76
101	0xdd	-35
102	0xf9	-7
103	0xca	-54
104	0x0a	10
105	0xcc	-52
106	0x86	-122
107	0x57	87
108	0xf6	-10
109	0xea	-22
110	0x5c	92
111	0xb8	-72
112	0x7b	123
113	0x63	99
114	0x10	16
115	0x7c	124
116	0x02	2
117	0x89	-119
118	0x42	66
119	0x81	-127
120	0xb6	-74
121	0xd5	-43
122	0x36	54
123	0xfe	-2
124	0xf6	-10
125	0xad	-83
126	0xf1	-15
127	0xba	-70
128	0xd3	-45
129	0xe6	-26
130	0x1d	29
131	0xd0	-48
132	0x54	84
133	0x3a	58
134	0x09	9
135	0x21	33
136	0x1b	27
137	0x02	2
138	0xf3	-13
139	0x30	48
140	0xf0	-16
141	0xe4	-28
142	0x09	9
143	0xd2	-46
144	0xf4	-12
145	0x41	65
146	0x0f	15
147	0xe8	-24
148	0x32	50
149	0xcc	-52
150	0x4a	74
151	0x9e	-98
152	0xd5	-43
153	0x1f	31
154	0x37	55
155	0xd5	-43
156	0x19	25
157	0x06	6
158	0x7f	127
159	0xae	-82
160	0x02	2
161	0xcb	-53
162	0x66	102
163	0x29	41
164	0xb8	-72
165	0xd2	-46
166	0x1b	27
167	0x31	49
168	0xe6	-26
169	0x8d	-115
170	0xaa	-86
171	0x43	67
172	0xba	-70
173	0x51	81
174	0x29	41
175	0xd0	-48
176	0x4e	78
177	0x37	55
178	0xc1	-63
179	0xcf	-49
180	0x32	50
181	0x36	54
182	0x2e	46
183	0x46	70
184	0x3c	60
185	0xbe	-66
186	0x62	98
187	0x7f	127
188	0xf2	-14
189	0x0d	13
190	0x4a	74
191	0x73	115
192	0x0f	15
193	0x38	56
194	0x12	18
195	0x7f	127
196	0xfd	-3
197	0x9e	-98
198	0xfe	-2
199	0x03	3
200	0xe7	-25
201	0x23	35
202	0x60	96
203	0x19	25
204	0xaf	-81
205	0x20	32
206	0xfb	-5
207	0x24	36
208	0x20	32
209	0xc2	-62
210	0x98	-104
211	0xed	-19
212	0xf6	-10
213	0xda	-38
214	0xa7	-89
215	0x38	56
216	0xeb	-21
217	0x29	41
218	0xf6	-10
219	0x05	5
220	0x39	57
221	0x09	9
222	0xd1	-47
223	0x50	80
224	0x01	1
225	0x7f	127
226	0x14	20
227	0x1a	26
228	0xd4	-44
229	0x25	37
230	0x09	9
231	0xf8	-8
232	0x0e	14
233	0xdc	-36
234	0x11	17
235	0x34	52
236	0xed	-19
237	0x36	54
238	0x0b	11
239	0xf5	-11
240	0xd4	-44
241	0x00	0
242	0xd5	-43
243	0x2e	46
244	0xfa	-6
245	0x04	4
246	0xfe	-2
247	0x30	48
248	0xa6	-90
249	0x18	24
250	0x20	32
251	0x47	71
252	0xeb	-21
253	0x30	48
254	0xdf	-33
255	0xcd	-51

sequential/mobilenet_0.25_96/conv_pw_5/Conv2D i1 [64, 1, 1, 64]
0	0xf8	-8
1	0xcf	-49
2	0x14	20
3	0x03	3
4	0x0d	13
5	0xf2	-14
6	0x5b	91
7	0x5a	90
8	0x36	54
9	0xa9	-87
10	0xc4	-60
11	0x69	105
12	0x0e	14
13	0xfd	-3
14	0x3d	61
15	0x22	34
16	0x53	83
17	0x05	5
18	0x55	85
19	0xf3	-13
20	0x0f	15
21	0xc0	-64
22	0xe5	-27
23	0x03	3
24	0xc8	-56
25	0xa8	-88
26	0xd3	-45
27	0xdd	-35
28	0x05	5
29	0x01	1
30	0x06	6
31	0xe4	-28
32	0xc7	-57
33	0xf5	-11
34	0xdf	-33
35	0x16	22
36	0x0c	12
37	0x77	119
38	0x7f	127
39	0x50	80
40	0xad	-83
41	0xfa	-6
42	0xec	-20
43	0xed	-19
44	0xa6	-90
45	0xfe	-2
46	0xdb	-37
47	0x15	21
48	0xaa	-86
49	0x43	67
50	0x3f	63
51	0x2e	46
52	0xf2	-14
53	0xb9	-71
54	0x0f	15
55	0x29	41
56	0x1a	26
57	0xa9	-87
58	0x21	33
59	0x3f	63
60	0x12	18
61	0xe7	-25
62	0x59	89
63	0x2e	46
64	0x20	32
65	0xb8	-72
66	0xf4	-12
67	0x37	55
68	0xda	-38
69	0x26	38
70	0x0a	10
71	0xd6	-42
72	0xe1	-31
73	0x53	83
74	0x14	20
75	0xd5	-43
76	0xef	-17
77	0xd6	-42
78	0xf1	-15
79	0x13	19
80	0x3f	63
81	0x19	25
82	0xd1	-47
83	0xf5	-11
84	0xb7	-73
85	0xe5	-27
86	0xe2	-30
87	0x22	34
88	0xe3	-29
89	0x03	3
90	0xf9	-7
91	0x1a	26
92	0xbb	-69
93	0xe7	-25
94	0x9a	-102
95	0x1b	27
96	0xef	-17
97	0x1b	27
98	0x1d	29
99	0x14	20
100	0xcf	-49
101	0xd0	-48
102	0x20	32
103	0x1f	31
104	0xea	-22
105	0x00	0
106	0xa4	-92
107	0x17	23
108	0x16	22
109	0x3d	61
110	0x81	-127
111	0x14	20
112	0x09	9
113	0xf7	-9
114	0xe5	-27
115	0x03	3
116	0x4a	74
117	0xe5	-27
118	0x0d	13
119	0x0f	15
120	0xf9	-7
121	0xfa	-6
122	0xd9	-39
123	0xec	-20
124	0x0d	13
125	0xda	-38
126	0xe7	-25
127	0x03	3
128	0x15	21
129	0xbc	-68
130	0xfc	-4
131	0x19	25
132	0xf4	-12
133	0x30	48
134	0x31	49
135	0x29	41
136	0xdf	-33
137	0x7f	127
138	0x23	35
139	0xfc	-4
140	0xf3	-13
141	0xcd	-51
142	0x10	16
143	0x36	54
144	0xba	-70
145	0x8d	-115
146	0xde	-34
147	0xd2	-46
148	0x08	8
149	0xed	-19
150	0xb8	-72
151	0xf4	-12
152	0x31	49
153	0xce	-50
154	0x42	66
155	0xe2	-30
156	0xf9	-7
157	0x20	32
158	0x42	66
159	0xe2	-30
160	0xe2	-30
161	0x2f	47
162	0xe9	-23
163	0xe8	-24
164	0x0c	12
165	0xfd	-3
166	0x15	21
167	0x32	50
168	0x05	5
169	0xe3	-29
170	0xf5	-11
171	0x43	67
172	0xce	-50
173	0xcb	-53
174	0x1b	27
175	0xc4	-60
176	0xf4	-12
177	0xeb	-21
178	0xf8	-8
179	0x0c	12
180	0xd5	-43
181	0x03	3
182	0xea	-22
183	0x1c	28
184	0x6c	108
185	0x2b	43
186	0xf6	-10
187	0x63	99
188	0xd0	-48
189	0x0d	13
190	0x11	17
191	0xc9	-55
192	0xec	-20
193	0x33	51
194	0x97	-105
195	0x7b	123
196	0x16	22
197	0x81	-127
198	0x41	65
199	0x9c	-100
200	0xcd	-51
201	0x29	41
202	0xe1	-31
203	0xfa	-6
204	0xec	-20
205	0xd6	-42
206	0xbb	-69
207	0x46	70
208	0xbe	-66
209	0x06	6
210	0x0e	14
211	0xe8	-24
212	0xa3	-93
213	0xcd	-51
214	0xd6	-42
215	0x05	5
216	0x01	1
217	0x18	24
218	0xc1	-63
219	0xc8	-56
220	0xc9	-55
221	0x10	16
222	0x6d	109
223	0xab	-85
224	0x03	3
225	0xa6	-90
226	0xed	-19
227	0x02	2
228	0x43	67
229	0xb4	-76
230	0xfe	-2
231	0x22	34
232	0xe7	-25
233	0xf6	-10
234	0xbe	-66
235	0xbc	-68
236	0xe6	-26
237	0xc2	-62
238	0xda	-38
239	0x7a	122
240	0xb6	-74
241	0x12	18
242	0xf5	-11
243	0x19	25
244	0x03	3
245	0x0e	14
246	0x0b	11
247	0xf3	-13
248	0x28	40
249	0xfa	-6
250	0xdf	-33
251	0xc4	-60
252	0x31	49
253	0xea	-22
254	0x30	48
255	0x29	41

sequential/mobilenet_0.25_96/conv_pw_6/Conv2D i1 [128, 1, 1, 64]
0	0xf9	-7
1	0xec	-20
2	0xd7	-41
3	0xd7	-41
4	0xa2	-94
5	0xc8	-56
6	0xe9	-23
7	0xb6	-74
8	0x51	81
9	0xdc	-36
10	0xba	-70
11	0x2b	43
12	0x24	36
13	0x42	66
14	0x7c	124
15	0x92	-110
16	0xfc	-4
17	0x46	70
18	0xde	-34
19	0x2a	42
20	0x1a	26
21	0xb1	-79
22	0x19	25
23	0x93	-109
24	0x0c	12
25	0xea	-22
26	0x05	5
27	0xb0	-80
28	0xe7	-25
29	0x7f	127
30	0xed	-19
31	0xff	-1
32	0x24	36
33	0xd4	-44
34	0x08	8
35	0x4f	79
36	0xed	-19
37	0xa4	-92
38	0x11	17
39	0xb3	-77
40	0xbc	-68
41	0x14	20
42	0x10	16
43	0x00	0
44	0xd5	-43
45	0xd3	-45
46	0xaf	-81
47	0xd2	-46
48	0x30	48
49	0xed	-19
50	0xf6	-10
51	0xde	-34
52	0xcf	-49
53	0xc1	-63
54	0x4a	74
55	0xef	-17
56	0xe7	-25
57	0x13	19
58	0x12	18
59	0xd0	-48
60	0x1b	27
61	0x07	7
62	0xd1	-47
63	0xdb	-37
64	0x78	120
65	0xbf	-65
66	0x5e	94
67	0xbe	-66
68	0x1c	28
69	0x27	39
70	0xe2	-30
71	0xc6	-58
72	0xc9	-55
73	0xd6	-42
74	0x99	-103
75	0xc4	-60
76	0xb1	-79
77	0x6c	108
78	0x6c	108
79	0x7e	126
80	0xf0	-16
81	0x1a	26
82	0xfd	-3
83	0xdf	-33
84	0x1b	27
85	0x18	24
86	0x09	9
87	0xcc	-52
88	0xe2	-30
89	0x5d	93
90	0x0e	14
91	0x09	9
92	0xe3	-29
93	0x94	-108
94	0x06	6
95	0xeb	-21
96	0xee	-18
97	0x23	35
98	0xfa	-6
99	0x01	1
100	0x55	85
101	0xe9	-23
102	0x72	114
103	0xe7	-25
104	0x2d	45
105	0x99	-103
106	0x7f	127
107	0x58	88
108	0xe9	-23
109	0xf8	-8
110	0x3d	61
111	0xd2	-46
112	0xf8	-8
113	0x26	38
114	0xbe	-66
115	0xa0	-96
116	0xe3	-29
117	0x25	37
118	0x68	104
119	0xe0	-32
120	0xb7	-73
121	0xdd	-35
122	0x5b	91
123	0xdf	-33
124	0xcc	-52
125	0xc9	-55
126	0x40	64
127	0xc4	-60
128	0xeb	-21
129	0x18	24
130	0x1b	27
131	0x16	22
132	0xf6	-10
133	0x18	24
134	0x00	0
135	0xdf	-33
136	0x25	37
137	0xb3	-77
138	0x42	66
139	0x0d	13
140	0x34	52
141	0x39	57
142	0xf5	-11
143	0x39	57
144	0x05	5
145	0xff	-1
146	0x18	24
147	0xee	-18
148	0xd4	-44
149	0xf4	-12
150	0x0f	15
151	0x81	-127
152	0xea	-22
153	0x3f	63
154	0xe6	-26
155	0x12	18
156	0xfa	-6
157	0x08	8
158	0xf4	-12
159	0xed	-19
160	0xd6	-42
161	0xb0	-80
162	0x16	22
163	0xf9	-7
164	0xde	-34
165	0x12	18
166	0xd8	-40
167	0xdb	-37
168	0x02	2
169	0xee	-18
170	0x09	9
171	0xe8	-24
172	0xcd	-51
173	0xf4	-12
174	0x27	39
175	0xc0	-64
176	0x01	1
177	0xbe	-66
178	0xa0	-96
179	0x37	55
180	0xc7	-57
181	0xa9	-87
182	0xe5	-27
183	0x32	50
184	0x96	-106
185	0x0a	10
186	0xf0	-16
187	0x4f	79
188	0x36	54
189	0x37	55
190	0x23	35
191	0x0f	15
192	0xc9	-55
193	0xeb	-21
194	0x00	0
195	0x09	9
196	0xa5	-91
197	0xd9	-39
198	0x10	16
199	0xc3	-61
200	0xf1	-15
201	0x21	33
202	0x10	16
203	0x15	21
204	0xc9	-55
205	0xbf	-65
206	0x81	-127
207	0x0e	14
208	0xc0	-64
209	0x22	34
210	0xf3	-13
211	0x30	48
212	0xf3	-13
213	0xf2	-14
214	0x20	32
215	0x0d	13
216	0x2a	42
217	0x60	96
218	0xaa	-86
219	0x04	4
220	0xe2	-30
221	0x21	33
222	0x00	0
223	0xfc	-4
224	0x11	17
225	0x61	97
226	0xdf	-33
227	0x0e	14
228	0x24	36
229	0x3d	61
230	0x3f	63
231	0xf1	-15
232	0xe7	-25
233	0x12	18
234	0xc2	-62
235	0x12	18
236	0x9b	-101
237	0x14	20
238	0x34	52
239	0xef	-17
240	0x1e	30
241	0x0c	12
242	0xf3	-13
243	0x2b	43
244	0xf9	-7
245	0xb0	-80
246	0xf7	-9
247	0xdc	-36
248	0x56	86
249	0x42	66
250	0xd1	-47
251	0xfa	-6
252	0x46	70
253	0x32	50
254	0xf7	-9
255	0xd8	-40

sequential/mobilenet_0.25_96/conv_pw_7/Conv2D i1 [128, 1, 1, 128]
0	0x96	-106
1	0xf5	-11
2	0xd6	-42
3	0xab	-85
4	0x36	54
5	0xff	-1
6	0xd0	-48
7	0x02	2
8	0x1e	30
9	0x36	54
10	0x9c	-100
11	0xf8	-8
12	0x10	16
13	0xd8	-40
14	0xe0	-32
15	0xee	-18
16	0xe8	-24
17	0x5c	92
18	0xf5	-11
19	0x09	9
20	0x0a	10
21	0xe0	-32
22	0x97	-105
23	0xdd	-35
24	0xe4	-28
25	0xed	-19
26	0x39	57
27	0x75	117
28	0x27	39
29	0x0c	12
30	0x1b	27
31	0x16	22
32	0x08	8
33	0x1c	28
34	0xe6	-26
35	0x3e	62
36	0xf6	-10
37	0x09	9
38	0x22	34
39	0xe8	-24
40	0x01	1
41	0xf1	-15
42	0xe8	-24
43	0x49	73
44	0x07	7
45	0x06	6
46	0x81	-127
47	0xd8	-40
48	0xec	-20
49	0x0b	11
50	0x1d	29
51	0xde	-34
52	0xd3	-45
53	0xef	-17
54	0x38	56
55	0x44	68
56	0x07	7
57	0xd6	-42
58	0xeb	-21
59	0x54	84
60	0x2f	47
61	0x84	-124
62	0x41	65
63	0xcd	-51
64	0x0e	14
65	0xf7	-9
66	0x5e	94
67	0x50	80
68	0x1b	27
69	0xd0	-48
70	0xbc	-68
71	0x08	8
72	0xcd	-51
73	0xfc	-4
74	0x12	18
75	0x3b	59
76	0xe4	-28
77	0x2f	47
78	0xb6	-74
79	0xb4	-76
80	0xdb	-37
81	0x74	116
82	0x45	69
83	0x02	2
84	0x02	2
85	0x42	66
86	0xe6	-26
87	0x35	53
88	0xda	-38
89	0x02	2
90	0xc1	-63
91	0xb0	-80
92	0x2d	45
93	0xeb	-21
94	0xfc	-4
95	0xfa	-6
96	0xff	-1
97	0xff	-1
98	0x2a	42
99	0xef	-17
100	0xdd	-35
101	0x0a	10
102	0x08	8
103	0xea	-22
104	0xe4	-28
105	0xd8	-40
106	0xf3	-13
107	0xe4	-28
108	0xf8	-8
109	0xd9	-39
110	0x21	33
111	0xce	-50
112	0xc0	-64
113	0xee	-18
114	0xe2	-30
115	0x1f	31
116	0x27	39
117	0xed	-19
118	0xef	-17
119	0xf3	-13
120	0xdc	-36
121	0x0f	15
122	0xec	-20
123	0x0d	13
124	0x10	16
125	0xd3	-45
126	0x11	17
127	0x00	0
128	0x3c	60
129	0xfd	-3
130	0x04	4
131	0x69	105
132	0x04	4
133	0x41	65
134	0xea	-22
135	0xd3	-45
136	0xbf	-65
137	0x0e	14
138	0xd8	-40
139	0xfd	-3
140	0x8b	-117
141	0x19	25
142	0xc6	-58
143	0xc4	-60
144	0x0a	10
145	0x37	55
146	0xa7	-89
147	0xde	-34
148	0x13	19
149	0x4a	74
150	0xb8	-72
151	0xdb	-37
152	0x0a	10
153	0x03	3
154	0x91	-111
155	0x38	56
156	0xfc	-4
157	0x15	21
158	0x0a	10
159	0x00	0
160	0xf8	-8
161	0x09	9
162	0x3f	63
163	0x4a	74
164	0x99	-103
165	0xc4	-60
166	0xc4	-60
167	0x2d	45
168	0xfa	-6
169	0x44	68
170	0xd7	-41
171	0xb7	-73
172	0xe5	-27
173	0xc4	-60
174	0xd6	-42
175	0x21	33
176	0x10	16
177	0x06	6
178	0x1d	29
179	0x0d	13
180	0x0f	15
181	0x9f	-97
182	0xc0	-64
183	0x06	6
184	0xbc	-68
185	0xfb	-5
186	0x45	69
187	0x48	72
188	0xe6	-26
189	0x46	70
190	0x27	39
191	0xe6	-26
192	0xc0	-64
193	0x11	17
194	0xdb	-37
195	0x24	36
196	0xf8	-8
197	0xa5	-91
198	0xd6	-42
199	0xda	-38
200	0xbf	-65
201	0xc5	-59
202	0xde	-34
203	0x4c	76
204	0x34	52
205	0xea	-22
206	0xe2	-30
207	0xd4	-44
208	0xe0	-32
209	0x16	22
210	0x0f	15
211	0x0f	15
212	0x08	8
213	0xd1	-47
214	0x1d	29
215	0xfb	-5
216	0x17	23
217	0xb9	-71
218	0xdc	-36
219	0x46	70
220	0x1a	26
221	0x29	41
222	0x17	23
223	0xe7	-25
224	0xd8	-40
225	0x64	100
226	0xfe	-2
227	0x02	2
228	0x0a	10
229	0x3d	61
230	0x00	0
231	0xfe	-2
232	0x05	5
233	0xec	-20
234	0x93	-109
235	0x12	18
236	0x22	34
237	0xf5	-11
238	0x0b	11
239	0xdf	-33
240	0xe1	-31
241	0xbe	-66
242	0x45	69
243	0x21	33
244	0x7f	127
245	0xbb	-69
246	0x0d	13
247	0xeb	-21
248	0xcb	-53
249	0xf1	-15
250	0x3e	62
251	0xb8	-72
252	0xf1	-15
253	0xda	-38
254	0x31	49
255	0xb2	-78

sequential/mobilenet_0.25_96/conv_pw_8/Conv2D i1 [128, 1, 1, 128]
0	0x4a	74
1	0xc2	-62
2	0x9b	-101
3	0xff	-1
4	0xea	-22
5	0x0f	15
6	0x21	33
7	0xca	-54
8	0x44	68
9	0x25	37
10	0x0e	14
11	0xf3	-13
12	0xef	-17
13	0xef	-17
14	0xec	-20
15	0xc9	-55
16	0xfc	-4
17	0xbb	-69
18	0x02	2
19	0xcf	-49
20	0xfa	-6
21	0x0f	15
22	0x07	7
23	0x35	53
24	0x03	3
25	0x08	8
26	0xdf	-33
27	0x30	48
28	0x2b	43
29	0xdb	-37
30	0x13	19
31	0xdc	-36
32	0xbf	-65
33	0x99	-103
34	0x17	23
35	0x17	23
36	0xc4	-60
37	0xe6	-26
38	0xf2	-14
39	0x11	17
40	0x20	32
41	0x3d	61
42	0x28	40
43	0x39	57
44	0x3f	63
45	0xac	-84
46	0x06	6
47	0x1f	31
48	0xf8	-8
49	0x23	35
50	0x19	25
51	0x30	48
52	0x31	49
53	0x0b	11
54	0xdf	-33
55	0x2b	43
56	0x43	67
57	0xc0	-64
58	0x20	32
59	0xf5	-11
60	0xfc	-4
61	0x2e	46
62	0x0c	12
63	0xfd	-3
64	0xec	-20
65	0x18	24
66	0xf1	-15
67	0xb3	-77
68	0x36	54
69	0x2d	45
70	0xfa	-6
71	0xdc	-36
72	0x22	34
73	0xd7	-41
74	0xfb	-5
75	0x0e	14
76	0xbe	-66
77	0xdc	-36
78	0x3b	59
79	0xb8	-72
80	0x03	3
81	0xe1	-31
82	0xba	-70
83	0xec	-20
84	0xe5	-27
85	0xe2	-30
86	0xdb	-37
87	0xe8	-24
88	0xe9	-23
89	0xcb	-53
90	0xc3	-61
91	0x67	103
92	0x3a	58
93	0xda	-38
94	0xd2	-46
95	0xba	-70
96	0x22	34
97	0xca	-54
98	0x0b	11
99	0x12	18
100	0x32	50
101	0x0f	15
102	0xf1	-15
103	0xb9	-71
104	0x81	-127
105	0x2d	45
106	0x97	-105
107	0x0f	15
108	0x1c	28
109	0x14	20
110	0x2e	46
111	0x99	-103
112	0xeb	-21
113	0x21	33
114	0xd8	-40
115	0xfa	-6
116	0x46	70
117	0xae	-82
118	0x17	23
119	0xfc	-4
120	0xdb	-37
121	0xf2	-14
122	0xbd	-67
123	0xde	-34
124	0xe6	-26
125	0xf5	-11
126	0xf1	-15
127	0x0e	14
128	0xe4	-28
129	0x0a	10
130	0xb9	-71
131	0xd9	-39
132	0x3f	63
133	0xe8	-24
134	0xc3	-61
135	0x3b	59
136	0xec	-20
137	0x37	55
138	0x3c	60
139	0x20	32
140	0x46	70
141	0xd1	-47
142	0x1c	28
143	0x26	38
144	0x2a	42
145	0x08	8
146	0xdf	-33
147	0x30	48
148	0xf2	-14
149	0x39	57
150	0xb5	-75
151	0xbc	-68
152	0xd7	-41
153	0x35	53
154	0x22	34
155	0x17	23
156	0xab	-85
157	0xef	-17
158	0x44	68
159	0x25	37
160	0xb0	-80
161	0xee	-18
162	0x1f	31
163	0x6a	106
164	0x4a	74
165	0x3b	59
166	0x4a	74
167	0x81	-127
168	0x33	51
169	0x07	7
170	0x12	18
171	0x04	4
172	0x1d	29
173	0xe1	-31
174	0x0f	15
175	0xb1	-79
176	0x25	37
177	0x22	34
178	0xf9	-7
179	0x05	5
180	0x8b	-117
181	0x0b	11
182	0xe7	-25
183	0x39	57
184	0xea	-22
185	0xf8	-8
186	0xba	-70
187	0x3d	61
188	0x3b	59
189	0xfc	-4
190	0x10	16
191	0xf8	-8
192	0xca	-54
193	0x07	7
194	0xa9	-87
195	0xd9	-39
196	0x33	51
197	0x01	1
198	0xc5	-59
199	0x49	73
200	0x04	4
201	0x5c	92
202	0xed	-19
203	0x28	40
204	0x33	51
205	0x09	9
206	0x21	33
207	0x25	37
208	0xb1	-79
209	0x21	33
210	0x69	105
211	0xdd	-35
212	0xef	-17
213	0xf3	-13
214	0x21	33
215	0xef	-17
216	0xa9	-87
217	0x3e	62
218	0xef	-17
219	0xe4	-28
220	0x23	35
221	0x39	57
222	0xea	-22
223	0x25	37
224	0x07	7
225	0x2c	44
226	0xd1	-47
227	0x83	-125
228	0x41	65
229	0x05	5
230	0x0c	12
231	0x51	81
232	0x44	68
233	0xe9	-23
234	0xcf	-49
235	0xee	-18
236	0xda	-38
237	0xe9	-23
238	0xed	-19
239	0xee	-18
240	0xde	-34
241	0x15	21
242	0x1e	30
243	0x0c	12
244	0xa9	-87
245	0x52	82
246	0xcc	-52
247	0xfb	-5
248	0x38	56
249	0xda	-38
250	0x40	64
251	0xee	-18
252	0xa1	-95
253	0xdd	-35
254	0xf5	-11
255	0xca	-54

sequential/mobilenet_0.25_96/conv_pw_9/Conv2D i1 [128, 1, 1, 128]
0	0xbf	-65
1	0xd8	-40
2	0x3f	63
3	0xc2	-62
4	0x1a	26
5	0xe1	-31
6	0xe9	-23
7	0xf2	-14
8	0xc6	-58
9	0xac	-84
10	0xf4	-12
11	0xfb	-5
12	0x0c	12
13	0x23	35
14	0xcc	-52
15	0xe5	-27
16	0xf4	-12
17	0x01	1
18	0x28	40
19	0x27	39
20	0xe4	-28
21	0xe9	-23
22	0x1e	30
23	0xe1	-31
24	0x27	39
25	0xf4	-12
26	0xdd	-35
27	0x02	2
28	0xe0	-32
29	0x99	-103
30	0xae	-82
31	0xc3	-61
32	0x52	82
33	0x27	39
34	0x28	40
35	0x22	34
36	0xdb	-37
37	0xe2	-30
38	0x01	1
39	0x10	16
40	0x21	33
41	0xb9	-71
42	0xf5	-11
43	0x22	34
44	0x05	5
45	0x05	5
46	0xee	-18
47	0xf3	-13
48	0xd1	-47
49	0xd3	-45
50	0xcf	-49
51	0xec	-20
52	0x0c	12
53	0xe9	-23
54	0xde	-34
55	0x29	41
56	0x45	69
57	0xd0	-48
58	0xe2	-30
59	0xe0	-32
60	0x0d	13
61	0x36	54
62	0x17	23
63	0xa5	-91
64	0x21	33
65	0xfc	-4
66	0x06	6
67	0xe6	-26
68	0xd5	-43
69	0xbd	-67
70	0xe3	-29
71	0x05	5
72	0x39	57
73	0x0d	13
74	0x14	20
75	0x04	4
76	0x08	8
77	0x13	19
78	0x24	36
79	0x16	22
80	0x36	54
81	0x27	39
82	0xf3	-13
83	0xcd	-51
84	0x20	32
85	0xe3	-29
86	0x30	48
87	0x1c	28
88	0x08	8
89	0xa6	-90
90	0xfe	-2
91	0xbe	-66
92	0x0c	12
93	0xf7	-9
94	0xfd	-3
95	0x3f	63
96	0x21	33
97	0x1d	29
98	0x01	1
99	0x4e	78
100	0x81	-127
101	0xf6	-10
102	0x0f	15
103	0xea	-22
104	0x07	7
105	0xd2	-46
106	0xc5	-59
107	0xf9	-7
108	0x1c	28
109	0xe8	-24
110	0x39	57
111	0xee	-18
112	0x21	33
113	0x08	8
114	0x34	52
115	0x02	2
116	0x27	39
117	0x0e	14
118	0x1d	29
119	0xff	-1
120	0xf2	-14
121	0xf9	-7
122	0xb4	-76
123	0xd8	-40
124	0x3c	60
125	0x39	57
126	0x06	6
127	0xe0	-32
128	0x12	18
129	0x17	23
130	0xd2	-46
131	0xf0	-16
132	0x16	22
133	0x6f	111
134	0x28	40
135	0x1a	26
136	0xe9	-23
137	0xb5	-75
138	0xde	-34
139	0xec	-20
140	0xd1	-47
141	0xfe	-2
142	0x02	2
143	0x02	2
144	0xd8	-40
145	0xf5	-11
146	0x03	3
147	0xe9	-23
148	0xb6	-74
149	0x2e	46
150	0x32	50
151	0x9d	-99
152	0x19	25
153	0x25	37
154	0xfe	-2
155	0xfc	-4
156	0xf3	-13
157	0x19	25
158	0xfc	-4
159	0xea	-22
160	0xf7	-9
161	0xad	-83
162	0xf1	-15
163	0xcf	-49
164	0xf7	-9
165	0x47	71
166	0xf3	-13
167	0xfb	-5
168	0x13	19
169	0x20	32
170	0xe6	-26
171	0xcf	-49
172	0x20	32
173	0xeb	-21
174	0x81	-127
175	0xe7	-25
176	0xd7	-41
177	0xb4	-76
178	0x02	2
179	0xd9	-39
180	0x13	19
181	0x74	116
182	0x27	39
183	0x49	73
184	0xe3	-29
185	0x4e	78
186	0xfc	-4
187	0x22	34
188	0x05	5
189	0xd4	-44
190	0xed	-19
191	0xe6	-26
192	0x88	-120
193	0xf1	-15
194	0xdf	-33
195	0x23	35
196	0x0b	11
197	0x47	71
198	0x03	3
199	0xfe	-2
200	0x29	41
201	0xf5	-11
202	0x24	36
203	0x37	55
204	0x29	41
205	0x42	66
206	0x39	57
207	0x41	65
208	0x00	0
209	0xdb	-37
210	0x29	41
211	0x02	2
212	0x0c	12
213	0x2b	43
214	0x0e	14
215	0x23	35
216	0x37	55
217	0x2b	43
218	0xe7	-25
219	0x11	17
220	0xf6	-10
221	0x0d	13
222	0xbe	-66
223	0x1a	26
224	0x3b	59
225	0xbc	-68
226	0xdf	-33
227	0xcd	-51
228	0xa2	-94
229	0xea	-22
230	0xf4	-12
231	0xf1	-15
232	0x1d	29
233	0x08	8
234	0xe8	-24
235	0xd7	-41
236	0xac	-84
237	0xf6	-10
238	0x0a	10
239	0x22	34
240	0xf3	-13
241	0xf0	-16
242	0xef	-17
243	0x16	22
244	0x3c	60
245	0x29	41
246	0xd8	-40
247	0xee	-18
248	0xf3	-13
249	0xd7	-41
250	0x07	7
251	0x39	57
252	0xdd	-35
253	0xa7	-89
254	0xbb	-69
255	0x1b	27

sequential/mobilenet_0.25_96/conv_pw_10/Conv2D i1 [128, 1, 1, 128]
0	0xea	-22
1	0xe4	-28
2	0x5b	91
3	0xf8	-8
4	0x36	54
5	0xd0	-48
6	0xfd	-3
7	0xfc	-4
8	0xc3	-61
9	0xe4	-28
10	0x0e	14
11	0x0a	10
12	0x47	71
13	0x6f	111
14	0x62	98
15	0x26	38
16	0xa9	-87
17	0xdc	-36
18	0xcc	-52
19	0x09	9
20	0x15	21
21	0x08	8
22	0x1c	28
23	0x1d	29
24	0xc5	-59
25	0x1b	27
26	0xd5	-43
27	0xc0	-64
28	0x1b	27
29	0xee	-18
30	0x13	19
31	0x01	1
32	0x42	66
33	0xda	-38
34	0x10	16
35	0xf5	-11
36	0x48	72
37	0xe2	-30
38	0x81	-127
39	0x24	36
40	0xde	-34
41	0xe4	-28
42	0xe6	-26
43	0xee	-18
44	0xf5	-11
45	0xa8	-88
46	0xf6	-10
47	0xc7	-57
48	0xbe	-66
49	0xf3	-13
50	0x3b	59
51	0x4b	75
52	0xf3	-13
53	0x36	54
54	0x17	23
55	0xd9	-39
56	0xd4	-44
57	0x16	22
58	0xd2	-46
59	0xe6	-26
60	0x9e	-98
61	0xe2	-30
62	0x09	9
63	0x5c	92
64	0xec	-20
65	0x1b	27
66	0xe5	-27
67	0x2c	44
68	0x0d	13
69	0xfa	-6
70	0x1f	31
71	0x24	36
72	0xef	-17
73	0xea	-22
74	0xf0	-16
75	0xe2	-30
76	0xb1	-79
77	0xf5	-11
78	0xe2	-30
79	0xdb	-37
80	0xd8	-40
81	0x18	24
82	0x24	36
83	0x0f	15
84	0x09	9
85	0xbc	-68
86	0xf9	-7
87	0x01	1
88	0xfe	-2
89	0x09	9
90	0xda	-38
91	0x22	34
92	0xdd	-35
93	0x3d	61
94	0x2c	44
95	0x00	0
96	0x20	32
97	0x37	55
98	0xc6	-58
99	0x2a	42
100	0x93	-109
101	0xce	-50
102	0x52	82
103	0x28	40
104	0x0a	10
105	0x15	21
106	0x21	33
107	0xbf	-65
108	0xef	-17
109	0x93	-109
110	0x0d	13
111	0xd7	-41
112	0xcc	-52
113	0xfe	-2
114	0x75	117
115	0x8f	-113
116	0xe8	-24
117	0xdc	-36
118	0x0a	10
119	0x12	18
120	0xd2	-46
121	0x1e	30
122	0x07	7
123	0x15	21
124	0x11	17
125	0x16	22
126	0xf9	-7
127	0x23	35
128	0x05	5
129	0xac	-84
130	0xb9	-71
131	0xd2	-46
132	0x2d	45
133	0xf9	-7
134	0xec	-20
135	0xa0	-96
136	0x4b	75
137	0x34	52
138	0x44	68
139	0xf6	-10
140	0xcb	-53
141	0xc7	-57
142	0x22	34
143	0x12	18
144	0x01	1
145	0x14	20
146	0xc6	-58
147	0x1f	31
148	0xc3	-61
149	0xe3	-29
150	0x14	20
151	0x36	54
152	0x22	34
153	0xa6	-90
154	0xe8	-24
155	0xe5	-27
156	0xc6	-58
157	0x1e	30
158	0xd2	-46
159	0x05	5
160	0x4f	79
161	0xca	-54
162	0x1e	30
163	0x0e	14
164	0xd8	-40
165	0xd4	-44
166	0xcb	-53
167	0x28	40
168	0xf0	-16
169	0xa3	-93
170	0xef	-17
171	0x97	-105
172	0x38	56
173	0xe4	-28
174	0x1e	30
175	0xfb	-5
176	0xba	-70
177	0xbf	-65
178	0x0c	12
179	0x09	9
180	0xea	-22
181	0xc6	-58
182	0x70	112
183	0xd8	-40
184	0x70	112
185	0xe4	-28
186	0xc4	-60
187	0x0b	11
188	0xe3	-29
189	0xda	-38
190	0xb6	-74
191	0xc7	-57
192	0x2b	43
193	0xf7	-9
194	0xd4	-44
195	0x0c	12
196	0xcd	-51
197	0x0a	10
198	0x11	17
199	0xb6	-74
200	0xde	-34
201	0x57	87
202	0x30	48
203	0x0a	10
204	0xd0	-48
205	0xea	-22
206	0xeb	-21
207	0x9c	-100
208	0xca	-54
209	0x7e	126
210	0xc2	-62
211	0x3f	63
212	0xeb	-21
213	0xc3	-61
214	0x22	34
215	0x1a	26
216	0x16	22
217	0xed	-19
218	0x7f	127
219	0x01	1
220	0x12	18
221	0x3f	63
222	0xfc	-4
223	0xee	-18
224	0x50	80
225	0x43	67
226	0xf8	-8
227	0xab	-85
228	0x10	16
229	0x25	37
230	0xe3	-29
231	0x4c	76
232	0xfd	-3
233	0x2c	44
234	0xf0	-16
235	0xa5	-91
236	0x19	25
237	0x26	38
238	0x51	81
239	0xb6	-74
240	0x9f	-97
241	0xf5	-11
242	0x7e	126
243	0x0a	10
244	0xc3	-61
245	0x1e	30
246	0xc9	-55
247	0xf9	-7
248	0xdb	-37
249	0xf6	-10
250	0x65	101
251	0x20	32
252	0x07	7
253	0xd7	-41
254	0x96	-106
255	0x12	18

sequential/mobilenet_0.25_96/conv_pw_11/Conv2D i1 [128, 1, 1, 128]
0	0x4c	76
1	0xf8	-8
2	0x30	48
3	0x9c	-100
4	0xb2	-78
5	0xda	-38
6	0x05	5
7	0xe2	-30
8	0x0f	15
9	0x30	48
10	0xeb	-21
11	0x15	21
12	0xdd	-35
13	0x0e	14
14	0x3d	61
15	0x13	19
16	0xfd	-3
17	0x4a	74
18	0x1f	31
19	0xea	-22
20	0x21	33
21	0x3d	61
22	0xe1	-31
23	0x06	6
24	0x23	35
25	0x20	32
26	0x27	39
27	0x1b	27
28	0x30	48
29	0x05	5
30	0xf0	-16
31	0x15	21
32	0x54	84
33	0x13	19
34	0x25	37
35	0xfb	-5
36	0x1d	29
37	0xef	-17
38	0xdd	-35
39	0xc8	-56
40	0xc4	-60
41	0xbd	-67
42	0x14	20
43	0xfb	-5
44	0xe7	-25
45	0x0c	12
46	0xc8	-56
47	0xef	-17
48	0x46	70
49	0xb8	-72
50	0x36	54
51	0x2c	44
52	0x00	0
53	0x06	6
54	0xef	-17
55	0xfc	-4
56	0xd7	-41
57	0x14	20
58	0xeb	-21
59	0xc9	-55
60	0x11	17
61	0x42	66
62	0x06	6
63	0xfe	-2
64	0xeb	-21
65	0x1b	27
66	0x4e	78
67	0x17	23
68	0xcc	-52
69	0x3b	59
70	0xa4	-92
71	0xb5	-75
72	0x26	38
73	0x38	56
74	0x2d	45
75	0x0d	13
76	0xf6	-10
77	0x24	36
78	0x08	8
79	0xdf	-33
80	0xaa	-86
81	0x16	22
82	0xd7	-41
83	0x16	22
84	0xfc	-4
85	0x0e	14
86	0xcc	-52
87	0x1d	29
88	0xa5	-91
89	0xc5	-59
90	0xe2	-30
91	0x1d	29
92	0x02	2
93	0xde	-34
94	0xe1	-31
95	0xd7	-41
96	0xf7	-9
97	0xc1	-63
98	0x24	36
99	0xee	-18
100	0xcf	-49
101	0x0f	15
102	0xd2	-46
103	0xeb	-21
104	0xd9	-39
105	0x26	38
106	0xd2	-46
107	0x18	24
108	0x10	16
109	0x81	-127
110	0xec	-20
111	0xe4	-28
112	0x31	49
113	0x27	39
114	0xe6	-26
115	0x24	36
116	0xeb	-21
117	0x03	3
118	0x32	50
119	0xeb	-21
120	0x2c	44
121	0xeb	-21
122	0xea	-22
123	0xdb	-37
124	0x06	6
125	0xe2	-30
126	0xfa	-6
127	0xff	-1
128	0x2e	46
129	0xe6	-26
130	0x56	86
131	0xa9	-87
132	0x03	3
133	0xf2	-14
134	0xdf	-33
135	0xbe	-66
136	0x15	21
137	0xa5	-91
138	0x01	1
139	0x56	86
140	0x3d	61
141	0xbd	-67
142	0x38	56
143	0x4f	79
144	0xf9	-7
145	0x6d	109
146	0x1d	29
147	0x2b	43
148	0xf7	-9
149	0xe0	-32
150	0x1a	26
151	0xd5	-43
152	0x29	41
153	0x0c	12
154	0x91	-111
155	0xe6	-26
156	0xda	-38
157	0xef	-17
158	0x1b	27
159	0x0c	12
160	0x35	53
161	0xee	-18
162	0x42	66
163	0x14	20
164	0xf0	-16
165	0x09	9
166	0x26	38
167	0xc0	-64
168	0x26	38
169	0xea	-22
170	0x01	1
171	0xd9	-39
172	0x81	-127
173	0xf9	-7
174	0xde	-34
175	0x3e	62
176	0x0e	14
177	0xd7	-41
178	0x8f	-113
179	0x43	67
180	0x23	35
181	0xda	-38
182	0xf2	-14
183	0x25	37
184	0x9f	-97
185	0x3b	59
186	0x3b	59
187	0xf3	-13
188	0x51	81
189	0xdc	-36
190	0x23	35
191	0xc8	-56
192	0xff	-1
193	0xf6	-10
194	0xbf	-65
195	0x0e	14
196	0x30	48
197	0xe2	-30
198	0xbd	-67
199	0x00	0
200	0x1b	27
201	0x48	72
202	0x1f	31
203	0x37	55
204	0x19	25
205	0x0d	13
206	0xc9	-55
207	0x00	0
208	0x08	8
209	0xfa	-6
210	0xfe	-2
211	0xef	-17
212	0xf6	-10
213	0x14	20
214	0xef	-17
215	0x9c	-100
216	0xef	-17
217	0xdc	-36
218	0x14	20
219	0xda	-38
220	0xb0	-80
221	0x22	34
222	0x06	6
223	0x28	40
224	0xd4	-44
225	0x2b	43
226	0x09	9
227	0x10	16
228	0xac	-84
229	0x2a	42
230	0xe7	-25
231	0x91	-111
232	0xcc	-52
233	0x79	121
234	0xf6	-10
235	0x86	-122
236	0xba	-70
237	0xfd	-3
238	0xe2	-30
239	0x0c	12
240	0xf2	-14
241	0xdb	-37
242	0xf8	-8
243	0x0e	14
244	0x32	50
245	0xc9	-55
246	0x07	7
247	0xf7	-9
248	0x3a	58
249	0xde	-34
250	0x2a	42
251	0x23	35
252	0xce	-50
253	0x07	7
254	0xf9	-7
255	0x40	64

sequential/mobilenet_0.25_96/conv_pw_12/Conv2D i1 [256, 1, 1, 128]
0	0xbc	-68
1	0xd6	-42
2	0xec	-20
3	0xed	-19
4	0xd0	-48
5	0x41	65
6	0x11	17
7	0x22	34
8	0xfc	-4
9	0xf2	-14
10	0xff	-1
11	0x08	8
12	0xe9	-23
13	0xe4	-28
14	0xff	-1
15	0xce	-50
16	0xfa	-6
17	0x13	19
18	0x1a	26
19	0x4c	76
20	0x02	2
21	0x11	17
22	0xdf	-33
23	0x0c	12
24	0x0f	15
25	0x18	24
26	0xef	-17
27	0xe6	-26
28	0xd5	-43
29	0xd5	-43
30	0xc8	-56
31	0xf1	-15
32	0x19	25
33	0xf5	-11
34	0xe0	-32
35	0xfe	-2
36	0xf9	-7
37	0xdc	-36
38	0xfd	-3
39	0xe3	-29
40	0x21	33
41	0xeb	-21
42	0x1f	31
43	0xe1	-31
44	0xc7	-57
45	0xf2	-14
46	0xe6	-26
47	0x06	6
48	0x03	3
49	0x01	1
50	0xdb	-37
51	0xc0	-64
52	0xd7	-41
53	0x07	7
54	0x18	24
55	0x03	3
56	0xe4	-28
57	0xe0	-32
58	0xe2	-30
59	0xe3	-29
60	0xcc	-52
61	0x0e	14
62	0x21	33
63	0xbe	-66
64	0xf2	-14
65	0x12	18
66	0x27	39
67	0x18	24
68	0xff	-1
69	0xbb	-69
70	0xe5	-27
71	0x24	36
72	0xc7	-57
73	0xfc	-4
74	0xdb	-37
75	0xd6	-42
76	0x07	7
77	0x0a	10
78	0x81	-127
79	0x07	7
80	0xff	-1
81	0xf9	-7
82	0x23	35
83	0x0f	15
84	0xf9	-7
85	0x37	55
86	0x02	2
87	0x19	25
88	0xf0	-16
89	0xe4	-28
90	0x22	34
91	0xd2	-46
92	0x0a	10
93	0x1d	29
94	0xf3	-13
95	0xe1	-31
96	0xd0	-48
97	0x44	68
98	0xff	-1
99	0xf9	-7
100	0x0f	15
101	0xe0	-32
102	0xe0	-32
103	0xf2	-14
104	0xef	-17
105	0x03	3
106	0x13	19
107	0xf4	-12
108	0xfd	-3
109	0xee	-18
110	0xd0	-48
111	0x49	73
112	0xcb	-53
113	0xeb	-21
114	0x02	2
115	0x17	23
116	0xe0	-32
117	0xff	-1
118	0x13	19
119	0x03	3
120	0xd8	-40
121	0xf1	-15
122	0x24	36
123	0x0e	14
124	0xf0	-16
125	0xf3	-13
126	0xd5	-43
127	0xe9	-23
128	0x40	64
129	0xc5	-59
130	0xef	-17
131	0xce	-50
132	0xec	-20
133	0xef	-17
134	0xbf	-65
135	0xe0	-32
136	0x13	19
137	0xd0	-48
138	0xe8	-24
139	0x15	21
140	0xe5	-27
141	0xe5	-27
142	0x1b	27
143	0xfb	-5
144	0x36	54
145	0xbe	-66
146	0xe9	-23
147	0x02	2
148	0x0e	14
149	0xe6	-26
150	0xd6	-42
151	0xf1	-15
152	0x2f	47
153	0x18	24
154	0x16	22
155	0xcb	-53
156	0x1a	26
157	0xc3	-61
158	0x21	33
159	0x35	53
160	0x33	51
161	0x45	69
162	0x40	64
163	0x94	-108
164	0xb4	-76
165	0x4b	75
166	0xe9	-23
167	0x39	57
168	0x3a	58
169	0xfc	-4
170	0xcc	-52
171	0xdd	-35
172	0x0c	12
173	0xd7	-41
174	0x1d	29
175	0x04	4
176	0xc1	-63
177	0x96	-106
178	0xd8	-40
179	0x1c	28
180	0xfe	-2
181	0x57	87
182	0x13	19
183	0xe4	-28
184	0x2e	46
185	0xb9	-71
186	0x20	32
187	0x8e	-114
188	0x00	0
189	0x96	-106
190	0xa4	-92
191	0xb7	-73
192	0xee	-18
193	0xf1	-15
194	0xea	-22
195	0x0b	11
196	0xef	-17
197	0x1e	30
198	0xe8	-24
199	0x20	32
200	0xa9	-87
201	0x02	2
202	0xc8	-56
203	0x2e	46
204	0x21	33
205	0xf8	-8
206	0x25	37
207	0x4a	74
208	0xcc	-52
209	0x1f	31
210	0xeb	-21
211	0xe8	-24
212	0x23	35
213	0xce	-50
214	0xe4	-28
215	0xa9	-87
216	0x93	-109
217	0x03	3
218	0x02	2
219	0xe6	-26
220	0x20	32
221	0xef	-17
222	0x23	35
223	0x7f	127
224	0x43	67
225	0xa5	-91
226	0x27	39
227	0x05	5
228	0xba	-70
229	0xdd	-35
230	0x4e	78
231	0xda	-38
232	0xdc	-36
233	0xec	-20
234	0x08	8
235	0xe9	-23
236	0x33	51
237	0x94	-108
238	0xcd	-51
239	0xd4	-44
240	0x05	5
241	0xc7	-57
242	0x2d	45
243	0xfd	-3
244	0xd4	-44
245	0xf1	-15
246	0x0f	15
247	0x56	86
248	0x6d	109
249	0x4e	78
250	0x12	18
251	0x2e	46
252	0x4f	79
253	0xa9	-87
254	0x67	103
255	0xe1	-31

sequential/mobilenet_0.25_96/conv_pw_13/Conv2D i1 [256, 1, 1, 256]
0	0xe0	-32
1	0xdc	-36
2	0x12	18
3	0xec	-20
4	0x0e	14
5	0x91	-111
6	0xa7	-89
7	0x0c	12
8	0x10	16
9	0xc6	-58
10	0x08	8
11	0xbc	-68
12	0xf3	-13
13	0xc6	-58
14	0x0f	15
15	0xdd	-35
16	0x2b	43
17	0x1c	28
18	0xef	-17
19	0xf2	-14
20	0x15	21
21	0xe4	-28
22	0xa4	-92
23	0xcb	-53
24	0xe0	-32
25	0xdc	-36
26	0xc8	-56
27	0xf6	-10
28	0xd7	-41
29	0xc4	-60
30	0xfc	-4
31	0x0e	14
32	0xf0	-16
33	0xf2	-14
34	0x32	50
35	0xe5	-27
36	0xb1	-79
37	0xfb	-5
38	0x03	3
39	0x4a	74
40	0x0a	10
41	0xbc	-68
42	0x11	17
43	0xa9	-87
44	0xff	-1
45	0x27	39
46	0x02	2
47	0xd8	-40
48	0xff	-1
49	0x2d	45
50	0xc9	-55
51	0xc7	-57
52	0xed	-19
53	0x07	7
54	0xeb	-21
55	0xcb	-53
56	0xd1	-47
57	0x1a	26
58	0x0b	11
59	0xea	-22
60	0x84	-124
61	0x08	8
62	0xe0	-32
63	0x98	-104
64	0xda	-38
65	0x06	6
66	0x1c	28
67	0x0e	14
68	0xc1	-63
69	0xfa	-6
70	0x3a	58
71	0x32	50
72	0x32	50
73	0x2f	47
74	0xed	-19
75	0x12	18
76	0x22	34
77	0xf5	-11
78	0xf9	-7
79	0x08	8
80	0xf9	-7
81	0xff	-1
82	0x03	3
83	0x30	48
84	0xf2	-14
85	0x26	38
86	0xd3	-45
87	0xd9	-39
88	0xf5	-11
89	0xfa	-6
90	0xed	-19
91	0xd7	-41
92	0x81	-127
93	0xd4	-44
94	0x17	23
95	0xf6	-10
96	0xf2	-14
97	0xfd	-3
98	0xf8	-8
99	0x1f	31
100	0xed	-19
101	0xef	-17
102	0xc3	-61
103	0xe8	-24
104	0xec	-20
105	0xa4	-92
106	0xff	-1
107	0x07	7
108	0x1b	27
109	0x16	22
110	0xe8	-24
111	0xbe	-66
112	0xd6	-42
113	0x17	23
114	0x2f	47
115	0xf8	-8
116	0x09	9
117	0xef	-17
118	0x16	22
119	0xbf	-65
120	0xa1	-95
121	0x06	6
122	0xc1	-63
123	0x23	35
124	0x30	48
125	0xff	-1
126	0x0a	10
127	0xd0	-48
128	0xaf	-81
129	0xfa	-6
130	0xbb	-69
131	0xfb	-5
132	0xfb	-5
133	0xf7	-9
134	0xfe	-2
135	0xfc	-4
136	0xef	-17
137	0xf8	-8
138	0xc0	-64
139	0xed	-19
140	0xc6	-58
141	0x2d	45
142	0x03	3
143	0xe2	-30
144	0xfc	-4
145	0xdf	-33
146	0xe3	-29
147	0xf1	-15
148	0x0c	12
149	0xe5	-27
150	0xd0	-48
151	0x13	19
152	0x17	23
153	0xe9	-23
154	0xe2	-30
155	0xea	-22
156	0xea	-22
157	0xfe	-2
158	0x0a	10
159	0x18	24
160	0x19	25
161	0x17	23
162	0x00	0
163	0xfe	-2
164	0x25	37
165	0xf5	-11
166	0xd1	-47
167	0x05	5
168	0x15	21
169	0x11	17
170	0xe3	-29
171	0x05	5
172	0x26	38
173	0x29	41
174	0x08	8
175	0xc2	-62
176	0xed	-19
177	0x2e	46
178	0xe1	-31
179	0xd1	-47
180	0xcc	-52
181	0x23	35
182	0xc7	-57
183	0x0d	13
184	0xea	-22
185	0xd6	-42
186	0x08	8
187	0xf9	-7
188	0xf4	-12
189	0xcf	-49
190	0xd6	-42
191	0xe4	-28
192	0xea	-22
193	0x1a	26
194	0x24	36
195	0x01	1
196	0x00	0
197	0x27	39
198	0xe5	-27
199	0x94	-108
200	0xbd	-67
201	0xeb	-21
202	0xbf	-65
203	0xef	-17
204	0x19	25
205	0x0a	10
206	0x19	25
207	0xf3	-13
208	0xcf	-49
209	0xf9	-7
210	0xd3	-45
211	0x2b	43
212	0xfa	-6
213	0xec	-20
214	0xec	-20
215	0x15	21
216	0xae	-82
217	0x0b	11
218	0xdf	-33
219	0xa2	-94
220	0x28	40
221	0xfe	-2
222	0xed	-19
223	0x36	54
224	0xad	-83
225	0xb0	-80
226	0xe9	-23
227	0xf0	-16
228	0x07	7
229	0xde	-34
230	0xf6	-10
231	0xeb	-21
232	0xdf	-33
233	0x07	7
234	0xfa	-6
235	0xf2	-14
236	0xe1	-31
237	0xf2	-14
238	0xe9	-23
239	0xe4	-28
240	0x02	2
241	0xf2	-14
242	0xe7	-25
243	0x09	9
244	0xb0	-80
245	0x23	35
246	0xa6	-90
247	0x32	50
248	0xbf	-65
249	0x1e	30
250	0xcc	-52
251	0x17	23
252	0x07	7
253	0x0c	12
254	0x01	1
255	0x0a	10

sequential/mobilenet_0.25_96/conv_preds/Conv2D i1 [2, 1, 1, 256]
0	0xdb	-37
1	0xea	-22
2	0x04	4
3	0xcd	-51
4	0xaf	-81
5	0x2f	47
6	0xfe	-2
7	0xfc	-4
8	0xde	-34
9	0x57	87
10	0x18	24
11	0xfb	-5
12	0x31	49
13	0x20	32
14	0x46	70
15	0xd1	-47
16	0xb9	-71
17	0xc0	-64
18	0x42	66
19	0x1d	29
20	0xd7	-41
21	0x2b	43
22	0xfc	-4
23	0x81	-127
24	0xec	-20
25	0x0c	12
26	0xe6	-26
27	0x13	19
28	0xc1	-63
29	0x17	23
30	0xd5	-43
31	0x25	37
32	0xc6	-58
33	0x41	65
34	0xde	-34
35	0x5b	91
36	0x27	39
37	0xef	-17
38	0xbc	-68
39	0xf4	-12
40	0x08	8
41	0xfd	-3
42	0x38	56
43	0xe6	-26
44	0x20	32
45	0xfd	-3
46	0x01	1
47	0xd7	-41
48	0xee	-18
49	0x3a	58
50	0x00	0
51	0x0e	14
52	0x0c	12
53	0x0c	12
54	0x08	8
55	0x52	82
56	0xed	-19
57	0x0f	15
58	0x05	5
59	0x15	21
60	0x32	50
61	0xda	-38
62	0xd1	-47
63	0xdc	-36
64	0x04	4
65	0x4f	79
66	0xaa	-86
67	0x15	21
68	0xf9	-7
69	0xce	-50
70	0xc7	-57
71	0x5c	92
72	0xdd	-35
73	0xe0	-32
74	0xdf	-33
75	0xe1	-31
76	0xc7	-57
77	0x5e	94
78	0xef	-17
79	0xc2	-62
80	0xec	-20
81	0xf1	-15
82	0xfd	-3
83	0xb9	-71
84	0x05	5
85	0xc6	-58
86	0x19	25
87	0x44	68
88	0x0e	14
89	0xf7	-9
90	0xb7	-73
91	0x01	1
92	0x02	2
93	0x0f	15
94	0x2d	45
95	0x46	70
96	0x8d	-115
97	0xd4	-44
98	0x1b	27
99	0x21	33
100	0x4d	77
101	0xea	-22
102	0x5f	95
103	0xfe	-2
104	0xd0	-48
105	0x23	35
106	0xf6	-10
107	0x4c	76
108	0xef	-17
109	0x28	40
110	0x18	24
111	0xe5	-27
112	0xdb	-37
113	0x0a	10
114	0xf8	-8
115	0xba	-70
116	0xd8	-40
117	0x0e	14
118	0xbf	-65
119	0x9e	-98
120	0xb1	-79
121	0x02	2
122	0xcf	-49
123	0x42	66
124	0xef	-17
125	0x90	-112
126	0xe4	-28
127	0xe8	-24
128	0x1d	29
129	0xd8	-40
130	0xd0	-48
131	0xbc	-68
132	0x23	35
133	0x0d	13
134	0xfa	-6
135	0x02	2
136	0xdd	-35
137	0x2c	44
138	0x27	39
139	0xa1	-95
140	0xf1	-15
141	0x73	115
142	0x18	24
143	0xe6	-26
144	0x26	38
145	0xd9	-39
146	0x14	20
147	0xf1	-15
148	0x03	3
149	0xba	-70
150	0xf7	-9
151	0x04	4
152	0xd7	-41
153	0xe0	-32
154	0x28	40
155	0x9b	-101
156	0x02	2
157	0x0f	15
158	0x04	4
159	0xc4	-60
160	0x9f	-97
161	0xc5	-59
162	0xfb	-5
163	0x04	4
164	0xfc	-4
165	0xde	-34
166	0xa8	-88
167	0xe1	-31
168	0xcf	-49
169	0xdc	-36
170	0x98	-104
171	0x21	33
172	0x06	6
173	0x1b	27
174	0x05	5
175	0x10	16
176	0x00	0
177	0x26	38
178	0x02	2
179	0xc4	-60
180	0xb5	-75
181	0xf9	-7
182	0x2d	45
183	0x32	50
184	0xf3	-13
185	0xfb	-5
186	0xd7	-41
187	0xdd	-35
188	0xb3	-77
189	0xac	-84
190	0xd5	-43
191	0x26	38
192	0x08	8
193	0x05	5
194	0x62	98
195	0x18	24
196	0x23	35
197	0xe4	-28
198	0x3d	61
199	0x15	21
200	0xf7	-9
201	0xa1	-95
202	0xe7	-25
203	0x06	6
204	0xec	-20
205	0xce	-50
206	0x01	1
207	0x06	6
208	0xf1	-15
209	0x11	17
210	0x2a	42
211	0xbc	-68
212	0x49	73
213	0x4b	75
214	0xdb	-37
215	0xcf	-49
216	0x22	34
217	0x28	40
218	0x24	36
219	0xe3	-29
220	0x04	4
221	0x16	22
222	0x15	21
223	0x9a	-102
224	0x0d	13
225	0x1f	31
226	0xb5	-75
227	0x29	41
228	0x2c	44
229	0xf9	-7
230	0xc0	-64
231	0x25	37
232	0xf7	-9
233	0x3f	63
234	0x2a	42
235	0x05	5
236	0x21	33
237	0x04	4
238	0xba	-70
239	0x18	24
240	0x71	113
241	0xd3	-45
242	0xd9	-39
243	0xe7	-25
244	0xee	-18
245	0x42	66
246	0xd2	-46
247	0x08	8
248	0xdb	-37
249	0x11	17
250	0x0f	15
251	0x00	0
252	0xf3	-13
253	0x21	33
254	0xb3	-77
255	0x0d	13

sequential/mobilenet_0.25_96/conv_dw_1_bn/FusedBatchNormV3;sequential/mobilenet_0.25_96/conv_dw_1/depthwise i1 [1, 3, 3, 8]
0	0x27	39
1	0x26	38
2	0x56	86
3	0x31	49
4	0x81	-127
5	0x06	6
6	0x3f	63
7	0xda	-38
8	0x82	-126
9	0x3f	63
10	0xf0	-16
11	0xf2	-14
12	0x88	-120
13	0x77	119
14	0x97	-105
15	0x36	54
16	0x81	-127
17	0x7f	127
18	0x3c	60
19	0x4c	76
20	0x3a	58
21	0xb7	-73
22	0xef	-17
23	0x33	51
24	0x2b	43
25	0xb2	-78
26	0xad	-83
27	0xc7	-57
28	0xe9	-23
29	0xee	-18
30	0x7f	127
31	0x99	-103
32	0x65	101
33	0xb2	-78
34	0x81	-127
35	0x81	-127
36	0x70	112
37	0x81	-127
38	0xa0	-96
39	0xe9	-23
40	0x1d	29
41	0x4d	77
42	0xdc	-36
43	0xf4	-12
44	0x04	4
45	0x3b	59
46	0x46	70
47	0xb7	-73
48	0x1c	28
49	0xe8	-24
50	0x16	22
51	0x36	54
52	0xfc	-4
53	0x0b	11
54	0xf6	-10
55	0x9b	-101
56	0x3f	63
57	0xc5	-59
58	0xcd	-51
59	0xae	-82
60	0x78	120
61	0xf4	-12
62	0xba	-70
63	0x34	52
64	0xcc	-52
65	0x28	40
66	0x5d	93
67	0xe5	-27
68	0x2e	46
69	0x1a	26
70	0xee	-18
71	0x7f	127

sequential/mobilenet_0.25_96/conv_dw_2_bn/FusedBatchNormV3;sequential/mobilenet_0.25_96/conv_dw_2/depthwise i1 [1, 3, 3, 16]
0	0x1b	27
1	0xb6	-74
2	0xd2	-46
3	0xf3	-13
4	0x1a	26
5	0x5c	92
6	0x7f	127
7	0x4d	77
8	0xbe	-66
9	0x0c	12
10	0x28	40
11	0x0a	10
12	0xe7	-25
13	0xe0	-32
14	0x81	-127
15	0x60	96
16	0x33	51
17	0xde	-34
18	0x81	-127
19	0xc4	-60
20	0x32	50
21	0x77	119
22	0x6c	108
23	0xdd	-35
24	0x81	-127
25	0xd2	-46
26	0x81	-127
27	0x42	66
28	0x81	-127
29	0x7a	122
30	0x87	-121
31	0x20	32
32	0x7f	127
33	0x21	33
34	0x40	64
35	0xc6	-58
36	0x7f	127
37	0xf1	-15
38	0xf2	-14
39	0xf0	-16
40	0xaa	-86
41	0x2f	47
42	0x89	-119
43	0xed	-19
44	0xb9	-71
45	0x58	88
46	0xd7	-41
47	0xeb	-21
48	0xc8	-56
49	0xed	-19
50	0xc3	-61
51	0x1f	31
52	0x92	-110
53	0x7f	127
54	0x4a	74
55	0x54	84
56	0x4a	74
57	0x4f	79
58	0xc3	-61
59	0x7f	127
60	0xc5	-59
61	0xc7	-57
62	0x07	7
63	0x4d	77
64	0xe0	-32
65	0x7e	126
66	0xad	-83
67	0xea	-22
68	0xc1	-63
69	0x3d	61
70	0x71	113
71	0x6f	111
72	0x7e	126
73	0xc3	-61
74	0x35	53
75	0x34	52
76	0xda	-38
77	0x7f	127
78	0xe6	-26
79	0x7f	127
80	0x8d	-115
81	0x47	71
82	0x04	4
83	0xd8	-40
84	0xa8	-88
85	0x11	17
86	0x28	40
87	0x05	5
88	0x4e	78
89	0x06	6
90	0x4e	78
91	0xd3	-45
92	0xf7	-9
93	0x72	114
94	0x1f	31
95	0x3d	61
96	0xee	-18
97	0xf3	-13
98	0x24	36
99	0x31	49
100	0x3d	61
101	0x08	8
102	0x03	3
103	0x26	38
104	0xe4	-28
105	0x22	34
106	0x15	21
107	0x6e	110
108	0x11	17
109	0x1b	27
110	0x3f	63
111	0x0a	10
112	0xfe	-2
113	0x7f	127
114	0x0a	10
115	0x7f	127
116	0x10	16
117	0xf7	-9
118	0x1d	29
119	0x7f	127
120	0xf5	-11
121	0x38	56
122	0x62	98
123	0xf2	-14
124	0x3b	59
125	0x01	1
126	0x3e	62
127	0x4f	79
128	0x10	16
129	0x7a	122
130	0xe3	-29
131	0x08	8
132	0x3a	58
133	0x15	21
134	0x11	17
135	0x16	22
136	0xde	-34
137	0x81	-127
138	0x17	23
139	0xba	-70
140	0x0b	11
141	0x0c	12
142	0xda	-38
143	0x46	70

sequential/mobilenet_0.25_96/conv_dw_3_bn/FusedBatchNormV3;sequential/mobilenet_0.25_96/conv_dw_3/depthwise;sequential/mobilenet_0.25_96/conv_dw_4/depthwise i1 [1, 3, 3, 32]
0	0x72	114
1	0xa7	-89
2	0x1f	31
3	0x98	-104
4	0x33	51
5	0x57	87
6	0x5d	93
7	0x17	23
8	0x0f	15
9	0x45	69
10	0x32	50
11	0xca	-54
12	0x53	83
13	0xd5	-43
14	0x4d	77
15	0x12	18
16	0xa8	-88
17	0xde	-34
18	0x2f	47
19	0xbf	-65
20	0x0b	11
21	0xe8	-24
22	0xda	-38
23	0x7f	127
24	0x7f	127
25	0xe5	-27
26	0xa9	-87
27	0xcd	-51
28	0x28	40
29	0xf5	-11
30	0xee	-18
31	0xff	-1
32	0xda	-38
33	0x14	20
34	0xe6	-26
35	0x41	65
36	0x36	54
37	0x19	25
38	0x2a	42
39	0xf3	-13
40	0x7f	127
41	0x33	51
42	0xb3	-77
43	0x1e	30
44	0x70	112
45	0xfe	-2
46	0x09	9
47	0xba	-70
48	0xd3	-45
49	0x06	6
50	0x03	3
51	0xe7	-25
52	0xe9	-23
53	0xca	-54
54	0x34	52
55	0x6b	107
56	0xd2	-46
57	0xa7	-89
58	0x7f	127
59	0xab	-85
60	0x3d	61
61	0x7f	127
62	0x75	117
63	0xca	-54
64	0x81	-127
65	0x54	84
66	0xaf	-81
67	0x07	7
68	0xf7	-9
69	0xf8	-8
70	0x81	-127
71	0x34	52
72	0xd1	-47
73	0x27	39
74	0xda	-38
75	0x17	23
76	0xb8	-72
77	0x0a	10
78	0xfc	-4
79	0xd9	-39
80	0x36	54
81	0xd6	-42
82	0xe0	-32
83	0xda	-38
84	0xeb	-21
85	0xc3	-61
86	0x7f	127
87	0x82	-126
88	0xfa	-6
89	0xea	-22
90	0xd3	-45
91	0xe3	-29
92	0x9d	-99
93	0x26	38
94	0x81	-127
95	0xea	-22
96	0x99	-103
97	0x4b	75
98	0x89	-119
99	0x81	-127
100	0xbd	-67
101	0x75	117
102	0x5c	92
103	0xc3	-61
104	0x16	22
105	0x7f	127
106	0x72	114
107	0xb5	-75
108	0x7f	127
109	0x59	89
110	0x5e	94
111	0xc9	-55
112	0xcc	-52
113	0x26	38
114	0x15	21
115	0x9b	-101
116	0x7f	127
117	0x2d	45
118	0x12	18
119	0x01	1
120	0xe8	-24
121	0x16	22
122	0x4a	74
123	0x05	5
124	0x4c	76
125	0x21	33
126	0x04	4
127	0x95	-107
128	0x64	100
129	0x81	-127
130	0x81	-127
131	0x67	103
132	0x7f	127
133	0x06	6
134	0xac	-84
135	0x81	-127
136	0x07	7
137	0x09	9
138	0xcb	-53
139	0x81	-127
140	0xf2	-14
141	0x7f	127
142	0x51	81
143	0xec	-20
144	0xd1	-47
145	0x15	21
146	0xc7	-57
147	0x81	-127
148	0xc4	-60
149	0xcb	-53
150	0x42	66
151	0xec	-20
152	0x25	37
153	0xfb	-5
154	0xc6	-58
155	0x8d	-115
156	0xa0	-96
157	0x48	72
158	0xa0	-96
159	0x81	-127
160	0xce	-50
161	0x03	3
162	0xdc	-36
163	0xc5	-59
164	0xd1	-47
165	0xe1	-31
166	0x96	-106
167	0xf2	-14
168	0x30	48
169	0xf4	-12
170	0x87	-121
171	0x0c	12
172	0xb9	-71
173	0xef	-17
174	0xf4	-12
175	0x75	117
176	0x53	83
177	0x7f	127
178	0xb0	-80
179	0xab	-85
180	0xf6	-10
181	0x0b	11
182	0xd0	-48
183	0x32	50
184	0xf4	-12
185	0x81	-127
186	0x17	23
187	0xf5	-11
188	0x19	25
189	0x11	17
190	0x23	35
191	0xef	-17
192	0x22	34
193	0x50	80
194	0xae	-82
195	0x40	64
196	0x20	32
197	0x18	24
198	0xfc	-4
199	0xb6	-74
200	0xea	-22
201	0x53	83
202	0x7f	127
203	0xd2	-46
204	0xe9	-23
205	0x03	3
206	0x7f	127
207	0x81	-127
208	0x22	34
209	0xc9	-55
210	0x1b	27
211	0xe0	-32
212	0x2f	47
213	0xcf	-49
214	0x06	6
215	0x14	20
216	0xca	-54
217	0x4c	76
218	0x77	119
219	0x23	35
220	0x81	-127
221	0x5c	92
222	0x04	4
223	0xb4	-76
224	0x56	86
225	0xd5	-43
226	0xc2	-62
227	0x60	96
228	0xd7	-41
229	0x81	-127
230	0xd3	-45
231	0xa1	-95
232	0xf7	-9
233	0x0c	12
234	0xe6	-26
235	0xee	-18
236	0x26	38
237	0x63	99
238	0x39	57
239	0x53	83
240	0x8f	-113
241	0x03	3
242	0xc9	-55
243	0x59	89
244	0xf5	-11
245	0x7f	127
246	0xfd	-3
247	0x2e	46
248	0x0c	12
249	0xe0	-32
250	0xb3	-77
251	0x81	-127
252	0x3b	59
253	0xf0	-16
254	0xb1	-79
255	0xc1	-63
