v0.1/reference_submissions/person_detection/vww_96_float.tflite (tflite, 865708 bytes, 56 tensors)

sequential/mobilenet_0.25_96/conv1_bn/FusedBatchNormV3 f4 [8]
00000000: 8716 c8bf 967f b53f 3949 50bf d0c9 acbf
00000010: b1b0 47bf 6cf0 a53f 8083 ec3f 90e6 313e
-1.5631875 1.4179561 -0.8136173 -1.3499088 -0.78003985 1.2963996 1.8477631 0.17373109

sequential/mobilenet_0.25_96/conv_dw_10_bn/FusedBatchNormV3 f4 [128]
00000000: b36c 1ebe 888a 103f 6e01 12bf 3c47 013f
00000010: f198 b0be 26a6 5b3f 222d 063f 0485 483f
00000020: ca65 4ebf 48f8 5b3f 1ac8 f4be 83b3 7fbf
00000030: b49d efbe 1ce6 243f 683e 92be a481 993f
00000040: 2e60 dabe 7edd aa3d 183a 6bbe 7e50 d43e
00000050: 77c4 ab3f 37a9 d6be 7254 c03d e5d6 cf3e
00000060: c751 553e 544d 683d c84e 1bbf 5284 2bbe
00000070: 0a6c 30be bc25 f43e 1a2f c6be 7731 853d
00000080: c370 2ebf d0e2 6abf 7ec3 ea3d f125 12be
00000090: eec6 57bf abf5 5a3e a3d3 f9bd 34a8 b8bd
000000a0: 3897 0cbf 784c 2a3f 0cbd 0a3f 92c1 40be
000000b0: 9122 2dbf 343a 053f 84ed f5bd 9878 3bbf
000000c0: e05a 57bc 7e57 38bf 954f 25bf ff89 263f
000000d0: 456b 94bf 1202 5dbe 8be4 a3be 5ea3 f33d
000000e0: 0e43 bfbe a5e0 e6be 3e9d 1f3f 6283 5fbf
000000f0: 822a 1ebf 2374 833e 8bb3 a13f fcee e9be
00000100: 6ac2 88be fdb6 833f 55fb a63f 8c5a 31bf
00000110: 1b8f ffbe e4ff dfbe 096d abbe bc8b 81bf
00000120: fb7b 103f 9108 81bf 0e20 30bf c607 e63e
00000130: 95d9 08be a239 8a3d 3a24 5cbf c8ff 6abf
00000140: 49ea 1cbf 2a54 76be 664f e4be 171e febe
00000150: 6485 f33d 81f5 1bbf 87a3 863f e569 613f
00000160: f85f dcbc 4099 a0bd 919a 88be ce17 41bf
00000170: e332 e1be d569 99be f47d c0be e6d1 293f
00000180: 67b1 1abf 84fe 943f 0f27 9bbc 4ac2 3dbf
00000190: ec60 42bf 9ee5 583f 6f2a 1c3f 9442 803f
000001a0: 7c2a 8bbe 319b 033f 70ff 52be 7a82 b73e
000001b0: c473 a7be 2c90 31bd d474 713f eb15 a6be
000001c0: 7d47 a63e f31f 06be 6963 953d c3dd a8be
000001d0: f52c dbbe 6341 053f 9dec 3d3f 756a 1fbf
000001e0: 15d1 0f3e b803 6c3f b6cc 39bf e777 00bf
000001f0: 8216 343f 5c85 01bf 2c9c 723f 5221 8d3f
-0.15471153 0.5646138 -0.5703343 0.5049932 -0.34491685 0.858004 0.5241262 0.78327966
-0.8062407 0.8592572 -0.47808915 -0.9988329 -0.46800005 0.6441362 -0.28563237 1.1992688
-0.42651504 0.083430275 -0.2297138 0.4146766 1.3419331 -0.41925976 0.09391107 0.4059364
0.20831977 0.05671437 -0.60667086 -0.16749695 -0.17228714 0.4768504 -0.3870781 0.06503575
-0.6814081 -0.9175234 0.114630684 -0.14272286 -0.8428792 0.21382777 -0.121985696 -0.09016457
-0.5491824 0.6652293 0.5419471 -0.18823841 -0.6763087 0.52041936 -0.12008193 -0.73230886
-0.013144225 -0.720085 -0.6457456 0.65054315 -1.1595236 -0.21582821 -0.32010302 0.11896394
-0.37355846 -0.45093265 0.6234931 -0.8730985 -0.6178361 0.25674543 1.2632917 -0.45690143
-0.26710826 1.0290219 1.304545 -0.6927879 -0.49913868 -0.43749917 -0.33481625 -1.0120769
0.5643918 -1.0080739 -0.6879891 0.44927806 -0.13364251 0.06749274 -0.8599278 -0.9179654
-0.6129499 -0.24055544 -0.44591826 -0.49632332 0.118906766 -0.60921484 1.0518655 0.8805221
-0.02690123 -0.0784173 -0.26680425 -0.7542695 -0.43984136 -0.29963556 -0.37596095 0.66335905
-0.60426944 1.1640172 -0.018939523 -0.74124587 -0.7592914 0.8472537 0.6100225 1.0020318
-0.2718085 0.5140868 -0.20605254 0.35841733 -0.3270551 -0.043350384 0.9431889 -0.32438597
0.32476416 -0.13098125 0.072943516 -0.3298169 -0.42807737 0.520529 0.7418917 -0.62271816
0.14044602 0.92193174 -0.7257799 -0.50182956 0.70346844 -0.50594115 0.9476955 1.1025794

sequential/mobilenet_0.25_96/conv_dw_11_bn/FusedBatchNormV3 f4 [128]
00000000: bb32 e1be d037 f5be 91db acbe 0638 e4be
00000010: 493b c2be 1925 30bf cf47 003f 4ada 81bf
00000020: 9a41 53bf ac45 a93f c2d5 48bf f628 04bf
00000030: 9fd8 17bf 426c 06be d1fe 9cbe cc09 10be
00000040: 70ac e23c d163 113f bc59 e0bd cbe3 17bf
00000050: 7818 e23d 619d 9e3e 8fd9 13bf b289 11bf
00000060: 30c3 e2be 8580 febe 4a0d 85bf 02ce 76be
00000070: 7cd2 2dbf 606f e9be 9c35 a73d 00e4 3c3a
00000080: ce79 2ebf f402 eebd 802c 28bc 806b 613d
00000090: ef83 69bf 1d88 12bf bf47 47be dd77 83bd
000000a0: 44f0 303f 7ebd 8f3e 86da e3be 1c31 543f
000000b0: 0d32 173f c67b 143e ab21 37bf 339f 1f3e
000000c0: 0555 91bd d4fd 2abe 4ec3 b5be 68fb b63e
000000d0: 4b79 f53e fca7 a53e 0444 c9be 80da 8bbe
000000e0: 4277 3ebf 8c61 01bf d9c3 0fbe 512c 5d3f
000000f0: 989e ff3e e151 c03e 5481 f4be 4b27 0fbf
00000100: 925e 0c3f 7453 0b3f ee70 12be a8b6 32bf
00000110: b8c0 0ebc 546d d5bd 0dd5 173f d202 1bbf
00000120: 7053 cbbe d79b 47be 4fd8 aebe c052 70bf
00000130: 64b2 ac3e 9cd9 bebc 40e9 083f 3241 90bf
00000140: e315 8fbd 0498 6dbf ae1d 0fbf c362 ca3f
00000150: 5502 13bf c01d 193f 615a 463f 0d07 893f
00000160: 1641 593e 4d3c 0fbf 509d b43d ee01 14bf
00000170: c4a9 1bbd 391e a93e f855 fdbe d57a 423f
00000180: 3b11 fabe 2992 b7bd 6e27 313f cca4 4f3e
00000190: 1c8d aabe be1b febe 0aea 2c3e 28f7 8dbe
000001a0: e6e1 a5be d6b9 583e 0348 18bf 7064 4bbd
000001b0: c3f9 10bf 5442 ad3e fcc2 b3be 720d 093e
000001c0: d58c b9be 65aa 1a3f 1840 e93d 4e5c 27be
000001d0: c654 943e 1cb4 39bf 5248 e73e 13d3 9c3d
000001e0: 6c1c dcbe 52e4 16bf 8f56 943e 7326 4ebf
000001f0: e42d a53e 6c52 333f bf2f e73e 6790 56bf
-0.43984017 -0.47894144 -0.33761266 -0.44573992 -0.37935856 -0.68806607 0.5010957 -1.0144742
-0.82521975 1.3224387 -0.7845117 -0.51625 -0.5931491 -0.13127235 -0.3066316 -0.14066237
0.027670115 0.5679293 -0.109546155 -0.5933196 0.11039823 0.30979446 -0.57753843 -0.5685073
-0.4428954 -0.49707428 -1.039468 -0.24102023 -0.678993 -0.45592785 0.08164522 0.00072056055
-0.6815461 -0.11621657 -0.010264516 0.05503416 -0.9121694 -0.5723894 -0.19460963 -0.064193465
0.69116616 0.2807426 -0.44502658 0.82887435 0.59060746 0.14500341 -0.7153575 0.15588073
-0.07096294 -0.1669839 -0.35500568 0.35738683 0.47944102 0.32354724 -0.39309704 -0.2731514
-0.74400723 -0.5053947 -0.14039554 0.86395746 0.49925685 0.3756247 -0.4775492 -0.5591933
0.548318 0.54424214 -0.14300892 -0.6980996 -0.00871294 -0.10421243 0.59309465 -0.6055118
-0.39712095 -0.19493042 -0.34149405 -0.93876266 0.3372985 -0.023297124 0.5348091 -1.1269896
-0.069865964 -0.9281008 -0.5590466 1.581139 -0.57425433 0.5981102 0.7748166 1.0705277
0.21216235 -0.55951387 0.088190675 -0.57815444 -0.038003698 0.3303087 -0.4947965 0.75968677
-0.4884127 -0.08963425 0.6920079 0.20277709 -0.33310783 -0.4963054 0.16886154 -0.27727628
-0.3239891 0.21164641 -0.5948488 -0.04965633 -0.56631106 0.33839667 -0.351097 0.13384035
-0.3624026 0.6041625 0.11389178 -0.16343805 0.28970927 -0.7254045 0.45172364 0.07657447
-0.42990434 -0.5894214 0.2897229 -0.8052742 0.32261574 0.7004764 0.45153615 -0.8381409

sequential/mobilenet_0.25_96/conv_dw_12_bn/FusedBatchNormV3 f4 [128]
00000000: 78af a7be 024c 073f ca95 723f 62a7 10bf
00000010: d3f8 0fbf 90e7 53bc ed4e 36bf 8802 f93d
00000020: bb09 403e ba45 3a3e 84c9 0d3e d250 32bf
00000030: a819 17bf feba 013e 687b 443f 6a1c 143f
00000040: 56ef 873f 3416 9abe ca70 53be f2e4 fcbe
00000050: 542e 0d3d a160 d7be 872d 47bf 5c7e d4be
00000060: 7b2f 8d3e a099 cdbb 4e9f fd3e 950d 0dbf
00000070: 6868 9e3e a0c8 b5bd 3c82 363f e5b0 63bf
00000080: a653 833f 2238 893e 9d59 d7be 0e5b 773f
00000090: 20df 0c3e db61 88be e29a 68bf 91e8 d6be
000000a0: 7025 713f 5630 b8be ca33 88be d467 673f
000000b0: 1cd3 98be bcfe 41bf f511 eb3e 4668 edbe
000000c0: a728 c33e 1f84 a83e e145 15bf 841c cc3d
000000d0: ccba 683d f5d1 63bf 544d 503e e822 3dbd
000000e0: 5c09 023e 0d31 123f 2e26 edbe f3ed 8f3e
000000f0: 6b9c 923e 3495 00bf e1aa abbe ae89 593e
00000100: 7deb 83be 851c a03e 66fa 0c3f 4c0f 043f
00000110: 4058 fdbe 4a5f 02bf bbcf aebe 5872 1d3f
00000120: 56da 5bbe 16c3 a1be 3e2e 6cbd 1b0c 2c3f
00000130: 5b06 1dbf 6cd6 84bf 1610 cbbd 46f8 4abf
00000140: 2053 b1be 9dcd 083f e087 d13c a1bb 9c3e
00000150: 72c2 08be 6660 08bf bc8b 45bf b29b 5bbf
00000160: 37aa 06bf 3c79 953e acc1 c53d 91e3 57bf
00000170: b884 29bf 763c 6a3e c451 30be d604 1fbf
00000180: c61e a4bd 6a0c d73e 692d 9bbe 1fee 12bf
00000190: f2b2 b8be 1223 38bf b00f f03e 1e98 22bf
000001a0: 368f 303e 52be b43e 66cc 6f3c e9c6 93be
000001b0: 593d 913e f772 ee3e 23fc b23e 737f 663f
000001c0: e4a5 a6bd 9f73 92be c937 033e 7022 99be
000001d0: be83 253f 89e6 35bf 54fe df3e 2988 2fbf
000001e0: 63b4 e83e 4b3a 85be a20c ef3e 08d4 c83d
000001f0: d9e5 1e3f b067 17bf 9f05 b1be 0669 14bf
-0.3275106 0.52850354 0.9475981 -0.56505406 -0.5623905 -0.012933627 -0.7121418 0.12158686
0.18753712 0.18190661 0.13846403 -0.6965457 -0.59023523 0.12668988 0.76750803 0.57855856
1.0619915 -0.30095065 -0.20648494 -0.4939342 0.03446801 -0.4206591 -0.77803844 -0.41502655
0.27575287 -0.006274417 0.49535602 -0.5509885 0.3093903 -0.08876157 0.7129247 -0.88941795
1.0259902 0.26800638 -0.42060557 0.96623313 0.1375699 -0.26637158 -0.9086133 -0.4197431
0.9419775 -0.35974377 -0.26602012 0.90392804 -0.29848564 -0.7577932 0.45912138 -0.46368617
0.38116953 0.329133 -0.5830975 0.099663764 0.05681877 -0.88992244 0.20341998 -0.046175867
0.12698883 0.57106096 -0.4631819 0.28111228 0.28634962 -0.50227666 -0.33528808 0.21243927
-0.257656 0.3127176 0.5506958 0.5158584 -0.49481392 -0.5092665 -0.3414286 0.615026
-0.21470007 -0.3159415 -0.057661287 0.6720597 -0.6133782 -1.0377936 -0.099151775 -0.79285085
-0.34633732 0.5343874 0.025577486 0.306119 -0.13355425 -0.5327209 -0.7716634 -0.8578445
-0.5260348 0.29194057 0.096560806 -0.84331614 -0.6621814 0.22874627 -0.17218691 -0.62116754
-0.08013682 0.4200166 -0.30308083 -0.57394594 -0.36074024 -0.71928513 0.4688697 -0.6351336
0.1724213 0.35301453 0.014636135 -0.28862694 0.28367117 0.46572086 0.3495799 0.9003822
-0.0813711 -0.28603837 0.12814249 -0.29909086 0.6465415 -0.71054894 0.43748724 -0.6856714
0.45450124 -0.26021037 0.46689326 0.09806067 0.6206947 -0.5914259 -0.345746 -0.57972753

sequential/mobilenet_0.25_96/conv_dw_13_bn/FusedBatchNormV3 f4 [256]
00000000: ca21 d33e a286 8cbe ed6a 0d3f f21c f23e
00000010: 0773 7a3e 3cbb bf3e 308f 3e3e 0d68 5d3f
00000020: 80bf 153f 4c93 21be 2083 763c 48d6 e9bc
00000030: c41f bf3d 5706 103f 202c 543f 78bd 52bc
00000040: e858 fc3d 162f bcbd 9d01 dd3e cf87 dfbe
00000050: c038 c53d 1ce3 913d 15d7 08be 5c4d 313e
00000060: 02ba c63f b16e 93be 6cb9 363e 2c65 933d
00000070: 30cd 01bf 0888 c63d f876 b13d 1a73 48be
00000080: 2606 8e3e 20ea c5bd 2649 b5be a216 01bf
00000090: 4921 b9be 7f9a ab3e e1cc 083f e23f 093f
000000a0: 2ac3 05bf 48bc 5c3f aa92 b7bd c6da 283e
000000b0: e881 6d3e 3d7d 93bd 614e 07bf 7425 90be
000000c0: b026 a1be ca4e dd3e 4565 1f3e c06c e13c
000000d0: 532e c23e d371 86be 4012 28be 32f8 913e
000000e0: 7c99 a03e e023 3fbf 217f 14be e426 813f
000000f0: ad1a 96be 33b6 80bf e09f 1a3e 6468 d3be
00000100: 5327 d33e bab5 70be 291a be3e 3638 9e3e
00000110: 2b23 ae3e ae5e 063f e84f 9a3d ed15 26be
00000120: c68d a1bd cb40 0dbf bc62 833e 52c0 18bf
00000130: de42 283e 9e13 5ebf 9d2b 093f 7603 523f
00000140: 38eb 9f3e 7745 50be ce9b e03d 4bc5 06bf
00000150: 168b 5f3e 4458 433e 3a3e a43d 455a 0a3f
00000160: 8fb6 7d3e 4ca4 543f ce53 40be 6e91 353f
00000170: 7ddd 2d3f 199f 143f 2804 18be b339 253f
00000180: 3cd9 153e 0079 b03c ec21 ce3e 168d 49bf
00000190: ade0 333f ca5e 633e 8c57 a9be 0022 d73e
000001a0: 0ba4 1bbe 3204 6d3d e6a6 98be 009e 6d3c
000001b0: 5403 94be 5359 b83d 72af 273e 41fb cb3d
000001c0: e450 8c3e d78c 943e f1ef a1be d64c 383e
000001d0: d4db 67be 6906 9dbe e4bb fa3e 09e1 c23e
000001e0: 1d23 30be 2cf5 373f 2e5b 393e 084d 1f3d
000001f0: 9481 283e 5eff 823e 6a49 c43e 0372 acbe
00000200: c72a 9e3d 1260 abbe f88d fe3d 8556 3cbe
00000210: 906e 91bb 9bcf 8e3f a4e5 adbe 6d0e acbd
00000220: ac78 d53e 7717 16bf 2016 093c c6e6 b23d
00000230: ed47 823e 5c42 82bd c8b5 73be 28e1 b3bd
00000240: 7a55 163e a36e 97bd 3155 a13f 5780 ea3e
00000250: 6828 b1be 77a6 7d3d 4ee1 643d 853e 0c3f
00000260: 24d9 a3be da19 853e 943a 3fbf e2d1 3e3d
00000270: 324f d93e 8b3c 6dbe 914c 343e 8e58 373f
00000280: a65e 8d3e f357 6d3e b030 17bd bd19 d43d
00000290: 28bc 61bf c3fe 893f 6fa5 293e e87c ab3e
000002a0: 0976 ad3e 5a47 403f 2ef7 ecbd 5dbf 94be
000002b0: fff6 bc3e 66fa afbd 0c9d 323e d61f 263f
000002c0: 48bf 523d 2670 0f3e 45cf c8be 9c96 ad3e
000002d0: 7dc8 443f fc75 ad3e 459b b93e c69f ae3e
000002e0: 3cc9 57bd 3f4a a0be c822 f6be 5c69 883e
000002f0: 3e7e 703e 24c1 ae3d 871d 9f3e ee65 753f
00000300: e74e 483e c0b5 1ebf 7842 c93e afcc fcbe
00000310: ce6e 2dbe 7cf0 003d 125f 37be 8c15 0ebf
00000320: 86d2 713e 9354 9dbe 9cc0 54be ba46 053f
00000330: 5d90 083f 5b53 033e cf3c d13e aee5 2b3f
00000340: 2686 3abe 014d 483e 8ab9 9d3e 615a e83e
00000350: 6efc d13e 279f 773e 10f7 283d 207d afbd
00000360: b76a babd 1cb9 11bd 5898 2dbf fa34 fd3e
00000370: 28f6 53bd 010e cdbe 5e87 433e ca49 a53e
00000380: f861 563d 1ed7 74be a4c0 a43d 9e9f c3be
00000390: 2796 7bbe b47a be3d bad8 aa3e ce7a 463f
000003a0: 9ea1 db3e 389e 9cbd ea42 7f3e cede c93e
000003b0: e040 463d 7a33 1c3f 69e2 df3e 1a8d 39be
000003c0: b6e0 023e 62b9 6e3d f031 3f3e 62ef 66be
000003d0: 0f60 663e fe47 0e3e a6e5 3fbe 7ae3 d0be
000003e0: 2ef5 22bf f028 c6be 5c7b 85bf ec14 b63e
000003f0: bf81 b5bd fa5a ed3e 3a7a 57bf 4c93 123f
0.41236717 -0.27446467 0.5524128 0.4728771 0.24457942 0.37447536 0.18609309 0.86486894
0.5849533 -0.15778846 0.015045911 -0.02854456 0.09332231 0.56259674 0.8287983 -0.012862556
0.12321645 -0.091886684 0.43165293 -0.436583 0.09629965 0.07123396 -0.13363297 0.17314667
1.5525515 -0.28795388 0.1784417 0.071970314 -0.50703716 0.09693915 0.086652696 -0.19575158
0.27739066 -0.096637964 -0.3540737 -0.5042516 -0.36158207 0.3351631 0.5343762 0.536131
-0.5225092 0.86224794 -0.08963521 0.16489705 0.23194087 -0.07201622 -0.5285397 -0.28153574
-0.3147483 0.43224174 0.15565975 0.027517676 0.37925968 -0.26258716 -0.16413212 0.2850967
0.313671 -0.74664116 -0.14501621 1.0089993 -0.29317227 -1.0055603 0.1510005 -0.4129058
0.4124094 -0.23506823 0.37129334 0.3090226 0.34011206 0.5248822 0.07534772 -0.16219302
-0.07888369 -0.5517699 0.25661266 -0.5966846 0.16431758 -0.86748683 0.53582174 0.8203653
0.31234145 -0.20338999 0.109672174 -0.52644795 0.21830401 0.1907664 0.08019681 0.5404399
0.24776672 0.830632 -0.18781969 0.70925033 0.6791609 0.58055264 -0.14845335 0.6454117
0.1463365 0.021542072 0.40260255 -0.78730905 0.70264703 0.22204128 -0.33074605 0.42018127
-0.15199296 0.05786533 -0.29814833 0.014503002 -0.2890879 0.09001412 0.16375521 0.09960032
0.27405465 0.29013702 -0.31628373 0.1799806 -0.22642452 -0.30668953 0.48971474 0.38062313
-0.17200895 0.7185848 0.18101189 0.038891822 0.1645568 0.25585455 0.3833726 -0.33680734
0.07723003 -0.33471733 0.12429422 -0.1839238 -0.004438229 1.1157106 -0.33964264 -0.08401189
0.41693628 -0.58629555 0.008367091 0.08735423 0.254455 -0.06360313 -0.23799813 -0.087831795
0.14681044 -0.07394149 1.2604123 0.4580104 -0.3460114 0.06192633 0.05587893 0.547829
-0.32001603 0.25996286 -0.7469876 0.04658688 0.42443234 -0.23167627 0.17607333 0.716195
0.27611274 0.23178081 -0.036911666 0.10356472 -0.8817773 1.0780872 0.16567014 0.33493733
0.33879116 0.75108874 -0.11570583 -0.2905225 0.36907193 -0.085926816 0.17442721 0.6489233
0.05145195 0.14007625 -0.39220634 0.33903968 0.7686842 0.33879077 0.36251274 0.34106272
-0.052682146 -0.31306645 -0.4807341 0.26642883 0.23485658 0.085329324 0.31077215 0.9585866
0.19561349 -0.6199608 0.39308524 -0.4937491 -0.169368 0.031479344 -0.1790736 -0.5550163
0.23615465 -0.30728588 -0.207766 0.52061045 0.5334528 0.12824766 0.40866706 0.6714734
-0.18215236 0.19560625 0.30805618 0.45381454 0.410129 0.24181806 0.041251242 -0.085687876
-0.091023855 -0.035576925 -0.67810583 0.4945448 -0.051748425 -0.40049747 0.19094607 0.3228286
0.052339524 -0.23910186 0.08044556 -0.38207716 -0.24568997 0.093007475 0.33368474 0.77531135
0.42896742 -0.07647365 0.2492787 0.394278 0.048401713 0.61016047 0.43727425 -0.18120232
0.12781033 0.058282264 0.18671393 -0.22552255 0.22497581 0.1389465 -0.18739948 -0.4079855
-0.63655365 -0.38703108 -1.0428271 0.35562837 -0.08862638 0.46358472 -0.8417088 0.5725601

sequential/mobilenet_0.25_96/conv_dw_1_bn/FusedBatchNormV3 f4 [8]
00000000: 4e8c 3b3f 454f debe 8fe0 4e3f bb12 a43e
00000010: f49a dbbe cf5c 0c3e 0ed7 1dbf 310b dd3e
0.7326096 -0.43419853 0.808114 0.3204554 -0.42891657 0.13707279 -0.6165627 0.431726

sequential/mobilenet_0.25_96/conv_dw_2_bn/FusedBatchNormV3 f4 [16]
00000000: d0f5 4c3f 4ac8 4cbd f8a8 05bd af36 83be
00000010: b2b8 1f3c 6327 56bf 4f12 8dbd 1ca7 4ebe
00000020: c09a 04bd 89cd e73e d118 af3e 33e7 8cbe
00000030: 0bf4 0b3e ac20 cebe 0f2e 09bf 9259 813f
0.8006258 -0.049995698 -0.032631844 -0.25627658 0.009748625 -0.8365385 -0.06888258 -0.20180935
-0.032374144 0.45273998 0.3419862 -0.2752014 0.13667314 -0.40259302 -0.53585905 1.010546

sequential/mobilenet_0.25_96/conv_dw_3_bn/FusedBatchNormV3 f4 [32]
00000000: 88ad d13e a412 dabf 1854 45be 1921 dcbd
00000010: 7e10 7f3f 819c 63be 5e75 f03e b46a a13d
00000020: db5e 52bf deff c0bd d829 92be 9ca3 833f
00000030: 30ff 0ebf 2a41 7bbd 00ba c9ba 8171 64be
00000040: ed39 de3e a04d 633c cacc b73e 7789 9a3d
00000050: ca9d 183f 6372 c63f 4258 1c3e b2b0 0f3f
00000060: f0d1 79bd 7256 aebe d5a8 febd 87e1 9a3f
00000070: 6b57 a9bf 5afa 71bf baab 7d3e 25dd 92be
0.40952706 -1.7036939 -0.1927036 -0.107485004 0.9963454 -0.2222767 0.46964544 0.0788168
-0.8217599 -0.09423803 -0.2854755 1.0284305 -0.55858135 -0.061341442 -0.0015390515 -0.22308923
0.4340357 0.013873488 0.3589843 0.075457506 0.59615767 1.5503658 0.15268043 0.5612899
-0.060991228 -0.34050328 -0.12434546 1.2100075 -1.3229803 -0.9452263 0.2477254 -0.28684345

sequential/mobilenet_0.25_96/conv_dw_4_bn/FusedBatchNormV3 f4 [32]
00000000: 9857 ddbe 3983 de3d d2a5 1740 a385 683f
00000010: c04f 0cbf efa6 e6be 0aa2 843f 06f4 81bf
00000020: 7865 ae3e bf3c 1ebf aa94 cbbe 04a3 c83f
00000030: d4fd 70bf 7359 1ebe 551c 56bf aabd b93f
00000040: da3b 20be 47ef 5fbf 5ffa afbe 9095 bdbe
00000050: 48e9 1ebf 33f8 343e ac48 c6be 1c9d 84bf
00000060: 4275 bfbe 4053 4a3f 58d0 ad3c 2a58 153f
00000070: cd24 aebe d652 13bf 0387 1f3f 6a8b 75bf
-0.4323089 0.108648725 2.3694959 0.90828913 -0.5480919 -0.45049235 1.036195 -1.0152595
0.3406179 -0.6181144 -0.3976186 1.5674748 -0.9413731 -0.1546381 -0.8363698 1.4511006
-0.15647832 -0.87474483 -0.34370705 -0.3702817 -0.6207471 0.17672805 -0.3872732 -1.0360446
-0.37394148 0.7903328 0.02121751 0.5833765 -0.34012452 -0.5754827 0.62315387 -0.95915854

sequential/mobilenet_0.25_96/conv_dw_5_bn/FusedBatchNormV3 f4 [64]
00000000: d2e1 863f 1aee 643f 2fab 6ebf a26b 55be
00000010: 9d3f c6be daaa aa3d eef3 75be 52dc cc3d
00000020: 2b0a 353d 7d55 77be 2bed 683f c953 8abe
00000030: ab55 853f 2c7c f33e e80e 9d3f 84b9 85bf
00000040: a434 da3f 51e7 13bf 9da8 89be 0b8b 0fbe
00000050: 12b0 763f c7f3 cc3e 2fdd c2be d661 363e
00000060: 4218 ba3f a1eb 8fbf a393 153f ad5e 00bf
00000070: a9cd d03f 0545 b93f 7cc9 58bf 1253 37be
00000080: 1232 88be aea1 5a3f 60b3 9c3c e26f 8b3e
00000090: b080 fbbe f347 93bf b8b2 38be aedb 96bf
000000a0: e84d bcbf 4090 00bf 0abb 88bf 4c39 933e
000000b0: c622 35bf 619c 693f 44f8 23bf ae8f 35be
000000c0: bf60 94bd 5b43 e1bd 8d4e 973f da13 2dbf
000000d0: 4231 a93f eca1 37bc 0177 273f 292e 26bf
000000e0: e665 0ebe 96eb 953f a34e 573f 5854 a83e
000000f0: 8f94 00bf f54e 673f d24a ba3f d68b 003f
1.0537665 0.89425814 -0.93229955 -0.2084184 -0.38720408 0.083333686 -0.24018833 0.1000296
0.04419915 -0.24153705 0.9098689 -0.27017048 1.0416769 0.47555673 1.2270174 -1.044724
1.7047315 -0.57774836 -0.26886454 -0.14017884 0.9636241 0.40029737 -0.38059375 0.17810759
1.4538653 -1.1243783 0.584284 -0.50144464 1.6312762 1.4474188 -0.8468244 -0.17902783
-0.266007 0.85402954 0.019128501 0.27233797 -0.49121618 -1.1506332 -0.18036926 -1.1785791
-1.4711275 -0.5022011 -1.068208 0.28754652 -0.70756185 0.9125424 -0.640507 -0.1773059
-0.07245015 -0.10999175 1.1820847 -0.67608416 1.3218157 -0.011208039 0.6541596 -0.64914185
-0.13906059 1.171252 0.84104365 0.3287685 -0.5022668 0.90354854 1.4554083 0.5021337

sequential/mobilenet_0.25_96/conv_dw_6_bn/FusedBatchNormV3 f4 [64]
00000000: e21d 673f 7dd0 25bf e8c0 b0bd 5c4c 813f
00000010: 0aeb 10bf 15c2 723f 72dc 09bf b77c 3e3f
00000020: 5f74 83bf aa5f 9abf 3007 55bf 713d 0bbf
00000030: b209 b53f e0aa 1ebf 3586 1cbf ab66 df3e
00000040: f4a1 8bbf 5abc 2bbf 43fe 6fbf 840e 80be
00000050: 0aad a73f 8162 82bf ee07 21bf e8b5 adbe
00000060: ce4e 4dbf 4824 123f 3c3f 51be e2b6 c4be
00000070: 2817 e7be 2232 c23e 64e0 3dbf 76ff 00bf
00000080: ecdb e33d 25fc 4ebe 4199 dabe d05a 31bf
00000090: b5a9 ad3f 1cb8 06bf 30c3 223e 1cf8 953f
000000a0: 1e88 1fbf 3bd4 77bf f1b0 663f 39b2 093f
000000b0: 7394 153f 3e66 203f d810 36bc 64f8 da3f
000000c0: 2d16 87be eb7f 63bf 1669 1cbf 569d 4a3f
000000d0: d81f af3f b070 9bbe 0240 5dbf a0af b43b
000000e0: a248 f3be 2428 4ebf 2e24 763f 81eb 2cbf
000000f0: b7b7 623f 3c78 353f 70a7 433f a4fa 86be
0.9027997 -0.6477125 -0.08630544 1.0101428 -0.5660864 0.94827396 -0.53852 0.7440905
-1.0269889 -1.2060444 -0.8321409 -0.5439063 1.4143584 -0.61979485 -0.61142284 0.43633017
-1.0908799 -0.67084277 -0.9374735 -0.25011075 1.3099682 -1.0186311 -0.62902725 -0.33927846
-0.8019837 0.5708661 -0.20434278 -0.3842078 -0.45134854 0.37928873 -0.7417052 -0.503898
0.11125931 -0.20213373 -0.42695048 -0.69279194 1.3567415 -0.5262468 0.1589477 1.1716342
-0.62317073 -0.96808213 0.9011374 0.5378757 0.5842964 0.6265601 -0.011112414 1.7107053
-0.26384106 -0.8886706 -0.6109785 0.79146326 1.3681593 -0.3035941 -0.86425793 0.0055141
-0.47516352 -0.8053 0.96148956 -0.6754685 0.88561577 0.7088659 0.76427364 -0.263631

sequential/mobilenet_0.25_96/conv_dw_7_bn/FusedBatchNormV3 f4 [128]
00000000: 3640 8fbf 043c 3cbd a27b 7a3f 1d83 a3be
00000010: 26fa 18be e14c 623f c87f 6ebe f274 26bf
00000020: 2348 83be a126 01bf 3d80 883f 0b1f 44bf
00000030: 1032 07be 4406 6a3f 2ddb 4d3e ca03 fb3d
00000040: 440d 203f 50ec 1ebf 827a 04be 6d09 12bf
00000050: 46aa 553e e63b 833e ccf1 85bd 60b0 2b3c
00000060: 7e5f 31bf ce05 883e f0d5 8f3f b819 043e
00000070: 5884 9b3f 6a6a 793e 47ed 0fbf e0cf 7dbe
00000080: 0f57 833f 9222 9d3d 6816 36bd b4aa fdbe
00000090: e6d6 363e ce20 103f d686 e2be ca98 29bf
000000a0: 006a cfba 7496 8b3f 6c2f 463f 7c00 1abf
000000b0: fb60 5d3f b0e6 7dbf 029a c3be 549b c03e
000000c0: 461c 893e 98f3 98be b076 d53c e035 423f
000000d0: 37d8 03be 5ee4 903f bace 4fbe a82a dc3e
000000e0: 6b86 1cbf 2424 35bf 6282 993f eceb fbbe
000000f0: 8e6c b9bd 3c6f 8d3d 9391 e3be aad7 2a3f
00000100: 006d b33a 42ed 543f 1243 5c3f f686 66bf
00000110: 84ba 0abd 44c5 b3bd 15ff 843e 0cd0 de3c
00000120: f76c efbd 0834 083f 5858 993f ba6c 2abe
00000130: 0dd4 06bf e45e 19bf 9d27 823f 80fa c3be
00000140: ea44 c6bc 5ba7 c83e d0e4 86be 5cf9 8dbf
00000150: 508e 943e 87ef 0cbf 74b6 b5be 59ee 19be
00000160: 0630 693f faf7 923f fee6 4d3f 6859 af3e
00000170: 1772 043f b39f a4bd 1207 c33f 4777 e2be
00000180: 03ff 12bf 5691 c13e a838 8b3d daa0 353f
00000190: 6099 d33c fdb3 26be f91e 1cbe bd64 41bf
000001a0: f982 4bbf cecf 833e b999 abbe af31 01bf
000001b0: 01cc bf3f 0f16 45bf 7d61 76bf 4e8d b13e
000001c0: 65b2 4abf a724 453f 1cc1 17bf c5ae 9dbe
000001d0: b002 6e3f 10b7 093c e0fd 003f ca8f 503f
000001e0: 87eb d6bd ba0d 513f 6f38 7bbe 3de7 25be
000001f0: 4816 aebd 9d5f 11bf 80cf f3bd f029 963e
-1.1191471 -0.045955673 0.978449 -0.3193597 -0.14939174 0.8839856 -0.23290932 -0.65022194
-0.25640973 -0.5044957 1.0664135 -0.7660987 -0.13202691 0.9141581 0.2010314 0.12256582
0.6252024 -0.62079334 -0.12937358 -0.5704563 0.20865735 0.25631636 -0.0654026 0.010479063
-0.69286335 0.2656693 1.1237164 0.12900436 1.2149763 0.24357 -0.5622143 -0.2478633
1.0260943 0.076726094 -0.044454962 -0.495443 0.17855415 0.56300056 -0.44243497 -0.6624876
-0.0015824437 1.090529 0.7741611 -0.6015699 0.86476105 -0.99180126 -0.38203436 0.37618506
0.26779383 -0.29873347 0.026057571 0.75863457 -0.12875448 1.1319692 -0.20293704 0.43001294
-0.61142606 -0.7075827 1.1992915 -0.49203432 -0.09053908 0.06905982 -0.44447002 0.6673533
0.0013689101 0.83174527 0.8603984 -0.90049684 -0.03386928 -0.0877786 0.25975862 0.027198814
-0.11690705 0.53204393 1.1980085 -0.16643038 -0.52667314 -0.59910417 1.0168339 -0.38277054
-0.024202783 0.39190182 -0.26346445 -1.1091723 0.29014826 -0.5505299 -0.35490763 -0.15032329
0.910889 1.1481926 0.8043059 0.342479 0.5173659 -0.08038273 1.5236533 -0.44231626
-0.57420367 0.37806195 0.06797916 0.70948565 0.02582997 -0.16279598 -0.1524619 -0.7554434
-0.79496723 0.2574448 -0.3351572 -0.50466436 1.4984132 -0.76986784 -0.96242505 0.3467812
-0.7917846 0.7700905 -0.59279037 -0.307974 0.9297285 0.008405462 0.5038738 0.81469405
-0.10494142 0.8166157 -0.24533246 -0.16201492 -0.085003436 -0.5678652 -0.11904812 0.2932887

sequential/mobilenet_0.25_96/conv_dw_8_bn/FusedBatchNormV3 f4 [128]
00000000: 832f c43e 24a6 debd 98c2 2ebd 5eb9 253f
00000010: 2ec0 2cbf ee23 953e 7f29 b23d 1c23 05be
00000020: 3cd0 773e 556d 47bf 7c01 d0bd e4c6 3f3f
00000030: 4437 2cbf 8515 8a3f 3cf9 3f3f eec3 a13e
00000040: 1621 093f d294 533d 368a a43f 1208 53bf
00000050: 3b14 f7be 2cdc 823f a896 44bd 47a0 aa3e
00000060: d0a7 6dbc 0066 57bf 3300 4ebe 8b28 3d3f
00000070: b532 11bf 6357 02bf 658a 293e 125c f5be
00000080: 4758 503e 00cd cfbe e54a 463f 2e9a 893f
00000090: acd7 823e 422a e4be 353c 64bf fc7a 2a3f
000000a0: f946 76bf 29f6 73bd ba35 05be d435 27bf
000000b0: a304 dbbe a61e 8ebe 2c2e 093f 1718 a03e
000000c0: 220d 84bf ecc7 08bf e895 10bd fb73 903f
000000d0: 402b 263d 143a 953e 7d7e 27bf d80c f83c
000000e0: e22f 13be 4cc8 fcbe 9df9 8d3e 0ed4 5f3e
000000f0: e4f2 19bf 9434 6dbf 2074 e8be ca6f 9b3f
00000100: d937 acbe 9f2a 543f fc81 43bf 237b 343f
00000110: 61b3 653f aa93 b1bb 068e 64bf 8392 c9be
00000120: cda4 f3be 36c9 27bf 1ca2 cabe a271 24bf
00000130: 64b5 86bc 23fa 19be b45d 003f bfb9 ebbe
00000140: 1cd3 84be 170f 3ebe eaac 8abf 39f5 183f
00000150: 0394 173f 8230 9f3e 0a09 693f fcb8 9abc
00000160: 5276 3cbf 2bc8 03bf 2a2e acbe 1a20 653f
00000170: 5453 5ebe c64d dabe 3028 e3bd 9490 7fbf
00000180: 88bc 653d fe0a 00bf 1afc 21bf 7e98 08be
00000190: 7404 193e 554b 3e3f c07c cebe a543 4cbe
000001a0: a0f4 3ebc 0bd4 93bf f195 833f 0872 d0be
000001b0: 5c34 1ebf 3aeb 5ebf 8637 62bf e144 f3be
000001c0: bc51 b13e 4744 833f 9c4f 97be 68ae a53e
000001d0: 28e3 283e 00c7 c3be 81c9 9cbe a2df 40bf
000001e0: 5ac5 8bbe 2de8 1ebf fa4d f73d a054 13bf
000001f0: 904b 453c 1ab8 393f 5232 be3e 0fdf abbd
0.383175 -0.108715326 -0.042666048 0.6473597 -0.6748074 0.29128975 0.08699321 -0.13001674
0.24200529 -0.779012 -0.10156533 0.7491286 -0.6727183 1.0787817 0.74989676 0.31594795
0.5356611 0.051655598 1.2854679 -0.8243419 -0.48257622 1.0223441 -0.04799524 0.33325407
-0.014505342 -0.84140015 -0.20117263 0.7388999 -0.56718 -0.5091459 0.165567 -0.47921807
0.20346175 -0.4058609 0.7745803 1.0750177 0.2555517 -0.4456349 -0.8915437 0.6659391
-0.96202046 -0.05956093 -0.13008776 -0.6531651 -0.42776975 -0.27757758 0.5358608 0.3126838
-1.0316508 -0.53430057 -0.03529921 1.1285394 0.04056859 0.29145873 -0.6542738 0.030279562
-0.14373735 -0.49371564 0.27729502 0.21858236 -0.60136247 -0.9265835 -0.45401096 1.214349
-0.33636358 0.82877535 -0.76370215 0.7050039 0.89726835 -0.0054192143 -0.8927921 -0.39369592
-0.4758667 -0.655414 -0.39576805 -0.6423589 -0.016443916 -0.15036826 0.5014298 -0.4604015
-0.25942314 -0.18560444 -1.0834019 0.5974918 0.5921022 0.31091696 0.9102942 -0.018887036
-0.7361804 -0.5147731 -0.3362897 0.8950211 -0.21711475 -0.4263746 -0.110916495 -0.99829984
0.056088 -0.5001677 -0.632753 -0.13339421 0.14943105 0.743337 -0.40329552 -0.1994768
-0.011655003 -1.1549085 1.0280133 -0.40712 -0.61798644 -0.8707768 -0.8836597 -0.47513488
0.3463267 1.0255212 -0.29552925 0.32359624 0.16492903 -0.38237762 -0.30622485 -0.75341237
-0.27299005 -0.6207302 0.1207542 -0.57551 0.012041941 0.7254654 0.37147766 -0.083921544

sequential/mobilenet_0.25_96/conv_dw_9_bn/FusedBatchNormV3 f4 [128]
00000000: dfa2 4abe 3229 b53d e0b9 9cbe cb35 8c3f
00000010: 7665 91bf d17e 42bf b12d 0cbf ea08 39be
00000020: 0993 38be 69b9 b23e 8040 a3be 821e ddbe
00000030: e7fb 36bf 6625 62bf 140b 83be b38e 603f
00000040: 28b4 10bf 2808 803f ba8d 09bf dfa1 6abf
00000050: 5c38 e0be b58e af3e 3215 d63e 0556 8dbe
00000060: a3e4 513f 4862 dabe 7d1c 033f abf9 bdbe
00000070: e207 81bf d6f5 28bd 6e7f ddbe 8c54 5c3f
00000080: d05d 38bf 4291 77be 2e33 51bf eaf9 a5bd
00000090: bf5a 73bf 1275 b03e 421d 183d 7cfd 1dbe
000000a0: 3db8 f43d 6133 16bf 01a4 88be 8e71 e73e
000000b0: 42f3 153f 1645 43bf 46b8 673f 3649 f1bd
000000c0: f503 3f3f b5da eebd 04cb 7c3f 58df 2fbf
000000d0: 0099 28be 74a9 0e3f 6baa 71bf a0fd 8bbe
000000e0: 40f2 46bf 2f8b 70bf de7e f2be 2a52 8d3d
000000f0: 03cb e7be 1eeb 043e acb6 be3e db19 253f
00000100: c650 0ebe 1542 b33d 6564 82bc 5735 103e
00000110: 0fc0 4d3f 7215 753e a4f4 d03d 9f62 a33e
00000120: 175c 01bf 28ad e43d 04bf 033f 299d 253e
00000130: 6a3b 4ebe 738e 88bd f74c 62bf d980 9cbe
00000140: a453 96bd b7b1 84bf 3cf0 663f 64cd 5b3f
00000150: 0ee2 25bf cdd8 96be 3483 9bbd 2a44 6bbe
00000160: 1e01 02bf 70fd d8be 9e69 22be 7413 3e3f
00000170: 3113 83be 1606 db3e 078f 86bf 51c7 f23e
00000180: 540b c03f 42fe 5ebf 89f2 c8be 1bc7 903f
00000190: be82 953d 1438 bdbe 2359 52bf b45a 84bf
000001a0: 742a 84bf 3e90 af3e fcf2 b03e f62b 35bf
000001b0: 36af d13d 6a6f 11bf f5f0 ec3e a788 cdbe
000001c0: 3f2e 05bf 8d32 50bf 0bc9 1abf 774e 15bf
000001d0: 16b7 3bbe e9c5 863e 4e93 143e b77e 0cbf
000001e0: f47f 903d d2ed 6dbe 5061 3d3e d426 b6bd
000001f0: 5288 64be 9045 1dbe f8d0 0fbf 60fc b7be
-0.19788693 0.08845748 -0.3061056 1.0953916 -1.1359088 -0.75974756 -0.5475722 -0.18069807
-0.1802484 0.34907082 -0.31885147 -0.43187338 -0.7147812 -0.88338315 -0.2559439 0.8771774
-0.56524897 1.0002489 -0.5373188 -0.91653246 -0.43793 0.34288564 0.41813046 -0.2760469
0.81989497 -0.42653108 0.51215345 -0.37104544 -1.0080531 -0.041250072 -0.43261284 0.8606651
-0.72018147 -0.24176505 -0.8171872 -0.08104308 -0.9506034 0.34464318 0.037137277 -0.15428728
0.11949203 -0.5867215 -0.26687625 0.45203823 0.58574307 -0.7627729 0.90515554 -0.11781542
0.7461541 -0.11662809 0.9874728 -0.6870017 -0.16464615 0.55727315 -0.9440066 -0.27341938
-0.77713394 -0.9396238 -0.47362417 0.06900437 -0.45272073 0.12980315 0.37248743 0.6449258
-0.13898 0.087528385 -0.015917012 0.14082848 0.80371183 0.23933962 0.102029115 0.3191118
-0.5053114 0.111658394 0.5146334 0.16173233 -0.20139852 -0.06667795 -0.8839869 -0.30567053
-0.07340172 -1.0366734 0.9021032 0.85860276 -0.6479806 -0.2946228 -0.075933844 -0.22975221
-0.50782955 -0.42380857 -0.15860602 0.74248433 -0.2560058 0.4277808 -1.0512398 0.4741769
1.5003457 -0.87106717 -0.3924754 1.1310762 0.07300328 -0.36956847 -0.8216726 -1.034018
-1.0325456 0.34289736 0.34560382 -0.70770204 0.10238497 -0.5681063 0.46277586 -0.4014332
-0.5202369 -0.81327134 -0.6046302 -0.5832285 -0.1833156 0.26322868 0.14509317 -0.5488085
0.07055655 -0.23235252 0.18494153 -0.088941246 -0.22317627 -0.15358567 -0.56178236 -0.35934734

sequential/mobilenet_0.25_96/conv_pw_10_bn/FusedBatchNormV3 f4 [128]
00000000: 98fd 5e3e 8fed 153f 7e81 1ebe 3c0a afbe
00000010: f5c5 183e 030a ec3e 9939 a0bf 67b7 d0bd
00000020: fc11 8e3f 38b5 593f 0e23 a0bf dc29 dbbd
00000030: 0435 16bf be56 ad3e d158 b73e 4320 173f
00000040: 0805 b5bc 4896 0f3f 3ecb 0abf 9dde d63e
00000050: e48d aebe cce8 0b3f bdca 22be 387b 3e3e
00000060: 17f8 363d 97ef f33e b44a 0a3f eb9c 263f
00000070: e606 683f 5147 89bf bbd3 003f d398 cabe
00000080: 9e27 31be 9cc1 86be 166a 21bd 54b3 99bc
00000090: cd8c ca3e a001 4e3f 1a32 6f3e 6753 d33d
000000a0: 132e 25bf 5391 073e 92b3 17bf 82f7 04bf
000000b0: 3a42 06bf 242a 353f 4929 2b3f b878 063f
000000c0: 1fdf 3dbe 2ab9 58bc 00f6 143e 4620 37bf
000000d0: 35d0 bb3f e418 5dbc 1a91 af3e f954 fabe
000000e0: aa50 29be 6c3e b6be 2baa c33f 9a4c f4bd
000000f0: 35bf c43e 0dd6 333f 8c03 a73e 8459 883e
00000100: 96d4 77be 43b4 95be 213e 65bf 1044 89be
00000110: da11 de3e 11ae 00be 3474 f23e fb1b 123f
00000120: 2adf 1bbe 8182 9f3e 4593 3cbf 6e72 ce3e
00000130: da82 d63e 08a5 adbe c2ed 99be ca47 343f
00000140: 56bc 01be 6851 7f3f 0065 d43a 00e0 41b8
00000150: 0ad1 19bf 44bf f0bd 5471 d03e eab6 81bd
00000160: 5a80 04be 0a42 623e 6e23 55bf 4457 86be
00000170: e816 ba3e ce11 2abf 4d65 9c3e dc75 9cbd
00000180: 68e9 c93e 6b88 03be d4ed 693e da23 c5bd
00000190: b9de e7be 0bd2 62be 76a4 d23d 1a61 07bf
000001a0: b7a8 a5be 4fa3 ebbd 79e7 04bf d2cd 0dbe
000001b0: c0a1 9c3e 3df6 9dbe 9bbb a33e 1fde 853f
000001c0: 07b1 4b3f da22 89bf 103c 853e b943 923f
000001d0: f327 c93e 6fda 953f 5716 19bf 2732 0cbe
000001e0: 3c8c 8e3e a8ba 093f 588d 89bf 5a6a 3ebf
000001f0: be59 e93e 7275 eb3e 1686 adbe a0c0 163f
0.21776426 0.5856561 -0.15479085 -0.34187496 0.14919265 0.46101388 -1.2517577 -0.10191231
1.1099238 0.8504214 -1.2510698 -0.107013434 -0.58674645 0.33855242 0.3580995 0.590336
-0.022097126 0.56088686 -0.5421637 0.41966715 -0.3409263 0.54652095 -0.15897651 0.18601692
0.04467019 0.4764373 0.5402024 0.6508319 0.90635526 -1.0724889 0.50323075 -0.3956972
-0.17300269 -0.26319587 -0.039407812 -0.018762268 0.39560547 0.8047123 0.23358956 0.10318642
-0.6452343 0.1323903 -0.5925838 -0.51940167 -0.52444804 0.70767426 0.6685987 0.5252795
-0.18542145 -0.01322774 0.14546967 -0.7153362 1.4672915 -0.013494704 0.3429039 -0.48892954
-0.16534677 -0.355945 1.5286306 -0.11928673 0.3842713 0.7024849 0.32619894 0.26630795
-0.24202189 -0.2923909 -0.89547926 -0.2680974 0.43372995 -0.12566401 0.4735428 0.57073945
-0.15221849 0.31154254 -0.73662215 0.40321678 0.41896707 -0.3391497 -0.30064207 0.7042204
-0.126695 0.9973359 0.0016204417 -4.6223402e-05 -0.60084593 -0.11755231 0.40711462 -0.06333716
-0.12939587 0.22095504 -0.83257186 -0.26238453 0.363456 -0.6643342 0.30546036 -0.076396674
0.39435887 -0.12845008 0.2284463 -0.09625979 -0.4528711 -0.22150438 0.10285275 -0.5288254
-0.32355282 -0.11505758 -0.519157 -0.13848045 0.30592155 -0.30851927 0.3197907 1.0458411
0.79567 -1.0713761 0.26022387 1.1426917 0.3928829 1.1707286 -0.5979971 -0.13691007
0.27841365 0.5380044 -1.074626 -0.7438103 0.4557628 0.4598804 -0.33891362 0.5888767

sequential/mobilenet_0.25_96/conv_pw_11_bn/FusedBatchNormV3 f4 [128]
00000000: fa0e 773e c77d 4f3e ff6c db3e 3330 95be
00000010: 071f a03f e9c6 a6bf e0fa e5be 36fc 9e3e
00000020: 7e43 d43e 2d79 c23e ec8d 9b3e 03bc 6dbf
00000030: 0872 86bf 76f9 13bf e087 2abf 25a4 003f
00000040: 447e 5f3f 2485 ad3d 703b 593e 99b2 333f
00000050: 53d3 5cbe 1650 89bd a0f6 ec3e 17f9 873e
00000060: 06d5 913e 60c5 c03c 8e71 353f 546a 073d
00000070: 62f4 2f3f e62a 93bd 2ace 4dbe 5b1b cdbd
00000080: 4f7e 643f 8829 a2be 4756 23bf 709c 5f3c
00000090: 6f49 58be 50b0 9dbe 9cb9 c7bf 8597 7ebe
000000a0: fa27 0ebe 0698 e73e aab1 04be c6b9 9c3e
000000b0: 8040 a2bc dec8 503e 5ef0 63be c27b b33e
000000c0: 425f 9bbd 8a2b 4ebd ae18 5c3e b0ef 313f
000000d0: 87c0 c1bd b800 3e3f 0a04 07bf 40ee 863f
000000e0: d069 f8be 3827 113a 5c61 403f 8952 013f
000000f0: 99a3 203f 1a9c 1a3f 6b52 6b3e e80e 2bbf
00000100: 2092 98bd 7c2a 01bf 66af c13e d05a 8ebd
00000110: 4c79 c9be 4086 ddbe 8ae1 8dbd f718 cabd
00000120: 5085 84bf 6c1f b83d a162 253f 79fb 8e3d
00000130: 0cde d83e c931 403f 212c a33d ef5c ce3e
00000140: b228 e53c 6a69 9f3e f713 b63e 5d17 1d3f
00000150: 8a1f 13bf 36fb 1f3f ede3 fd3e 57e5 d63e
00000160: 473c 903d 7a41 95bf 6512 b9be 3987 f13e
00000170: d418 b9be c432 da3e 5732 893e 96fc c63e
00000180: 14cb bd3e 6ed6 0cbf fcb4 6dbf e4b5 3a3e
00000190: 2efd a93e 2fb6 19bf 4166 dabd 491a 4f3e
000001a0: cfd0 64bd c32c 0cbf a293 e33e 0075 293e
000001b0: c343 86bf dc04 1dbd 9a6c 853d 37f8 b73e
000001c0: e8e4 12bf 0283 99be acb4 bf3e 81e9 803e
000001d0: a7b5 013f e06a 2e3e e078 e3bb e3a7 253f
000001e0: 55a6 c4bf 74b5 dfbe a181 a0bd 8fba e7bd
000001f0: c7b2 e2bd 91f6 fa3e 087b ca3e 6c29 7ebd
0.24126807 0.20262824 0.42856595 -0.29138336 1.2509469 -1.3029453 -0.44917965 0.31051797
0.41457742 0.37983075 0.30381715 -0.9286501 -1.050355 -0.5780252 -0.6661358 0.50250465
0.8730204 0.0847266 0.2121408 0.70194393 -0.21564989 -0.06704728 0.4628191 0.26557228
0.28482836 0.023531616 0.70876396 0.033060387 0.68732274 -0.071859166 -0.20098177 -0.10014983
0.8925523 -0.3167231 -0.63803524 0.013648137 -0.21121763 -0.30798578 -1.5603518 -0.24862488
-0.13882437 0.45233172 -0.12958398 0.30610484 -0.019806147 0.20389125 -0.22259662 0.35055357
-0.07586528 -0.05033449 0.2149379 0.6950636 -0.0946055 0.74219847 -0.5274054 1.0541458
-0.4851823 0.0005537155 0.7514856 0.50516564 0.6274963 0.6039444 0.22980659 -0.6681962
-0.07449746 -0.5045545 0.3782913 -0.06950915 -0.39350355 -0.43266487 -0.06927784 -0.09868043
-1.0353184 0.08990368 0.6460362 0.06981558 0.42356908 0.75075966 0.07967401 0.40305278
0.027973507 0.31135112 0.35562107 0.61363775 -0.5747 0.6249269 0.49587956 0.41971847
0.07042747 -1.1660607 -0.36146846 0.4717348 -0.36151755 0.42616856 0.2679622 0.38864583
0.37069 -0.55014694 -0.92854285 0.18233448 0.33200973 -0.60043615 -0.10664035 0.2022487
-0.055863198 -0.547558 0.44448572 0.16548538 -1.0489429 -0.038334712 0.06514855 0.3593156
-0.57380533 -0.29982764 0.3744253 0.2517815 0.50667804 0.17032957 -0.0069418997 0.647093
-1.536326 -0.43693125 -0.07837225 -0.1131488 -0.11069255 0.4901624 0.3954699 -0.06205122

sequential/mobilenet_0.25_96/conv_pw_12_bn/FusedBatchNormV3 f4 [256]
00000000: acaf 22bd 3cf1 483f 936c 66be 6f75 2bbf
00000010: 1c39 ccbe 0cd9 303e 0766 5cbe 3710 853e
00000020: d8ab 5a3f 96f0 153f 0caf de3e a950 e23e
00000030: 72c9 7abd f255 50bd 2e17 da3e ebcd a73e
00000040: ff64 7abe 48bd 723e fedd 01bf b4a4 aebc
00000050: b3fe aa3e d724 dcbe 6b9c e83e e473 bcbd
00000060: c254 c23e 01af 9f3e fe5e 49bd e2e3 7dbe
00000070: 22f5 a53d 4e33 7c3d a804 5abd 788f 973e
00000080: 7270 7dbe a0df ddbe 26b9 1dbe 7c88 d7be
00000090: c3ac 9e3e 4c78 d2bd c80d 993d 128b 7a3e
000000a0: a6ad 2bbf b822 0f3f 2268 db3e 9663 1fbe
000000b0: 893d b8bd 9e0d c63e 8c34 bb3e 7e09 803d
000000c0: e417 2e3f c762 74be a5b4 d0bd bede 0c3d
000000d0: 2ad7 253f ece6 d7bd 58f8 033f 6c5c 5f3e
000000e0: b0c9 0fbe d098 fdbc 826d 3abe 54d0 8fbe
000000f0: 1133 8b3e 2578 7ebf fc65 713d 3e98 e2be
00000100: a9e9 213f 68a8 633e 54a5 32bf 7eda 77bd
00000110: 22b1 b93d dc9f 043e bddf 88be 4026 bc3e
00000120: c1b3 8e3e 79aa 22bf c4a7 c73e 3dbd 573f
00000130: bc6f 02bf 9b68 85bf be74 a33e 912f 10bf
00000140: 3e8b 8cbe 28f1 29bf 5a12 a03e b964 f4be
00000150: e7a1 8b3e f811 4a3e ba0d 5dbe 7dd2 4e3e
00000160: 37e1 513e dab0 7e3f d619 ca3d 374d e63e
00000170: 8c8e 82bd 2a17 fb3e 9c21 2dbf e408 07bc
00000180: ac38 c13e 3799 93be 1cc6 91bf 9f64 9abf
00000190: 0b4e 2b3e d406 e9be 6c54 09be 631f 7dbe
000001a0: 022b 693f 2f44 ebbe 00af dd3e b694 f7be
000001b0: d2b4 36bd ccb5 84bc e4b9 ba3e 2bfa ef3e
000001c0: 4d6c 13be 5b5c 48be b61d f53d 7f83 643e
000001d0: a9a2 0cbd ce58 69bf 2674 e83e 3de6 5d3f
000001e0: 95e5 003f 00fe edbe c841 2a3d 2382 833e
000001f0: c96d 89bd 348b 143f c37f 5ebf 04ed 203f
00000200: e2bc 7a3e 9528 913e 4b0f 3ebd 0762 493e
00000210: 268b b33e abbf 593f 0216 d0be 4ad9 913e
00000220: 1803 e3be d8d2 1a3e dd34 40bf 352f c0be
00000230: 4c6c b43b 0a04 8ebe 3da4 1ebd b64e 50bd
00000240: 3294 523e d0b4 c63e 66ad 753e 8e09 cebd
00000250: c356 473f 499b 833e bc00 ed3e 7ea0 c73d
00000260: b073 de3d a831 d8bd b5a8 adbd a418 153e
00000270: bd4c 883f 7a14 07bf 72f5 7fbe f0b7 a2bc
00000280: 51b1 f1be 4c4d b53e 1d0b 72bf 3c3a 963e
00000290: b42b 65bf 34b2 d53e 8b7e c03d aecb 3cbe
000002a0: 43a1 b83e 5c82 e7bd eeba 69bf 0e5d a7be
000002b0: cc8d fdbe 690f 25bf 0cc5 83be aff3 0d3d
000002c0: 7019 47bf 62e5 86be 9852 1bbe f2f3 dabd
000002d0: 2660 9ebd 9dff 5d3e 30e4 8bbb fbec e3be
000002e0: e249 20bc 94bf 38bf 0ae8 25be fde4 bf3e
000002f0: c985 dabd f206 b3bd 448f c13e 9f4a 343f
00000300: 1e79 6fbe b882 23bf 7e17 30be 5eaa 08be
00000310: b761 063e b788 25be a008 773e cedf f4be
00000320: e3ef 95be 9e03 8abe 0c52 0c3f 22b2 b2be
00000330: fbc9 b63e 5006 11bf 4f49 f4bd e17b 1c3f
00000340: e2df d33d bc26 acbd 0bc6 023e 392b 583d
00000350: c584 12bf 8a8e 8c3d 7dce afbe e295 523d
00000360: 5f80 c63e 8296 8b3f f5a3 afbe 1f55 a5bd
00000370: 4b43 993e adc3 313f ab67 603e 4a94 e2be
00000380: d98b adbe 24f4 183f b564 003e 9c0b 343d
00000390: b7c4 39bf 74b5 30be e828 3d3f ef0c 05bf
000003a0: 59e2 ac3e beb6 693f 583e 8ebe 2edd 1f3d
000003b0: 7c70 e43d f669 7c3d dd2d 32be 6923 d33e
000003c0: e8dd 273e 903c 52be 7b16 44bf 69db 363f
000003d0: 0f98 f2bd e8f7 473e 3ebd ccbd 60da c7be
000003e0: 9ff8 6abf 5df2 d03e 040a 68bf ac6b 0ebd
000003f0: 9be5 9e3e 92fd 1c3f e886 4e3f 6c6f df3e
-0.039718315 0.78493094 -0.22502355 -0.66976064 -0.3988732 0.17270297 -0.21523295 0.25988933
0.8541846 0.5857023 0.43492925 0.44202164 -0.06122727 -0.050863214 0.4259581 0.3277429
-0.2445259 0.23705018 -0.5072936 -0.021318771 0.33397445 -0.42996857 0.45431837 -0.09201792
0.3795529 0.31188205 -0.049162857 -0.24793962 0.08103396 0.061572365 -0.053227097 0.29601645
-0.24749926 -0.43334675 -0.1540266 -0.42096317 0.30991182 -0.10276851 0.07473332 0.24467114
-0.6706184 0.5591235 0.42852885 -0.15565333 -0.08996112 0.38682264 0.36563528 0.062518105
0.68005204 -0.23865806 -0.10190705 0.03439211 0.6478144 -0.10542092 0.5155082 0.218126
-0.14041781 -0.030956656 -0.18205836 -0.2808863 0.27187398 -0.99402076 0.05893515 -0.44256777
0.6324716 0.2223221 -0.6978352 -0.060511105 0.090669885 0.12951607 -0.267332 0.36747932
0.27871516 -0.6354137 0.38995183 0.8427313 -0.50951743 -1.0422548 0.31925005 -0.5632258
-0.27449983 -0.663836 0.31264 -0.47733095 0.2727196 0.19733417 -0.21587268 0.20197482
0.20496069 0.99488604 0.09868209 0.44980785 -0.06374845 0.4904111 -0.6762941 -0.008241866
0.3773855 -0.2882783 -1.1388583 -1.2061957 0.1672899 -0.45513022 -0.1341111 -0.24719004
0.9108125 -0.45950457 0.43297577 -0.48355645 -0.044606037 -0.016199969 0.36469948 0.4687055
-0.14396782 -0.19566481 0.119685575 0.22315787 -0.034334812 -0.9115113 0.45401114 0.8667944
0.50350314 -0.4648285 0.04156664 0.25685224 -0.06710393 0.5802491 -0.869137 0.6286166
0.24486116 0.28351274 -0.046401303 0.196663 0.350671 0.8505809 -0.4064179 0.2848609
-0.44338298 0.15119493 -0.7508066 -0.37536016 0.005506074 -0.27737457 -0.03873085 -0.050856315
0.20564345 0.38809824 0.23991928 -0.10060416 0.7786676 0.2570441 0.46289623 0.09747408
0.108619094 -0.10556346 -0.08479444 0.14560181 1.0648419 -0.5276562 -0.24995974 -0.019863099
-0.47205594 0.35410535 -0.9454821 0.29341304 -0.8951981 0.4173752 0.09399136 -0.18437073
0.36060533 -0.11304161 -0.9130086 -0.32688183 -0.49522245 -0.6447664 -0.25736272 0.034656223
-0.7777319 -0.2634688 -0.15168226 -0.1069106 -0.077331826 0.2167954 -0.0042691454 -0.4451674
-0.00978324 -0.72167325 -0.16201797 0.37479392 -0.10670049 -0.08741559 0.37804615 0.7042636
-0.23386046 -0.63871336 -0.17196462 -0.1334624 0.13123213 -0.16165434 0.24124384 -0.47827
-0.29284582 -0.26955885 0.54812694 -0.3490153 0.35700974 -0.5665026 -0.11928045 0.61126524
0.10345437 -0.084058255 0.1277086 0.052775595 -0.5723384 0.06863125 -0.34337226 0.05141247
0.38769814 1.0905306 -0.34304777 -0.08072876 0.29934153 0.694392 0.21914546 -0.4425376
-0.33895758 0.5974753 0.12538417 0.043956384 -0.7256579 -0.17256719 0.73890543 -0.5197286
0.3376644 0.9129447 -0.2778194 0.039029293 0.11154267 0.06162449 -0.17400308 0.41237953
0.16393244 -0.20530915 -0.765968 0.71428543 -0.11845409 0.19528162 -0.099970326 -0.39033794
-0.91785616 0.40809909 -0.9064028 -0.034770653 0.3103455 0.6132442 0.806746 0.43639696

sequential/mobilenet_0.25_96/conv_pw_13_bn/FusedBatchNormV3 f4 [256]
00000000: 9ac8 8fbe a2a9 2abe fb56 29be 29f8 a63e
00000010: a62b 713e a44b 9bbe 9eed afbe a827 29bd
00000020: a273 a3be 0026 dfbd f60e c1be b2e0 05bf
00000030: e653 87bd 85b5 123f 941b f53d 7ce3 923d
00000040: 964c c4be f2aa e2be 7094 00be b8dc 6e3d
00000050: 2478 4abe 5618 833e 406a 2abd 44e5 b4be
00000060: 5040 f1be ae12 0d3e 40f6 803e 415d 82be
00000070: 668e c1be f467 00be 5875 07be 7e5c 593e
00000080: 1c53 39bf f2fb 1bbe f859 a2be 0064 a5b9
00000090: c05b 333d ca5c 37bf 85b4 56be 3884 fabd
000000a0: 6e17 c2be 60e5 393e 6373 913e af15 08be
000000b0: 8094 d7bd dc38 9bbd 1d9a d5be efd5 40be
000000c0: dba1 5dbe 3171 bbbe d494 f0be 6009 2cbc
000000d0: 309f 8d3e fa34 5f3e 222b c3be 1863 a8be
000000e0: 31c3 f3be 82bc 3cbe 8cbf 10be 555c debe
000000f0: 3481 2abe c782 d0be 2758 bcbe b8cf fa3d
00000100: 4faa 49be e69c 3ebe 0b42 f9be a143 35be
00000110: 8471 8f3e 6059 e8be 70fa 81bd 1c68 a4be
00000120: 0092 4eba d449 63be f0f4 2dbd c33c cebd
00000130: 0cfb 4f3e a015 13bf 4051 543e ea2c 22bf
00000140: 7825 f5bc 3b8d ffbd 74b9 9bbe ac96 d0bd
00000150: cc60 08be 4e6e 27be 18a6 613e 606f a5bc
00000160: 9670 9dbe fc1c 54be ecd0 00be e206 b0be
00000170: 3c41 dfbd d09b b2bd ad40 803e 7c64 15be
00000180: b955 a13e af6f d8be ba26 dd3e b878 a3be
00000190: bd38 d1be b70b 54be 002d ca3d 5b69 72be
000001a0: ac7d fcbe aa18 14bf fcd0 34be c035 22bd
000001b0: 000e f9bd 8ec8 21be fa22 6fbe 1657 1bbe
000001c0: f2ae 22be 7ccd 3ebe e247 1b3e 7e57 72be
000001d0: a019 fabc fe42 41be a025 43bd 8481 77bd
000001e0: 6c6d 14bf 1f53 84be 4970 f6be 86a7 58be
000001f0: d2f8 12bf 0aff 8e3e 609c b4be a8a8 133e
00000200: 8cf9 89be 927a 80be 41d4 f3be 941c 08be
00000210: 20c7 2fbf 9094 91be efd3 eebe 649f e1be
00000220: d01d 45bd b920 84be d24a 97be c27b 3b3e
00000230: 48cf 463d b96c 953e d455 a43d a0fa e4bd
00000240: 3471 63be 005d d7be 90de 1dbe 2475 b6bd
00000250: 4cfb c5be 9c77 7a3e f001 6cbd f7ac f6be
00000260: 5e42 b9be f468 df3e f4ca 8ebe 5d9a e9be
00000270: 910d 933e 2738 d63e e07d 493e a91f 1dbf
00000280: 4a64 5bbe 4e6b f4be 05d1 99be 3a21 06bf
00000290: 9335 a8be ac24 febd 52be a63e 6e7b 10be
000002a0: 4215 39be dcdd c0be 6857 243e 8c72 b73d
000002b0: 36f7 b7be fcf3 d8be 8c47 2fbe 12a1 b6be
000002c0: 4c6f f0be d8bc 1bbf fc2a 313e 5efd c0bd
000002d0: 6103 80be e69d 2fbe d453 5ebe 8e6f 80be
000002e0: 47e0 56be acd8 b9bd 1097 16be a23d e6be
000002f0: 60f4 5dbe 0209 313e 009b e13b bb19 81be
00000300: e888 dcbd 6b24 5abe 7883 edbd f4b9 d8be
00000310: fee0 f5be 49b8 aabe ba57 96be 3d58 36bf
00000320: f0a6 c7be 5dfd 8e3e d3a0 8cbe dcb3 e5bd
00000330: e6fa a03e 0876 e5be 1312 93be 0afc d6be
00000340: f01f 18bf 748c d93e 9885 1fbe 141a b43e
00000350: 6b78 adbe d8cb 6bbe fed9 693e 701a bcbe
00000360: b03d 863c c049 9fbc 9cb7 14bf b937 6abe
00000370: 5e24 d4be a096 393e 0a99 08bf 0157 cfbe
00000380: d480 70be 0a2c 43be 224d 5bbe b0ed ea3d
00000390: 94da e9be 806e 4cbd fc3e 05be 7bfc e6be
000003a0: b2da 98be 269b 46be ee2e 06be a289 08bf
000003b0: 7313 46be e816 0a3e 08e3 d9bd 8448 debd
000003c0: 3a43 a9be ae86 553e a876 18bf 20f3 4f3d
000003d0: 26f6 eebe 1e14 15be 2219 a5be 1c22 fabd
000003e0: ec33 a93d 9002 ddbe f68e ad3e ee0c 80be
000003f0: a4b3 d2be 3c7f 21bf 3059 a5be 8cb4 b43d
-0.28082734 -0.16666272 -0.16537087 0.32611206 0.23551807 -0.30331147 -0.34360975 -0.041297585
-0.31924158 -0.1089592 -0.37706727 -0.5229598 -0.06607799 0.57308227 0.11968151 0.071722955
-0.3833968 -0.44271046 -0.12556624 0.058315963 -0.19772393 0.25604504 -0.041605234 -0.35331166
-0.4711938 0.13776657 0.25187874 -0.25461772 -0.37803954 -0.12539655 -0.13228357 0.21226689
-0.7239244 -0.15232828 -0.31709266 -0.00031545758 0.04378867 -0.7162596 -0.209673 -0.1223225
-0.379085 0.18153906 0.28408346 -0.13289522 -0.10526371 -0.075792044 -0.41719142 -0.18831609
-0.21643774 -0.36609796 -0.46988547 -0.010500282 0.27660513 0.21797553 -0.38118845 -0.32888103
-0.47609857 -0.18431285 -0.1413557 -0.4342982 -0.1665085 -0.40724775 -0.36786005 0.122466505
-0.19693874 -0.1861454 -0.486832 -0.1770158 0.28016293 -0.45380688 -0.06346595 -0.3211068
-0.0007880032 -0.22196132 -0.04246992 -0.10070183 0.2031061 -0.5745487 0.2073412 -0.63349783
-0.029925093 -0.124781094 -0.30414927 -0.101849884 -0.13318175 -0.16350672 0.22036016 -0.02019471
-0.3074996 -0.20714182 -0.12579697 -0.3438025 -0.10901114 -0.08721125 0.25049344 -0.14589113
0.31510714 -0.42272708 0.4319361 -0.3192804 -0.408636 -0.20707594 0.09871864 -0.23673002
-0.4931463 -0.57850134 -0.17657846 -0.03960204 -0.121608734 -0.15799162 -0.23353186 -0.1516994
-0.15887049 -0.18633074 0.1516414 -0.23666188 -0.030529797 -0.18873212 -0.047643304 -0.06042625
-0.57979465 -0.25844666 -0.48132542 -0.21157655 -0.5741092 0.27928954 -0.35275555 0.14419806
-0.26948202 -0.25093514 -0.47622874 -0.13292152 -0.68663216 -0.28433657 -0.46646068 -0.44066918
-0.048124135 -0.25806215 -0.2954927 0.18308929 0.048537523 0.2918451 0.08024183 -0.111806154
-0.22211152 -0.4206314 -0.15416932 -0.089090616 -0.38668287 0.2445969 -0.057619035 -0.48178837
-0.36183447 0.4363476 -0.27889216 -0.45625582 0.28721288 0.41839716 0.19676924 -0.61376435
-0.21424976 -0.47738117 -0.30042282 -0.5239445 -0.32853374 -0.12409338 0.32567078 -0.14109585
-0.18074515 -0.37669265 0.16048968 0.08957395 -0.35930794 -0.42373645 -0.17117137 -0.35669762
-0.46959913 -0.6083503 0.17301553 -0.09423326 -0.25002578 -0.17150077 -0.21711665 -0.2508511
-0.20983993 -0.0907453 -0.14706063 -0.44968897 -0.21675253 0.17288592 0.0068849325 -0.25214943
-0.107683 -0.21302955 -0.11597341 -0.4232937 -0.48023218 -0.33343723 -0.29363805 -0.7122839
-0.3899455 0.27927676 -0.2746645 -0.11215946 0.3144142 -0.44816613 -0.28724727 -0.41989166
-0.5942373 0.4248997 -0.15578306 0.35176146 -0.33880934 -0.23026979 0.22837064 -0.3673892
0.016386837 -0.019444346 -0.58092666 -0.22872819 -0.41433996 0.18123865 -0.5335852 -0.40496066
-0.23486644 -0.19059768 -0.21416143 0.114711165 -0.45674574 -0.04991007 -0.13012308 -0.45114502
-0.2985435 -0.19395122 -0.1310384 -0.5333501 -0.19343357 0.134853 -0.10639006 -0.10853675
-0.33059102 0.20852157 -0.59556055 0.05076897 -0.4667217 -0.14558455 -0.32245737 -0.12213537
0.082618564 -0.43166018 0.33898133 -0.25009865 -0.4115268 -0.6308477 -0.32294607 0.08823499

sequential/mobilenet_0.25_96/conv_pw_1_bn/FusedBatchNormV3 f4 [16]
00000000: 2c53 babd 51bf 423f 3148 b4bf 37f1 f8be
00000010: e083 003d 3af9 433f a8ae 253f 8e73 9ebd
00000020: 6459 8bbe a831 16be dbd1 373f 5214 463f
00000030: 4aa9 43bf b893 3cbf b89b a33d 8287 eabe
-0.09097895 0.76073176 -1.4084531 -0.48621532 0.031375766 0.76552165 0.6471963 -0.07736884
-0.27216637 -0.1466738 0.7180459 0.77374756 -0.7643019 -0.736629 0.07988685 -0.4580651

sequential/mobilenet_0.25_96/conv_pw_2_bn/FusedBatchNormV3 f4 [32]
00000000: a000 953e fa5f f13e 4d2f ea3e df6f 723f
00000010: 8242 90be a4ac b3be 5712 5e3e 0092 78ba
00000020: ec57 8b3e 7c70 343f 7f0d 063e 1f0d 8bbe
00000030: c831 6d3f 9d5f 34bf ac70 c23e 168d 1440
00000040: 069a f03e 5065 0b3f ebd8 38bf 7645 6f3f
00000050: 33b3 c73e e222 1f3f c764 553f 404c e03b
00000060: 3d05 3f3f ea36 a33f 1e5c 89be bb1a 96be
00000070: 15db 923f 03c9 fd3e 2bb1 6d3f df8d db3e
0.2910204 0.47143537 0.45739213 0.9470195 -0.2817574 -0.35092652 0.21686684 -0.0009482205
0.27215517 0.7048414 0.13091086 -0.27158448 0.92654085 -0.70458394 0.37976587 2.3211112
0.4699251 0.54451466 -0.7220599 0.93465364 0.39003906 0.621626 0.833569 0.006845027
0.7461737 1.2751133 -0.26828092 -0.2931727 1.1473109 0.49567422 0.9284846 0.42881677

sequential/mobilenet_0.25_96/conv_pw_3_bn/FusedBatchNormV3 f4 [32]
00000000: deaf f03d 8112 933e 1ca6 abbe ae75 343f
00000010: 6e49 13bf 29b8 473f 1072 ee3e d2d0 e3be
00000020: 5571 bd3f 5f0d 09be d738 1dbf e6c6 8a3e
00000030: 9816 783e ac8b 8ebe 40a5 e93e 37be 793e
00000040: 28b7 61bf b0ed 6e3e dea0 dbbd ce28 9d3d
00000050: f90f 683f 6492 793f 2d4d 4c3f bcea e93f
00000060: 79a6 33bd 9133 8e3f 2cd9 123e c949 74be
00000070: 5503 19bf 20ff 073c 58bd 853d f4da 91bd
0.11752294 0.28725055 -0.3352517 0.70492065 -0.5753392 0.7801538 0.46571398 -0.44495255
1.4800211 -0.13384007 -0.61414856 0.27104872 0.24227369 -0.27840936 0.45633888 0.24388967
-0.881701 0.23332858 -0.10724042 0.076737985 0.9064937 0.97489 0.7980526 1.827476
-0.043859933 1.1109487 0.14340657 -0.23856272 -0.5977071 0.008300573 0.06530255 -0.0712184
