v0.1/training/keyword_spotting/trained_models/aww_ref_model.tflite (tflite, 59648 bytes, 10 tensors)

functional_1/batch_normalization_1/FusedBatchNormV3;StatefulPartitionedCall/functional_1/batch_normalization_1/FusedBatchNormV3;functional_1/depthwise_conv2d/depthwise;StatefulPartitionedCall/functional_1/depthwise_conv2d/depthwise;functional_1/depthwise_conv2d/BiasAdd;StatefulPartitionedCall/functional_1/depthwise_conv2d/BiasAdd;functional_1/conv2d_4/Conv2D;StatefulPartitionedCall/functional_1/conv2d_4/Conv2D;unknown_6 i1 [1, 3, 3, 64]
000000 8e 7f 0a 0e 1c e3 34 b6 42 f5 6f 24 eb 2f fa 25
       -114 127 10 14 28 -29 52 -74 66 -11 111 36 -21 47 -6 37
000010 bc dc 6b e8 46 81 eb f1 c2 b0 cb 0d b8 47 f8 f9
       -68 -36 107 -24 70 -127 -21 -15 -62 -80 -53 13 -72 71 -8 -7
000020 21 c7 e9 f3 ee 2c f9 e8 7f c6 7f f0 e4 ca 15 7f
       33 -57 -23 -13 -18 44 -7 -24 127 -58 127 -16 -28 -54 21 127
000030 0f 24 90 07 b8 18 9f eb c0 21 cb ec ff 7b 81 93
       15 36 -112 7 -72 24 -97 -21 -64 33 -53 -20 -1 123 -127 -109
000040 e2 ba dd e7 f5 e7 0e 27 81 44 2a 62 d2 81 d8 11
       -30 -70 -35 -25 -11 -25 14 39 -127 68 42 98 -46 -127 -40 17
000050 10 20 4e 1e c2 11 0d fb 83 cf ca 35 08 51 a8 0a
       16 32 78 30 -62 17 13 -5 -125 -49 -54 53 8 81 -88 10
000060 c1 0c c9 ca 01 aa a2 5f 8a 2a f9 b8 10 7f 07 44
       -63 12 -55 -54 1 -86 -94 95 -118 42 -7 -72 16 127 7 68
000070 f6 b0 0b f8 bd 0f 33 bd 77 0b 08 7f 35 ae 1c 0e
       -10 -80 11 -8 -67 15 51 -67 119 11 8 127 53 -82 28 14
000080 53 da b0 30 0b 8a 81 d3 6a 41 94 98 e5 fe a3 be
       83 -38 -80 48 11 -118 -127 -45 106 65 -108 -104 -27 -2 -93 -66
000090 31 eb cf 2a 7f 1c 16 7f f9 e3 f2 26 f6 3b 98 c8
       49 -21 -49 42 127 28 22 127 -7 -29 -14 38 -10 59 -104 -56
0000a0 0e e4 e9 11 a9 b9 ef b1 4f 6e 3d 39 f8 66 b0 28
       14 -28 -23 17 -87 -71 -17 -79 79 110 61 57 -8 102 -80 40
0000b0 bc d1 2a ff 2b da 01 57 81 eb a3 b1 92 d7 1d 0e
       -68 -47 42 -1 43 -38 1 87 -127 -21 -93 -79 -110 -41 29 14
0000c0 81 c4 d7 0a cd 36 45 02 14 40 ca 50 e2 5e 33 7f
       -127 -60 -41 10 -51 54 69 2 20 64 -54 80 -30 94 51 127
0000d0 b8 bb 92 73 85 ad 2b c6 7f 9f d1 40 cc 7f fb e4
       -72 -69 -110 115 -123 -83 43 -58 127 -97 -47 64 -52 127 -5 -28
0000e0 2a 87 7f 4a 0e 72 d2 b6 c7 a7 c9 94 bb 06 25 cd
       42 -121 127 74 14 114 -46 -74 -57 -89 -55 -108 -69 6 37 -51
0000f0 ed 1e 81 fd 74 07 7f 81 a5 2f 7d 69 a2 7f c0 81
       -19 30 -127 -3 116 7 127 -127 -91 47 125 105 -94 127 -64 -127

functional_1/batch_normalization_3/FusedBatchNormV3;StatefulPartitionedCall/functional_1/batch_normalization_3/FusedBatchNormV3;functional_1/depthwise_conv2d_1/depthwise;StatefulPartitionedCall/functional_1/depthwise_conv2d_1/depthwise;functional_1/depthwise_conv2d_1/BiasAdd;StatefulPartitionedCall/functional_1/depthwise_conv2d_1/BiasAdd;functional_1/conv2d_4/Conv2D;StatefulPartitionedCall/functional_1/conv2d_4/Conv2D;unknown_18 i1 [1, 3, 3, 64]
000000 f5 02 e4 7f f9 28 97 cc 44 e2 58 d5 c0 77 b5 d0
       -11 2 -28 127 -7 40 -105 -52 68 -30 88 -43 -64 119 -75 -48
000010 7f a1 b2 81 7f 39 40 70 63 3f 7f 12 e9 7f 12 35
       127 -95 -78 -127 127 57 64 112 99 63 127 18 -23 127 18 53
000020 98 13 37 e9 c3 c2 a5 25 e1 2f 16 ec 2d e2 ec 4b
       -104 19 55 -23 -61 -62 -91 37 -31 47 22 -20 45 -30 -20 75
000030 0d ab 5d 60 62 a1 75 fb 10 d3 81 58 6a 29 4f c2
       13 -85 93 96 98 -95 117 -5 16 -45 -127 88 106 41 79 -62
000040 16 20 21 3a 5b 57 e6 81 36 38 27 da bd 94 81 7f
       22 32 33 58 91 87 -26 -127 54 56 39 -38 -67 -108 -127 127
000050 ea a7 0d 5c 9e fe ed 0b 3e 22 26 57 2c 73 41 97
       -22 -89 13 92 -98 -2 -19 11 62 34 38 87 44 115 65 -105
000060 15 a2 d4 c8 2e bd 30 5f 09 7f c4 81 0f 7f cf 16
       21 -94 -44 -56 46 -67 48 95 9 127 -60 -127 15 127 -49 22
000070 de ef 49 81 7f 7f 5b 81 44 47 db 39 38 ff c5 06
       -34 -17 73 -127 127 127 91 -127 68 71 -37 57 56 -1 -59 6
000080 20 7f f4 27 2d 81 1a 1e e4 fa bf f9 c6 53 25 a7
       32 127 -12 39 45 -127 26 30 -28 -6 -65 -7 -58 83 37 -89
000090 17 bb 3c 21 0d da 35 7b f4 42 12 bc ee 72 33 c0
       23 -69 60 33 13 -38 53 123 -12 66 18 -68 -18 114 51 -64
0000a0 66 81 0c 7f 0e c9 5d e3 c9 39 81 eb 81 b2 7f 4d
       102 -127 12 127 14 -55 93 -29 -55 57 -127 -21 -127 -78 127 77
0000b0 e1 d7 b9 1b eb 96 b2 04 03 f3 cd 31 d2 ef 7f 81
       -31 -41 -71 27 -21 -106 -78 4 3 -13 -51 49 -46 -17 127 -127
0000c0 66 ab dc 71 ef 64 c0 19 7f e8 10 de 03 63 e6 18
       102 -85 -36 113 -17 100 -64 25 127 -24 16 -34 3 99 -26 24
0000d0 46 ec c7 c3 0b 7f e9 7f 23 fe 38 28 dc 7d 03 1a
       70 -20 -57 -61 11 127 -23 127 35 -2 56 40 -36 125 3 26
0000e0 ce 30 fa e4 ef 62 b4 f6 63 11 bb d4 40 fa 9c 7f
       -50 48 -6 -28 -17 98 -76 -10 99 17 -69 -44 64 -6 -100 127
0000f0 ed 6a 39 e9 1a 88 1c 79 81 fc e3 47 50 28 46 c5
       -19 106 57 -23 26 -120 28 121 -127 -4 -29 71 80 40 70 -59

functional_1/batch_normalization_5/FusedBatchNormV3;StatefulPartitionedCall/functional_1/batch_normalization_5/FusedBatchNormV3;functional_1/depthwise_conv2d_2/depthwise;StatefulPartitionedCall/functional_1/depthwise_conv2d_2/depthwise;functional_1/depthwise_conv2d_2/BiasAdd;StatefulPartitionedCall/functional_1/depthwise_conv2d_2/BiasAdd;functional_1/conv2d_4/Conv2D;StatefulPartitionedCall/functional_1/conv2d_4/Conv2D;unknown_30 i1 [1, 3, 3, 64]
000000 ff c0 af 7f 45 da 81 f2 23 6a 2d a7 0f 7f 62 cc
       -1 -64 -81 127 69 -38 -127 -14 35 106 45 -89 15 127 98 -52
000010 14 15 4b 5c fb e5 40 81 7f f4 35 f3 28 31 39 85
       20 21 75 92 -5 -27 64 -127 127 -12 53 -13 40 49 57 -123
000020 b4 f6 c5 f1 7f 87 1c 75 5b 2c 7f 51 cb c8 61 4c
       -76 -10 -59 -15 127 -121 28 117 91 44 127 81 -53 -56 97 76
000030 7f 6e b9 7f 29 f9 94 47 81 e1 90 85 59 15 09 e9
       127 110 -71 127 41 -7 -108 71 -127 -31 -112 -123 89 21 9 -23
000040 5e e0 81 e7 53 f5 04 30 c3 40 3a 68 30 40 71 fd
       94 -32 -127 -25 83 -11 4 48 -61 64 58 104 48 64 113 -3
000050 eb 11 27 ce 9e e6 7f 5c da d3 c7 57 17 02 09 a6
       -21 17 39 -50 -98 -26 127 92 -38 -45 -57 87 23 2 9 -90
000060 81 f5 cd c8 0d 81 7f c5 31 89 13 34 58 ed ae 57
       -127 -11 -51 -56 13 -127 127 -59 49 -119 19 52 88 -19 -82 87
000070 f2 35 81 76 2c b2 32 a6 0f ba 22 db 6c 05 81 18
       -14 53 -127 118 44 -78 50 -90 15 -70 34 -37 108 5 -127 24
000080 81 81 07 32 ee b3 97 de 82 37 7f cd 81 15 7f f5
       -127 -127 7 50 -18 -77 -105 -34 -126 55 127 -51 -127 21 127 -11
000090 6b 8b 00 81 13 e0 68 bf 4c be ca a4 17 81 34 f9
       107 -117 0 -127 19 -32 104 -65 76 -66 -54 -92 23 -127 52 -7
0000a0 03 f3 01 db 3c a7 33 e6 21 f2 cd 95 d3 81 c1 51
       3 -13 1 -37 60 -89 51 -26 33 -14 -51 -107 -45 -127 -63 81
0000b0 ba f9 98 5b 66 c6 7f 2e 10 bf d1 81 1f 14 bd 20
       -70 -7 -104 91 102 -58 127 46 16 -65 -47 -127 31 20 -67 32
0000c0 c9 c9 05 70 f6 c5 e3 ed 3c 24 cb e1 e1 12 5a d3
       -55 -55 5 112 -10 -59 -29 -19 60 36 -53 -31 -31 18 90 -45
0000d0 3c 49 2b 6f 0e da 08 b8 0f ce ff fc 00 1e 2c e3
       60 73 43 111 14 -38 8 -72 15 -50 -1 -4 0 30 44 -29
0000e0 07 7f 34 c3 e6 af e7 51 3f 11 35 0c d9 ca 4a 33
       7 127 52 -61 -26 -81 -25 81 63 17 53 12 -39 -54 74 51
0000f0 2a 0f c7 4a e6 cf e5 06 9f ba d9 ed 1b 6e 43 db
       42 15 -57 74 -26 -49 -27 6 -97 -70 -39 -19 27 110 67 -37

functional_1/batch_normalization_7/FusedBatchNormV3;StatefulPartitionedCall/functional_1/batch_normalization_7/FusedBatchNormV3;functional_1/depthwise_conv2d_3/depthwise;StatefulPartitionedCall/functional_1/depthwise_conv2d_3/depthwise;functional_1/depthwise_conv2d_3/BiasAdd;StatefulPartitionedCall/functional_1/depthwise_conv2d_3/BiasAdd;functional_1/conv2d_4/Conv2D;StatefulPartitionedCall/functional_1/conv2d_4/Conv2D;unknown_42 i1 [1, 3, 3, 64]
000000 4e 81 7f b1 7a 77 81 f6 7f 7f 81 5e b9 7a 65 81
       78 -127 127 -79 122 119 -127 -10 127 127 -127 94 -71 122 101 -127
000010 72 a9 70 c0 47 a2 52 4c 81 78 5a 57 a4 65 7f dc
       114 -87 112 -64 71 -94 82 76 -127 120 90 87 -92 101 127 -36
000020 89 a0 35 81 0c 7f 83 d6 5f 5e 81 81 c0 55 ae 84
       -119 -96 53 -127 12 127 -125 -42 95 94 -127 -127 -64 85 -82 -124
000030 69 45 be 1f 7f 7f 6c d1 59 aa 7f 8c 86 70 bc 95
       105 69 -66 31 127 127 108 -47 89 -86 127 -116 -122 112 -68 -107
000040 24 a2 72 f0 7f 7b b6 c6 5b 82 b8 55 3b 7f 60 d2
       36 -94 114 -16 127 123 -74 -58 91 -126 -72 85 59 127 96 -46
000050 7f a9 54 95 46 81 7f 74 bf 36 73 4c 14 41 65 20
       127 -87 84 -107 70 -127 127 116 -65 54 115 76 20 65 101 32
000060 c9 92 1f 87 36 6e a2 c8 64 5c 90 f8 81 7f bc 97
       -55 -110 31 -121 54 110 -94 -56 100 92 -112 -8 -127 127 -68 -105
000070 7f d7 81 7f 4c 63 4d ba 64 e6 54 de 0a 4f 9c d9
       127 -41 -127 127 76 99 77 -70 100 -26 84 -34 10 79 -100 -39
000080 7f bb 63 da 18 68 98 c1 25 ed 67 1e 5c 6d 10 ba
       127 -69 99 -38 24 104 -104 -63 37 -19 103 30 92 109 16 -70
000090 68 8e 53 a7 29 dc 5b 7f cc 44 50 50 96 70 67 15
       104 -114 83 -89 41 -36 91 127 -52 68 80 80 -106 112 103 21
0000a0 89 f1 2f fe 29 3b b5 d5 40 76 ab a5 21 57 e9 c8
       -119 -15 47 -2 41 59 -75 -43 64 118 -85 -91 33 87 -23 -56
0000b0 74 b6 9f 6a 7f 58 4c 06 59 11 72 96 b0 61 aa eb
       116 -74 -97 106 127 88 76 6 89 17 114 -106 -80 97 -86 -21
0000c0 fd d4 11 e4 f5 01 f9 aa 27 06 92 26 81 28 1d 00
       -3 -44 17 -28 -11 1 -7 -86 39 6 -110 38 -127 40 29 0
0000d0 17 aa 08 06 50 e2 ed 27 e1 00 0e 28 d6 04 f9 9d
       23 -86 8 6 80 -30 -19 39 -31 0 14 40 -42 4 -7 -99
0000e0 d1 ee 3d b1 05 e5 ba 81 0e fd 00 df de 08 d9 ef
       -47 -18 61 -79 5 -27 -70 -127 14 -3 0 -33 -34 8 -39 -17
0000f0 13 42 df c5 ee 0a 15 c2 20 d8 07 01 93 f1 d8 be
       19 66 -33 -59 -18 10 21 -62 32 -40 7 1 -109 -15 -40 -66

functional_1/dense/MatMul;StatefulPartitionedCall/functional_1/dense/MatMul i1 [12, 64] scale=0.008723801 zero_point=0
000000 f0 3f c5 d6 f6 c2 22 e4 be 17 cd 3e ab a2 b9 cf
       -0.13958082 0.54959947 -0.5147043 -0.36639965 -0.087238014 -0.5408757 0.29660922 -0.24426642 -0.57577085 0.20064743 -0.44491386 0.5408757 -0.7415231 -0.8200373 -0.6193899 -0.42746624
000010 fb 0d c0 27 0c f9 cf 10 0d ef fe f6 cb 18 28 d3
       -0.043619007 0.113409415 -0.55832326 0.34022823 0.10468561 -0.061066605 -0.42746624 0.13958082 0.113409415 -0.14830461 -0.017447602 -0.087238014 -0.46236145 0.20937122 0.34895205 -0.39257103
000020 bd fc 26 c0 e1 ea e8 09 29 04 31 c5 a4 3d dc 0b
       -0.58449465 -0.034895204 0.33150443 -0.55832326 -0.27043784 -0.19192362 -0.20937122 0.07851421 0.35767585 0.034895204 0.42746624 -0.5147043 -0.8025897 0.5321519 -0.31405684 0.09596181
000030 bf e0 3c c7 f5 0a b2 c8 05 34 e2 dc ee e4 22 3d
       -0.56704706 -0.27916163 0.5234281 -0.49725667 -0.09596181 0.087238014 -0.68045646 -0.48853284 0.043619007 0.45363766 -0.26171404 -0.31405684 -0.15702842 -0.24426642 0.29660922 0.5321519
000040 2f e4 ec de 2d bf fd c3 c9 00 e1 18 bf da d6 ba
       0.41001865 -0.24426642 -0.17447603 -0.29660922 0.39257103 -0.56704706 -0.026171403 -0.5321519 -0.47980905 0.0 -0.27043784 0.20937122 -0.56704706 -0.33150443 -0.36639965 -0.6106661
000050 36 2c 4b 09 dd ff ba b9 b2 cc c0 f4 02 37 fc 2d
       0.47108525 0.38384724 0.6542851 0.07851421 -0.30533305 -0.008723801 -0.6106661 -0.6193899 -0.68045646 -0.45363766 -0.55832326 -0.10468561 0.017447602 0.47980905 -0.034895204 0.39257103
000060 fa d4 05 2d 27 c1 d4 05 bd 0d b9 34 bf 0c ce d8
       -0.052342806 -0.38384724 0.043619007 0.39257103 0.34022823 -0.54959947 -0.38384724 0.043619007 -0.58449465 0.113409415 -0.6193899 0.45363766 -0.56704706 0.10468561 -0.43619004 -0.34895205
000070 b9 bc 26 26 ca d5 03 d2 0a 01 fa 43 1b ed 21 00
       -0.6193899 -0.59321845 0.33150443 0.33150443 -0.47108525 -0.37512344 0.026171403 -0.40129486 0.087238014 0.008723801 -0.052342806 0.58449465 0.23554263 -0.16575222 0.28788543 0.0
000080 bf da 1c b1 a6 3a c6 e8 e4 e0 0e ad cf 21 3d 18
       -0.56704706 -0.33150443 0.24426642 -0.68918025 -0.78514206 0.50598043 -0.50598043 -0.20937122 -0.24426642 -0.27916163 0.12213321 -0.7240755 -0.42746624 0.28788543 0.5321519 0.20937122
000090 c5 fe c6 b3 eb e7 a8 2c 04 2e 31 0d 2d cb c7 ea
       -0.5147043 -0.017447602 -0.50598043 -0.67173266 -0.18319982 -0.21809502 -0.7676945 0.38384724 0.034895204 0.40129486 0.42746624 0.113409415 0.39257103 -0.46236145 -0.49725667 -0.19192362
0000a0 bd ec b8 17 f1 ea 3b 3c 24 dc d7 e5 11 ce e1 16
       -0.58449465 -0.17447603 -0.6281137 0.20064743 -0.13085702 -0.19192362 0.5147043 0.5234281 0.31405684 -0.31405684 -0.35767585 -0.23554263 0.14830461 -0.43619004 -0.27043784 0.19192362
0000b0 e2 d3 b4 c8 25 1f 35 30 2d fa 3a c1 b2 c8 b1 b2
       -0.26171404 -0.39257103 -0.66300887 -0.48853284 0.32278064 0.27043784 0.46236145 0.41874245 0.39257103 -0.052342806 0.50598043 -0.54959947 -0.68045646 -0.48853284 -0.68918025 -0.68045646
0000c0 31 a8 29 e2 ab c5 cc cc f5 39 ed b4 c1 ed 43 d1
       0.42746624 -0.7676945 0.35767585 -0.26171404 -0.7415231 -0.5147043 -0.45363766 -0.45363766 -0.09596181 0.49725667 -0.16575222 -0.66300887 -0.54959947 -0.16575222 0.58449465 -0.41001865
0000d0 22 18 21 08 c7 c1 cf be 25 ff 19 ec c2 d4 da 29
       0.29660922 0.20937122 0.28788543 0.06979041 -0.49725667 -0.54959947 -0.42746624 -0.57577085 0.32278064 -0.008723801 0.21809502 -0.17447603 -0.5408757 -0.38384724 -0.33150443 0.35767585
0000e0 d5 db 06 29 c5 0b c7 d7 02 c5 26 f2 d8 39 01 cc
       -0.37512344 -0.32278064 0.052342806 0.35767585 -0.5147043 0.09596181 -0.49725667 -0.35767585 0.017447602 -0.5147043 0.33150443 -0.12213321 -0.34895205 0.49725667 0.008723801 -0.45363766
0000f0 da cf ce cf c8 d7 dc e9 2b 1c d6 3c 0f cc 36 21
       -0.33150443 -0.42746624 -0.43619004 -0.42746624 -0.48853284 -0.35767585 -0.31405684 -0.20064743 0.37512344 0.24426642 -0.36639965 0.5234281 0.13085702 -0.45363766 0.47108525 0.28788543

functional_1/conv2d/Conv2D;StatefulPartitionedCall/functional_1/conv2d/Conv2D i1 [64, 10, 4, 1]
000000 1c 45 27 fe 23 4d 61 5c da 06 2e 62 06 ae 05 15
       28 69 39 -2 35 77 97 92 -38 6 46 98 6 -82 5 21
000010 10 81 b5 dd 28 03 ae ae cd 07 d2 c1 e7 eb c8 eb
       16 -127 -75 -35 40 3 -82 -82 -51 7 -46 -63 -25 -21 -56 -21
000020 04 0c 29 f1 b6 1d e6 f7 d6 19 ee 03 e3 e6 0a 27
       4 12 41 -15 -74 29 -26 -9 -42 25 -18 3 -29 -26 10 39
000030 f5 ea fa 05 fb eb ee 01 18 f8 e1 20 19 1d f9 02
       -11 -22 -6 5 -5 -21 -18 1 24 -8 -31 32 25 29 -7 2
000040 f2 34 1d ec d8 3d 76 d1 dd 1a 34 81 07 ee ff d0
       -14 52 29 -20 -40 61 118 -47 -35 26 52 -127 7 -18 -1 -48
000050 28 3e 08 e9 cd 0f fd 0e c5 0c fa 1b a4 17 0c 1f
       40 62 8 -23 -51 15 -3 14 -59 12 -6 27 -92 23 12 31
000060 f0 10 1b d6 05 f8 20 c6 3d e4 19 e8 4d f9 d9 eb
       -16 16 27 -42 5 -8 32 -58 61 -28 25 -24 77 -7 -39 -21
000070 24 bf 99 10 36 ce 81 5f ff 25 06 10 00 11 a4 3e
       36 -65 -103 16 54 -50 -127 95 -1 37 6 16 0 17 -92 62
000080 0d 1f 81 7a 16 05 c1 5b 2b a1 3f 0f 22 c4 4f 8e
       13 31 -127 122 22 5 -63 91 43 -95 63 15 34 -60 79 -114
000090 07 0b 06 97 ed 09 0f d3 d2 25 1c 12 e5 02 fe 21
       7 11 6 -105 -19 9 15 -45 -46 37 28 18 -27 2 -2 33
0000a0 eb 0b 3c f6 d0 fa 64 03 bf c9 01 03 ba ed ae c3
       -21 11 60 -10 -48 -6 100 3 -65 -55 1 3 -70 -19 -82 -61
0000b0 26 f0 c9 da 2f 08 b2 2a 4b fd d9 2c 2d 02 f1 48
       38 -16 -55 -38 47 8 -78 42 75 -3 -39 44 45 2 -15 72
0000c0 f7 fa 1b 7f be 23 08 52 c1 bc 50 aa cc db 3d f4
       -9 -6 27 127 -66 35 8 82 -63 -68 80 -86 -52 -37 61 -12
0000d0 eb b6 16 dc cb bb 41 32 d0 bc 79 22 04 c6 7c 22
       -21 -74 22 -36 -53 -69 65 50 -48 -68 121 34 4 -58 124 34
0000e0 0d d5 34 02 26 f5 2d 20 f4 de 24 14 d5 e4 1a 7f
       13 -43 52 2 38 -11 45 32 -12 -34 36 20 -43 -28 26 127
0000f0 05 dd bd 1f d6 f9 de 62 c0 29 22 73 e0 3c 2b 79
       5 -35 -67 31 -42 -7 -34 98 -64 41 34 115 -32 60 43 121

functional_1/conv2d_1/Conv2D;StatefulPartitionedCall/functional_1/conv2d_1/Conv2D i1 [64, 1, 1, 64]
000000 34 06 ae 82 26 1c ec d3 50 81 a2 6d fa 4b e7 14
       52 6 -82 -126 38 28 -20 -45 80 -127 -94 109 -6 75 -25 20
000010 e8 f4 b9 5d d2 07 36 13 4b c9 1c de 54 eb f2 36
       -24 -12 -71 93 -46 7 54 19 75 -55 28 -34 84 -21 -14 54
000020 ae 45 00 4b 24 20 45 bf 15 3b 1f 1a 38 d3 e2 c7
       -82 69 0 75 36 32 69 -65 21 59 31 26 56 -45 -30 -57
000030 e4 fb fa 17 f6 14 4a 20 90 1d f1 90 d9 ef 92 62
       -28 -5 -6 23 -10 20 74 32 -112 29 -15 -112 -39 -17 -110 98
000040 bd 9e 72 25 37 0b d1 a8 52 e9 ea 10 bd 27 ce c1
       -67 -98 114 37 55 11 -47 -88 82 -23 -22 16 -67 39 -50 -63
000050 33 95 16 02 02 1e d7 e2 e6 ea 00 fc 33 25 8e cb
       51 -107 22 2 2 30 -41 -30 -26 -22 0 -4 51 37 -114 -53
000060 d5 17 02 11 2a d5 33 cc 01 eb e0 51 dc 44 3e 18
       -43 23 2 17 42 -43 51 -52 1 -21 -32 81 -36 68 62 24
000070 f0 7f 02 e2 0b ec f3 a8 20 e2 de d2 e3 18 00 e5
       -16 127 2 -30 11 -20 -13 -88 32 -30 -34 -46 -29 24 0 -27
000080 d6 0b a8 ed 67 e3 b5 2b ff f8 b2 7f d7 d5 ea db
       -42 11 -88 -19 103 -29 -75 43 -1 -8 -78 127 -41 -43 -22 -37
000090 1f ac fa 0d 0e b0 03 09 14 18 02 17 fd c5 bf 01
       31 -84 -6 13 14 -80 3 9 20 24 2 23 -3 -59 -65 1
0000a0 f7 f2 04 49 ae aa 0b 40 09 22 0e 59 20 e8 f3 f7
       -9 -14 4 73 -82 -86 11 64 9 34 14 89 32 -24 -13 -9
0000b0 02 0d cb 29 0f 29 d1 cf d3 e2 f5 fc c0 55 f7 46
       2 13 -53 41 15 41 -47 -49 -45 -30 -11 -4 -64 85 -9 70
0000c0 48 fc 1f 0c ad fa 0e d9 20 12 e3 fb 0e d5 02 23
       72 -4 31 12 -83 -6 14 -39 32 18 -29 -5 14 -43 2 35
0000d0 06 c6 e8 ff e4 c3 f1 27 bb c7 f0 03 0a 19 dc fc
       6 -58 -24 -1 -28 -61 -15 39 -69 -57 -16 3 10 25 -36 -4
0000e0 08 fa e8 ff 02 08 08 a8 10 2d 39 bf 39 a2 40 e9
       8 -6 -24 -1 2 8 8 -88 16 45 57 -65 57 -94 64 -23
0000f0 12 f8 e0 34 81 33 f9 07 d4 1e 16 21 1a eb ef ff
       18 -8 -32 52 -127 51 -7 7 -44 30 22 33 26 -21 -17 -1

functional_1/conv2d_2/Conv2D;StatefulPartitionedCall/functional_1/conv2d_2/Conv2D i1 [64, 1, 1, 64]
000000 17 d0 81 ce cc 1b c5 35 c8 be 0f 14 5b 24 bc 1d
       23 -48 -127 -50 -52 27 -59 53 -56 -66 15 20 91 36 -68 29
000010 0a ca 01 37 70 bd c4 50 cf a7 1c bd 8d e8 31 cd
       10 -54 1 55 112 -67 -60 80 -49 -89 28 -67 -115 -24 49 -51
000020 14 26 2a 2f ff 07 02 51 58 27 b1 0e 3d 21 e3 f9
       20 38 42 47 -1 7 2 81 88 39 -79 14 61 33 -29 -7
000030 e9 d4 e9 d6 e6 c7 3d cc 39 fa e2 d1 30 10 62 11
       -23 -44 -23 -42 -26 -57 61 -52 57 -6 -30 -47 48 16 98 17
000040 81 13 d6 bb 0c 2e 29 db fc 3a 13 0f d7 43 de 0b
       -127 19 -42 -69 12 46 41 -37 -4 58 19 15 -41 67 -34 11
000050 3d 3a d8 18 df 31 45 93 c0 08 06 e2 dd e7 0c e2
       61 58 -40 24 -33 49 69 -109 -64 8 6 -30 -35 -25 12 -30
000060 42 15 d1 3d 37 fa a8 c1 ed f9 dc e9 0b 1b b3 fd
       66 21 -47 61 55 -6 -88 -63 -19 -7 -36 -23 11 27 -77 -3
000070 58 b3 1f 45 ad 5f c3 b9 ae 1e fb e6 dd d7 21 fb
       88 -77 31 69 -83 95 -61 -71 -82 30 -5 -26 -35 -41 33 -5
000080 c8 f3 da 20 be 88 c4 e6 09 9f fe ca e0 06 1c fb
       -56 -13 -38 32 -66 -120 -60 -26 9 -97 -2 -54 -32 6 28 -5
000090 fa c5 40 fe 1b 58 2d d1 b3 5c d6 01 c6 05 16 30
       -6 -59 64 -2 27 88 45 -47 -77 92 -42 1 -58 5 22 48
0000a0 3e 08 f4 36 81 00 7e 29 0c 59 37 dd 40 02 10 0b
       62 8 -12 54 -127 0 126 41 12 89 55 -35 64 2 16 11
0000b0 e8 40 c5 fb fa 1c 5d d4 18 9b a0 5a c2 c7 26 42
       -24 64 -59 -5 -6 28 93 -44 24 -101 -96 90 -62 -57 38 66
0000c0 c5 39 4c 3a 42 ff c9 e7 9a fe a8 25 1d 93 ed f0
       -59 57 76 58 66 -1 -55 -25 -102 -2 -88 37 29 -109 -19 -16
0000d0 ea ce 3a fd 26 0b fe 1b d3 b2 32 0e f6 39 3c b4
       -22 -50 58 -3 38 11 -2 27 -45 -78 50 14 -10 57 60 -76
0000e0 27 ce d0 ef 3c 38 52 05 bc 0f eb dd 81 d1 d3 0b
       39 -50 -48 -17 60 56 82 5 -68 15 -21 -35 -127 -47 -45 11
0000f0 34 cd e2 44 11 2f a4 1d f9 1f f6 b7 db 08 2d 10
       52 -51 -30 68 17 47 -92 29 -7 31 -10 -73 -37 8 45 16

functional_1/conv2d_3/Conv2D;StatefulPartitionedCall/functional_1/conv2d_3/Conv2D i1 [64, 1, 1, 64]
000000 9e d2 15 b7 ed ab 15 35 e1 64 ed dc 4f 08 68 6f
       -98 -46 21 -73 -19 -85 21 53 -31 100 -19 -36 79 8 104 111
000010 ca 13 88 28 c7 ee fd bf cc c6 27 13 8e 65 d1 51
       -54 19 -120 40 -57 -18 -3 -65 -52 -58 39 19 -114 101 -47 81
000020 95 1a 51 95 76 47 bd d9 09 cc 42 9d 66 a1 5d 5d
       -107 26 81 -107 118 71 -67 -39 9 -52 66 -99 102 -95 93 93
000030 28 98 fc 4c d3 18 b0 99 06 6e 05 84 7f 74 d8 40
       40 -104 -4 76 -45 24 -80 -103 6 110 5 -124 127 116 -40 64
000040 bb db 31 f4 08 f0 0d 18 b2 43 fc b1 d7 19 c0 c5
       -69 -37 49 -12 8 -16 13 24 -78 67 -4 -79 -41 25 -64 -59
000050 00 00 25 c5 26 ae 07 f0 0f cd 69 26 da 43 88 7e
       0 0 37 -59 38 -82 7 -16 15 -51 105 38 -38 67 -120 126
000060 1b e1 e4 fa 3f ed 0f df 49 52 81 19 02 11 01 f7
       27 -31 -28 -6 63 -19 15 -33 73 82 -127 25 2 17 1 -9
000070 f5 28 e0 1a 35 67 04 2b c1 16 01 09 2d 1e be f6
       -11 40 -32 26 53 103 4 43 -63 22 1 9 45 30 -66 -10
000080 2a 36 b0 d8 17 ed a9 22 dc ff 8a d2 5b e5 39 5b
       42 54 -80 -40 23 -19 -87 34 -36 -1 -118 -46 91 -27 57 91
000090 fb f1 e1 53 31 05 1b e0 f3 52 9f 2b be fe 10 d7
       -5 -15 -31 83 49 5 27 -32 -13 82 -97 43 -66 -2 16 -41
0000a0 41 8c 1c bd 10 c0 15 92 d1 18 d7 e8 e6 da 10 53
       65 -116 28 -67 16 -64 21 -110 -47 24 -41 -24 -26 -38 16 83
0000b0 17 37 e5 c9 29 81 34 f8 e6 69 de e5 04 d4 f1 8d
       23 55 -27 -55 41 -127 52 -8 -26 105 -34 -27 4 -44 -15 -115
0000c0 e2 a0 50 2b da bc fe d9 fb fb 2b ff 00 52 3e c8
       -30 -96 80 43 -38 -68 -2 -39 -5 -5 43 -1 0 82 62 -56
0000d0 e1 0c 34 7f 49 d1 02 3c 54 04 c7 0a 53 9b 17 11
       -31 12 52 127 73 -47 2 60 84 4 -57 10 83 -101 23 17
0000e0 d0 16 bc 8e 20 09 bf ec 7a fd c3 15 13 06 41 11
       -48 22 -68 -114 32 9 -65 -20 122 -3 -61 21 19 6 65 17
0000f0 c3 01 f7 33 d9 f4 de 30 b4 dd 83 11 ed e1 25 19
       -61 1 -9 51 -39 -12 -34 48 -76 -35 -125 17 -19 -31 37 25

functional_1/conv2d_4/Conv2D;StatefulPartitionedCall/functional_1/conv2d_4/Conv2D i1 [64, 1, 1, 64]
000000 ec 1d dd 8e eb 37 d8 10 de f4 ef cc db fe c9 36
       -20 29 -35 -114 -21 55 -40 16 -34 -12 -17 -52 -37 -2 -55 54
000010 03 cf 04 b2 2f df 62 43 c4 77 f3 e0 f6 7f 1e df
       3 -49 4 -78 47 -33 98 67 -60 119 -13 -32 -10 127 30 -33
000020 12 39 22 ec 06 b3 66 d0 9c 4f 0e dd 00 38 db 19
       18 57 34 -20 6 -77 102 -48 -100 79 14 -35 0 56 -37 25
000030 a3 0f 15 e2 d9 d2 cb 8c 39 07 c3 8b a3 f7 08 f0
       -93 15 21 -30 -39 -46 -53 -116 57 7 -61 -117 -93 -9 8 -16
000040 28 ce 3a 0c 29 0a da fd b1 34 41 1c 03 11 e5 db
       40 -50 58 12 41 10 -38 -3 -79 52 65 28 3 17 -27 -37
000050 1e eb d3 58 df cc 29 d2 1e bc 5e b6 0e db 09 04
       30 -21 -45 88 -33 -52 41 -46 30 -68 94 -74 14 -37 9 4
000060 46 7a 35 e2 2b 10 fa 13 7f d2 a2 d8 f9 0e da a5
       70 122 53 -30 43 16 -6 19 127 -46 -94 -40 -7 14 -38 -91
000070 e6 d7 ea 0c 11 c3 16 3a e9 0c e8 9a f7 ee 00 34
       -26 -41 -22 12 17 -61 22 58 -23 12 -24 -102 -9 -18 0 52
000080 cc 84 d0 bc 00 a2 c2 00 ab 2a f3 9b f7 94 15 0b
       -52 -124 -48 -68 0 -94 -62 0 -85 42 -13 -101 -9 -108 21 11
000090 d2 c2 43 e4 26 e4 23 e8 2d 69 f6 60 06 7f ca 04
       -46 -62 67 -28 38 -28 35 -24 45 105 -10 96 6 127 -54 4
0000a0 0f 08 ef 15 c8 94 a0 e1 fe 25 25 74 ed 43 ff d5
       15 8 -17 21 -56 -108 -96 -31 -2 37 37 116 -19 67 -1 -43
0000b0 b5 eb ce eb 66 f7 ff 28 54 aa a7 d4 f8 3e 14 3f
       -75 -21 -50 -21 102 -9 -1 40 84 -86 -89 -44 -8 62 20 63
0000c0 ef d1 05 0e cd f6 fb 25 f7 f5 12 f8 22 17 50 a5
       -17 -47 5 14 -51 -10 -5 37 -9 -11 18 -8 34 23 80 -91
0000d0 bb 0c 2a e7 c1 f0 2e 05 0e bf e7 f0 fd e5 17 f4
       -69 12 42 -25 -63 -16 46 5 14 -65 -25 -16 -3 -27 23 -12
0000e0 30 d2 04 18 e9 02 ed f6 d4 df e7 f2 00 e0 ec 50
       48 -46 4 24 -23 2 -19 -10 -44 -33 -25 -14 0 -32 -20 80
0000f0 fc 39 0d 1d d1 7f ee 1d 22 fc 43 fe ec 43 f8 f8
       -4 57 13 29 -47 127 -18 29 34 -4 67 -2 -20 67 -8 -8
