v0.1/benchmarks/visual_wake_words/trained_models/vww_96_int8.tflite (tflite, 336672 bytes, 28 tensors)

functional_1/batch_normalization_1/FusedBatchNormV3;functional_1/depthwise_conv2d/depthwise;functional_1/depthwise_conv2d/BiasAdd;functional_1/depthwise_conv2d/BiasAdd/ReadVariableOp/resource i1 [1, 3, 3, 8]
-24 -39 44 -127 46 -47 9 -47
127 29 -11 80 -31 64 4 -4
-10 127 -38 88 -71 31 -67 -19
-35 -35 36 11 57 -36 -25 -22
-75 67 -102 82 -127 127 6 127
62 21 -127 68 -40 89 45 36
52 0 21 -65 48 -36 -32 -27
-57 1 30 23 -31 1 14 29
-40 -57 84 -41 81 -97 127 -30
00000000: e8d9 2c81 2ed1 09d1 7f1d f550 e140 04fc
00000010: f67f da58 b91f bded dddd 240b 39dc e7ea
00000020: b543 9a52 817f 067f 3e15 8144 d859 2d24
00000030: 3400 15bf 30dc e0e5 c701 1e17 e101 0e1d
00000040: d8c7 54d7 519f 7fe2

functional_1/batch_normalization_11/FusedBatchNormV3;functional_1/depthwise_conv2d_5/depthwise;functional_1/depthwise_conv2d_5/BiasAdd;functional_1/depthwise_conv2d_5/BiasAdd/ReadVariableOp/resource i1 [1, 3, 3, 64]
101 -92 37 -32 22 -127 -90 -32
-76 28 107 28 -127 74 63 56
81 -59 50 67 127 -13 18 53
-88 76 -127 101 98 -105 21 127
13 107 32 86 -2 126 120 99
77 6 67 21 -74 -122 -10 6
127 73 -67 -37 16 -28 93 45
-41 -87 76 -23 77 -82 80 48
119 22 59 -55 85 -54 -56 -127
-108 85 127 80 -60 83 27 6
-109 -104 48 89 81 13 65 -127
-127 91 -9 76 127 82 72 110
69 -5 72 127 -127 127 127 -35
127 85 -39 109 37 -127 -87 -52
-43 106 -76 -28 -37 -53 55 95
17 -127 -67 -85 34 22 81 110
40 60 26 -127 63 -52 8 -14
-36 74 111 81 5 -21 -125 -71
-97 -69 -22 68 -34 17 31 -77
-39 48 94 69 76 127 40 49
63 -127 50 104 -21 57 22 -55
64 66 -74 127 23 -36 -76 -37
-105 49 -49 22 -52 -37 -9 36
78 -27 -31 -57 44 97 21 84
106 -8 73 0 71 -66 -79 -112
-5 -10 83 34 -82 116 127 111
61 -98 83 91 80 -99 77 127
-77 82 -62 -68 68 -121 67 84
-86 118 92 0 21 68 38 51
62 59 10 20 -127 -57 -75 13
124 77 -127 -3 72 49 127 80
102 -112 33 -105 -98 -8 127 72
00000000: 65a4 25e0 1681 a6e0 b41c 6b1c 814a 3f38
00000010: 51c5 3243 7ff3 1235 a84c 8165 6297 157f
00000020: 0d6b 2056 fe7e 7863 4d06 4315 b686 f606
00000030: 7f49 bddb 10e4 5d2d d7a9 4ce9 4dae 5030
00000040: 7716 3bc9 55ca c881 9455 7f50 c453 1b06
00000050: 9398 3059 510d 4181 815b f74c 7f52 486e
00000060: 45fb 487f 817f 7fdd 7f55 d96d 2581 a9cc
00000070: d56a b4e4 dbcb 375f 1181 bdab 2216 516e
00000080: 283c 1a81 3fcc 08f2 dc4a 6f51 05eb 83b9
00000090: 9fbb ea44 de11 1fb3 d930 5e45 4c7f 2831
000000a0: 3f81 3268 eb39 16c9 4042 b67f 17dc b4db
000000b0: 9731 cf16 ccdb f724 4ee5 e1c7 2c61 1554
000000c0: 6af8 4900 47be b190 fbf6 5322 ae74 7f6f
000000d0: 3d9e 535b 509d 4d7f b352 c2bc 4487 4354
000000e0: aa76 5c00 1544 2633 3e3b 0a14 81c7 b50d
000000f0: 7c4d 81fd 4831 7f50 6690 2197 9ef8 7f48

functional_1/batch_normalization_13/FusedBatchNormV3;functional_1/depthwise_conv2d_6/depthwise;functional_1/depthwise_conv2d_6/BiasAdd;functional_1/depthwise_conv2d_11/depthwise;functional_1/depthwise_conv2d_6/BiasAdd/ReadVariableOp/resource i1 [1, 3, 3, 128]
-29 -108 -45 69 -47 68 77 66
0 127 -62 -38 38 -37 9 -8
-8 127 -113 2 -47 -70 74 -59
-103 4 16 -36 116 -45 -21 10
-87 13 -22 -127 -99 -3 51 -19
15 2 127 26 -60 127 -40 -25
-84 -58 127 -29 127 38 91 -65
-26 127 44 -76 127 -19 -2 -11
62 -127 19 44 -20 -100 -127 29
33 -54 113 19 127 -53 -78 -3
-3 -77 -127 -73 -27 -118 0 -7
-110 95 -78 -18 78 -89 5 24
-27 6 -17 -33 -87 -127 87 15
-9 -52 34 -5 -50 17 117 -100
-27 68 -127 -31 -127 54 -21 -82
-34 25 -127 10 10 -127 -23 -34
-38 95 -52 -105 -127 67 14 101
38 27 -28 -19 -52 28 -24 18
-8 -3 21 -8 -14 -97 -127 7
-27 -95 7 4 -22 8 -3 127
-48 71 32 -59 -84 -127 93 69
39 127 17 -113 -74 -23 -4 -10
-7 22 -29 -105 70 7 88 -127
-20 35 127 127 36 -95 -127 30
-15 -8 -30 -12 -19 -118 -36 59
78 -33 -14 -127 40 10 -34 127
2 -3 -112 -67 -44 6 -7 31
53 121 62 -3 41 -28 -1 -90
-28 -7 -127 21 -127 106 53 -76
-127 -127 8 -18 -59 -76 -56 -127
-63 63 -111 -46 -114 127 29 -30
-8 1 126 -50 -41 -117 3 113
00000000: e394 d345 d144 4d42 007f c2da 26db 09f8
00000010: f87f 8f02 d1ba 4ac5 9904 10dc 74d3 eb0a
00000020: a90d ea81 9dfd 33ed 0f02 7f1a c47f d8e7
00000030: acc6 7fe3 7f26 5bbf e67f 2cb4 7fed fef5
00000040: 3e81 132c ec9c 811d 21ca 7113 7fcb b2fd
00000050: fdb3 81b7 e58a 00f9 925f b2ee 4ea7 0518
00000060: e506 efdf a981 570f f7cc 22fb ce11 759c
00000070: e544 81e1 8136 ebae de19 810a 0a81 e9de
00000080: da5f cc97 8143 0e65 261b e4ed cc1c e812
00000090: f8fd 15f8 f29f 8107 e5a1 0704 ea08 fd7f
000000a0: d047 20c5 ac81 5d45 277f 118f b6e9 fcf6
000000b0: f916 e397 4607 5881 ec23 7f7f 24a1 811e
000000c0: f1f8 e2f4 ed8a dc3b 4edf f281 280a de7f
000000d0: 02fd 90bd d406 f91f 3579 3efd 29e4 ffa6
000000e0: e4f9 8115 816a 35b4 8181 08ee c5b4 c881
000000f0: c13f 91d2 8e7f 1de2 f801 7ece d78b 0371

functional_1/batch_normalization_15/FusedBatchNormV3;functional_1/depthwise_conv2d_7/depthwise;functional_1/depthwise_conv2d_7/BiasAdd;functional_1/depthwise_conv2d_11/depthwise;functional_1/depthwise_conv2d_7/BiasAdd/ReadVariableOp/resource i1 [1, 3, 3, 128]
-31 66 21 -70 39 -40 -69 -67
-127 98 69 0 -5 11 24 -14
3 -78 127 -1 -18 -15 11 -127
11 -56 -50 111 4 -60 -44 127
-10 -77 -127 127 -60 -26 127 -18
60 -56 117 -34 -43 58 -127 -101
-6 36 -15 9 -72 2 127 -104
-26 -117 -41 127 -127 3 36 100
-7 127 70 -120 31 -15 15 -79
-127 -87 4 0 -24 -65 67 16
4 19 -111 37 -60 -28 15 -71
-3 -71 -127 -8 127 -80 -127 -127
-127 -127 -31 -42 -16 -17 -127 -114
-5 -10 -1 -9 -37 -1 -55 6
-53 -127 -15 -127 -3 -33 124 81
17 -86 127 -127 -127 16 -76 4
23 -53 39 -58 127 0 -38 40
-51 96 66 -7 -52 -13 122 -67
-7 58 99 -90 -126 -1 -24 54
-40 -16 -39 83 33 54 127 106
-27 25 -35 15 48 9 89 18
-51 -24 19 7 -67 73 30 -3
-51 124 -48 -16 3 -71 17 -18
6 30 28 -39 -53 7 127 9
-68 115 82 -54 40 -80 -120 -47
-9 -82 -29 33 13 -29 -50 -57
-7 -70 -85 127 -127 11 -8 11
17 -9 -121 -51 75 23 -23 -6
-97 -11 8 8 -50 33 -19 -75
-127 -6 3 -34 7 -9 -64 28
33 -13 6 -13 29 17 127 -108
-41 -18 -86 -45 -57 76 0 -15
00000000: e142 15ba 27d8 bbbd 8162 4500 fb0b 18f2
00000010: 03b2 7fff eef1 0b81 0bc8 ce6f 04c4 d47f
00000020: f6b3 817f c4e6 7fee 3cc8 75de d53a 819b
00000030: fa24 f109 b802 7f98 e68b d77f 8103 2464
00000040: f97f 4688 1ff1 0fb1 81a9 0400 e8bf 4310
00000050: 0413 9125 c4e4 0fb9 fdb9 81f8 7fb0 8181
00000060: 8181 e1d6 f0ef 818e fbf6 fff7 dbff c906
00000070: cb81 f181 fddf 7c51 11aa 7f81 8110 b404
00000080: 17cb 27c6 7f00 da28 cd60 42f9 ccf3 7abd
00000090: f93a 63a6 82ff e836 d8f0 d953 2136 7f6a
000000a0: e519 dd0f 3009 5912 cde8 1307 bd49 1efd
000000b0: cd7c d0f0 03b9 11ee 061e 1cd9 cb07 7f09
000000c0: bc73 52ca 28b0 88d1 f7ae e321 0de3 cec7
000000d0: f9ba ab7f 810b f80b 11f7 87cd 4b17 e9fa
000000e0: 9ff5 0808 ce21 edb5 81fa 03de 07f7 c01c
000000f0: 21f3 06f3 1d11 7f94 d7ee aad3 c74c 00f1

functional_1/batch_normalization_17/FusedBatchNormV3;functional_1/depthwise_conv2d_8/depthwise;functional_1/depthwise_conv2d_8/BiasAdd;functional_1/depthwise_conv2d_11/depthwise;functional_1/depthwise_conv2d_8/BiasAdd/ReadVariableOp/resource i1 [1, 3, 3, 128]
-18 127 1 -8 24 -18 -37 18
-22 -51 -6 -17 56 -54 -8 -89
6 -80 -127 -127 -70 4 1 -127
-51 -4 -110 3 -25 -15 -7 0
-22 43 8 -2 -66 -85 -1 -15
-100 18 17 -127 -67 8 -92 4
-22 -5 5 -93 -29 28 -84 -127
-127 -6 -17 43 16 -27 51 42
-6 -127 -32 -116 -23 -4 4 -21
-98 -15 -9 6 -127 -127 18 -59
-3 26 -27 8 8 48 44 -42
31 14 -1 -59 -127 57 -59 -95
-59 15 109 -23 -127 -85 -9 -79
6 15 -34 -127 11 -18 -46 -44
-2 11 -35 -127 21 6 -46 -45
65 87 25 -1 -25 -115 1 -127
5 -22 -11 -127 17 0 -22 -2
-32 19 -6 40 12 -31 103 -45
-22 -74 -66 -97 20 -73 -45 -118
-9 91 -6 6 -127 -4 29 -34
-73 2 -10 -8 -50 -41 14 10
25 -95 -56 -34 -22 39 8 -2
-103 3 -33 38 -31 -46 -23 12
6 -1 -34 -6 -55 -114 56 127
5 -96 -113 -127 -127 -3 -3 -19
-64 10 1 -86 -5 -118 -26 -127
-17 127 44 -15 -26 43 12 -117
-93 -38 -25 -127 -10 -102 0 -127
-127 -9 25 -127 25 7 -7 4
-25 -127 -41 -44 -29 28 -2 -84
-16 -1 -19 -92 58 -19 -127 -55
-47 127 -15 -69 -1 -127 8 -44
00000000: ee7f 01f8 18ee db12 eacd faef 38ca f8a7
00000010: 06b0 8181 ba04 0181 cdfc 9203 e7f1 f900
00000020: ea2b 08fe beab fff1 9c12 1181 bd08 a404
00000030: eafb 05a3 e31c ac81 81fa ef2b 10e5 332a
00000040: fa81 e08c e9fc 04eb 9ef1 f706 8181 12c5
00000050: fd1a e508 0830 2cd6 1f0e ffc5 8139 c5a1
00000060: c50f 6de9 81ab f7b1 060f de81 0bee d2d4
00000070: fe0b dd81 1506 d2d3 4157 19ff e78d 0181
00000080: 05ea f581 1100 eafe e013 fa28 0ce1 67d3
00000090: eab6 be9f 14b7 d38a f75b fa06 81fc 1dde
000000a0: b702 f6f8 ced7 0e0a 19a1 c8de ea27 08fe
000000b0: 9903 df26 e1d2 e90c 06ff defa c98e 387f
000000c0: 05a0 8f81 81fd fded c00a 01aa fb8a e681
000000d0: ef7f 2cf1 e62b 0c8b a3da e781 f69a 0081
000000e0: 81f7 1981 1907 f904 e781 d7d4 e31c feac
000000f0: f0ff eda4 3aed 81c9 d17f f1bb ff81 08d4

functional_1/batch_normalization_19/FusedBatchNormV3;functional_1/depthwise_conv2d_9/depthwise;functional_1/depthwise_conv2d_9/BiasAdd;functional_1/depthwise_conv2d_11/depthwise;functional_1/depthwise_conv2d_9/BiasAdd/ReadVariableOp/resource i1 [1, 3, 3, 128]
15 -1 0 -53 19 8 0 -68
-3 -114 102 -14 127 -127 -33 -17
2 -56 -30 -127 6 -96 -16 -69
-11 -8 -112 -63 -34 -3 17 -9
-105 -27 -21 -94 -127 -2 18 -34
-16 -22 -55 127 19 -33 1 3
-72 -44 6 -16 34 36 3 -127
67 -25 0 -47 23 -114 -19 -3
85 127 -16 -51 -127 -37 -45 -8
-127 -5 17 42 -4 25 -127 88
-13 -74 0 15 -27 -11 -127 12
49 -50 18 -109 -68 -4 65 -30
-66 127 27 -127 -71 -14 -107 -102
9 -13 -4 -61 -9 90 -3 -119
12 23 -32 -43 38 -127 -124 11
-68 -2 111 -76 -31 -8 23 -4
-11 -26 26 -46 -113 42 -44 -28
-50 -50 -23 13 -10 -99 32 20
4 25 19 -51 6 -32 -3 -58
10 -127 -127 34 -127 -19 -59 -52
-90 -50 -115 -86 -9 18 0 -10
-30 7 -127 -26 -2 14 -15 20
-127 -11 -54 -51 79 -127 -4 -107
127 39 14 12 -127 -66 16 -40
51 86 -115 -115 -55 -5 -74 -127
-18 -127 12 3 -64 24 -124 127
23 -48 13 -8 22 2 -32 -22
127 3 -55 -71 -82 -5 63 6
-91 -9 44 -127 -52 -83 -127 -127
127 26 -25 29 55 44 4 -6
-32 -29 12 -127 54 15 -127 -34
13 -69 -30 -5 5 -32 -25 -73
00000000: 0fff 00cb 1308 00bc fd8e 66f2 7f81 dfef
00000010: 02c8 e281 06a0 f0bb f5f8 90c1 defd 11f7
00000020: 97e5 eba2 81fe 12de f0ea c97f 13df 0103
00000030: b8d4 06f0 2224 0381 43e7 00d1 178e edfd
00000040: 557f f0cd 81db d3f8 81fb 112a fc19 8158
00000050: f3b6 000f e5f5 810c 31ce 1293 bcfc 41e2
00000060: be7f 1b81 b9f2 959a 09f3 fcc3 f75a fd89
00000070: 0c17 e0d5 2681 840b bcfe 6fb4 e1f8 17fc
00000080: f5e6 1ad2 8f2a d4e4 cece e90d f69d 2014
00000090: 0419 13cd 06e0 fdc6 0a81 8122 81ed c5cc
000000a0: a6ce 8daa f712 00f6 e207 81e6 fe0e f114
000000b0: 81f5 cacd 4f81 fc95 7f27 0e0c 81be 10d8
000000c0: 3356 8d8d c9fb b681 ee81 0c03 c018 847f
000000d0: 17d0 0df8 1602 e0ea 7f03 c9b9 aefb 3f06
000000e0: a5f7 2c81 ccad 8181 7f1a e71d 372c 04fa
000000f0: e0e3 0c81 360f 81de 0dbb e2fb 05e0 e7b7

functional_1/batch_normalization_21/FusedBatchNormV3;functional_1/depthwise_conv2d_10/depthwise;functional_1/depthwise_conv2d_10/BiasAdd;functional_1/depthwise_conv2d_11/depthwise;functional_1/depthwise_conv2d_10/BiasAdd/ReadVariableOp/resource i1 [1, 3, 3, 128]
-83 -127 -10 -60 -124 -3 -127 -127
-93 -127 12 -84 -127 82 -53 -13
-72 -97 -8 -127 -2 -34 -39 -35
-127 -20 5 2 -3 -60 55 12
26 -4 -15 9 21 14 -63 17
31 4 23 -127 -93 -3 11 -127
-23 -22 6 -72 -39 -33 -48 -43
-99 -27 -35 1 26 18 2 114
15 24 0 127 20 -14 -127 -22
-127 -30 -39 -7 -7 -11 -4 -127
11 -6 35 -126 -127 10 30 44
7 -127 32 -98 -86 -57 -52 1
-1 3 0 -71 -28 -127 -127 -53
-31 -127 1 -24 -3 -18 -124 3
-23 37 127 13 -5 -127 -127 -60
20 0 2 -7 80 27 5 -9
-7 -72 -12 -56 17 7 -115 -119
11 -23 -62 -127 -13 127 -51 23
-127 -18 12 -93 -19 -89 -59 -127
-117 -11 25 -3 24 -127 127 127
6 4 -127 -35 -1 -2 1 6
127 -12 -11 -11 47 -11 -41 -75
78 31 8 -127 -127 -22 -20 -127
26 -21 -33 -68 -127 121 1 127
127 127 26 -88 -20 -14 -74 -5
-115 -32 -80 20 22 -17 44 -15
-44 -127 -127 -127 18 -48 127 -83
127 7 -10 -127 0 -65 -127 1
0 123 5 -91 -7 -24 -85 1
2 -77 -39 -15 -27 -25 -127 -33
34 127 99 -45 127 -14 -30 -96
8 -127 -5 -77 75 -28 -32 -57
00000000: ad81 f6c4 84fd 8181 a381 0cac 8152 cbf3
00000010: b89f f881 fede d9dd 81ec 0502 fdc4 370c
00000020: 1afc f109 150e c111 1f04 1781 a3fd 0b81
00000030: e9ea 06b8 d9df d0d5 9de5 dd01 1a12 0272
00000040: 0f18 007f 14f2 81ea 81e2 d9f9 f9f5 fc81
00000050: 0bfa 2382 810a 1e2c 0781 209e aac7 cc01
00000060: ff03 00b9 e481 81cb e181 01e8 fdee 8403
00000070: e925 7f0d fb81 81c4 1400 02f9 501b 05f7
00000080: f9b8 f4c8 1107 8d89 0be9 c281 f37f cd17
00000090: 81ee 0ca3 eda7 c581 8bf5 19fd 1881 7f7f
000000a0: 0604 81dd fffe 0106 7ff4 f5f5 2ff5 d7b5
000000b0: 4e1f 0881 81ea ec81 1aeb dfbc 8179 017f
000000c0: 7f7f 1aa8 ecf2 b6fb 8de0 b014 16ef 2cf1
000000d0: d481 8181 12d0 7fad 7f07 f681 00bf 8101
000000e0: 007b 05a5 f9e8 ab01 02b3 d9f1 e5e7 81df
000000f0: 227f 63d3 7ff2 e2a0 0881 fbb3 4be4 e0c7

functional_1/batch_normalization_23/FusedBatchNormV3;functional_1/depthwise_conv2d_11/depthwise;functional_1/depthwise_conv2d_11/BiasAdd;functional_1/depthwise_conv2d_11/BiasAdd/ReadVariableOp/resource i1 [1, 3, 3, 128]
0 13 -12 18 -6 -5 -22 21
-53 0 -12 2 -89 36 45 101
-5 -23 7 5 -2 -21 -127 25
-7 2 -35 21 19 -51 -91 -2
17 6 7 -24 0 -34 -13 7
-115 -9 -6 1 -4 20 -5 -8
51 -104 -15 -35 9 3 10 -81
-127 -4 -127 -8 -7 -19 -5 -26
-9 34 7 -21 4 39 -17 10
-1 5 -127 -3 -107 5 -127 13
8 -7 42 30 -22 -69 -6 71
-35 6 -88 11 -43 -127 127 -43
-3 -23 3 -127 -26 -10 26 -8
-127 -13 -20 -127 8 -24 -25 -127
0 -127 -109 -2 -72 -127 63 -127
-127 -48 -44 3 -30 12 -4 50
15 -51 0 -13 -127 76 -37 -6
-2 -18 -62 -17 -73 104 -80 127
4 -40 -37 18 42 -2 -60 5
5 -34 5 -32 -36 6 16 19
4 33 -4 -59 60 -108 62 8
21 12 5 1 -59 -90 9 10
127 -127 -99 0 -20 -16 -66 -35
-48 27 -41 10 7 -59 -127 12
6 -2 18 10 -14 108 25 28
-78 -48 -13 -8 -11 -17 -45 -20
27 -19 -25 -24 -3 -127 -64 42
-6 -43 -40 -17 -127 -85 -18 -21
-29 -24 21 -123 3 -1 75 -35
5 -3 101 -9 -6 7 6 -107
17 -118 -127 2 5 -36 88 -67
-80 -36 -47 14 -16 -1 -43 -34
00000000: 000d f412 fafb ea15 cb00 f402 a724 2d65
00000010: fbe9 0705 feeb 8119 f902 dd15 13cd a5fe
00000020: 1106 07e8 00de f307 8df7 fa01 fc14 fbf8
00000030: 3398 f1dd 0903 0aaf 81fc 81f8 f9ed fbe6
00000040: f722 07eb 0427 ef0a ff05 81fd 9505 810d
00000050: 08f9 2a1e eabb fa47 dd06 a80b d581 7fd5
00000060: fde9 0381 e6f6 1af8 81f3 ec81 08e8 e781
00000070: 0081 93fe b881 3f81 81d0 d403 e20c fc32
00000080: 0fcd 00f3 814c dbfa feee c2ef b768 b07f
00000090: 04d8 db12 2afe c405 05de 05e0 dc06 1013
000000a0: 0421 fcc5 3c94 3e08 150c 0501 c5a6 090a
000000b0: 7f81 9d00 ecf0 bedd d01b d70a 07c5 810c
000000c0: 06fe 120a f26c 191c b2d0 f3f8 f5ef d3ec
000000d0: 1bed e7e8 fd81 c02a fad5 d8ef 81ab eeeb
000000e0: e3e8 1585 03ff 4bdd 05fd 65f7 fa07 0695
000000f0: 118a 8102 05dc 58bd b0dc d10e f0ff d5de

functional_1/batch_normalization_25/FusedBatchNormV3;functional_1/depthwise_conv2d_12/depthwise;functional_1/depthwise_conv2d_12/BiasAdd;functional_1/conv2d_13/Conv2D;functional_1/depthwise_conv2d_12/BiasAdd/ReadVariableOp/resource i1 [1, 3, 3, 256]
40 -41 -13 4 -3 -40 -113 -5
34 -127 -19 73 -58 -37 -44 20
-69 -127 -127 -127 -75 -23 -41 2
-105 -8 -7 8 20 -127 -7 -1
-124 -4 -127 -127 -11 -127 -114 -45
2 7 -16 62 19 -127 -127 -101
-25 21 -127 -53 2 -98 -87 -4
-121 7 15 8 -17 -39 -7 -127
6 -127 -85 -30 -87 -45 0 -3
-6 -127 -43 -42 -127 -20 -127 -5
-127 -127 -10 -109 -119 18 -5 -127
-49 -34 0 1 -113 -19 -48 -90
9 22 -65 -123 13 -13 23 -7
-17 28 -2 -127 -65 -127 -48 -8
-1 -49 -11 29 6 -5 -30 -6
40 1 12 -127 -127 -1 -26 -22
34 22 -5 -89 30 -59 -4 -127
7 -103 2 -119 11 -59 13 -11
14 -27 -127 34 29 -127 -102 -127
-127 6 -127 28 -44 9 -40 1
-27 32 -9 -127 -6 -127 -127 -127
0 -49 -127 -127 12 9 -6 20
6 -8 17 -127 12 13 -3 -1
-101 1 -35 -10 -28 1 9 11
-127 -20 20 -31 11 0 -8 -127
0 24 -22 6 14 15 -127 5
-76 6 -127 -127 -7 -2 13 35
22 -5 -121 -127 -72 -32 -2 12
-64 -23 6 38 -127 -127 36 5
1 8 -37 -127 7 -115 -65 9
11 -2 -127 3 12 -16 -117 7
-3 -10 -127 -6 4 -54 -127 -17
00000000: 28d7 f304 fdd8 8ffb 2281 ed49 c6db d414
00000010: bb81 8181 b5e9 d702 97f8 f908 1481 f9ff
00000020: 84fc 8181 f581 8ed3 0207 f03e 1381 819b
00000030: e715 81cb 029e a9fc 8707 0f08 efd9 f981
00000040: 0681 abe2 a9d3 00fd fa81 d5d6 81ec 81fb
00000050: 8181 f693 8912 fb81 cfde 0001 8fed d0a6
00000060: 0916 bf85 0df3 17f9 ef1c fe81 bf81 d0f8
00000070: ffcf f51d 06fb e2fa 2801 0c81 81ff e6ea
00000080: 2216 fba7 1ec5 fc81 0799 0289 0bc5 0df5
00000090: 0ee5 8122 1d81 9a81 8106 811c d409 d801
000000a0: e520 f781 fa81 8181 00cf 8181 0c09 fa14
000000b0: 06f8 1181 0c0d fdff 9b01 ddf6 e401 090b
000000c0: 81ec 14e1 0b00 f881 0018 ea06 0e0f 8105
000000d0: b406 8181 f9fe 0d23 16fb 8781 b8e0 fe0c
000000e0: c0e9 0626 8181 2405 0108 db81 078d bf09
000000f0: 0bfe 8103 0cf0 8b07 fdf6 81fa 04ca 81ef

functional_1/batch_normalization_3/FusedBatchNormV3;functional_1/depthwise_conv2d_1/depthwise;functional_1/depthwise_conv2d_1/BiasAdd;functional_1/depthwise_conv2d_1/BiasAdd/ReadVariableOp/resource i1 [1, 3, 3, 16]
-35 -19 -33 -109 -127 -46 -71 116
-42 43 -57 62 -79 0 -89 -59
127 45 5 -94 -117 119 16 -62
-113 71 -22 43 -101 72 63 -56
59 47 21 -18 14 106 91 20
-89 43 25 -20 -81 90 -4 17
96 -114 -114 -9 -71 72 -127 113
107 91 6 98 16 43 -114 -127
111 -19 -127 -32 -56 127 82 49
54 127 -127 127 25 127 51 -116
43 73 -36 -47 30 74 91 -8
3 53 1 11 25 82 44 11
125 -127 -24 81 7 90 -50 -5
78 53 -9 39 94 39 28 -86
88 -76 -65 127 60 14 49 127
127 69 2 76 127 98 -127 -73
30 4 -67 52 59 -112 36 -112
71 30 -42 53 57 51 84 5
00000000: dded df93 81d2 b974 d62b c73e b100 a7c5
00000010: 7f2d 05a2 8b77 10c2 8f47 ea2b 9b48 3fc8
00000020: 3b2f 15ee 0e6a 5b14 a72b 19ec af5a fc11
00000030: 608e 8ef7 b948 8171 6b5b 0662 102b 8e81
00000040: 6fed 81e0 c87f 5231 367f 817f 197f 338c
00000050: 2b49 dcd1 1e4a 5bf8 0335 010b 1952 2c0b
00000060: 7d81 e851 075a cefb 4e35 f727 5e27 1caa
00000070: 58b4 bf7f 3c0e 317f 7f45 024c 7f62 81b7
00000080: 1e04 bd34 3b90 2490 471e d635 3933 5405

functional_1/batch_normalization_5/FusedBatchNormV3;functional_1/depthwise_conv2d_2/depthwise;functional_1/depthwise_conv2d_2/BiasAdd;functional_1/depthwise_conv2d_3/depthwise;functional_1/depthwise_conv2d_2/BiasAdd/ReadVariableOp/resource i1 [1, 3, 3, 32]
54 -57 -4 -27 7 56 -72 -52
52 -88 74 -23 95 53 -69 -3
-59 52 15 -29 51 -26 -104 51
16 85 5 -67 75 -51 -11 -11
-12 -96 -102 -35 15 119 -127 45
127 97 50 -23 127 -35 8 -127
94 -120 -52 -60 -44 24 100 90
29 15 12 -91 -39 -72 73 8
11 -29 -24 -16 -18 -107 -15 7
-15 -29 -76 -43 -12 -34 36 -61
-88 -29 13 45 -44 -1 40 -85
-59 -28 41 -50 -78 -23 -14 -1
-33 1 -46 3 -17 56 -46 -127
44 -127 -38 66 -9 127 -1 -30
-11 -22 -58 -69 127 -127 42 109
57 17 -70 -36 127 78 9 -47
-55 -19 127 127 119 127 54 69
79 0 -127 89 -122 -35 127 -87
21 -127 127 -68 102 111 -127 35
127 -94 37 -127 31 12 127 112
38 -18 40 -13 -78 -94 -12 73
-35 111 3 -28 -54 -59 20 55
-50 18 -55 -10 -22 1 23 -127
24 -12 127 -29 -114 -67 39 -23
-127 59 -1 -4 -6 9 55 -33
-85 -11 -83 25 -47 22 58 -33
51 -3 38 -42 -5 -44 50 -50
-14 -127 18 101 52 127 -60 33
-86 127 77 46 -127 -18 95 -6
-89 -122 -10 127 -20 -42 22 -94
-127 -42 -72 -127 110 48 6 -73
-5 32 18 74 -13 100 5 -127
00000000: 36c7 fce5 0738 b8cc 34a8 4ae9 5f35 bbfd
00000010: c534 0fe3 33e6 9833 1055 05bd 4bcd f5f5
00000020: f4a0 9add 0f77 812d 7f61 32e9 7fdd 0881
00000030: 5e88 ccc4 d418 645a 1d0f 0ca5 d9b8 4908
00000040: 0be3 e8f0 ee95 f107 f1e3 b4d5 f4de 24c3
00000050: a8e3 0d2d d4ff 28ab c5e4 29ce b2e9 f2ff
00000060: df01 d203 ef38 d281 2c81 da42 f77f ffe2
00000070: f5ea c6bb 7f81 2a6d 3911 badc 7f4e 09d1
00000080: c9ed 7f7f 777f 3645 4f00 8159 86dd 7fa9
00000090: 1581 7fbc 666f 8123 7fa2 2581 1f0c 7f70
000000a0: 26ee 28f3 b2a2 f449 dd6f 03e4 cac5 1437
000000b0: ce12 c9f6 ea01 1781 18f4 7fe3 8ebd 27e9
000000c0: 813b fffc fa09 37df abf5 ad19 d116 3adf
000000d0: 33fd 26d6 fbd4 32ce f281 1265 347f c421
000000e0: aa7f 4d2e 81ee 5ffa a786 f67f ecd6 16a2
000000f0: 81d6 b881 6e30 06b7 fb20 124a f364 0581

functional_1/batch_normalization_7/FusedBatchNormV3;functional_1/depthwise_conv2d_3/depthwise;functional_1/depthwise_conv2d_3/BiasAdd;functional_1/depthwise_conv2d_3/BiasAdd/ReadVariableOp/resource i1 [1, 3, 3, 32]
-54 70 -27 42 -103 -48 71 50
18 88 20 -5 52 63 2 84
56 67 93 -38 109 -42 -23 76
-56 4 -99 115 62 36 64 -27
49 -50 -66 74 -96 -47 42 91
5 100 28 32 77 97 -15 104
-35 103 -40 -94 127 -57 -70 98
-93 -127 -66 127 86 99 94 -46
30 -78 -35 21 -12 -9 -48 36
-1 41 22 52 45 40 -7 80
-91 63 -84 -45 13 -36 -48 43
-47 -114 -12 -3 15 62 49 -16
-127 108 -68 84 -127 -70 127 70
73 127 40 -39 61 96 31 -28
123 77 127 -73 108 -100 -72 65
-73 110 -127 88 88 77 94 -71
50 19 -127 127 -127 -127 97 127
120 109 127 21 127 127 94 -76
92 127 35 -127 88 -127 -127 127
-127 14 15 60 127 127 127 -127
84 -127 -94 65 -44 -39 -5 52
80 16 87 22 77 27 59 -88
-7 86 -117 -57 -45 -71 -43 79
-65 -113 70 -81 61 86 69 -60
-90 61 -42 37 -41 -16 44 31
59 46 21 55 22 33 62 -100
119 5 46 -23 14 -75 -63 7
-33 110 -86 15 51 60 20 -54
25 38 -91 76 -57 -63 105 32
127 47 87 127 59 61 127 -127
127 49 69 -34 -58 -81 -69 46
-70 115 71 -79 52 58 62 -78
00000000: ca46 e52a 99d0 4732 1258 14fb 343f 0254
00000010: 3843 5dda 6dd6 e94c c804 9d73 3e24 40e5
00000020: 31ce be4a a0d1 2a5b 0564 1c20 4d61 f168
00000030: dd67 d8a2 7fc7 ba62 a381 be7f 5663 5ed2
00000040: 1eb2 dd15 f4f7 d024 ff29 1634 2d28 f950
00000050: a53f acd3 0ddc d02b d18e f4fd 0f3e 31f0
00000060: 816c bc54 81ba 7f46 497f 28d9 3d60 1fe4
00000070: 7b4d 7fb7 6c9c b841 b76e 8158 584d 5eb9
00000080: 3213 817f 8181 617f 786d 7f15 7f7f 5eb4
00000090: 5c7f 2381 5881 817f 810e 0f3c 7f7f 7f81
000000a0: 5481 a241 d4d9 fb34 5010 5716 4d1b 3ba8
000000b0: f956 8bc7 d3b9 d54f bf8f 46af 3d56 45c4
000000c0: a63d d625 d7f0 2c1f 3b2e 1537 1621 3e9c
000000d0: 7705 2ee9 0eb5 c107 df6e aa0f 333c 14ca
000000e0: 1926 a54c c7c1 6920 7f2f 577f 3b3d 7f81
000000f0: 7f31 45de c6af bb2e ba73 47b1 343a 3eb2

functional_1/batch_normalization_9/FusedBatchNormV3;functional_1/depthwise_conv2d_4/depthwise;functional_1/depthwise_conv2d_4/BiasAdd;functional_1/depthwise_conv2d_5/depthwise;functional_1/depthwise_conv2d_4/BiasAdd/ReadVariableOp/resource i1 [1, 3, 3, 64]
-37 9 95 24 18 54 100 -63
-25 98 32 -59 -87 -127 12 91
9 26 42 75 44 -102 -10 127
-71 -127 -102 36 12 -52 -19 10
85 -37 -93 -60 21 109 78 -80
-24 -41 31 -81 -55 7 51 -127
-127 -14 -76 -32 19 -18 104 12
116 62 61 58 -66 43 -14 -120
-54 26 -6 10 30 -39 -127 42
-4 9 -30 -27 44 -92 -127 127
19 -109 -5 -36 -127 -72 26 121
48 -23 42 -9 -114 -29 127 10
127 -17 -64 -69 109 127 -38 12
-7 -124 25 86 -120 -51 127 -74
-88 -25 17 -4 -72 -2 127 -82
-40 9 127 127 -58 -33 -38 -20
83 -6 -70 -11 -91 -43 -33 86
101 7 -19 49 1 -36 -7 19
-18 -46 34 -2 47 -34 -61 96
-6 -50 90 -101 63 -64 -75 37
-37 -19 127 -57 21 59 41 -76
14 -40 21 68 -60 7 90 -57
-1 51 52 -26 -38 11 25 14
-26 -82 -24 -48 -47 -85 -52 107
-45 -21 15 -20 -46 127 105 -123
-33 79 83 6 -103 -90 49 -12
127 -105 -62 110 -41 -100 -10 -18
-127 16 -127 16 97 40 47 -127
48 -92 -74 -40 -86 26 2 35
34 -47 26 -58 -10 109 -25 11
13 -86 89 111 -62 -6 -53 27
127 -38 14 54 -18 102 -53 115
00000000: db09 5f18 1236 64c1 e762 20c5 a981 0c5b
00000010: 091a 2a4b 2c9a f67f b981 9a24 0ccc ed0a
00000020: 55db a3c4 156d 4eb0 e8d7 1faf c907 3381
00000030: 81f2 b4e0 13ee 680c 743e 3d3a be2b f288
00000040: ca1a fa0a 1ed9 812a fc09 e2e5 2ca4 817f
00000050: 1393 fbdc 81b8 1a79 30e9 2af7 8ee3 7f0a
00000060: 7fef c0bb 6d7f da0c f984 1956 88cd 7fb6
00000070: a8e7 11fc b8fe 7fae d809 7f7f c6df daec
00000080: 53fa baf5 a5d5 df56 6507 ed31 01dc f913
00000090: eed2 22fe 2fde c360 face 5a9b 3fc0 b525
000000a0: dbed 7fc7 153b 29b4 0ed8 1544 c407 5ac7
000000b0: ff33 34e6 da0b 190e e6ae e8d0 d1ab cc6b
000000c0: d3eb 0fec d27f 6985 df4f 5306 99a6 31f4
000000d0: 7f97 c26e d79c f6ee 8110 8110 6128 2f81
000000e0: 30a4 b6d8 aa1a 0223 22d1 1ac6 f66d e70b
000000f0: 0daa 596f c2fa cb1b 7fda 0e36 ee66 cb73

functional_1/dense/MatMul i1 [2, 256] scale=0.0045989356 zero_point=0
0.07358297 0.13796806 0.059786163 -0.07358297 -0.013796806 -0.14716594 0.10117658 -0.07358297
-0.059786163 0.0 -0.036791485 -0.018395742 -0.055187225 -0.36791486 0.14716594 -0.10117658
-0.091978714 -0.045989357 -0.48288825 -0.013796806 -0.009197871 -0.009197871 0.04139042 -0.03219255
0.091978714 0.036791485 -0.091978714 0.027593613 -0.087379776 -0.08278084 0.07818191 -0.07358297
0.036791485 0.07818191 0.009197871 0.045989357 0.0643851 0.0643851 0.03219255 0.055187225
0.055187225 0.055187225 0.027593613 0.0045989356 0.23914465 0.018395742 -0.059786163 -0.26673827
-0.10117658 -0.0643851 0.055187225 0.10117658 0.05058829 0.07358297 0.018395742 -0.0045989356
-0.045989357 -0.05058829 -0.13796806 -0.11037445 0.13796806 -0.05058829 0.0643851 -0.05058829
0.05058829 -0.07818191 0.018395742 -0.036791485 -0.009197871 -0.0045989356 0.059786163 0.036791485
-0.3219255 0.3633159 -0.059786163 0.0045989356 -0.05058829 -0.13796806 0.091978714 -0.13336913
-0.07358297 0.07358297 -0.059786163 -0.022994678 0.10577552 -0.087379776 -0.059786163 -0.022994678
-0.018395742 0.07358297 0.10117658 -0.35411805 0.13336913 0.018395742 -0.036791485 -0.07818191
0.059786163 -0.0643851 0.08278084 0.036791485 -0.0643851 0.027593613 -0.06898403 -0.03219255
0.04139042 -0.05058829 -0.013796806 -0.0045989356 -0.32652444 -0.05058829 -0.08278084 -0.0045989356
0.0 -0.40470633 0.027593613 -0.013796806 0.08278084 0.31732655 -0.10577552 0.036791485
-0.013796806 0.04139042 0.10117658 -0.045989357 0.022994678 -0.0643851 0.06898403 0.05058829
0.04139042 -0.0045989356 -0.0045989356 -0.045989357 -0.009197871 0.0 0.26673827 0.091978714
0.04139042 0.018395742 0.009197871 -0.013796806 -0.10117658 0.022994678 0.24374358 0.022994678
-0.11037445 -0.07818191 0.11497339 -0.06898403 0.08278084 0.0 -0.096577644 -0.013796806
0.0045989356 -0.013796806 -0.022994678 -0.53347653 -0.11957233 -0.11497339 -0.05058829 -0.022994678
-0.04139042 0.027593613 0.22534785 0.06898403 -0.04139042 -0.03219255 0.10577552 0.087379776
-0.059786163 0.11957233 -0.018395742 -0.04139042 -0.08278084 -0.087379776 -0.022994678 -0.022994678
-0.07818191 -0.2713372 0.059786163 0.07358297 -0.013796806 0.055187225 0.059786163 -0.055187225
-0.07818191 -0.018395742 -0.055187225 -0.0643851 -0.11037445 0.009197871 -0.10577552 -0.06898403
0.022994678 -0.11957233 0.009197871 0.07358297 0.03219255 -0.0045989356 -0.027593613 -0.44609675
0.013796806 0.0045989356 0.009197871 -0.013796806 -0.03219255 0.07818191 0.03219255 -0.059786163
-0.06898403 -0.096577644 -0.018395742 -0.03219255 0.055187225 0.11497339 -0.009197871 -0.05058829
0.045989357 0.0 -0.059786163 -0.07818191 0.022994678 -0.3219255 0.28513402 0.018395742
-0.04139042 -0.08278084 0.022994678 -0.022994678 0.07818191 -0.018395742 0.059786163 -0.06898403
0.055187225 0.03219255 -0.07818191 -0.28513402 0.059786163 0.009197871 -0.045989357 -0.06898403
0.045989357 0.091978714 -0.07358297 0.0 0.37251377 0.018395742 0.04139042 0.25294146
0.17475955 0.11037445 0.0045989356 0.04139042 -0.03219255 0.096577644 0.045989357 -0.009197871
00000000: 101e 0df0 fde0 16f0 f300 f8fc f4b0 20ea
00000010: ecf6 97fd fefe 09f9 1408 ec06 edee 11f0
00000020: 0811 020a 0e0e 070c 0c0c 0601 3404 f3c6
00000030: eaf2 0c16 0b10 04ff f6f5 e2e8 1ef5 0ef5
00000040: 0bef 04f8 feff 0d08 ba4f f301 f5e2 14e3
00000050: f010 f3fb 17ed f3fb fc10 16b3 1d04 f8ef
00000060: 0df2 1208 f206 f1f9 09f5 fdff b9f5 eeff
00000070: 00a8 06fd 1245 e908 fd09 16f6 05f2 0f0b
00000080: 09ff fff6 fe00 3a14 0904 02fd ea05 3505
00000090: e8ef 19f1 1200 ebfd 01fd fb8c e6e7 f5fb
000000a0: f706 310f f7f9 1713 f31a fcf7 eeed fbfb
000000b0: efc5 0d10 fd0c 0df4 effc f4f2 e802 e9f1
000000c0: 05e6 0210 07ff fa9f 0301 02fd f911 07f3
000000d0: f1eb fcf9 0c19 fef5 0a00 f3ef 05ba 3e04
000000e0: f7ee 05fb 11fc 0df1 0c07 efc2 0d02 f6f1
000000f0: 0a14 f000 5104 0937 2618 0109 f915 0afe

functional_1/conv2d/Conv2D i1 [8, 3, 3, 3]
-12 19 26 65 53 80 34 23
-17 -55 -54 -78 -7 2 13 53
36 65 -47 15 25 -29 -127 -23
24 -39 -27 58 -81 29 75 -55
41 37 -82 17 49 -79 52 64
-62 4 -11 -46 -42 76 -7 17
19 -127 55 -47 -92 77 124 -18
-36 72 -107 -50 99 -34 -61 2
-127 -76 85 46 -66 47 -40 22
64 45 -105 104 -17 -2 100 -39
-100 -1 71 -85 -25 95 -23 -19
61 -64 -69 93 -25 -124 123 -65
-4 85 3 -31 120 -96 -26 127
24 -52 38 -104 48 -14 -99 117
57 -17 83 17 -7 127 -8 3
126 9 -46 35 28 5 54 30
34 -3 14 24 -5 -113 -32 -105
2 80 -121 -12 88 -50 51 -29
-109 -127 44 -114 -36 98 -66 -24
63 -37 -25 -19 -62 -35 12 0
91 -40 18 -49 -12 66 -65 -58
15 -26 -4 64 -7 -28 -16 -127
-61 79 -68 -39 -3 -14 -7 78
-112 -7 32 -58 62 -62 -37 57
-35 -57 103 4 -26 127 -101 40
64 -39 3 75 5 -31 -10 -34
52 74 29 -125 96 13 -55 12
00000000: f413 1a41 3550 2217 efc9 cab2 f902 0d35
00000010: 2441 d10f 19e3 81e9 18d9 e53a af1d 4bc9
00000020: 2925 ae11 31b1 3440 c204 f5d2 d64c f911
00000030: 1381 37d1 a44d 7cee dc48 95ce 63de c302
00000040: 81b4 552e be2f d816 402d 9768 effe 64d9
00000050: 9cff 47ab e75f e9ed 3dc0 bb5d e784 7bbf
00000060: fc55 03e1 78a0 e67f 18cc 2698 30f2 9d75
00000070: 39ef 5311 f97f f803 7e09 d223 1c05 361e
00000080: 22fd 0e18 fb8f e097 0250 87f4 58ce 33e3
00000090: 9381 2c8e dc62 bee8 3fdb e7ed c2dd 0c00
000000a0: 5bd8 12cf f442 bfc6 0fe6 fc40 f9e4 f081
000000b0: c34f bcd9 fdf2 f94e 90f9 20c6 3ec2 db39
000000c0: ddc7 6704 e67f 9b28 40d9 034b 05e1 f6de
000000d0: 344a 1d83 600d c90c

functional_1/conv2d_1/Conv2D i1 [16, 1, 1, 8]
-14 -41 -82 -64 127 117 -17 -73
11 -33 127 40 47 37 8 -46
2 37 17 -127 -18 26 10 32
11 127 -80 7 -39 40 -69 40
11 -80 61 -40 -127 -60 -90 69
14 54 51 52 -66 -22 79 127
-30 -63 -34 57 8 -6 -20 127
-127 -73 43 61 15 90 -49 -72
9 -109 50 58 -127 -84 52 8
127 -11 -18 -6 -7 13 18 2
127 -71 18 -34 59 -20 30 7
-6 46 -14 43 3 25 127 18
0 52 -88 -79 -127 -90 66 -4
5 -93 -127 -106 -7 -18 -27 -32
127 -19 -45 11 59 67 85 51
35 -33 -127 24 -11 -49 21 -116
00000000: f2d7 aec0 7f75 efb7 0bdf 7f28 2f25 08d2
00000010: 0225 1181 ee1a 0a20 0b7f b007 d928 bb28
00000020: 0bb0 3dd8 81c4 a645 0e36 3334 beea 4f7f
00000030: e2c1 de39 08fa ec7f 81b7 2b3d 0f5a cfb8
00000040: 0993 323a 81ac 3408 7ff5 eefa f90d 1202
00000050: 7fb9 12de 3bec 1e07 fa2e f22b 0319 7f12
00000060: 0034 a8b1 81a6 42fc 05a3 8196 f9ee e5e0
00000070: 7fed d30b 3b43 5533 23df 8118 f5cf 158c

functional_1/conv2d_2/Conv2D i1 [32, 1, 1, 16]
6 -7 -48 -9 -35 50 53 -3
15 127 45 50 -32 25 24 22
20 -86 10 -18 -55 31 17 4
-5 11 -5 2 18 -35 -9 127
-24 -43 -9 2 -69 127 -39 15
49 17 13 29 38 -44 6 8
16 84 -127 -6 -24 5 6 12
-41 0 26 -74 60 17 -3 -109
-15 -29 -33 -34 1 -8 23 -39
13 27 -123 34 4 26 -127 -29
67 127 8 15 39 -11 30 -43
-13 42 9 -64 -28 -62 17 -51
-91 -16 -82 -66 27 23 -6 6
73 -1 22 58 -127 26 15 -55
-59 57 -38 -61 -119 -65 -59 10
72 -45 127 -29 53 -30 103 -29
-44 5 127 -12 30 -43 -20 43
68 -12 28 33 -9 -14 -8 -22
-6 6 -1 15 10 -8 -9 -23
-12 127 1 -5 -22 31 24 24
15 33 3 -39 -92 -77 -59 -40
34 36 23 -37 127 121 12 -8
36 84 -88 6 127 -28 -54 -54
-92 -2 -68 119 0 -8 -9 -8
-125 -32 -40 -26 -74 127 -19 -50
56 -115 -5 120 57 -89 4 7
-24 -32 -16 -15 -5 -2 -81 40
-18 -6 -6 -38 34 127 -9 -37
29 10 -1 -87 0 -127 -26 -51
-82 86 53 22 79 64 18 28
-89 -35 -127 5 9 -13 -3 103
-26 9 -6 -12 14 18 -13 16
00000000: 06f9 d0f7 dd32 35fd 0f7f 2d32 e019 1816
00000010: 14aa 0aee c91f 1104 fb0b fb02 12dd f77f
00000020: e8d5 f702 bb7f d90f 3111 0d1d 26d4 0608
00000030: 1054 81fa e805 060c d700 1ab6 3c11 fd93
00000040: f1e3 dfde 01f8 17d9 0d1b 8522 041a 81e3
00000050: 437f 080f 27f5 1ed5 f32a 09c0 e4c2 11cd
00000060: a5f0 aebe 1b17 fa06 49ff 163a 811a 0fc9
00000070: c539 dac3 89bf c50a 48d3 7fe3 35e2 67e3
00000080: d405 7ff4 1ed5 ec2b 44f4 1c21 f7f2 f8ea
00000090: fa06 ff0f 0af8 f7e9 f47f 01fb ea1f 1818
000000a0: 0f21 03d9 a4b3 c5d8 2224 17db 7f79 0cf8
000000b0: 2454 a806 7fe4 caca a4fe bc77 00f8 f7f8
000000c0: 83e0 d8e6 b67f edce 388d fb78 39a7 0407
000000d0: e8e0 f0f1 fbfe af28 eefa fada 227f f7db
000000e0: 1d0a ffa9 0081 e6cd ae56 3516 4f40 121c
000000f0: a7dd 8105 09f3 fd67 e609 faf4 0e12 f310

functional_1/conv2d_3/Conv2D i1 [32, 1, 1, 32]
-20 25 -45 9 -13 -19 23 -9
-21 -72 -51 -112 -39 -22 -41 39
-64 48 -49 2 -24 1 -15 33
-12 14 -37 -8 43 127 -25 -14
127 -43 -26 4 6 2 29 -61
-2 -90 14 -60 -73 -21 -2 45
-7 -8 13 -1 -83 -45 -11 -33
30 4 -4 -39 -60 -26 -4 10
28 19 -45 70 2 14 32 9
36 10 7 1 4 127 -67 -6
16 57 -12 -24 14 51 10 6
9 -14 44 2 -8 -14 25 -30
-10 -107 -93 21 7 -12 -127 90
-54 43 -59 110 -103 41 -112 -54
-53 -8 -94 58 47 101 -71 -32
-38 -77 20 -21 51 2 64 12
49 8 3 -27 109 -25 -31 -3
-12 -21 14 19 54 -20 -36 -50
27 16 127 -7 -17 -20 50 -4
-31 42 45 -5 -15 -3 -25 97
4 26 1 -14 95 43 46 4
2 -50 -48 26 29 60 -5 7
75 -15 20 -26 -16 66 127 -26
101 -54 98 -43 58 43 -115 33
63 -28 -51 -16 17 54 -34 -1
89 71 -24 115 -58 8 5 -26
42 -63 9 -10 -6 -2 48 -62
42 26 76 -42 -127 84 -89 31
-100 -21 65 58 33 -14 34 -16
-26 12 -68 -39 10 -22 -19 -62
10 -27 32 1 127 39 24 -82
51 14 50 12 -13 -32 2 18
00000000: ec19 d309 f3ed 17f7 ebb8 cd90 d9ea d727
00000010: c030 cf02 e801 f121 f40e dbf8 2b7f e7f2
00000020: 7fd5 e604 0602 1dc3 fea6 0ec4 b7eb fe2d
00000030: f9f8 0dff add3 f5df 1e04 fcd9 c4e6 fc0a
00000040: 1c13 d346 020e 2009 240a 0701 047f bdfa
00000050: 1039 f4e8 0e33 0a06 09f2 2c02 f8f2 19e2
00000060: f695 a315 07f4 815a ca2b c56e 9929 90ca
00000070: cbf8 a23a 2f65 b9e0 dab3 14eb 3302 400c
00000080: 3108 03e5 6de7 e1fd f4eb 0e13 36ec dcce
00000090: 1b10 7ff9 efec 32fc e12a 2dfb f1fd e761
000000a0: 041a 01f2 5f2b 2e04 02ce d01a 1d3c fb07
000000b0: 4bf1 14e6 f042 7fe6 65ca 62d5 3a2b 8d21
000000c0: 3fe4 cdf0 1136 deff 5947 e873 c608 05e6
000000d0: 2ac1 09f6 fafe 30c2 2a1a 4cd6 8154 a71f
000000e0: 9ceb 413a 21f2 22f0 e60c bcd9 0aea edc2
000000f0: 0ae5 2001 7f27 18ae 330e 320c f3e0 0212

functional_1/conv2d_4/Conv2D i1 [64, 1, 1, 32]
-57 -24 69 2 -13 6 22 99
127 -51 28 13 -3 25 -11 5
12 -48 -55 -79 28 104 -118 -29
75 86 -14 -42 -1 -60 74 -95
57 2 -59 25 -22 -48 101 76
-62 9 -8 -27 -50 101 -24 -34
18 91 77 -88 17 52 72 22
-25 15 31 14 -127 -33 -2 -48
-42 77 32 90 84 -1 76 -8
127 -51 -75 -53 16 31 -52 -40
43 53 -24 22 -38 -4 -47 -70
-2 68 -43 -41 52 -45 27 69
-59 -24 30 49 43 55 -74 29
-81 13 -8 2 -113 13 47 31
-41 -13 10 29 -24 -81 85 -37
10 -6 12 -41 -92 -41 127 -20
-7 7 54 77 38 26 33 59
12 -3 18 54 -81 122 -35 57
-6 124 -17 127 -30 -2 -36 -95
-15 -35 -9 10 18 -65 7 67
-2 -39 60 -96 -26 -115 26 14
89 10 -50 6 -61 127 9 -31
-49 -76 -124 -39 50 22 -72 -34
86 -14 -25 -61 41 26 32 -25
-18 24 -29 76 -38 71 -37 9
-48 1 127 -20 -53 1 33 -44
30 -34 -13 12 7 23 -19 -2
22 -37 4 26 -6 -21 -34 9
-21 19 -42 -127 -47 -32 -24 32
29 50 35 25 -9 -7 91 16
27 3 -33 -29 11 -8 21 -21
-47 -30 10 10 -39 -27 33 -125
00000000: c7e8 4502 f306 1663 7fcd 1c0d fd19 f505
00000010: 0cd0 c9b1 1c68 8ae3 4b56 f2d6 ffc4 4aa1
00000020: 3902 c519 ead0 654c c209 f8e5 ce65 e8de
00000030: 125b 4da8 1134 4816 e70f 1f0e 81df fed0
00000040: d64d 205a 54ff 4cf8 7fcd b5cb 101f ccd8
00000050: 2b35 e816 dafc d1ba fe44 d5d7 34d3 1b45
00000060: c5e8 1e31 2b37 b61d af0d f802 8f0d 2f1f
00000070: d7f3 0a1d e8af 55db 0afa 0cd7 a4d7 7fec
00000080: f907 364d 261a 213b 0cfd 1236 af7a dd39
00000090: fa7c ef7f e2fe dca1 f1dd f70a 12bf 0743
000000a0: fed9 3ca0 e68d 1a0e 590a ce06 c37f 09e1
000000b0: cfb4 84d9 3216 b8de 56f2 e7c3 291a 20e7
000000c0: ee18 e34c da47 db09 d001 7fec cb01 21d4
000000d0: 1ede f30c 0717 edfe 16db 041a faeb de09
000000e0: eb13 d681 d1e0 e820 1d32 2319 f7f9 5b10
000000f0: 1b03 dfe3 0bf8 15eb d1e2 0a0a d9e5 2183

functional_1/conv2d_5/Conv2D i1 [64, 1, 1, 64]
-19 -27 -74 -35 23 55 34 -31
2 -80 -35 -57 -56 3 40 -114
-57 16 -23 -127 53 -63 -84 -30
4 -66 -54 -49 -40 25 44 -19
1 17 48 -50 -52 -43 -30 -20
-34 7 77 -4 -62 -5 46 10
32 -16 -15 20 49 -50 -88 -30
84 -10 44 8 -25 2 -62 -24
-29 -61 -42 2 18 99 -4 -70
-34 -35 15 124 -13 34 -43 6
-33 -60 -6 -13 15 -14 18 -18
34 127 -85 -51 -76 -9 46 -3
43 -45 44 -51 -40 -9 -27 -4
81 69 54 -71 -14 -9 16 -45
-44 83 -57 -17 51 -92 33 14
-8 -14 -39 68 3 7 -14 -64
-8 20 46 14 2 7 -10 16
25 0 -33 47 -10 -69 -10 15
5 8 -8 -6 10 54 -42 -83
-45 31 79 0 -37 59 75 20
57 -33 -43 -17 61 -16 -24 -5
-23 25 7 23 -19 -39 46 3
-27 127 -13 -16 20 6 13 56
-34 41 -8 28 -22 27 -12 27
0 0 0 0 0 0 0 0
0 0 0 0 0 0 0 0
0 0 0 0 0 0 0 0
0 0 0 0 0 0 0 0
0 0 0 0 0 0 0 0
0 0 0 0 0 0 0 0
0 0 0 0 0 0 0 0
0 0 0 0 0 0 0 0
00000000: ede5 b6dd 1737 22e1 02b0 ddc7 c803 288e
00000010: c710 e981 35c1 ace2 04be cacf d819 2ced
00000020: 0111 30ce ccd5 e2ec de07 4dfc c2fb 2e0a
00000030: 20f0 f114 31ce a8e2 54f6 2c08 e702 c2e8
00000040: e3c3 d602 1263 fcba dedd 0f7c f322 d506
00000050: dfc4 faf3 0ff2 12ee 227f abcd b4f7 2efd
00000060: 2bd3 2ccd d8f7 e5fc 5145 36b9 f2f7 10d3
00000070: d453 c7ef 33a4 210e f8f2 d944 0307 f2c0
00000080: f814 2e0e 0207 f610 1900 df2f f6bb f60f
00000090: 0508 f8fa 0a36 d6ad d31f 4f00 db3b 4b14
000000a0: 39df d5ef 3df0 e8fb e919 0717 edd9 2e03
000000b0: e57f f3f0 1406 0d38 de29 f81c ea1b f41b
000000c0: 0000 0000 0000 0000 0000 0000 0000 0000
000000d0: 0000 0000 0000 0000 0000 0000 0000 0000
000000e0: 0000 0000 0000 0000 0000 0000 0000 0000
000000f0: 0000 0000 0000 0000 0000 0000 0000 0000

functional_1/conv2d_6/Conv2D i1 [128, 1, 1, 64]
-31 -67 -127 0 26 -96 -11 23
-54 77 -39 -99 -7 -22 -40 -10
-7 8 31 -73 1 10 -36 -9
-14 -34 96 68 -31 -19 126 55
24 -53 -31 -30 0 -34 75 25
57 -79 23 3 7 33 -37 0
-1 -81 -50 0 -5 34 -29 19
14 1 -17 84 1 22 69 10
-12 60 43 0 -21 40 -8 84
15 33 -48 44 17 21 127 96
-11 15 22 34 38 9 -9 11
22 -5 -60 13 16 41 10 -40
20 32 -32 -15 0 -16 6 -11
7 -49 -43 43 -14 3 -14 0
2 -93 9 0 5 -73 -26 30
7 -53 -22 -22 -102 -26 -62 45
18 -31 -33 0 -57 -6 67 -7
23 9 -43 -13 38 8 71 36
-11 17 -114 -29 11 26 -44 -32
50 -22 -7 -35 50 9 103 -20
60 34 -41 -26 0 26 8 3
84 -5 20 40 24 25 -127 0
-11 -21 -58 0 7 -30 -46 48
0 -45 13 10 -6 19 27 4
3 -110 -31 0 -12 -15 93 106
-48 43 -73 -16 -63 -6 -32 -63
-34 18 -106 32 -34 6 -15 -50
9 69 -11 -46 -20 -10 -96 17
-30 -23 -33 51 0 -6 24 -35
34 -2 64 71 17 -47 4 0
-4 -127 47 0 -46 37 0 36
6 -41 -1 121 -20 28 -95 -2
00000000: e1bd 8100 1aa0 f517 ca4d d99d f9ea d8f6
00000010: f908 1fb7 010a dcf7 f2de 6044 e1ed 7e37
00000020: 18cb e1e2 00de 4b19 39b1 1703 0721 db00
00000030: ffaf ce00 fb22 e313 0e01 ef54 0116 450a
00000040: f43c 2b00 eb28 f854 0f21 d02c 1115 7f60
00000050: f50f 1622 2609 f70b 16fb c40d 1029 0ad8
00000060: 1420 e0f1 00f0 06f5 07cf d52b f203 f200
00000070: 02a3 0900 05b7 e61e 07cb eaea 9ae6 c22d
00000080: 12e1 df00 c7fa 43f9 1709 d5f3 2608 4724
00000090: f511 8ee3 0b1a d4e0 32ea f9dd 3209 67ec
000000a0: 3c22 d7e6 001a 0803 54fb 1428 1819 8100
000000b0: f5eb c600 07e2 d230 00d3 0d0a fa13 1b04
000000c0: 0392 e100 f4f1 5d6a d02b b7f0 c1fa e0c1
000000d0: de12 9620 de06 f1ce 0945 f5d2 ecf6 a011
000000e0: e2e9 df33 00fa 18dd 22fe 4047 11d1 0400
000000f0: fc81 2f00 d225 0024 06d7 ff79 ec1c a1fe

functional_1/conv2d_7/Conv2D i1 [128, 1, 1, 128]
0 0 0 0 0 0 0 0
0 0 0 0 0 0 0 0
0 0 0 0 0 0 0 0
0 0 0 0 0 0 0 0
0 0 0 0 0 0 0 0
0 0 0 0 0 0 0 0
0 0 0 0 0 0 0 0
0 0 0 0 0 0 0 0
0 0 0 0 0 0 0 0
0 0 0 0 0 0 0 0
0 0 0 0 0 0 0 0
0 0 0 0 0 0 0 0
0 0 0 0 0 0 0 0
0 0 0 0 0 0 0 0
0 0 0 0 0 0 0 0
0 0 0 0 0 0 0 0
-21 -28 -35 11 77 27 -75 51
-121 11 -23 39 0 -43 21 0
0 74 0 0 0 -23 15 20
-90 -9 0 19 -18 47 -36 -19
13 50 30 -78 17 0 -50 -30
8 6 71 -62 -47 47 0 -51
0 0 -43 -26 -6 46 3 22
8 69 -46 77 -17 0 0 0
-32 0 0 66 0 13 -55 -8
-18 92 -49 99 -25 0 0 -42
0 18 11 3 0 44 0 -4
99 -61 0 -37 -45 0 0 -24
8 0 67 0 54 64 28 0
0 0 4 0 19 -25 19 -97
0 -9 0 -31 0 -127 0 -39
0 -86 -19 -79 56 94 0 -26
00000000: 0000 0000 0000 0000 0000 0000 0000 0000
00000010: 0000 0000 0000 0000 0000 0000 0000 0000
00000020: 0000 0000 0000 0000 0000 0000 0000 0000
00000030: 0000 0000 0000 0000 0000 0000 0000 0000
00000040: 0000 0000 0000 0000 0000 0000 0000 0000
00000050: 0000 0000 0000 0000 0000 0000 0000 0000
00000060: 0000 0000 0000 0000 0000 0000 0000 0000
00000070: 0000 0000 0000 0000 0000 0000 0000 0000
00000080: ebe4 dd0b 4d1b b533 870b e927 00d5 1500
00000090: 004a 0000 00e9 0f14 a6f7 0013 ee2f dced
000000a0: 0d32 1eb2 1100 cee2 0806 47c2 d12f 00cd
000000b0: 0000 d5e6 fa2e 0316 0845 d24d ef00 0000
000000c0: e000 0042 000d c9f8 ee5c cf63 e700 00d6
000000d0: 0012 0b03 002c 00fc 63c3 00db d300 00e8
000000e0: 0800 4300 3640 1c00 0000 0400 13e7 139f
000000f0: 00f7 00e1 0081 00d9 00aa edb1 385e 00e6

functional_1/conv2d_8/Conv2D i1 [128, 1, 1, 128]
0 0 0 0 0 0 0 0
0 0 0 0 0 0 0 0
0 0 0 0 0 0 0 0
0 0 0 0 0 0 0 0
0 0 0 0 0 0 0 0
0 0 0 0 0 0 0 0
0 0 0 0 0 0 0 0
0 0 0 0 0 0 0 0
0 0 0 0 0 0 0 0
0 0 0 0 0 0 0 0
0 0 0 0 0 0 0 0
0 0 0 0 0 0 0 0
0 0 0 0 0 0 0 0
0 0 0 0 0 0 0 0
0 0 0 0 0 0 0 0
0 0 0 0 0 0 0 0
0 -76 -53 1 15 0 0 -49
0 0 -18 0 -25 0 29 -65
0 60 -32 0 0 0 0 40
0 0 0 -64 0 39 -49 127
0 -36 0 43 -50 0 49 0
22 -11 105 0 -42 35 79 15
0 41 0 0 0 0 0 0
77 0 28 31 0 0 15 -116
0 23 -85 58 54 0 -21 0
0 0 0 46 -88 0 -35 0
0 0 0 33 0 75 0 0
0 0 0 0 67 0 0 0
0 0 0 0 0 -4 0 0
0 48 0 0 0 0 46 0
0 0 68 0 55 0 -93 27
0 0 -9 0 0 33 46 -62
00000000: 0000 0000 0000 0000 0000 0000 0000 0000
00000010: 0000 0000 0000 0000 0000 0000 0000 0000
00000020: 0000 0000 0000 0000 0000 0000 0000 0000
00000030: 0000 0000 0000 0000 0000 0000 0000 0000
00000040: 0000 0000 0000 0000 0000 0000 0000 0000
00000050: 0000 0000 0000 0000 0000 0000 0000 0000
00000060: 0000 0000 0000 0000 0000 0000 0000 0000
00000070: 0000 0000 0000 0000 0000 0000 0000 0000
00000080: 00b4 cb01 0f00 00cf 0000 ee00 e700 1dbf
00000090: 003c e000 0000 0028 0000 00c0 0027 cf7f
000000a0: 00dc 002b ce00 3100 16f5 6900 d623 4f0f
000000b0: 0029 0000 0000 0000 4d00 1c1f 0000 0f8c
000000c0: 0017 ab3a 3600 eb00 0000 002e a800 dd00
000000d0: 0000 0021 004b 0000 0000 0000 4300 0000
000000e0: 0000 0000 00fc 0000 0030 0000 0000 2e00
000000f0: 0000 4400 3700 a31b 0000 f700 0021 2ec2

functional_1/conv2d_9/Conv2D i1 [128, 1, 1, 128]
0 0 0 0 0 0 0 0
0 0 0 0 0 0 0 0
0 0 0 0 0 0 0 0
0 0 0 0 0 0 0 0
0 0 0 0 0 0 0 0
0 0 0 0 0 0 0 0
0 0 0 0 0 0 0 0
0 0 0 0 0 0 0 0
0 0 0 0 0 0 0 0
0 0 0 0 0 0 0 0
0 0 0 0 0 0 0 0
0 0 0 0 0 0 0 0
0 0 0 0 0 0 0 0
0 0 0 0 0 0 0 0
0 0 0 0 0 0 0 0
0 0 0 0 0 0 0 0
0 0 0 0 0 0 0 0
0 0 0 0 0 0 0 0
0 0 0 0 0 0 0 0
0 0 0 0 0 0 0 0
0 0 0 0 0 0 0 0
0 0 0 0 0 0 0 0
0 0 0 0 0 0 0 0
0 0 0 0 0 0 0 0
0 0 0 0 0 0 0 0
0 0 0 0 0 0 0 0
0 0 0 0 0 0 0 0
0 0 0 0 0 0 0 0
0 0 0 0 0 0 0 0
0 0 0 0 0 0 0 0
0 0 0 0 0 0 0 0
0 0 0 0 0 0 0 0
00000000: 0000 0000 0000 0000 0000 0000 0000 0000
00000010: 0000 0000 0000 0000 0000 0000 0000 0000
00000020: 0000 0000 0000 0000 0000 0000 0000 0000
00000030: 0000 0000 0000 0000 0000 0000 0000 0000
00000040: 0000 0000 0000 0000 0000 0000 0000 0000
00000050: 0000 0000 0000 0000 0000 0000 0000 0000
00000060: 0000 0000 0000 0000 0000 0000 0000 0000
00000070: 0000 0000 0000 0000 0000 0000 0000 0000
00000080: 0000 0000 0000 0000 0000 0000 0000 0000
00000090: 0000 0000 0000 0000 0000 0000 0000 0000
000000a0: 0000 0000 0000 0000 0000 0000 0000 0000
000000b0: 0000 0000 0000 0000 0000 0000 0000 0000
000000c0: 0000 0000 0000 0000 0000 0000 0000 0000
000000d0: 0000 0000 0000 0000 0000 0000 0000 0000
000000e0: 0000 0000 0000 0000 0000 0000 0000 0000
000000f0: 0000 0000 0000 0000 0000 0000 0000 0000

functional_1/conv2d_10/Conv2D i1 [128, 1, 1, 128]
0 0 0 0 0 0 0 0
0 0 0 0 0 0 0 0
0 0 0 0 0 0 0 0
0 0 0 0 0 0 0 0
0 0 0 0 0 0 0 0
0 0 0 0 0 0 0 0
0 0 0 0 0 0 0 0
0 0 0 0 0 0 0 0
0 0 0 0 0 0 0 0
0 0 0 0 0 0 0 0
0 0 0 0 0 0 0 0
0 0 0 0 0 0 0 0
0 0 0 0 0 0 0 0
0 0 0 0 0 0 0 0
0 0 0 0 0 0 0 0
0 0 0 0 0 0 0 0
0 0 0 0 0 0 0 0
0 0 0 0 0 0 0 0
0 0 0 0 0 0 0 0
0 0 0 0 0 0 0 0
0 0 0 0 0 0 0 0
0 0 0 0 0 0 0 0
0 0 0 0 0 0 0 0
0 0 0 0 0 0 0 0
0 0 0 0 0 0 0 0
0 0 0 0 0 0 0 0
0 0 0 0 0 0 0 0
0 0 0 0 0 0 0 0
0 0 0 0 0 0 0 0
0 0 0 0 0 0 0 0
0 0 0 0 0 0 0 0
0 0 0 0 0 0 0 0
00000000: 0000 0000 0000 0000 0000 0000 0000 0000
00000010: 0000 0000 0000 0000 0000 0000 0000 0000
00000020: 0000 0000 0000 0000 0000 0000 0000 0000
00000030: 0000 0000 0000 0000 0000 0000 0000 0000
00000040: 0000 0000 0000 0000 0000 0000 0000 0000
00000050: 0000 0000 0000 0000 0000 0000 0000 0000
00000060: 0000 0000 0000 0000 0000 0000 0000 0000
00000070: 0000 0000 0000 0000 0000 0000 0000 0000
00000080: 0000 0000 0000 0000 0000 0000 0000 0000
00000090: 0000 0000 0000 0000 0000 0000 0000 0000
000000a0: 0000 0000 0000 0000 0000 0000 0000 0000
000000b0: 0000 0000 0000 0000 0000 0000 0000 0000
000000c0: 0000 0000 0000 0000 0000 0000 0000 0000
000000d0: 0000 0000 0000 0000 0000 0000 0000 0000
000000e0: 0000 0000 0000 0000 0000 0000 0000 0000
000000f0: 0000 0000 0000 0000 0000 0000 0000 0000

functional_1/conv2d_11/Conv2D i1 [128, 1, 1, 128]
0 0 0 0 0 0 0 0
0 0 0 0 0 -58 0 0
0 0 0 0 0 0 20 0
0 0 0 0 0 0 0 96
0 0 0 0 0 0 0 0
0 0 0 0 0 0 0 0
0 0 0 0 0 0 46 0
0 0 0 0 0 97 0 0
121 127 0 0 0 0 0 0
0 0 0 0 0 0 23 0
0 0 0 0 0 0 115 0
6 0 0 0 0 22 0 0
0 58 0 0 0 0 0 0
0 0 0 0 0 0 0 0
0 0 0 0 14 0 0 0
0 0 0 0 0 0 0 0
0 0 0 0 0 0 0 0
0 0 0 0 0 0 0 0
0 0 0 0 0 0 0 0
0 0 0 0 0 0 0 0
0 0 0 0 0 0 0 0
0 0 0 0 0 0 0 0
0 0 0 0 0 0 0 0
0 0 0 0 0 0 0 0
0 0 0 0 0 0 0 0
0 0 0 0 0 0 0 0
0 0 0 0 0 0 0 0
0 0 0 0 0 0 0 0
0 0 0 0 0 0 0 0
0 0 0 0 0 0 0 0
0 0 0 0 0 0 0 0
0 0 0 0 0 0 0 0
00000000: 0000 0000 0000 0000 0000 0000 00c6 0000
00000010: 0000 0000 0000 1400 0000 0000 0000 0060
00000020: 0000 0000 0000 0000 0000 0000 0000 0000
00000030: 0000 0000 0000 2e00 0000 0000 0061 0000
00000040: 797f 0000 0000 0000 0000 0000 0000 1700
00000050: 0000 0000 0000 7300 0600 0000 0016 0000
00000060: 003a 0000 0000 0000 0000 0000 0000 0000
00000070: 0000 0000 0e00 0000 0000 0000 0000 0000
00000080: 0000 0000 0000 0000 0000 0000 0000 0000
00000090: 0000 0000 0000 0000 0000 0000 0000 0000
000000a0: 0000 0000 0000 0000 0000 0000 0000 0000
000000b0: 0000 0000 0000 0000 0000 0000 0000 0000
000000c0: 0000 0000 0000 0000 0000 0000 0000 0000
000000d0: 0000 0000 0000 0000 0000 0000 0000 0000
000000e0: 0000 0000 0000 0000 0000 0000 0000 0000
000000f0: 0000 0000 0000 0000 0000 0000 0000 0000

functional_1/conv2d_12/Conv2D i1 [256, 1, 1, 128]
0 0 0 0 0 0 0 0
0 0 0 0 0 0 0 0
0 0 0 0 0 0 0 0
0 0 0 0 0 0 0 0
0 0 0 0 0 0 0 0
0 0 0 0 0 0 0 0
0 0 0 0 0 0 0 0
0 0 0 0 0 0 0 0
0 0 0 0 0 0 0 0
0 0 0 0 0 0 0 0
0 0 0 0 0 0 0 0
0 0 0 0 0 0 0 0
0 0 0 0 0 0 0 0
0 0 0 0 0 0 0 0
0 0 0 0 0 0 0 0
0 0 0 0 0 0 0 0
0 0 0 0 0 0 0 0
0 0 0 0 0 0 0 0
0 0 0 0 0 0 0 0
0 0 0 0 0 0 0 0
0 0 0 0 0 0 0 0
0 0 0 0 0 0 0 0
0 0 0 0 0 0 0 0
0 0 0 0 0 0 0 0
0 0 0 0 0 0 0 0
0 0 0 0 0 0 0 0
0 0 0 0 0 0 0 0
0 0 0 0 0 0 0 0
0 0 0 0 0 0 0 0
0 0 0 0 0 0 0 0
0 0 0 0 0 0 0 0
0 0 0 0 0 0 0 0
00000000: 0000 0000 0000 0000 0000 0000 0000 0000
00000010: 0000 0000 0000 0000 0000 0000 0000 0000
00000020: 0000 0000 0000 0000 0000 0000 0000 0000
00000030: 0000 0000 0000 0000 0000 0000 0000 0000
00000040: 0000 0000 0000 0000 0000 0000 0000 0000
00000050: 0000 0000 0000 0000 0000 0000 0000 0000
00000060: 0000 0000 0000 0000 0000 0000 0000 0000
00000070: 0000 0000 0000 0000 0000 0000 0000 0000
00000080: 0000 0000 0000 0000 0000 0000 0000 0000
00000090: 0000 0000 0000 0000 0000 0000 0000 0000
000000a0: 0000 0000 0000 0000 0000 0000 0000 0000
000000b0: 0000 0000 0000 0000 0000 0000 0000 0000
000000c0: 0000 0000 0000 0000 0000 0000 0000 0000
000000d0: 0000 0000 0000 0000 0000 0000 0000 0000
000000e0: 0000 0000 0000 0000 0000 0000 0000 0000
000000f0: 0000 0000 0000 0000 0000 0000 0000 0000

functional_1/conv2d_13/Conv2D i1 [256, 1, 1, 256]
0 0 0 0 0 0 0 0
0 0 0 0 0 0 0 0
0 0 0 0 0 0 0 0
0 0 0 0 0 0 0 0
0 0 0 0 0 0 0 0
0 0 0 0 0 0 0 0
0 0 0 0 0 0 0 0
0 0 0 0 0 0 0 0
0 0 0 0 0 0 0 0
0 0 0 0 0 0 0 0
0 0 0 0 0 0 0 0
0 0 0 0 0 0 0 0
0 0 0 0 0 0 0 0
0 0 0 0 0 0 0 0
0 0 0 0 0 0 0 0
0 0 0 0 0 0 0 0
0 0 0 0 0 0 0 0
0 0 0 0 0 0 0 0
0 0 0 0 0 0 0 0
0 0 0 0 0 0 0 0
0 0 0 0 0 0 0 0
0 0 0 0 0 0 0 0
0 0 0 0 0 0 0 0
0 0 0 0 0 0 0 0
0 0 0 0 0 0 0 0
0 0 0 0 0 0 0 0
0 0 0 0 0 0 0 0
0 0 0 0 0 0 0 0
0 0 0 0 0 0 0 0
0 0 0 0 0 0 0 0
0 0 0 0 0 0 0 0
0 0 0 0 0 0 0 0
00000000: 0000 0000 0000 0000 0000 0000 0000 0000
00000010: 0000 0000 0000 0000 0000 0000 0000 0000
00000020: 0000 0000 0000 0000 0000 0000 0000 0000
00000030: 0000 0000 0000 0000 0000 0000 0000 0000
00000040: 0000 0000 0000 0000 0000 0000 0000 0000
00000050: 0000 0000 0000 0000 0000 0000 0000 0000
00000060: 0000 0000 0000 0000 0000 0000 0000 0000
00000070: 0000 0000 0000 0000 0000 0000 0000 0000
00000080: 0000 0000 0000 0000 0000 0000 0000 0000
00000090: 0000 0000 0000 0000 0000 0000 0000 0000
000000a0: 0000 0000 0000 0000 0000 0000 0000 0000
000000b0: 0000 0000 0000 0000 0000 0000 0000 0000
000000c0: 0000 0000 0000 0000 0000 0000 0000 0000
000000d0: 0000 0000 0000 0000 0000 0000 0000 0000
000000e0: 0000 0000 0000 0000 0000 0000 0000 0000
000000f0: 0000 0000 0000 0000 0000 0000 0000 0000
