v0.1/benchmarks/visual_wake_words/trained_models/vww_96_float.tflite (tflite, 869004 bytes, 56 tensors)

functional_1/dense/BiasAdd/ReadVariableOp/resource f4 [2]
0.08060145 -0.080601536
00000000: 5f12 a53d 6b12 a5bd

functional_1/activation/Relu;functional_1/batch_normalization/FusedBatchNormV3;functional_1/conv2d/BiasAdd/ReadVariableOp/resource;functional_1/conv2d/BiasAdd;functional_1/depthwise_conv2d/depthwise;functional_1/conv2d/Conv2D f4 [8]
0.636928 0.8711047 0.4659917 0.3549419 -2.403438 2.3173532 1.3037848 0.38747314
00000000: b70d 233f b800 5f3f 7796 ee3e f2ba b53e
00000010: eed1 19c0 844f 1440 6ce2 a63f e162 c63e

functional_1/activation_1/Relu;functional_1/batch_normalization_1/FusedBatchNormV3;functional_1/depthwise_conv2d/depthwise;functional_1/depthwise_conv2d/BiasAdd;functional_1/depthwise_conv2d/BiasAdd/ReadVariableOp/resource f4 [8]
0.61883545 -0.77606505 1.2204682 -0.047652364 1.4342804 -0.32314885 -0.19334298 -0.11013889
00000000: 006c 1e3f 33ac 46bf 4d38 9c3f 202f 43bd
00000010: 8096 b73f c473 a5be b4fb 45be 8090 e1bd

functional_1/batch_normalization_1/FusedBatchNormV3;functional_1/depthwise_conv2d/depthwise;functional_1/depthwise_conv2d/BiasAdd;functional_1/depthwise_conv2d/BiasAdd/ReadVariableOp/resource f4 [1, 3, 3, 8]
-0.6286043 -0.66837215 0.7458893 -2.0181036 0.232635 -0.4087616 0.13378018 -1.2670784
3.371687 0.4853915 -0.18444955 1.2656158 -0.15504484 0.5568651 0.05830982 -0.10839107
-0.25528374 2.1559405 -0.6538959 1.3932846 -0.35856226 0.26852775 -0.97711444 -0.509219
-0.9270753 -0.59275085 0.6160149 0.17652497 0.29019505 -0.31807166 -0.3695934 -0.59907025
-1.9833181 1.137177 -1.7411977 1.2999054 -0.6431193 1.1134058 0.084194794 3.4061007
1.6391722 0.3513108 -2.163778 1.0747436 -0.20133595 0.78199375 0.6525243 0.95678586
1.3841046 -0.007461545 0.35631892 -1.0312226 0.24422994 -0.31279483 -0.47016656 -0.7216391
-1.5205147 0.011346479 0.51447576 0.36878282 -0.15518168 0.008692413 0.20251963 0.76847106
-1.0663384 -0.9666265 1.4230446 -0.6568182 0.40941295 -0.85347056 1.855763 -0.79854
00000000: 36ec 20bf 701a 2bbf 9af2 3e3f 9c28 01c0
00000010: df37 6e3e 3349 d1be acfd 083e a02f a2bf
00000020: b8c9 5740 3c85 f83e 58e0 3cbe b3ff a13f
00000030: 13c4 1ebe b68e 0e3f 47d6 6e3d 23fc ddbd
00000040: 8db4 82be eefa 0940 b965 27bf 2657 b23f
00000050: 7995 b7be 787c 893e 2c24 7abf 2d5c 02bf
00000060: cf54 6dbf 85be 17bf 27b3 1d3f f6c2 343e
00000070: 7294 943e 4ada a2be 593b bdbe ab5c 19bf
00000080: 5edd fdbf 048f 913f 91df debf 4d63 a63f
00000090: 77a3 24bf 1584 8e3f 526e ac3d 8efd 5940
000000a0: 65d0 d13f 02df b33e 577b 0ac0 3391 893f
000000b0: 032b 4ebe be30 483f d50b 273f ebef 743f
000000c0: 572a b13f fa7f f4bb 6f6f b63e 1aff 83bf
000000d0: 6a17 7a3e a526 a0be acb9 f0be 57bd 38bf
000000e0: 3aa0 c2bf 95e6 393c afb4 033f 1ad1 bc3e
000000f0: f2e7 1ebe 9f6a 0e3c 4e61 4f3e 85ba 443f
00000100: c77d 88bf d674 77bf 5326 b63f 3d25 28bf
00000110: 939e d13e 0c7d 5abf a489 ed3f 1e6d 4cbf

functional_1/activation_10/Relu;functional_1/batch_normalization_10/FusedBatchNormV3;functional_1/conv2d_5/BiasAdd/ReadVariableOp/resource;functional_1/conv2d_5/BiasAdd;functional_1/depthwise_conv2d_5/depthwise;functional_1/conv2d_5/Conv2D f4 [64]
0.11546304 0.44592404 -0.8995817 -0.26560125 -0.79119 0.97468656 -0.16492032 0.17449464
-0.07585305 -0.9412812 1.5343783 -2.089384 1.327209 -0.86518395 -0.6932763 1.0126162
0.5819528 -0.5269293 -1.1417 -0.81152827 -1.411233 1.3102362 2.8312416 -1.0500166
1.281982 -0.26243994 0.52711266 0.926512 0.37297073 -0.4598464 -0.3510512 -0.51902175
-0.79901403 1.1443031 0.18616357 -0.16750106 -0.11801242 0.33081368 0.08630317 0.42726877
0.055037666 -0.5981566 0.70428616 1.1471335 0.014317195 -0.62649626 0.18044446 -0.25505948
0.5583518 -0.98091084 0.40037662 0.0029462278 -0.46430734 -1.1375008 -0.18722577 -0.022139544
-0.35713464 -1.2909261 -0.87754387 0.4998903 1.1040263 -0.9936891 -0.15879446 -0.90534127
00000000: e377 ec3d 2850 e43e fc4a 66bf e3fc 87be
00000010: 6e8b 4abf 0f85 793f dfe0 28be b9ae 323e
00000020: d858 9bbd cef7 70bf 8266 c43f 78b8 05c0
00000030: fce1 a93f b27c 5dbf 8e7a 31bf 689d 813f
00000040: dcfa 143f d7e4 06bf 3a23 92bf 51c0 4fbf
00000050: 48a3 b4bf d2b5 a73f 1033 3540 f266 86bf
00000060: fc17 a43f 875e 86be dbf0 063f e42f 6d3f
00000070: 05f6 be3e fd70 ebbe fcbc b3be 9cde 04bf
00000080: 2f8c 4cbf 8678 923f aaa1 3e3e 6685 2bbe
00000090: 7fb0 f1bd 6960 a93e b7bf b03d f9c2 da3e
000000a0: 2d6f 613d ca20 19bf 194c 343f 45d5 923f
000000b0: ab92 6a3c 0f62 20bf 6fc6 383e 2897 82be
000000c0: 25f0 0e3f f91c 7bbf 2afe cc3e 8015 413b
000000d0: b1b9 edbe a099 91bf 1db8 3fbe fd5d b5bc
000000e0: 5ada b6be 113d a5bf b7a6 60bf 9ff1 ff3e
000000f0: bc50 8d3f 6962 7ebf 049b 22be 72c4 67bf

functional_1/activation_11/Relu;functional_1/batch_normalization_11/FusedBatchNormV3;functional_1/depthwise_conv2d_5/depthwise;functional_1/depthwise_conv2d_5/BiasAdd;functional_1/depthwise_conv2d_5/BiasAdd/ReadVariableOp/resource f4 [64]
-0.6603641 -0.51497614 -0.6561746 -0.31162322 -0.014558911 1.9044238 1.9162637 2.8040109
-0.3509602 -0.13886273 -0.744167 -0.5416529 2.4550655 -0.65786105 -0.13730465 -0.56781447
0.90891516 1.967048 -0.8813365 -0.6665008 -0.1845931 -0.4614834 -1.1988218 -0.31520382
2.101212 -0.15343535 0.40128475 1.1661091 -1.0109648 -0.12569475 -0.07389423 -0.030264914
-0.016151864 -0.40796563 -0.6500817 -0.14039719 -0.4889665 -0.8451184 0.21285522 0.25516754
-0.26097238 -0.84164006 2.0907297 -0.7075967 0.2496337 0.06721263 3.3605437 -0.47412187
-0.34208184 -0.5918932 2.202074 -0.33816218 -0.30056226 -0.45928943 -0.32308584 -0.87116575
-0.21257187 1.3408469 -0.3439603 1.8894172 0.73807955 0.18151453 0.059495963 -0.50213045
00000000: 9f0d 29bf 7ad5 03bf 0ffb 27bf 148d 9fbe
00000010: 8088 6ebc 29c4 f33f 2148 f53f ea74 3340
00000020: 0eb1 b3be 0832 0ebe ba81 3ebf c4a9 0abf
00000030: cb1f 1d40 9569 28bf 9799 0cbe 4a5c 11bf
00000040: aaae 683f 3bc8 fb3f 459f 61bf cc9f 2abf
00000050: f905 3dbe 8d47 ecbe fe72 99bf 6562 a1be
00000060: 427a 0640 281e 1dbe 3275 cd3e 1043 953f
00000070: 4b67 81bf 20b6 00be dc55 97bd 20ee f7bc
00000080: ea50 84bc dfe0 d0be c16b 26bf 48c4 0fbe
00000090: d159 fabe ae59 58bf b8f6 593e 52a5 823e
000000a0: 2c9e 85be b975 57bf 84ce 0540 0f25 35bf
000000b0: fa9f 7f3e c6a6 893d 2613 5740 1ac0 f2be
000000c0: 5a25 afbe 5086 17bf c8ee 0c40 9823 adbe
000000d0: 4ce3 99be fc27 ebbe 826b a5be b804 5fbf
000000e0: 71ac 59be dfa0 ab3f 901b b0be 6cd8 f13f
000000f0: c8f2 3c3f f2de 393e 0ab2 733d 9f8b 00bf

functional_1/batch_normalization_11/FusedBatchNormV3;functional_1/depthwise_conv2d_5/depthwise;functional_1/depthwise_conv2d_5/BiasAdd;functional_1/depthwise_conv2d_5/BiasAdd/ReadVariableOp/resource f4 [1, 3, 3, 64]
2.6793492 -0.35051757 0.49821624 -2.3925853 0.27785587 -0.8226848 -0.421468 -0.15872237
-0.44112152 0.18033217 0.20626305 0.109952986 -0.8280684 0.56863815 0.44040123 0.2491782
0.58107114 -0.20281585 0.17559727 0.6899364 0.6283547 -0.06945636 0.061470535 0.16034487
-0.2832663 0.2087052 -1.042873 0.70494354 0.40169874 -0.40079695 0.10984064 1.4685513
0.06213288 0.37013906 0.07915947 0.47432375 -0.078772835 0.65603507 0.69748515 0.62942034
0.7785697 0.022053506 0.46457267 0.07344405 -0.38518035 -0.765224 -0.10106051 0.2027737
0.43772265 0.28652596 -0.41578862 -1.7805364 0.110466205 -0.2214822 0.3427195 0.15225525
-0.14229141 -0.34512004 0.9820545 -0.0851572 0.26574188 -0.6174655 0.32607675 0.16786276
3.1405427 0.08466396 0.7835834 -4.142873 1.053351 -0.35217923 -0.26141843 -0.620816
-0.62473536 0.545451 0.24428123 0.3124558 -0.38817582 0.63517594 0.18488918 0.024588568
-0.7810678 -0.3533003 0.16827081 0.9152953 0.39962322 0.06943873 0.22258343 -0.38699508
-0.40899447 0.24868399 -0.070671394 0.52873975 0.5188182 0.31392053 0.37021467 1.2745085
0.34238777 -0.018380368 0.17942679 0.6984585 -5.1619167 0.6615389 0.7373928 -0.22400033
1.2916977 0.29782602 -0.27077007 0.37962964 0.19268486 -0.7940668 -0.8497543 -1.8814613
-0.14881288 0.41584206 -0.46619186 -1.3473192 -0.25882986 -0.4167952 0.20371318 0.32080275
0.058017243 -0.5066028 -0.8650452 -0.30966944 0.116836086 0.16741659 0.3308072 0.38790905
1.0484766 0.22920631 0.3526783 -9.589993 0.77801335 -0.3364969 0.036666986 -0.06750138
-0.21027847 0.47227332 0.2140023 0.31661466 0.031857327 -0.16375186 -0.8693183 -0.31654084
-0.700802 -0.23372811 -0.075974174 0.6998529 -0.16784821 0.09007801 0.10674733 -0.23369981
-0.12536584 0.12992947 0.77079207 0.48206615 0.30896816 0.4862058 0.20644203 0.56743217
0.3129134 -0.43734783 0.12556489 0.57393587 -0.8473705 0.29747203 0.12716837 -0.35057095
0.6471094 0.230406 -0.5171474 0.44365126 0.11729215 -0.22681949 -0.7472826 -1.3445754
-0.36089647 0.19246429 -0.29970315 1.0729451 -0.3585792 -0.28765938 -0.0344608 0.12287385
0.2698079 -0.106301606 -0.40064526 -0.20754822 0.15148894 0.73432213 0.08740028 0.2932192
2.812988 -0.03190332 0.97591215 -0.02159114 0.8808168 -0.42855242 -0.36943755 -0.54658824
-0.026048452 -0.06333847 0.16004567 0.13319103 -0.5360759 0.8901684 0.8855181 0.49490428
0.43685836 -0.3349925 0.29043835 0.9289408 0.39561707 -0.53835714 0.26589197 0.386851
-0.24701841 0.22407058 -0.5056865 -0.47581363 0.27830297 -0.4638567 0.34168026 0.9723239
-0.42851648 0.40563715 0.22966437 0.00045367694 0.86224884 0.3524612 0.22072577 0.32526326
0.62646616 0.20480959 0.07172607 0.07111503 -0.65766597 -0.35919806 -0.7287854 0.45019317
0.42900902 0.30310857 -0.78296506 -0.16001114 0.50264233 0.38115433 0.4698732 0.2697073
0.35288092 -0.4462704 0.4310751 -0.38489372 -0.33705503 -0.05749212 0.5196296 0.2527613
00000000: 757a 2b40 0a77 b3be 3316 ff3e 1e20 19c0
00000010: 2043 8e3e 799b 52bf a7ca d7be 1e88 22be
00000020: aeda e1be ffa8 383e 9f36 533e 082f e13d
00000030: 4afc 53bf 4592 113f 457c e13e 9228 7f3e
00000040: 14c1 143f f5ae 4fbe c5cf 333e ac9f 303f
00000050: dbdb 203f 233f 8ebd 87c8 7b3d 7231 243e
00000060: 4808 91be d1b6 553e dd7c 85bf 2e77 343f
00000070: 75ab cd3e 4235 cdbe 21f4 e03d 7df9 bb3f
00000080: 0c7f 7e3d de82 bd3e 5c1e a23d 90da f23e
00000090: a753 a1bd eaf1 273f 638e 323f b121 213f
000000a0: 5850 473f 8ea9 b43c 78dc ed3e d669 963d
000000b0: 5c36 c5be b8e5 43bf d0f8 cebd e9a3 4f3e
000000c0: 2f1d e03e 88b3 923e 3fe2 d4be 9ee8 e3bf
000000d0: 1b3c e23d 3bcc 62be ee78 af3e cde8 1b3e
000000e0: d7b4 11be 93b3 b0be ec67 7b3f e666 aebd
000000f0: 520f 883e 3812 1ebf 88f3 a63e 37e4 2b3e
00000100: a7fe 4840 4c64 ad3d ec98 483f 6a92 84c0
00000110: 35d4 863f d650 b4be a3d8 85be cced 1ebf
00000120: a8ee 1fbf ada2 0b3f dc24 7a3e 35fa 9f3e
00000130: fbbe c6be e49a 223f 9753 3d3e f76d c93c
00000140: 0ff4 47bf c7e3 b4be 2f4f 2c3e cb50 6a3f
00000150: 6a9b cc3e e535 8e3d e9ec 633e 3824 c6be
00000160: b967 d1be 04a7 7e3e 2abc 90bd 7d5b 073f
00000170: 45d1 043f 31ba a03e c78c bd3e 1823 a33f
00000180: 734d af3e 6d92 96bc a8bb 373e 2dce 323f
00000190: 6c2e a5c0 9d5a 293f c6c5 3c3f 5860 65be
000001a0: 5a56 a53f a77c 983e 60a2 8abe d15e c23e
000001b0: 2e4f 453e f647 4bbf 7f89 59bf b9d3 f0bf
000001c0: 6762 18be 40e9 d43e b3b0 eebe f574 acbf
000001d0: 5985 84be 2e66 d5be 309a 503e 4240 a43e
000001e0: 7da3 6d3d b9b0 01bf 9a73 5dbf fe8c 9ebe
000001f0: c247 ef3d 416f 2b3e 905f a93e 049c c63e
00000200: 7b34 863f 0fb5 6a3e 4092 b43e 9c70 19c1
00000210: e22b 473f 5249 acbe 1f30 163d 2a3e 8abd
00000220: 3d53 57be cfcd f13e 6b23 5b3e 511b a23e
00000230: d47c 023d 91ae 27be a58b 5ebf a411 a2be
00000240: c367 33bf 6c56 6fbe 5998 9bbd 8f29 333f
00000250: 67e0 2bbe d27a b83d 589e da3d 014f 6fbe
00000260: e75f 00be 3b0c 053e a152 453f 60d1 f63e
00000270: 1331 9e3e f7ef f83e 8a65 533e 3c43 113f
00000280: 2f36 a03e 0eec dfbe 1594 003e 76ed 123f
00000290: 46ed 58bf 414e 983e 6d38 023e 097e b3be
000002a0: f6a8 253f 8def 6b3e c663 04bf 4226 e33e
000002b0: de36 f03d 5e43 68be ea4d 3fbf 0c1b acbf
000002c0: 6cc7 b8be 5c15 453e b172 99be 4456 893f
000002d0: b197 b7be 1748 93be c526 0dbd 49a5 fb3d
000002e0: 4324 8a3e a8b4 d9bd 6021 cdbe 8587 54be
000002f0: eb1f 1b3e 89fc 3b3f ebfe b23d d420 963e
00000300: ff07 3440 0ead 02bd 61d5 793f e7df b0bc
00000310: 367d 613f 396b dbbe eb26 bdbe 35ed 0bbf
00000320: 9063 d5bc 9ab7 81bd 03e3 233e 3b63 083e
00000330: 453c 09bf 14e2 633f 50b1 623f 1864 fd3e
00000340: e6ab df3e 2384 abbe 56b4 943e 10cf 6d3f
00000350: 528e ca3e c6d1 09bf fe22 883e 5611 c63e
00000360: 65f2 7cbe c272 653e ac74 01bf d89d f3be
00000370: ba7d 8e3e a07e edbe b7f0 ae3e 38ea 783f
00000380: 8366 dbbe acaf cf3e 232d 6b3e 7ddb ed39
00000390: 57bc 5c3f cb75 b43e f005 623e e888 a63e
000003a0: 1660 203f 9bb9 513e 1ee5 923d c2a4 913d
000003b0: cc5c 28bf cfe8 b7be ae91 3abf b87f e63e
000003c0: 12a7 db3e 0c31 9b3e 6670 48bf f6d9 23be
000003d0: 2bad 003f a926 c33e 3893 f03e 1317 8a3e
000003e0: cfac b43e 8e7d e4be e0b5 dc3e ca10 c5be
000003f0: 7a92 acbe db7c 6bbd 7206 053f ee69 813e

functional_1/activation_12/Relu;functional_1/batch_normalization_12/FusedBatchNormV3;functional_1/conv2d_6/BiasAdd/ReadVariableOp/resource;functional_1/conv2d_6/BiasAdd;functional_1/depthwise_conv2d_11/depthwise;functional_1/conv2d_6/Conv2D f4 [128]
0.004609201 0.324858 -0.13074815 0.73065346 -0.27683648 0.08988367 0.9305622 1.0809497
0.37155735 0.08739594 -0.0028198436 1.1152408 -0.21397418 0.54094136 0.52881277 -0.086027116
-0.14731117 1.0914941 0.0001463294 0.04943628 -0.07787073 -0.09467067 0.8715905 0.8629181
0.509281 -0.29767925 -0.15688029 -0.1904294 -0.014755247 0.6635259 0.25061166 -0.21891515
0.1939283 0.58963525 -0.05862342 0.37719008 -0.3642164 -0.11001679 0.26162708 0.84591335
-0.8676704 0.85943973 0.7376691 0.47153646 -0.32204506 -0.45473754 -0.17763728 1.0781379
-0.21087493 0.043970764 0.92567825 -0.10800402 0.17237994 0.51413953 0.32473496 0.076495215
0.4710568 1.8329968 -0.4693682 1.3223366 0.28807828 -0.28820434 -0.17964143 0.058881275
-0.05229466 0.022277758 0.09800072 0.7709195 0.061578088 0.5366979 1.9072834 1.4430189
-2.0077827 0.2977915 0.6486734 -0.739953 0.50662965 -0.077742204 -0.014115915 -0.2520885
0.044714764 0.940099 0.47875583 1.2349073 0.3661289 0.028275095 0.06702371 0.87820286
0.55418694 0.7706776 -0.11044625 0.5981483 1.1085966 -0.32530242 -0.23155566 0.24958438
0.076543026 -0.123546794 0.35049433 0.018667284 0.90349114 0.81390804 -0.12636073 -0.17495842
-0.3040269 -0.12746732 1.3110614 0.34166652 -1.3515424 0.2799643 0.29338792 -0.40584233
-0.24318549 0.04425653 0.5535414 1.1131142 -0.11107415 0.366744 -0.16399418 0.47005126
0.42560327 1.2835147 0.21948782 -0.3663546 0.5301744 0.8019286 -0.18697388 0.3031485
00000000: c808 973b ca53 a63e d8e2 05be 1b0c 3b3f
00000010: 83bd 8dbe ee14 b83d 5339 6e3f 8f5c 8a3f
00000020: c43c be3e a5fc b23d 20cd 38bb 36c0 8e3f
00000030: 0c1c 5bbe 227b 0a3f 4660 073f fc2e b0bd
00000040: bdd8 16be 14b6 8b3f 0070 1939 b27d 4a3d
00000050: b07a 9fbd b2e2 c1bd 8e20 5f3f 33e8 5c3f
00000060: 3d60 023f 6a69 98be 3aa5 20be edff 42be
00000070: febf 71bc d5dc 293f 2c50 803e 4b2b 60be
00000080: 2495 463e 56f2 163f 1c1f 70bd 0f1f c13e
00000090: 927a babe 7c50 e1bd fcf3 853e c78d 583f
000000a0: a61f 5ebf 3e04 5c3f e2d7 3c3f 3a6d f13e
000000b0: 17e3 a4be 5cd3 e8be 8ce6 35be 6c00 8a3f
000000c0: 99ef 57be b01a 343d 40f9 6c3f 3631 ddbd
000000d0: 5e84 303e a69e 033f a943 a63e 86a9 9c3d
000000e0: 5b2e f13e a49f ea3f 0751 f0be 5342 a93f
000000f0: ff7e 933e 858f 93be ecf3 37be 7e2d 713d
00000100: ed32 56bd d87f b63c 9ab4 c83d fb5a 453f
00000110: 4e39 7c3d 0965 093f dd21 f43f d8b4 b83f
00000120: 837f 00c0 2178 983e 760f 263f 8f6d 3dbf
00000130: 7bb2 013f 4e37 9fbd 7046 67bc be11 81be
00000140: d426 373d 54aa 703f 7c1f f53e 7111 9e3f
00000150: 3f75 bb3e 2ca1 e73c ba43 893d e7d1 603f
00000160: 32df 0d3f 214b 453f a531 e2bd 3f20 193f
00000170: 7ee6 8d3f 0a8e a6be ed1c 6dbe 0c93 7f3e
00000180: 97c2 9c3d 1a06 fdbd fe73 b33e 22ec 983c
00000190: 324b 673f 475c 503f b564 01be 4d28 33be
000001a0: 6aa9 9bbe cb86 02be dcd0 a73f eaee ae3e
000001b0: 57ff acbf 7b57 8f3e f136 963e 91ca cfbe
000001c0: 9e05 79be 5646 353d e4b4 0d3f 877a 8e3f
000001d0: d87a e3bd dfc5 bb3e 17ee 27be 8faa f03e
000001e0: ace8 d93e 364a a43f 6ac1 603e d592 bbbe
000001f0: 82b9 073f 314b 4d3f 1576 3fbe 4836 9b3e

functional_1/activation_13/Relu;functional_1/batch_normalization_13/FusedBatchNormV3;functional_1/depthwise_conv2d_6/depthwise;functional_1/depthwise_conv2d_6/BiasAdd;functional_1/depthwise_conv2d_11/depthwise;functional_1/depthwise_conv2d_6/BiasAdd/ReadVariableOp/resource f4 [128]
-0.35559696 0.83604765 -0.08906241 0.00088577345 -0.22265276 0.07722907 -0.8091039 -0.954967
-0.06786633 -0.09129155 -0.2654826 -0.27507833 -0.5550659 2.1426377 -0.41092083 -0.43495676
-0.35821742 -0.26088244 -0.49236268 0.03178191 -0.36299926 -0.03077703 0.5928219 0.25701514
-0.016948752 0.9685528 -0.34238794 -0.58491486 -0.23874089 1.4860033 -0.7302801 0.6052739
0.41360348 -0.24865893 -0.46271962 1.2989875 1.4559975 -0.1766958 0.85181415 0.49595255
0.07374198 1.0985227 0.23716003 -0.009213012 0.102939844 0.1420587 -0.51815856 -0.037049912
-0.48082292 -0.10329181 -0.46445575 -0.35642844 -0.5946266 -0.69763476 -0.034512334 0.3594447
-0.035809636 -0.9712349 -0.54965925 -0.70999056 -0.058483332 -0.41230598 -0.44720462 -0.3089748
-0.48973423 -0.12691365 0.08193876 0.39214033 0.04869293 1.3030456 2.6026788 1.3595031
-1.567567 -0.10377467 0.8570766 -0.3967679 0.18505311 -0.4503283 -0.4936048 -0.4205845
-0.024989957 2.219204 2.0797021 0.082424544 -0.1341587 0.25078598 0.01820638 -0.37771583
-0.17370957 -0.061086304 -0.45478177 -0.2877903 0.21484503 -0.41440982 -0.6924938 0.20207752
-0.2680477 -0.38064834 1.0039529 -0.254778 -0.26262888 -0.16930032 -0.36792785 -0.5144871
-0.38249832 -0.44480813 -0.9142174 0.02053607 0.19041452 -0.027692068 0.14739092 1.3515456
-0.6930957 -0.049632262 0.0446426 0.23506989 -0.5899738 -0.81335264 -0.5864032 0.31526428
0.03683517 1.5840716 0.071733996 -0.6429998 0.1470451 -0.16800374 -0.37950024 0.08544791
00000000: ce10 b6be 3807 563f 5a66 b6bd 4033 683a
00000010: 16ff 63be 462a 9e3d 6f21 4fbf b878 74bf
00000020: 81fd 8abd 10f7 babd 56ed 87be 11d7 8cbe
00000030: cc18 0ebf fa20 0940 3764 d2be a7b2 debe
00000040: 4668 b7be 6292 85be f616 fcbe c02d 023d
00000050: 0adb b9be 1c20 fcbc 2dc3 173f 7d97 833e
00000060: 1cd8 8abc 14f3 773f 794d afbe fbbc 15bf
00000070: 7e78 74be 5b35 be3f a3f3 3abf 3bf3 1a3f
00000080: d6c3 d33e 72a0 7ebe 96e9 ecbe 3945 a63f
00000090: 205e ba3f beef 34be 7e10 5a3f 7eed fd3e
000000a0: 0906 973d 649c 8c3f 14da 723e 2cf2 16bc
000000b0: 20d2 d23d d677 113e 0aa6 04bf a6c1 17bd
000000c0: 6c2e f6be a88a d3bd 25cd edbe ca7d b6be
000000d0: 7339 18bf 3198 32bf ce5c 0dbd 2309 b83e
000000e0: 20ad 12bd daa2 78bf 78b6 0cbf f1c1 35bf
000000f0: 388c 6fbd c519 d3be 01f8 e4be f231 9ebe
00000100: 72be fabe a7f5 01be 82cf a73d 9ec6 c83e
00000110: 3d72 473d 33ca a63f 4a92 2640 3304 ae3f
00000120: 09a6 c8bf d087 d4bd 5f69 5b3f 2a25 cbbe
00000130: 907e 3d3e 6e91 e6be c5b9 fcbe da56 d7be
00000140: bdb7 ccbc 7007 0e40 d719 0540 33ce a83d
00000150: e660 09be 0567 803e 8c25 953c f863 c1be
00000160: ece0 31be a235 7abd 28d9 e8be 4059 93be
00000170: 5600 5c3e 862d d4be 4647 31bf 69ed 4e3e
00000180: 8c3d 89be 57e4 c2be 8781 803f 4372 82be
00000190: 4b77 86be 105d 2dbe 0a61 bcbe 6db5 03bf
000001a0: d2d6 c3be e4bd e3be 270a 6abf 433b a83c
000001b0: 06fc 423e 7ada e2bc a5ed 163e 72ff ac3f
000001c0: b86e 31bf 334b 4bbd 29db 363d 29b6 703e
000001d0: 8608 17bf e137 50bf 851e 16bf 526a a13e
000001e0: 7ae0 163d dcc2 ca3f 46e9 923d a39b 24bf
000001f0: fe92 163e 2c09 2cbe db4d c2be 50ff ae3d

functional_1/batch_normalization_13/FusedBatchNormV3;functional_1/depthwise_conv2d_6/depthwise;functional_1/depthwise_conv2d_6/BiasAdd;functional_1/depthwise_conv2d_11/depthwise;functional_1/depthwise_conv2d_6/BiasAdd/ReadVariableOp/resource f4 [1, 3, 3, 128]
-0.2316418 -0.91513246 -0.3822584 0.64353293 -0.30657557 0.7196109 0.5036536 0.46849313
0.001973229 1.0892806 -0.5063943 -0.35291788 1.7399397 -0.4637809 0.10104984 -0.41697934
-0.3904617 1.0733206 -4.1602836 0.100493886 -2.4888895 -0.5629865 0.34577665 -0.5698326
-0.86858445 0.032185573 0.47672123 -0.5968475 0.6763151 -0.6138237 -0.18510036 0.07586879
-0.6166986 0.06699618 -0.23261993 -0.54770666 -0.70536065 -0.017234346 0.38060078 -0.15984745
0.3097698 0.038149547 1.6441159 0.23954935 -0.4749429 0.93274885 -2.0076714 -0.27714872
-4.032732 -2.1192484 1.0318542 -0.19168606 0.7823537 0.42686808 0.66139466 -0.5829715
-0.16453707 0.99475425 0.32200116 -0.33692473 1.3806174 -0.93812376 -0.15541705 -0.043616444
0.4688903 -9.081049 0.67546326 0.55037344 -0.5251862 -0.67457634 -0.91474336 0.25318068
0.1538707 -0.48073286 1.208906 0.13467908 1.0773543 -2.406624 -3.7571712 -0.05835558
-0.07519251 -0.48995414 -1.2811614 -0.5128983 -0.23880483 -0.87102944 0.019580394 -0.08123088
-0.95222795 0.5499422 -2.331256 -0.17524011 0.67308474 -4.2718244 0.21185626 0.18576363
-0.23814745 0.3350434 -0.15914844 -0.99313414 -0.4499486 -0.8285796 0.4805712 0.8173347
-0.39795518 -3.5406039 0.12141154 -0.048993718 -0.5308482 0.14325869 0.64785075 -0.5666351
-2.0111444 0.59555435 -0.69671774 -0.19956423 -7.173155 0.3245101 -1.1443343 -0.6481249
-0.3042515 0.1810269 -0.930183 0.10364319 0.053803105 -0.7945415 -1.2023404 -0.1810072
-0.30652407 0.8014428 -0.43999505 -0.9757726 -0.8279068 0.7010735 0.09012589 0.7154191
0.19529517 0.23439558 -0.23098569 -0.17945227 -2.3526382 0.35660267 -0.2660592 0.9301803
-0.3709971 -0.023124993 0.7652618 -0.35139734 -0.7588061 -0.782858 -0.5958234 0.07145373
-0.22950627 -0.70529324 0.21626118 0.06474262 -0.12520315 0.113173895 -0.026807789 1.014005
-0.340613 0.37940964 0.3420382 -0.25524908 -0.60208 -0.67273813 0.6924692 0.58005166
0.80199945 1.9477718 0.21849456 -1.0251623 -0.5915381 -0.16607857 -0.20753923 -0.1040936
-0.32543772 0.81220895 -0.23242354 -0.6891399 0.42908666 0.08277431 0.6366283 -1.1408602
-0.1272991 0.27349532 0.9385719 0.5607639 0.39062393 -4.6549625 -9.119474 0.11865462
-0.11626688 -0.5821294 -1.0664874 -0.14675662 -0.4938868 -0.80002064 -0.26216993 0.5121272
0.3651221 -0.29371122 -0.14657313 -0.894573 0.33881566 0.46763924 -1.6236655 2.4779694
0.060340952 -0.016724566 -1.1288222 -0.4750498 -0.39490905 0.04533922 -0.31753823 0.34930554
0.4590947 0.7055065 1.874157 -0.027592877 0.35327873 -1.3352642 -0.05935952 -0.684594
-0.25104535 -0.37201002 -1.2043855 0.6186381 -0.65855455 0.69050294 0.29511333 -4.2666945
-5.8438134 -8.572184 0.029338252 -0.17803963 -0.6272255 -0.64776623 -0.3072988 -0.71943676
-4.722641 0.54666936 -0.6095329 -0.29950163 -6.456398 0.75660473 1.6124707 -0.2345075
-0.07163918 0.005711612 0.92537045 -0.5133966 -0.22975878 -0.734781 0.1379736 0.5946212
00000000: 8233 6dbe 1f46 6abf 5fb7 c3be 93be 243f
00000010: 79f7 9cbe 6c38 383f 71ef 003f 55de ef3e
00000020: 4a51 013b 8c6d 8b3f 0fa3 01bf a7b1 b4be
00000030: 58b6 de3f b174 edbe 38f3 ce3d 517e d5be
00000040: 99ea c7be 9262 893f 0b21 85c0 bdcf cd3d
00000050: f749 1fc0 e21f 10bf a309 b13e 8de0 11bf
00000060: 8d5b 5ebf 05d5 033d ce14 f43e ffca 18bf
00000070: fd22 2d3f 8d23 1dbf f38a 3dbe 1961 9b3d
00000080: f6df 1dbf 4b35 893d eb33 6ebe 8136 0cbf
00000090: 8492 34bf 0b2f 8dbc 1bde c23e 0daf 23be
000000a0: 269a 9e3e b342 1c3d 6472 d23f 6d4c 753e
000000b0: b72b f3be a1c8 6e3f b07d 00c0 70e6 8dbe
000000c0: 240c 81c0 c4a1 07c0 cc13 843f 5a49 44be
000000d0: 5548 483f 748e da3e 2951 293f 9f3d 15bf
000000e0: 687c 28be 37a8 7e3f 56dd a43e 6681 acbe
000000f0: 12b8 b03f e128 70bf a625 1fbe 28a7 32bd
00000100: 6412 f03e fa4b 11c1 29eb 2c3f 46e5 0c3f
00000110: 9a72 06bf 09b1 2cbf 9f2c 6abf e6a0 813e
00000120: 4890 1d3e 9e22 f6be 6fbd 9a3f 50e9 093e
00000130: bfe6 893f 2106 1ac0 7e75 70c0 4306 6fbd
00000140: 88fe 99bd 45db fabe 19fd a3bf 4e4d 03bf
00000150: 4189 74be c9fb 5ebf 1067 a03c 605c a6bd
00000160: 36c5 73bf 03c9 0c3f 4c33 15c0 2572 33be
00000170: 484f 2c3f c9b2 88c0 d9f0 583e d238 3e3e
00000180: eddc 73be cf8a ab3e cff7 22be 0a3e 7ebf
00000190: aa5f e6be cb1d 54bf 6e0d f63e d93c 513f
000001a0: c8c0 cbbe 4199 62c0 9da6 f83d a3ad 48bd
000001b0: abe5 07bf 68b2 123e 8cd9 253f ff0e 11bf
000001c0: 97b6 00c0 4076 183f 185c 32bf 915a 4cbe
000001d0: 7c8a e5c0 3026 a63e 8c79 92bf 83eb 25bf
000001e0: dac6 9bbe 1e5f 393e 7920 6ebf e142 d43d
000001f0: a560 5c3d 1267 4bbf 4ae6 99bf f459 39be
00000200: b9f0 9cbe 5b2b 4d3f 0847 e1be 3ccc 79bf
00000210: b3f1 53bf 8e79 333f ec93 b83d b525 373f
00000220: 75fb 473e 6505 703e 8387 6cbe 56c2 37be
00000230: a091 16c0 a094 b63e e938 88be 4c20 6e3f
00000240: 55f3 bdbe a070 bdbc 33e8 433f 5aea b3be
00000250: 1e41 42bf 6269 48bf e287 18bf 5556 923d
00000260: b103 6bbe 198e 34bf 9273 5d3e c797 843d
00000270: 4135 00be b7c7 e73d 029c dbbc eaca 813f
00000280: d464 aebe fb41 c23e a21f af3e 02b0 82be
00000290: ea21 1abf 9138 2cbf a945 313f 447e 143f
000002a0: d64f 4d3f 9650 f93f 0abd 5f3e 8538 83bf
000002b0: 0a6f 17bf 8010 2abe 2a85 54be 062f d5bd
000002c0: c69f a6be edec 4f3f 7000 6ebe 796b 30bf
000002d0: 3fb1 db3e 9485 a93d 13fa 223f b507 92bf
000002e0: b25a 02be 9407 8c3e 3f46 703f 398e 0f3f
000002f0: dcff c73e 74f5 94c0 5ee9 11c1 3201 f33d
00000300: 541d eebd 6f06 15bf a982 88bf 5e47 16be
00000310: bbde fcbe 27ce 4cbf 233b 86be c51a 033f
00000320: 49f1 ba3e 5161 96be 4417 16be bc02 65bf
00000330: 3f79 ad3e 696e ef3e 45d4 cfbf 0d97 1e40
00000340: 1328 773d f501 89bc 3f7d 90bf ba39 f3be
00000350: 8531 cabe 9eb5 393d 5f94 a2be 2dd8 b23e
00000360: 760e eb3e 139c 343f 60e4 ef3f 750a e2bc
00000370: f3e0 b43e f0e9 aabf f822 73bd 8d41 2fbf
00000380: 0489 80be 1978 bebe 4e29 9abf 115f 1e3f
00000390: 0897 28bf cdc4 303f 1819 973e c388 88c0
000003a0: 8500 bbc0 aa27 09c1 c656 f03c 0550 36be
000003b0: da91 20bf 02d4 25bf 4556 9dbe 022d 38bf
000003c0: e01f 97c0 86f2 0b3f 590a 1cbf 4758 99be
000003d0: d09a cec0 d9b0 413f 7165 ce3f bc22 70be
000003e0: 90b7 92bd 7928 bb3b 14e5 6c3f f66d 03bf
000003f0: e345 6bbe 9c1a 3cbf f448 0d3e 1839 183f

functional_1/activation_14/Relu;functional_1/batch_normalization_14/FusedBatchNormV3;functional_1/conv2d_7/BiasAdd/ReadVariableOp/resource;functional_1/conv2d_7/BiasAdd;functional_1/depthwise_conv2d_11/depthwise;functional_1/conv2d_7/Conv2D f4 [128]
-0.09238822 0.61004454 0.3618641 0.109407276 -1.0138156 0.44193336 -0.19581887 0.43047583
-0.10174324 0.56684315 0.10117607 -0.14618428 0.50547945 -0.12416646 0.75994766 1.0021831
0.016200531 0.7969897 -0.5100342 -0.18336335 -0.1836681 -0.13227595 0.046096496 -0.097061366
-0.16427219 -0.009083666 -0.33234113 -0.62031054 -0.1036477 -0.12027232 -0.21310481 0.68862015
0.052316185 -1.6549261 -0.3924929 0.89922726 -1.1972706 -0.058480296 0.84871036 -0.1568455
0.74152786 0.008289498 -0.62697446 -0.009562521 -0.7236752 0.317833 0.987913 -0.2706433
-0.053455204 0.02411214 -0.13084307 -0.09569907 -0.039178103 -0.09767707 0.03140093 0.050445262
-0.783216 0.047050413 0.44212323 -0.27475703 -0.00033879653 0.4945251 0.6574346 -1.028521
-0.15808761 -0.6421006 0.67129225 0.32253698 0.28307706 -0.14854652 -0.10830147 0.029556543
-0.11905511 -0.0011981055 -0.021553263 -0.086241804 0.025220672 -0.009085145 -0.15721063 -0.15370026
-0.23850401 -0.16738132 0.04015723 -0.36891636 -0.17145543 -0.50345546 -0.057497885 -0.024463732
-0.26616928 -0.003084384 0.0037509352 -0.17061427 -0.7795017 -0.024531202 -0.010594815 -0.027981943
-0.13174534 -0.044754528 -0.18761857 0.030770125 -0.34304738 0.19956063 -0.1968287 0.110018544
-0.13761282 0.649645 -0.21662717 0.045240715 -0.05263604 0.076541185 0.25433466 -0.35002148
-0.024011552 -0.27137464 0.35186875 -0.014209654 0.28233027 -0.11705492 0.59744084 -0.96894383
-0.22200364 -0.016137153 -0.10670928 -0.053521458 0.022686187 0.020922694 -0.23242848 -0.27274695
00000000: 0936 bdbd e12b 1c3f 4046 b93e ec10 e03d
00000010: b6c4 81bf 1745 e23e be84 48be 5467 dc3e
00000020: c35e d0bd a21c 113f 6635 cf3d 55b1 15be
00000030: 1a67 013f fc4a febd ee8b 423f 8947 803f
00000040: fab6 843c 8407 4c3f 9a91 02bf 9ac3 3bbe
00000050: 7e13 3cbe 5973 07be aecf 3c3d 1cc8 c6bd
00000060: f836 28be a8d3 14bc 9e28 aabe accc 1ebf
00000070: 3f45 d4bd 5651 f6bd 2638 5abe 6949 303f
00000080: 7f49 563d 9ed4 d3bf d4f4 c8be c233 663f
00000090: 2a40 99bf 0989 6fbd 1545 593f 1b9c 20be
000000a0: c5d4 3d3f add0 073c 6681 20bf 1fac 1cbc
000000b0: c742 39bf 02bb a23e dee7 7c3f c291 8abe
000000c0: d8f3 5abd d386 c53c bafb 05be e0fd c3bd
000000d0: 3879 20bd ea0a c8bd 439e 003d b19f 4e3d
000000e0: d880 48bf efb7 403d fa5d e23e f4ac 8cbe
000000f0: 80a0 b1b9 6532 fd3e a24d 283f 93a6 83bf
00000100: b8e1 21be b460 24bf cfd9 2b3f 9123 a53e
00000110: 7aef 903e 941c 18be 29cd ddbd 9020 f23c
00000120: 2ad3 f3bd c009 9dba 7890 b0bc 8b9f b0bd
00000130: 959b ce3c dcd9 14bc d3fb 20be 9a63 1dbe
00000140: 653a 74be 0266 2bbe e87b 243d 9be2 bcbe
00000150: 0392 2fbe 75e2 00bf e782 6bbd 2a68 c8bc
00000160: 5747 88be 6023 4abb 40d2 753b 82b5 2ebe
00000170: 6c8d 47bf a9f5 c8bc e095 2dbc 633a e5bc
00000180: 40e8 06be 8650 37bd 151f 40be a111 fc3c
00000190: e8a3 afbe 9f59 4c3e 768d 49be 6751 e13d
000001a0: 60ea 0cbe 224f 263f 83d3 5dbe 544e 393d
000001b0: e398 57bd a0c1 9c3d 2738 823e 0436 b3be
000001c0: e0b3 c4bc 9ef1 8abe 2428 b43e 9ccf 68bc
000001d0: 988d 903e 7dba efbd e2f1 183f b40c 78bf
000001e0: ec54 63be 1032 84bc 658a dabd 5139 5bbd
000001f0: 62d8 b93c 1266 ab3c bb01 6ebe 7da5 8bbe

functional_1/activation_15/Relu;functional_1/batch_normalization_15/FusedBatchNormV3;functional_1/depthwise_conv2d_7/depthwise;functional_1/depthwise_conv2d_7/BiasAdd;functional_1/depthwise_conv2d_11/depthwise;functional_1/depthwise_conv2d_7/BiasAdd/ReadVariableOp/resource f4 [128]
-0.3974494 -1.0142965 -1.2072213 -0.17081024 -0.7038588 -1.2626585 -0.4233464 -0.18545711
-0.4047827 -1.2097794 -0.6300351 -0.40527514 -0.40361962 -0.41092038 -0.23131886 -0.08183898
-0.23613726 0.23690146 -0.62752324 -0.5321628 -0.3672578 -0.3470462 -0.15599227 0.005660191
-0.5136093 -0.6648484 -0.3974698 -0.9615999 -0.46954715 0.006416371 -0.32407776 -0.11212719
-0.03668308 -0.24211922 -0.27455646 -0.5625434 -0.4395158 -0.4725718 -0.14216773 -0.5373971
-0.08019103 0.14575079 -0.46065134 -0.42572722 -0.46640393 -0.48094636 -0.27400714 -0.3684401
-0.40975887 -0.97123146 -0.51234317 -0.4897108 -0.3915755 -0.45987076 -1.1555874 -0.0009953827
-0.17561767 0.031148799 -0.39068797 0.19695789 -0.45943728 -0.10381015 -1.3351727 -1.6443628
-0.44051898 -0.28375614 -1.1790143 -0.20084716 0.1470632 -0.45922044 -0.14499651 -0.006592959
-0.5366318 -0.53449756 -0.39956993 -0.033791892 -0.7049421 -0.605692 0.12527221 -0.51172453
-0.35197598 -0.4310814 -0.03166744 -0.3359336 -0.53317636 -0.49183407 -0.3525132 -0.46745712
-0.55582017 -0.4723044 -0.43161538 -0.3455876 -0.13168058 -0.43208393 -0.561132 -0.44155145
-0.4081394 -0.30093205 -0.31313166 -0.17499211 -0.3202592 -1.1046281 -0.33795956 -0.05860081
-0.37658542 -0.8071893 -0.36320937 -0.08277469 -0.5959553 0.007545054 -0.15865068 -0.38676515
-0.31717834 -0.38311705 -0.7936029 -0.36003911 -0.646902 -0.36941066 -1.1582888 -0.71793836
-0.3707164 -0.48712933 -0.07225634 -0.56741875 -0.21630411 -1.0627341 -1.3604803 -1.0489813
00000000: 7d7e cbbe 78d4 81bf 3a86 9abf e1e8 2ebe
00000010: 1730 34bf cb9e a1bf dcc0 d8be 78e8 3dbe
00000020: ae3f cfbe 0dda 9abf fb49 21bf 3980 cfbe
00000030: 3ba7 cebe 2864 d2be dade 6cbe 329b a7bd
00000040: f7cd 71be 4c96 723e 5da5 20bf d23b 08bf
00000050: 3709 bcbe 0ab0 b1be 70bc 1fbe 2079 b93b
00000060: e67b 03bf 8133 2abf 2981 cbbe 692b 76bf
00000070: 7c68 f0be 6c40 d23b 85ed a5be f1a2 e5bd
00000080: ff40 16bd 1aee 77be aa92 8cbe d802 10bf
00000090: 3708 e1be eef4 f1be 6b94 11be db92 09bf
000000a0: 323b a4bd b23f 153e 7eda ebbe ebf8 d9be
000000b0: 7fcc eebe 9a3e f6be aa4a 8cbe 2ea4 bcbe
000000c0: eacb d1be a0a2 78bf ec28 03bf 60bb fabe
000000d0: 957c c8be 2e74 ebbe 4aea 93bf 8077 82ba
000000e0: 1ed5 33be c42b ff3c 4108 c8be 54af 493e
000000f0: 5d3b ebbe 6a9a d4bd f0e6 aabf 7b7a d2bf
00000100: b48b e1be 7c48 91be f1e9 96bf e1aa 4dbe
00000110: bc97 163e f11e ebbe f779 14be c009 d8bb
00000120: b460 09bf d5d4 08bf 6e94 ccbe 5e69 0abd
00000130: 1677 34bf a20e 1bbf 5c47 003e 6100 03bf
00000140: 3236 b4be b4b6 dcbe b8b5 01bd 7dff abbe
00000150: 3f7e 08bf add1 fbbe 9c7c b4be 8a56 efbe
00000160: 3b4a 0ebf e2d1 f1be b1fc dcbe dcf0 b0be
00000170: 46d7 06be 1b3a ddbe 59a6 0fbf 0813 e2be
00000180: a6f7 d0be c413 9abe cb52 a0be 2231 33be
00000190: 04f9 a3be 7464 8dbf 0909 adbe 6707 70bd
000001a0: cecf c0be f5a3 4ebf 94f6 b9be c785 a9bd
000001b0: 8790 18bf 803c f73b 5375 22be 1506 c6be
000001c0: 3365 a2be eb27 c4be 8f29 4bbf 0c57 b8be
000001d0: 5f9b 25bf 6523 bdbe cf42 94bf cfca 37bf
000001e0: 8ace bdbe 0469 f9be 22fb 93bd 5b42 11bf
000001f0: d37e 5dbe ac07 88bf 3824 aebf 0545 86bf

functional_1/batch_normalization_15/FusedBatchNormV3;functional_1/depthwise_conv2d_7/depthwise;functional_1/depthwise_conv2d_7/BiasAdd;functional_1/depthwise_conv2d_11/depthwise;functional_1/depthwise_conv2d_7/BiasAdd/ReadVariableOp/resource f4 [1, 3, 3, 128]
-1.4781989 0.5124767 0.10076336 -0.40771413 0.43545276 -0.20281939 -2.1977122 -0.61484516
-5.192668 0.2326154 0.6178847 -0.0017390872 -0.035189193 0.87159026 0.16639315 -0.1362054
0.12355682 -0.6894052 0.73027164 -0.02346649 -1.0474865 -0.65620214 0.5916698 -1.2106878
0.8717795 -5.3035073 -2.3799064 0.42655462 0.12987508 -0.6109087 -0.40986443 0.7294915
-0.40217578 -0.5326699 -8.54058 1.8311901 -0.87319934 -0.9090737 0.65064096 -0.6581126
0.31093252 -0.7143028 1.0205928 -1.4906912 -0.802275 0.48978615 -1.2863026 -0.61315787
-0.21171448 0.20590241 -1.4376771 0.64773744 -4.089566 0.060550477 0.80238754 -3.091495
-0.3995141 -3.4329977 -0.28048393 0.8587606 -4.7835407 0.016279282 0.17887096 0.3361435
-0.30267328 0.6569471 0.25570738 -0.7832975 0.18285179 -0.9113364 0.09315252 -4.634495
-6.990553 -4.6380153 0.37659293 0.0013069266 -0.17404416 -5.5179973 0.4072602 0.9969877
0.1162558 0.6824251 -4.340817 0.19807674 -2.8234582 -0.148802 0.9390519 -3.1962352
-0.19798908 -2.681943 -5.1241074 -0.3064439 2.792585 -3.7019796 -7.337088 -6.031635
-5.0741763 -4.4264555 -1.3010323 -1.623661 -1.279074 -0.10366876 -5.0715365 -0.45232442
-0.26196152 -0.083989024 -0.022303782 -0.32973707 -2.5133574 -0.046217497 -0.3151137 0.26279858
-1.8654704 -5.7020974 -0.14074752 -6.972117 -0.015871238 -1.4653677 0.8248651 0.581107
0.76976204 -2.779928 0.63270617 -7.523443 -6.351835 0.13018934 -0.60555845 0.026411807
1.0932282 -0.41271985 0.18828285 -0.33682305 1.4066093 0.00065542245 -1.2028033 0.36512446
-2.0713491 0.22699887 0.5961365 -0.26694933 -0.36834207 -1.0428823 0.8388519 -0.67606455
-0.30390176 0.5086228 0.57162696 -3.504696 -7.367483 -0.044641804 -1.2804887 0.51611847
-3.1106708 -1.5431142 -1.8522067 0.31846738 1.0844803 0.55508435 1.1801184 0.6106569
-1.0799725 0.17555587 -2.344227 0.22219755 0.6998863 0.3211371 0.45700487 0.6610232
-0.26100188 -0.30476266 0.16912307 0.32227993 -1.2438663 0.61477613 0.30459636 -0.017254734
-1.9469559 0.7026464 -4.5092864 -1.1534463 0.15456946 -2.2520578 0.10488508 -0.5284773
0.08723726 0.88308984 0.1883963 -0.26350012 -1.9990034 0.046818126 0.63029426 0.029372541
-2.9335096 0.5969897 0.29894543 -0.34994507 0.23866259 -4.8087325 -0.73052174 -2.7491927
-0.4720391 -4.370258 -2.6180208 0.21778688 0.09077322 -2.4484572 -0.30153313 -3.5673447
-0.21629326 -2.4828908 -3.3501098 0.6885589 -5.988483 0.060787767 -0.5211147 0.4896896
1.1260504 -0.33718616 -4.862721 -2.093837 1.6522986 1.0822128 -1.3399893 -0.27842537
-3.8941607 -0.3812883 0.3273481 0.29376644 -4.0655456 0.20621309 -0.7397506 -0.29782447
-6.1729856 -0.045698207 0.057263017 -1.2943194 0.4926693 -0.3202338 -0.36879104 1.3521826
1.177023 -0.58247495 0.05978173 -0.7040544 0.1474976 0.73645365 0.84769183 -0.778797
-1.8685784 -0.59506035 -0.42940968 -2.6497285 -2.8290138 0.6068472 0.0019189066 -0.11045089
00000000: 9f35 bdbf ac31 033f 055d ce3d e8bf d0be
00000010: aaf3 de3e e3af 4fbe 51a7 0cc0 7e66 1dbf
00000020: 562a a6c0 bb32 6e3e b12d 1e3f 15f2 e3ba
00000030: 8b22 10bd 8a20 5f3f f762 2a3e 6e79 0bbe
00000040: 5c0b fd3d dc7c 30bf 15f3 3a3f cc3c c0bc
00000050: 0a14 86bf ddfc 27bf ac77 173f d1f7 9abf
00000060: f12c 5f3f 55b6 a9c0 6350 18c0 5e65 da3e
00000070: f9fd 043e 8364 1cbf c0d9 d1be f4bf 3a3f
00000080: fce9 cdbe 0e5d 08bf 37a6 08c1 7064 ea3f
00000090: fe89 5fbf 0eb9 68bf 6890 263f 117a 28bf
000000a0: 8c32 9f3e 8cdc 36bf c9a2 823f f8ce bebf
000000b0: e561 4dbf 40c5 fa3e 90a5 a4bf eaf7 1cbf
000000c0: aecb 58be 15d8 523e ce05 b8bf 1fd2 253f
000000d0: badd 82c0 c703 783d 4569 4d3f 0edb 45c0
000000e0: 1d8d ccbe 3cb6 5bc0 979b 8fbe bcd7 5b3f
000000f0: c412 99c0 215c 853c f329 373e 001b ac3e
00000100: fef7 9abe af2d 283f 14ec 823e 2f86 48bf
00000110: 803d 3b3e 584d 69bf c0c6 be3d c84d 94c0
00000120: 9cb2 dfc0 9f6a 94c0 cad0 c03e 2e4d ab3a
00000130: a238 32be 6f93 b0c0 6984 d03e 963a 7f3f
00000140: 8517 ee3d 69b3 2e3f f9e7 8ac0 a1d4 4a3e
00000150: 8ab3 34c0 8d5f 18be b565 703f 1e8f 4cc0
00000160: a6bd 4abe f4a4 2bc0 b0f8 a3c0 37e6 9cbe
00000170: b6b9 3240 3ced 6cc0 6dc9 eac0 2703 c1c0
00000180: a75f a2c0 86a5 8dc0 3a88 a6bf 20d4 cfbf
00000190: b2b8 a3bf 4950 d4bd 074a a2c0 1197 e7be
000001a0: d21f 86be 7002 acbd 6cb6 b6bc 4cd3 a8be
000001b0: d9da 20c0 8f4e 3dbd 9556 a1be 898d 863e
000001c0: bcc7 eebf 9577 b6c0 1e20 10be 951b dfc0
000001d0: 6604 82bc 2b91 bbbf 5c2a 533f 6ec3 143f
000001e0: 200f 453f 57ea 31c0 08f9 213f 0cc0 f0c0
000001f0: 3b42 cbc0 5b50 053e e105 1bbf 935d d83c
00000200: e7ee 8b3f 0450 d3be 38cd 403e 1274 acbe
00000210: c60b b43f a8d0 2b3a 75f5 99bf 98f1 ba3e
00000220: fc90 04c0 6472 683e 679c 183f 95ad 88be
00000230: 5597 bcbe 2b7d 85bf 00bf 563f 9112 2dbf
00000240: 0399 9bbe 1b35 023f 2556 123f f04c 60c0
00000250: 6cc2 ebc0 53da 36bd 0ee7 a3bf 5720 043f
00000260: 3b15 47c0 c484 c5bf 1c15 edbf 280e a33e
00000270: 40d0 8a3f 021a 0e3f 1f0e 973f 0354 1c3f
00000280: 8a3c 8abf ebc4 333e d107 16c0 c187 633e
00000290: c02b 333f 156c a43e 8bfc e93e d138 293f
000002a0: 0aa2 85be da09 9cbe 992e 2d3e e001 a53e
000002b0: 0337 9fbf f861 1d3f 0ef4 9b3e cd59 8dbc
000002c0: da35 f9bf a2e0 333f 134c 90c0 21a4 93bf
000002d0: 7547 1e3e b721 10c0 fdcd d63d 4a4a 07bf
000002e0: 73a9 b23d 2d12 623f f6ea 403e 7de9 86be
000002f0: 58df ffbf 5dc4 3f3d f75a 213f af9e f03c
00000300: 9fbe 3bc0 51d4 183f 600f 993e 002c b3be
00000310: f763 743e 23e1 99c0 7903 3bbf c6f2 2fc0
00000320: 1caf f1be 27d9 8bc0 a78d 27c0 8603 5f3e
00000330: 4fe7 b93d 86b3 1cc0 8d62 9abe 604f 64c0
00000340: fb7b 5dbe afe7 1ec0 3368 56c0 6545 303f
00000350: a7a1 bfc0 98fc 783d c667 05bf 98b8 fa3e
00000360: 6b22 903f aaa3 acbe 699b 9bc0 6d01 06c0
00000370: 857e d33f f385 8a3f c584 abbf c58d 8ebe
00000380: ee39 79c0 3838 c3be 2c9a a73e 8e68 963e
00000390: f318 82c0 8629 533e 4c60 3dbf 737c 98be
000003a0: 1989 c5c0 0b2e 3bbd a08c 6a3d 42ac a5bf
000003b0: 273f fc3e aff5 a3be 2ed2 bcbe 5214 ad3f
000003c0: b1a8 963f 141d 15bf b0dd 743d e93c 34bf
000003d0: 9c09 173e 3a88 3c3f 5502 593f 3d5f 47bf
000003e0: 942d efbf e055 18bf 96db dbbe 2795 29c0
000003f0: 900e 35c0 575a 1b3f d283 fb3a 1434 e2bd

functional_1/activation_16/Relu;functional_1/batch_normalization_16/FusedBatchNormV3;functional_1/conv2d_8/BiasAdd/ReadVariableOp/resource;functional_1/conv2d_8/BiasAdd;functional_1/depthwise_conv2d_11/depthwise;functional_1/conv2d_8/Conv2D f4 [128]
-0.30434775 -0.978038 1.5742912 -0.10020815 -1.0186349 -0.06856209 1.2704382 0.69137
-0.37881476 -0.16093937 -0.067200035 -0.15696022 0.8403681 -0.11322116 -0.34649926 0.012214076
-0.17575319 -0.33224645 0.10615093 -0.23883459 -0.075602576 -0.08637121 -0.14497371 -0.44527006
-0.8329324 -0.53425694 0.24045186 -0.19079156 0.07745915 0.06066608 -0.006388899 -0.1634615
-0.069911405 -0.003190931 -0.03177394 -0.000121938065 0.16137682 -0.07091123 0.032587096 0.07589217
-0.047949266 -0.11004563 0.0620367 -0.18968636 -0.028392503 -0.12593953 -0.25400937 0.04655905
-0.030578146 -0.09492307 -0.13771936 0.50808144 -0.20253587 -0.2363245 0.107318655 -0.13212729
-0.1698731 -0.021218596 -0.6567871 0.054987907 -0.047310326 -0.18963668 1.4583131 0.5769726
0.042853914 -0.1790463 -0.38201654 -0.19551513 -0.13913469 0.08998958 -0.3342997 -0.15246901
-0.105178654 -0.019388512 -0.074418806 -0.1634378 -0.37870756 -0.11580965 -0.11822467 -0.20487434
-0.061508976 -1.0640057 -0.95367724 -0.064805105 -0.1265679 0.6316887 0.9482374 -0.09836573
-0.20666347 -0.1798482 -0.24911337 0.038937286 -0.11123835 0.40798914 -0.04145277 -0.5573969
-0.14441298 -0.1250997 -1.1751623 -0.16198859 -0.20407286 -0.037064996 -0.1652303 -0.10087484
-0.049460504 -0.20297559 0.04469662 0.057695605 -0.1522072 -0.12269821 -0.104326956 0.445797
-0.07055892 -0.3423914 -0.38999408 -0.06643219 0.067625664 -0.23810561 -0.11905294 -0.0923132
0.04051958 -0.4974316 0.31087092 -0.11290094 -0.19136348 -0.077321775 -0.23671901 -0.24892974
00000000: 78d3 9bbe b360 7abf 6082 c93f ee39 cdbd
00000010: a162 82bf 486a 8cbd b89d a23f a0fd 303f
00000020: 02f4 c1be 4acd 24be 2ca0 89bd 2eba 20be
00000030: 5d22 573f 7fe0 e7bd 5a68 b1be 8c1d 483c
00000040: a5f8 33be 351c aabe a965 d93d 0e91 74be
00000050: 86d5 9abd 64e3 b0bd fd73 14be 70fa e3be
00000060: 0f3b 55bf 10c5 08bf 0339 763e dd5e 43be
00000070: e7a2 9e3d ff7c 783d f859 d1bb 7462 27be
00000080: b62d 8fbd f01e 51bb 6425 02bd 00b9 ffb8
00000090: f73f 253e e839 91bd 0c7a 053d 5b6d 9b3d
000000a0: 7366 44bd 9a5f e1bd 321a 7e3d 243d 42be
000000b0: 6597 e8bc 4bf6 00be 840d 82be b4b4 3e3d
000000c0: 057f fabc 0767 c2bd 4e06 0dbe a011 023f
000000d0: 9065 4fbe 0dff 71be e2c9 db3d 604c 07be
000000e0: 37f3 2dbe 9fd2 adbc 3323 28bf 003b 613d
000000f0: 79c8 41bd 1e30 42be 01aa ba3f 7ab4 133f
00000100: 9687 2f3d ea57 37be ac97 c3be 1e35 48be
00000110: 5379 0ebe 754c b83d 5529 abbe d620 1cbe
00000120: e867 d7bd a8d4 9ebc e368 98bd 3d5c 27be
00000130: f5e5 c1be 9c2d edbd c71f f2bd 94ca 51be
00000140: d6f0 7bbd 5731 88bf 3124 74bf 8ab8 84bd
00000150: 049b 01be 5ab6 213f b0bf 723f f973 c9bd
00000160: 979f 53be 202a 38be 9317 7fbe b47c 1f3d
00000170: efd0 e3bd f4e3 d03e 61ca 29bd 90b1 0ebf
00000180: ffe0 13be 231a 00be b86b 96bf 56e0 25be
00000190: 7af8 50be 77d1 17bd 2232 29be 7897 cebd
000001a0: 1997 4abd d5d8 4fbe ce13 373d 3a52 6c3d
000001b0: 34dc 1bbe 3349 fbbd 5fa9 d5bd 813f e43e
000001c0: 3281 90bd ed4d afbe 4ead c7be 9a0d 88bd
000001d0: 537f 8a3d f5d1 73be 07d2 f3bd b40e bdbd
000001e0: dcf7 253d 5baf febe 792a 9f3e 9c38 e7bd
000001f0: caf4 43be e15a 9ebd 7866 72be 70e7 7ebe

functional_1/activation_17/Relu;functional_1/batch_normalization_17/FusedBatchNormV3;functional_1/depthwise_conv2d_8/depthwise;functional_1/depthwise_conv2d_8/BiasAdd;functional_1/depthwise_conv2d_11/depthwise;functional_1/depthwise_conv2d_8/BiasAdd/ReadVariableOp/resource f4 [128]
-0.3146633 -0.44787368 -0.6911478 -0.49362534 -0.97308004 -0.3652978 -0.7044206 -0.22490525
-0.52380997 -0.38828504 -0.41562125 -0.53368235 -0.10665837 -0.37261513 -0.13233924 -0.33579415
-0.42988014 -0.007531639 0.05143097 -0.4209086 -0.36841112 -0.4400999 -0.49655995 -0.49943486
-0.08818934 -0.5044117 -0.09284742 -0.31178677 0.009643078 -0.054364294 -0.38528705 -0.35551488
-0.45517334 -0.5190568 -0.3649262 -0.41980058 -0.16823655 -0.4576936 -0.070344806 0.03811417
-0.35427827 -0.33255985 -0.08376182 -0.41385865 -0.4116604 -0.45954 -0.36887228 -0.027415812
-0.4251093 -0.38077474 -0.35213926 0.8200199 -0.42702454 -0.35769078 0.02514908 -0.4349315
-0.31254172 -0.47590902 -0.2995238 -1.3081086 -0.47566003 -0.31133097 -0.41136724 -0.67076033
-0.02225867 -0.34545287 -0.42335975 -0.34767553 -0.37462544 -0.07498003 -0.33945152 -0.66617006
-0.4068694 -0.3373598 -0.4202265 -0.37172067 -0.35722378 -0.40324393 -0.3976366 -0.30802697
-0.36691993 -0.6577487 -0.9648397 -0.24032238 -0.37906578 -1.5875833 -0.057203945 -0.41210645
-0.39064014 -0.36079842 -0.38506266 -0.25667995 -0.3454519 -0.6200488 -0.38434264 -0.17675783
-0.42552382 -0.34792024 -0.43920603 -0.39434925 -0.23457241 -0.2201356 -0.30237857 -0.37007612
-0.4591255 -0.3165331 -0.07524114 -0.026551902 -0.478852 -0.45544425 -0.38429907 -0.68174195
-0.37153578 -0.40938607 -0.2990658 -0.3813273 -0.023469359 -0.31783473 -0.5025753 -0.47778067
-0.0224801 -0.6150853 -0.8766585 -0.35460377 -0.39963126 -0.35479793 -0.30405682 -0.4189502
00000000: 8c1b a1be b34f e5be 10ef 30bf 76bc fcbe
00000010: c61b 79bf 5008 bbbe e954 34bf 904d 66be
00000020: 6918 06bf 4ccd c6be 4fcc d4be 689f 08bf
00000030: b46f dabd 69c7 bebe f083 07be 36ed abbe
00000040: 4019 dcbe f8cb f6bb 48a9 523d 5581 d7be
00000050: 62a0 bcbe c654 e1be 1b3d febe edb5 ffbe
00000060: 9d9c b4bd 2021 01bf ca26 bebd 84a2 9fbe
00000070: 00fe 1d3c 18ad 5ebd 5844 c5be 0c06 b6be
00000080: 7b0c e9be e8e0 04bf 9bd7 babe 1af0 d6be
00000090: 3446 2cbe d156 eabe f010 90bd 9b1d 1c3d
000000a0: f663 b5be 4945 aabe 518b abbd 48e5 d3be
000000b0: 27c5 d2be d448 ebbe d4dc bcbe 2097 e0bc
000000c0: eda7 d9be e8f4 c2be 994b b4be d3ec 513f
000000d0: f6a2 dabe 3f23 b7be 7205 ce3c 57af debe
000000e0: 7805 a0be 59aa f3be 2f5b 99be 1a70 a7bf
000000f0: b689 f3be c666 9fbe ba9e d2be f3b6 2bbf
00000100: d057 b6bc 33df b0be 9cc2 d8be 8702 b2be
00000110: e8ce bfbe 218f 99bd 97cc adbe 1f8a 2abf
00000120: 3051 d0be 6cba acbe ee27 d7be 2c52 bebe
00000130: 09e6 b6be fd75 cebe 0697 cbbe b6b5 9dbe
00000140: eedc bbbe 3862 28bf bcff 76bf 1217 76be
00000150: e914 c2be ee35 cbbf af4e 6abd 9eff d2be
00000160: fc01 c8be 92ba b8be ef26 c5be 8e6b 83be
00000170: 12df b0be 85bb 1ebf 8fc8 c4be 0100 35be
00000180: 42de d9be 9a22 b2be 9ddf e0be 25e8 c9be
00000190: c033 70be 3a6b 61be 5dd1 9abe 9e7a bdbe
000001a0: 7f12 ebbe a010 a2be 0718 9abd 6083 d9bc
000001b0: 172c f5be fd2f e9be d9c2 c4be a486 2ebf
000001c0: f039 bebe 0d9b d1be 271f 99be 553d c3be
000001d0: d042 c0bc 3cbb a2be c6a8 00bf ab9f f4be
000001e0: 3028 b8bc 3b76 1dbf b16c 60bf a08e b5be
000001f0: 789c ccbe 13a8 b5be 56ad 9bbe a480 d6be

functional_1/batch_normalization_17/FusedBatchNormV3;functional_1/depthwise_conv2d_8/depthwise;functional_1/depthwise_conv2d_8/BiasAdd;functional_1/depthwise_conv2d_11/depthwise;functional_1/depthwise_conv2d_8/BiasAdd/ReadVariableOp/resource f4 [1, 3, 3, 128]
-0.6375433 1.1802186 0.016963005 -0.39593676 0.13024749 -0.75952196 -0.27876255 0.22823389
-0.23222338 -1.2549905 -0.43061256 -0.8453758 0.039108895 -2.6588318 -0.052408136 -4.400422
0.27989864 -0.49595183 -0.75221515 -5.391657 -2.0581212 0.13262443 0.0579287 -5.357457
-0.67559236 -0.010349777 -1.0284452 0.1727628 -0.5724038 -0.5308307 -0.3822328 -0.009232447
-1.1470524 1.7372499 0.3755848 -0.13079603 -0.5412994 -4.867187 -0.0626205 -0.7219435
-5.354674 0.50723237 0.7981266 -2.94126 -3.1989932 0.11870494 -2.633313 0.14962833
-0.9079302 -0.21218425 0.29838398 -0.9768081 -1.5194019 0.7533533 -1.7375989 -3.4830592
-9.023437 -0.33836254 -0.33173501 0.19095522 0.93292075 -0.5882871 0.37575182 0.21889006
-0.36422324 -4.9621987 -1.2783315 -7.172824 -0.7086536 -0.16491781 0.21562062 -0.109626
-4.1333885 -0.70778143 -0.3897913 0.21175937 -5.22952 -3.3307996 0.9001114 -3.074397
-0.16464952 0.27612078 -0.17472275 0.33138523 0.43561894 0.5363312 0.15999667 -1.1701999
0.8073347 0.62498003 -0.034209922 -1.2758942 -4.8750653 0.38890767 -2.2442021 -4.054255
-1.7196194 0.62784606 1.3045251 -0.7916331 -0.56477886 -2.4974003 -0.5284139 -2.584129
0.35296533 0.47942966 -1.0520188 -5.1063633 0.88446367 -0.81159437 -1.8811357 -0.39269295
-0.08524289 1.1076627 -1.2374024 -6.076546 0.20405118 0.29651162 -3.6013727 -2.299893
2.430568 0.35853297 0.2073033 -0.04595493 -1.5209703 -3.0352883 0.082492806 -5.856391
0.1862565 -0.2049606 -0.13879208 -6.1119466 0.09250804 0.0058280644 -0.16207758 -0.030424166
-0.32913825 0.4765301 -0.40615344 2.0553 0.008451187 -1.5622376 0.72099775 -2.2387938
-0.9439799 -0.45692143 -0.39112645 -4.1250277 0.5961472 -2.1674032 -3.018798 -4.978036
-0.11831641 0.23900138 -0.06035601 0.3265684 -2.8691595 -0.1544325 1.7084801 -2.3238187
-3.7687533 0.09255278 -0.43960017 -0.4352698 -0.4103392 -2.3500245 0.67957664 0.48556095
1.3376496 -2.7270026 -2.6838894 -0.77951 -1.0270057 0.55991733 0.23260178 -0.078883134
-4.2981853 0.13065857 -1.8593597 0.39589196 -1.6271652 -1.2479056 -0.47752732 0.32084236
0.44626802 -0.0784404 -0.6547824 -0.028810605 -3.3209941 -2.4433038 0.4156287 0.65819776
0.34386453 -3.7594678 -4.428464 -7.8645897 -3.9204807 -0.11760945 -0.17268673 -0.10258624
-2.720396 0.4685124 0.041517828 -2.9144473 -0.20203212 -3.0878403 -1.2995131 -6.599182
-0.880662 1.341391 0.28496984 -0.6670396 -1.3474959 0.47747976 0.043366656 -3.2398868
-2.4102302 -1.6343015 -1.1118795 -2.7372017 -0.39372098 -0.69973004 -0.006821032 -5.433611
-3.7090924 -0.39050534 0.2974352 -4.3935986 0.112070955 0.19711617 -0.44575825 0.12122965
-1.4615927 -4.032576 -1.270044 -1.7731373 -2.4180052 1.286293 -0.061824225 -0.752666
-0.679822 -0.093958415 -0.66346705 -4.400743 0.5680465 -0.88124 -9.848284 -2.8215327
-1.751101 0.5232947 -0.12346586 -2.3593342 -0.05553515 -3.366124 0.61206853 -2.0405195
00000000: 0a36 23bf 6711 973f 00f6 8a3c 39b8 cabe
00000010: 995f 053e 0870 42bf f7b9 8ebe 25b6 693e
00000020: f7cb 6dbe 87a3 a0bf 4079 dcbe 8c6a 58bf
00000030: a630 203d 4d2a 2ac0 eaa9 56bd 42d0 8cc0
00000040: e04e 8f3e 66ed fdbe 2c91 40bf 7488 acc0
00000050: 42b8 03c0 b3ce 073e a546 6d3d 4a70 abc0
00000060: 9ff3 2cbf 1c92 29bc 18a4 83bf bbe8 303e
00000070: 0e89 12bf 85e4 07bf 04b4 c3be b043 17bc
00000080: 9dd2 92bf 345e de3f a74c c03e 65ef 05be
00000090: 9992 0abf ffbf 9bc0 2d3f 80bd 4ad1 38bf
000000a0: 7d59 abc0 fbd9 013f 0652 4c3f 9b3d 3cc0
000000b0: 4ebc 4cc0 931b f33d 3388 28c0 2b38 193e
000000c0: 1d6e 68bf d446 59be c9c5 983e 1810 7abf
000000d0: c37b c2bf c3db 403f a469 debf 71ea 5ec0
000000e0: ff5f 10c1 db3d adbe 2cd9 a9be c489 433e
000000f0: e5d3 6e3f fc99 16bf 8b62 c03e b724 603e
00000100: 787b babe 55ca 9ec0 5ea0 a3bf c687 e5c0
00000110: 536a 35bf 37e0 28be a7cb 5c3e 9983 e0bd
00000120: b844 84c0 2a31 35bf ba92 c7be 73d7 583e
00000130: 3a58 a7c0 d22b 55c0 b36d 663f ecc2 44c0
00000140: e299 28be b45f 8d3e 85ea 32be 53ab a93e
00000150: 7209 df3e 004d 093f 2bd6 233e 1cc9 95bf
00000160: 7dad 4e3f b1fe 1f3f b41f 0cbd 8050 a3bf
00000170: 8900 9cc0 e81e c73e 02a1 0fc0 75bc 81c0
00000180: 7d1c dcbf 85ba 203f aefa a63f 78a8 4abf
00000190: 5995 10bf 68d5 1fc0 2246 07bf 5f62 25c0
000001a0: dfb7 b43e ce77 f53e 8da8 86bf 5467 a3c0
000001b0: 366c 623f a6c4 4fbf 0ec9 f0bf 0d0f c9be
000001c0: d393 aebd e4c7 8d3f 3463 9ebf 1173 c2c0
000001d0: cbf2 503e 5fd0 973e e47c 66c0 7231 13c0
000001e0: 6d8e 1b40 a291 b73e 5147 543e 3d3b 3cbd
000001f0: 28af c2bf 2a42 42c0 fdf1 a83d 8e67 bbc0
00000200: 06ba 3e3e 31e1 51be 831f 0ebe 1195 c3c0
00000210: db74 bd3d 59f9 be3b aaf7 25be 1a3c f9bc
00000220: cf84 a8be c1fb f33e 58f3 cfbe 098a 0340
00000230: d976 0a3c 67f7 c7bf 4f93 383f 6648 0fc0
00000240: aba8 71bf 9bf1 e9be ba41 c8be 3a00 84c0
00000250: 1a9d 183f bcb6 0ac0 fd33 41c0 124c 9fc0
00000260: e04f f2bd c7bc 743e dd37 77bd f933 a73e
00000270: 4fa0 37c0 8e23 1ebe 7aaf da3f 72b9 14c0
00000280: 4133 71c0 508c bd3d 4613 e1be afdb debe
00000290: fb17 d2be cd66 16c0 bcf8 2d3f 729b f83e
000002a0: 1a38 ab3f 3687 2ec0 d8c4 2bc0 f88d 47bf
000002b0: ec74 83bf be56 0f3f 292f 6e3e 7b8d a1bd
000002c0: bc8a 89c0 5ccb 053e 80ff edbf 5ab2 ca3e
000002d0: f346 d0bf 5fbb 9fbf 767e f4be 7345 a43e
000002e0: 3e7d e43e 5ca5 a0bd d29f 27bf 3804 ecbc
000002f0: 2b8b 54c0 175f 1cc0 49cd d43e a67f 283f
00000300: 030f b03e 1f9b 70c0 fab5 8dc0 b8aa fbc0
00000310: 28e9 7ac0 39dd f0bd cad4 30be bc18 d2bd
00000320: f81a 2ec0 dbe0 ef3e 990e 2a3d 4e86 3ac0
00000330: 82e1 4ebe 2d9f 45c0 7256 a6bf 802c d3c0
00000340: 1173 61bf b3b2 ab3f 91e7 913e 1bc3 2abf
00000350: bf7a acbf 3a78 f43e 3ca1 313d 4e5a 4fc0
00000360: 3641 1ac0 cb30 d1bf 1152 8ebf 502e 2fc0
00000370: cc95 c9be 8221 33bf f782 dfbb 24e0 adc0
00000380: c561 6dc0 51f0 c7be 6d49 983e 5c98 8cc0
00000390: 7585 e53d d2d8 493e 6d3a e4be 4047 f83d
000003a0: 7815 bbbf dd0a 81c0 cd90 a2bf 2af6 e2bf
000003b0: 99c0 1ac0 40a5 a43f 663b 7dbd b8ae 40bf
000003c0: d108 2ebf 456d c0bd fad8 29bf e3d2 8cc0
000003d0: 7f6b 113f f298 61bf 9292 1dc1 fe93 34c0
000003e0: 1424 e0bf a4f6 053f abdb fcbd 55ff 16c0
000003f0: d378 63bd 936e 57c0 86b0 1c3f df97 02c0
