benchmark/training/streaming_wakeword/trained_models/str_ww_ref_model.tflite (tflite, 74520 bytes, 9 tensors)

model/dense/MatMul i1 [3, 32] scale=0.010422031 zero_point=0
0	0xe7	-0.2605508
1	0xe6	-0.27097282
2	0xd3	-0.4689914
3	0xd5	-0.44814736
4	0xf8	-0.08337625
5	0x22	0.35434908
6	0xac	-0.8754506
7	0xf6	-0.104220316
8	0xde	-0.35434908
9	0x15	0.21886265
10	0xbc	-0.70869815
11	0xe3	-0.3022389
12	0xbd	-0.6982761
13	0xc9	-0.5732117
14	0xba	-0.7295422
15	0xbd	-0.6982761
16	0xdb	-0.38561517
17	0x3b	0.6148999
18	0xad	-0.8650286
19	0x2b	0.44814736
20	0x2c	0.45856938
21	0x2f	0.48983547
22	0x30	0.5002575
23	0xf0	-0.1667525
24	0xbf	-0.67743206
25	0x14	0.20844063
26	0xcb	-0.5523677
27	0x0e	0.14590845
28	0x30	0.5002575
29	0x1a	0.27097282
30	0x21	0.34392703
31	0xd4	-0.45856938
32	0xe8	-0.25012875
33	0xb1	-0.8233405
34	0xe7	-0.2605508
35	0x0f	0.15633047
36	0xc7	-0.5940558
37	0x86	-1.2714878
38	0x07	0.07295422
39	0x9d	-1.0317811
40	0x43	0.6982761
41	0x1b	0.28139484
42	0x23	0.3647711
43	0xbf	-0.67743206
44	0xee	-0.18759656
45	0xe5	-0.28139484
46	0x2b	0.44814736
47	0x32	0.5211016
48	0x35	0.5523677
49	0x21	0.34392703
50	0x1c	0.2918169
51	0xd5	-0.44814736
52	0xb0	-0.8337625
53	0x93	-1.1360015
54	0xe4	-0.2918169
55	0xd4	-0.45856938
56	0x0d	0.13548641
57	0x81	-1.323598
58	0x37	0.5732117
59	0xdc	-0.37519312
60	0xe0	-0.333505
61	0xc1	-0.65658796
62	0xa0	-1.000515
63	0xe0	-0.333505
64	0x3d	0.6357439
65	0x3d	0.6357439
66	0x36	0.5627897
67	0x37	0.5732117
68	0x37	0.5732117
69	0x35	0.5523677
70	0xd9	-0.4064592
71	0x30	0.5002575
72	0x08	0.08337625
73	0xc2	-0.64616597
74	0xfa	-0.06253219
75	0x21	0.34392703
76	0x27	0.4064592
77	0x1f	0.32308298
78	0x07	0.07295422
79	0xdd	-0.3647711
80	0x1e	0.31266093
81	0xe2	-0.31266093
82	0xed	-0.1980186
83	0x02	0.020844063
84	0x36	0.5627897
85	0x27	0.4064592
86	0xeb	-0.21886265
87	0x3f	0.65658796
88	0xf6	-0.104220316
89	0x11	0.17717454
90	0xe7	-0.2605508
91	0xce	-0.5211016
92	0xdf	-0.34392703
93	0x3d	0.6357439
94	0x0c	0.12506437
95	0x1e	0.31266093

model/conv2d_3/Conv2D i1 [32, 1, 1, 128]
0	0x64	100
1	0x11	17
2	0x32	50
3	0xed	-19
4	0xfb	-5
5	0x20	32
6	0x4d	77
7	0x2a	42
8	0xe3	-29
9	0xe9	-23
10	0x48	72
11	0xa0	-96
12	0xae	-82
13	0x30	48
14	0xd0	-48
15	0x9f	-97
16	0x26	38
17	0x1d	29
18	0x7a	122
19	0x4c	76
20	0xe0	-32
21	0x0f	15
22	0xf4	-12
23	0xc3	-61
24	0x06	6
25	0xc0	-64
26	0x47	71
27	0xd1	-47
28	0x88	-120
29	0xf0	-16
30	0x13	19
31	0xed	-19
32	0x33	51
33	0x88	-120
34	0x41	65
35	0x52	82
36	0xe4	-28
37	0x96	-106
38	0x44	68
39	0xa9	-87
40	0x60	96
41	0x6d	109
42	0x08	8
43	0x17	23
44	0xdb	-37
45	0x0f	15
46	0x01	1
47	0xf8	-8
48	0x10	16
49	0x07	7
50	0x25	37
51	0xcf	-49
52	0x3f	63
53	0x24	36
54	0xe2	-30
55	0x13	19
56	0x11	17
57	0xc8	-56
58	0xf5	-11
59	0xd2	-46
60	0xd3	-45
61	0xc6	-58
62	0xbd	-67
63	0x3c	60
64	0xee	-18
65	0x81	-127
66	0xeb	-21
67	0xf2	-14
68	0x08	8
69	0xe5	-27
70	0xcf	-49
71	0x0f	15
72	0x32	50
73	0x43	67
74	0x07	7
75	0x33	51
76	0x1a	26
77	0x24	36
78	0xd8	-40
79	0xa6	-90
80	0xd4	-44
81	0x0d	13
82	0xa4	-92
83	0xcf	-49
84	0x56	86
85	0x25	37
86	0x16	22
87	0xc8	-56
88	0xd5	-43
89	0xf9	-7
90	0xed	-19
91	0x55	85
92	0x29	41
93	0x17	23
94	0x13	19
95	0x1f	31
96	0x42	66
97	0xe4	-28
98	0x24	36
99	0x6c	108
100	0xc1	-63
101	0x15	21
102	0xd2	-46
103	0x33	51
104	0xca	-54
105	0xde	-34
106	0xab	-85
107	0xec	-20
108	0x35	53
109	0xb6	-74
110	0xe1	-31
111	0xd7	-41
112	0x12	18
113	0xd1	-47
114	0xf8	-8
115	0x45	69
116	0x10	16
117	0xa7	-89
118	0x04	4
119	0xc6	-58
120	0x4e	78
121	0x3a	58
122	0xca	-54
123	0x32	50
124	0x54	84
125	0x00	0
126	0xd4	-44
127	0xe6	-26
128	0xea	-22
129	0xdd	-35
130	0x33	51
131	0xad	-83
132	0x2a	42
133	0xf2	-14
134	0x35	53
135	0xe5	-27
136	0xdf	-33
137	0xf2	-14
138	0x39	57
139	0xd8	-40
140	0xc9	-55
141	0xf9	-7
142	0x31	49
143	0xe9	-23
144	0xda	-38
145	0xe5	-27
146	0x1a	26
147	0xe1	-31
148	0xe9	-23
149	0x47	71
150	0x28	40
151	0xe1	-31
152	0x2b	43
153	0xc8	-56
154	0xe7	-25
155	0xcc	-52
156	0xc0	-64
157	0xf8	-8
158	0x2a	42
159	0x04	4
160	0xf6	-10
161	0xff	-1
162	0xf9	-7
163	0xf3	-13
164	0xb4	-76
165	0x02	2
166	0x1f	31
167	0xef	-17
168	0x48	72
169	0xf0	-16
170	0xf1	-15
171	0x1e	30
172	0x0b	11
173	0xc7	-57
174	0x36	54
175	0xbc	-68
176	0x20	32
177	0xff	-1
178	0x60	96
179	0xcc	-52
180	0x33	51
181	0x27	39
182	0x07	7
183	0x37	55
184	0x4f	79
185	0xf3	-13
186	0x01	1
187	0xdf	-33
188	0x01	1
189	0xc4	-60
190	0x1c	28
191	0x4f	79
192	0x3a	58
193	0xfa	-6
194	0xff	-1
195	0xda	-38
196	0xef	-17
197	0xfc	-4
198	0xee	-18
199	0xb5	-75
200	0xc9	-55
201	0xd9	-39
202	0xdd	-35
203	0xf6	-10
204	0xdd	-35
205	0xf7	-9
206	0xf9	-7
207	0xc9	-55
208	0x04	4
209	0xb1	-79
210	0x81	-127
211	0xc1	-63
212	0x3c	60
213	0xf8	-8
214	0x0b	11
215	0x1d	29
216	0xd7	-41
217	0x97	-105
218	0xa7	-89
219	0xf5	-11
220	0xe9	-23
221	0xeb	-21
222	0x0c	12
223	0xcc	-52
224	0x24	36
225	0xa4	-92
226	0x38	56
227	0x2e	46
228	0xd9	-39
229	0xef	-17
230	0xfe	-2
231	0xdc	-36
232	0x0d	13
233	0xdb	-37
234	0xcf	-49
235	0x19	25
236	0xee	-18
237	0x28	40
238	0xfc	-4
239	0x48	72
240	0x0f	15
241	0xdd	-35
242	0x15	21
243	0x00	0
244	0xdf	-33
245	0xe7	-25
246	0x2c	44
247	0xc4	-60
248	0x91	-111
249	0x19	25
250	0xbc	-68
251	0xc2	-62
252	0xed	-19
253	0x2f	47
254	0x07	7
255	0xc5	-59

model/depthwise_conv2d_3/depthwise1 i1 [1, 15, 1, 128]
0	0x04	4
1	0x81	-127
2	0x48	72
3	0x81	-127
4	0xc1	-63
5	0xdc	-36
6	0xd4	-44
7	0xcc	-52
8	0x81	-127
9	0xbb	-69
10	0x48	72
11	0x7f	127
12	0x97	-105
13	0xd1	-47
14	0x57	87
15	0x19	25
16	0x53	83
17	0x16	22
18	0xe0	-32
19	0xcc	-52
20	0xe3	-29
21	0x0c	12
22	0x45	69
23	0x7f	127
24	0x53	83
25	0x81	-127
26	0x7f	127
27	0x54	84
28	0x7f	127
29	0x4d	77
30	0x4c	76
31	0x5d	93
32	0x7f	127
33	0x64	100
34	0x0d	13
35	0x5c	92
36	0x2d	45
37	0x81	-127
38	0xd7	-41
39	0x7f	127
40	0x28	40
41	0x81	-127
42	0x6a	106
43	0x55	85
44	0xac	-84
45	0xe8	-24
46	0x81	-127
47	0x1d	29
48	0xd1	-47
49	0x52	82
50	0x81	-127
51	0x7f	127
52	0x7f	127
53	0xa9	-87
54	0x81	-127
55	0xad	-83
56	0x7f	127
57	0xe8	-24
58	0xe4	-28
59	0xa6	-90
60	0xab	-85
61	0x3f	63
62	0xdd	-35
63	0x81	-127
64	0x7f	127
65	0x58	88
66	0x7f	127
67	0x7f	127
68	0x10	16
69	0x81	-127
70	0x7f	127
71	0xd2	-46
72	0x81	-127
73	0x9b	-101
74	0x58	88
75	0x81	-127
76	0xb4	-76
77	0xed	-19
78	0x2f	47
79	0x81	-127
80	0x9a	-102
81	0x1e	30
82	0x3b	59
83	0x4e	78
84	0x81	-127
85	0xfc	-4
86	0x73	115
87	0xd2	-46
88	0x08	8
89	0x7f	127
90	0xf8	-8
91	0x4a	74
92	0xef	-17
93	0x81	-127
94	0x7f	127
95	0xd3	-45
96	0xe4	-28
97	0x7f	127
98	0x7f	127
99	0x98	-104
100	0xaf	-81
101	0x5c	92
102	0x4c	76
103	0x30	48
104	0x81	-127
105	0xd6	-42
106	0x8d	-115
107	0x7f	127
108	0xe8	-24
109	0x41	65
110	0x06	6
111	0x1e	30
112	0xe9	-23
113	0x3c	60
114	0x3b	59
115	0x7f	127
116	0x45	69
117	0xc4	-60
118	0x43	67
119	0x47	71
120	0x7a	122
121	0x22	34
122	0x7f	127
123	0xe4	-28
124	0x01	1
125	0x7f	127
126	0xd8	-40
127	0xf5	-11
128	0xf5	-11
129	0xe3	-29
130	0x56	86
131	0xd2	-46
132	0xf3	-13
133	0xef	-17
134	0xf6	-10
135	0xe7	-25
136	0xca	-54
137	0xd9	-39
138	0x52	82
139	0x58	88
140	0xcf	-49
141	0x81	-127
142	0x4f	79
143	0x1b	27
144	0x06	6
145	0x30	48
146	0xe1	-31
147	0xeb	-21
148	0xcc	-52
149	0x11	17
150	0x14	20
151	0x14	20
152	0x47	71
153	0xbb	-69
154	0x45	69
155	0x47	71
156	0x41	65
157	0x36	54
158	0x4d	77
159	0x5d	93
160	0x3e	62
161	0x4d	77
162	0x09	9
163	0xed	-19
164	0xe2	-30
165	0xa5	-91
166	0x55	85
167	0x6b	107
168	0x2b	43
169	0xc5	-59
170	0x09	9
171	0x06	6
172	0xb0	-80
173	0x06	6
174	0xcf	-49
175	0xf8	-8
176	0xc6	-58
177	0x44	68
178	0xcb	-53
179	0x46	70
180	0x47	71
181	0xfe	-2
182	0x84	-124
183	0x81	-127
184	0x30	48
185	0xc9	-55
186	0xf0	-16
187	0xa7	-89
188	0xaa	-86
189	0x18	24
190	0x04	4
191	0xc0	-64
192	0x18	24
193	0x31	49
194	0x2a	42
195	0x3e	62
196	0xf4	-12
197	0xf1	-15
198	0x4f	79
199	0xf0	-16
200	0xd3	-45
201	0xe5	-27
202	0x2a	42
203	0x08	8
204	0xa3	-93
205	0xe8	-24
206	0xf0	-16
207	0xbd	-67
208	0xc0	-64
209	0x16	22
210	0x1b	27
211	0x24	36
212	0xa1	-95
213	0xff	-1
214	0x07	7
215	0xa2	-94
216	0x01	1
217	0x41	65
218	0xee	-18
219	0x25	37
220	0x3a	58
221	0xbd	-67
222	0x18	24
223	0xd7	-41
224	0x81	-127
225	0x37	55
226	0x39	57
227	0xff	-1
228	0xb4	-76
229	0x40	64
230	0x81	-127
231	0xcd	-51
232	0xa1	-95
233	0xa7	-89
234	0x0b	11
235	0xed	-19
236	0xe5	-27
237	0x46	70
238	0x03	3
239	0x4b	75
240	0x00	0
241	0x5a	90
242	0x4b	75
243	0x3e	62
244	0x12	18
245	0x19	25
246	0x20	32
247	0x8f	-113
248	0x3c	60
249	0xec	-20
250	0x31	49
251	0xf6	-10
252	0xfc	-4
253	0x77	119
254	0x84	-124
255	0xfb	-5

model/conv2d_2/Conv2D i1 [128, 1, 1, 128]
0	0x16	22
1	0xfb	-5
2	0x46	70
3	0xd6	-42
4	0xe7	-25
5	0x00	0
6	0xf9	-7
7	0xe8	-24
8	0xf7	-9
9	0xa8	-88
10	0x32	50
11	0x01	1
12	0xf9	-7
13	0x47	71
14	0xf6	-10
15	0x43	67
16	0xaa	-86
17	0xd7	-41
18	0x18	24
19	0x2c	44
20	0xf5	-11
21	0xe1	-31
22	0xbc	-68
23	0x0c	12
24	0x0e	14
25	0xe9	-23
26	0xcb	-53
27	0x13	19
28	0x23	35
29	0x07	7
30	0xd0	-48
31	0x1d	29
32	0x04	4
33	0x4f	79
34	0x3f	63
35	0x38	56
36	0xce	-50
37	0x0a	10
38	0x0d	13
39	0x11	17
40	0x17	23
41	0xe3	-29
42	0x3e	62
43	0xcb	-53
44	0x17	23
45	0xd2	-46
46	0xd3	-45
47	0xd0	-48
48	0xe0	-32
49	0x13	19
50	0x10	16
51	0xd1	-47
52	0xfa	-6
53	0xed	-19
54	0xf7	-9
55	0xad	-83
56	0xcd	-51
57	0x3b	59
58	0xcb	-53
59	0xe7	-25
60	0xcf	-49
61	0xfb	-5
62	0xd6	-42
63	0xe3	-29
64	0x61	97
65	0xeb	-21
66	0xb5	-75
67	0xf4	-12
68	0xbd	-67
69	0xed	-19
70	0x07	7
71	0xf3	-13
72	0x0e	14
73	0x0e	14
74	0xf8	-8
75	0x21	33
76	0x10	16
77	0xe3	-29
78	0x1c	28
79	0xf7	-9
80	0x15	21
81	0x31	49
82	0x22	34
83	0xde	-34
84	0x3b	59
85	0x11	17
86	0xf9	-7
87	0x02	2
88	0xc8	-56
89	0x0f	15
90	0xfa	-6
91	0x5a	90
92	0xfe	-2
93	0xf6	-10
94	0x2a	42
95	0x30	48
96	0xfb	-5
97	0xe1	-31
98	0x37	55
99	0xde	-34
100	0x13	19
101	0xdc	-36
102	0x37	55
103	0x09	9
104	0xef	-17
105	0x11	17
106	0xc6	-58
107	0xf9	-7
108	0x07	7
109	0x0b	11
110	0xe3	-29
111	0x81	-127
112	0xf3	-13
113	0xf9	-7
114	0x35	53
115	0xb1	-79
116	0x24	36
117	0x0e	14
118	0xe1	-31
119	0x00	0
120	0xe9	-23
121	0x52	82
122	0x22	34
123	0xeb	-21
124	0xfa	-6
125	0xf2	-14
126	0xb0	-80
127	0xfb	-5
128	0xbb	-69
129	0xd8	-40
130	0x2c	44
131	0x18	24
132	0xe8	-24
133	0x13	19
134	0x14	20
135	0x38	56
136	0x6a	106
137	0x5e	94
138	0xc7	-57
139	0x45	69
140	0x0d	13
141	0x48	72
142	0xe4	-28
143	0x24	36
144	0xe8	-24
145	0x0d	13
146	0x4d	77
147	0x33	51
148	0x0f	15
149	0xf0	-16
150	0x08	8
151	0x25	37
152	0xe1	-31
153	0x21	33
154	0xf9	-7
155	0x81	-127
156	0x2e	46
157	0xe2	-30
158	0xff	-1
159	0xe2	-30
160	0x3a	58
161	0x13	19
162	0x7b	123
163	0x9b	-101
164	0x06	6
165	0xa1	-95
166	0xac	-84
167	0xfe	-2
168	0x9d	-99
169	0x75	117
170	0x20	32
171	0x2d	45
172	0x23	35
173	0xf6	-10
174	0xd1	-47
175	0x72	114
176	0x02	2
177	0x0e	14
178	0x23	35
179	0x37	55
180	0xf8	-8
181	0xf0	-16
182	0x38	56
183	0x33	51
184	0xd0	-48
185	0xf5	-11
186	0x02	2
187	0x26	38
188	0x3f	63
189	0x29	41
190	0x2a	42
191	0x24	36
192	0x4e	78
193	0x70	112
194	0x3a	58
195	0x2b	43
196	0xfd	-3
197	0xc5	-59
198	0x33	51
199	0x03	3
200	0xf3	-13
201	0xf6	-10
202	0xd0	-48
203	0x58	88
204	0xd0	-48
205	0xe9	-23
206	0xfd	-3
207	0x2a	42
208	0xac	-84
209	0x0b	11
210	0xf5	-11
211	0x60	96
212	0xf3	-13
213	0x10	16
214	0xce	-50
215	0xc7	-57
216	0x90	-112
217	0x04	4
218	0xfe	-2
219	0xdb	-37
220	0x04	4
221	0xcb	-53
222	0xe2	-30
223	0x28	40
224	0x19	25
225	0xb3	-77
226	0xfe	-2
227	0xed	-19
228	0x2a	42
229	0xf8	-8
230	0x06	6
231	0x2d	45
232	0xd1	-47
233	0x24	36
234	0x1b	27
235	0xd2	-46
236	0x2a	42
237	0x24	36
238	0xcc	-52
239	0xdb	-37
240	0x85	-123
241	0x26	38
242	0x33	51
243	0x37	55
244	0xe5	-27
245	0x3d	61
246	0xe7	-25
247	0x1b	27
248	0xcc	-52
249	0x2b	43
250	0x22	34
251	0xc1	-63
252	0x51	81
253	0xf0	-16
254	0xe6	-26
255	0x07	7

model/depthwise_conv2d_2/depthwise i1 [1, 10, 1, 128]
0	0x66	102
1	0x6e	110
2	0x1f	31
3	0xb8	-72
4	0x7f	127
5	0x31	49
6	0x17	23
7	0x7f	127
8	0x81	-127
9	0x7f	127
10	0x70	112
11	0xfa	-6
12	0x4b	75
13	0x7f	127
14	0x36	54
15	0xa1	-95
16	0x4e	78
17	0x7f	127
18	0x7f	127
19	0x10	16
20	0x35	53
21	0x7f	127
22	0x81	-127
23	0x85	-123
24	0x7f	127
25	0x7f	127
26	0x8c	-116
27	0xe0	-32
28	0x8d	-115
29	0x81	-127
30	0xa8	-88
31	0x81	-127
32	0xa5	-91
33	0x81	-127
34	0x0c	12
35	0x81	-127
36	0x00	0
37	0x81	-127
38	0x81	-127
39	0x7f	127
40	0x81	-127
41	0x8a	-118
42	0xb1	-79
43	0xbd	-67
44	0x81	-127
45	0x5b	91
46	0x81	-127
47	0x7f	127
48	0x5e	94
49	0x4c	76
50	0xd2	-46
51	0x7b	123
52	0x0c	12
53	0x81	-127
54	0x81	-127
55	0x81	-127
56	0xda	-38
57	0xc5	-59
58	0x7f	127
59	0xc3	-61
60	0x3a	58
61	0x13	19
62	0x4a	74
63	0xc8	-56
64	0x41	65
65	0xdb	-37
66	0x7f	127
67	0x3c	60
68	0xbc	-68
69	0x12	18
70	0xc8	-56
71	0x86	-122
72	0xf4	-12
73	0x4f	79
74	0x7f	127
75	0xa3	-93
76	0xe6	-26
77	0x44	68
78	0x7f	127
79	0xf2	-14
80	0xd5	-43
81	0x01	1
82	0x7f	127
83	0x81	-127
84	0x77	119
85	0x2c	44
86	0xca	-54
87	0x7f	127
88	0x7f	127
89	0xbe	-66
90	0x15	21
91	0x3e	62
92	0xc4	-60
93	0x81	-127
94	0xf7	-9
95	0x81	-127
96	0xb0	-80
97	0x40	64
98	0x69	105
99	0x81	-127
100	0xd2	-46
101	0x37	55
102	0x50	80
103	0xbe	-66
104	0x82	-126
105	0x5e	94
106	0xaf	-81
107	0x81	-127
108	0x7f	127
109	0x55	85
110	0x7f	127
111	0x68	104
112	0x99	-103
113	0x43	67
114	0x13	19
115	0x6e	110
116	0x81	-127
117	0x49	73
118	0x21	33
119	0xe3	-29
120	0x27	39
121	0x7f	127
122	0xcd	-51
123	0x3d	61
124	0xd3	-45
125	0x49	73
126	0x62	98
127	0x8b	-117
128	0x7f	127
129	0x3b	59
130	0xec	-20
131	0xdb	-37
132	0x1c	28
133	0x3a	58
134	0xf3	-13
135	0x19	25
136	0xd9	-39
137	0x69	105
138	0x6d	109
139	0x18	24
140	0x00	0
141	0x14	20
142	0x2c	44
143	0xef	-17
144	0x21	33
145	0x38	56
146	0x68	104
147	0x1e	30
148	0xda	-38
149	0x48	72
150	0xb3	-77
151	0xa8	-88
152	0x23	35
153	0x60	96
154	0xc4	-60
155	0x87	-121
156	0xa4	-92
157	0xa7	-89
158	0x9f	-97
159	0xde	-34
160	0xd8	-40
161	0x94	-108
162	0x38	56
163	0x03	3
164	0x71	113
165	0xd2	-46
166	0xfa	-6
167	0x63	99
168	0xa6	-90
169	0xc2	-62
170	0xbc	-68
171	0x04	4
172	0xa2	-94
173	0x30	48
174	0xc8	-56
175	0x2a	42
176	0x7f	127
177	0x41	65
178	0xae	-82
179	0x40	64
180	0xf5	-11
181	0xcf	-49
182	0xc8	-56
183	0xe9	-23
184	0xfe	-2
185	0xf9	-7
186	0x6b	107
187	0x77	119
188	0x1f	31
189	0x07	7
190	0x32	50
191	0x0c	12
192	0x07	7
193	0xdf	-33
194	0x20	32
195	0x50	80
196	0x0a	10
197	0xea	-22
198	0x2e	46
199	0xe0	-32
200	0xdc	-36
201	0x1e	30
202	0x48	72
203	0xdd	-35
204	0xa5	-91
205	0x4b	75
206	0x07	7
207	0x00	0
208	0x17	23
209	0xfa	-6
210	0x06	6
211	0xb3	-77
212	0x2a	42
213	0x06	6
214	0xdb	-37
215	0x48	72
216	0x7b	123
217	0xd6	-42
218	0xc6	-58
219	0x2a	42
220	0xd5	-43
221	0xa3	-93
222	0xdc	-36
223	0xdb	-37
224	0xdf	-33
225	0x09	9
226	0x6c	108
227	0xc0	-64
228	0x09	9
229	0xf8	-8
230	0x2f	47
231	0x93	-109
232	0xb9	-71
233	0x2c	44
234	0x90	-112
235	0xb5	-75
236	0x61	97
237	0xe4	-28
238	0x63	99
239	0x6a	106
240	0xe1	-31
241	0x1b	27
242	0x20	32
243	0x5e	94
244	0xcd	-51
245	0x5a	90
246	0x06	6
247	0x9b	-101
248	0xc3	-61
249	0xf0	-16
250	0xe6	-26
251	0x11	17
252	0xa9	-87
253	0x12	18
254	0x13	19
255	0xba	-70

model/conv2d_1/Conv2D i1 [128, 1, 1, 128]
0	0xd5	-43
1	0x10	16
2	0xd4	-44
3	0xf0	-16
4	0x2e	46
5	0x0e	14
6	0xb1	-79
7	0xcb	-53
8	0xf4	-12
9	0x13	19
10	0x34	52
11	0x2e	46
12	0x03	3
13	0x0b	11
14	0x27	39
15	0xff	-1
16	0x27	39
17	0x37	55
18	0x03	3
19	0x0e	14
20	0xeb	-21
21	0xef	-17
22	0xe5	-27
23	0x23	35
24	0xf5	-11
25	0x28	40
26	0x03	3
27	0x2c	44
28	0xe3	-29
29	0xe0	-32
30	0xfe	-2
31	0x42	66
32	0x11	17
33	0x4c	76
34	0x10	16
35	0x01	1
36	0xe5	-27
37	0x2a	42
38	0xff	-1
39	0xf4	-12
40	0xc4	-60
41	0x05	5
42	0xf2	-14
43	0xac	-84
44	0x2e	46
45	0x1b	27
46	0x21	33
47	0x0e	14
48	0x24	36
49	0xb7	-73
50	0x15	21
51	0x8c	-116
52	0x47	71
53	0x52	82
54	0x50	80
55	0xeb	-21
56	0xa8	-88
57	0x37	55
58	0xe5	-27
59	0x28	40
60	0x2a	42
61	0xf8	-8
62	0x49	73
63	0x1c	28
64	0x43	67
65	0xc9	-55
66	0xbe	-66
67	0x47	71
68	0xfd	-3
69	0x59	89
70	0x00	0
71	0x28	40
72	0x1b	27
73	0x04	4
74	0x13	19
75	0x03	3
76	0x07	7
77	0xee	-18
78	0x32	50
79	0xcc	-52
80	0xe5	-27
81	0x0e	14
82	0xeb	-21
83	0x7f	127
84	0x01	1
85	0x39	57
86	0x0b	11
87	0x23	35
88	0x23	35
89	0xf9	-7
90	0x1e	30
91	0x4c	76
92	0x09	9
93	0xe1	-31
94	0x0b	11
95	0xfe	-2
96	0xf2	-14
97	0x2f	47
98	0x19	25
99	0x08	8
100	0x29	41
101	0xdb	-37
102	0x35	53
103	0x1d	29
104	0x0a	10
105	0x8e	-114
106	0xfc	-4
107	0x3c	60
108	0x02	2
109	0x33	51
110	0xd1	-47
111	0xfe	-2
112	0xb8	-72
113	0x08	8
114	0x50	80
115	0xea	-22
116	0xd9	-39
117	0x2f	47
118	0xd6	-42
119	0x12	18
120	0x71	113
121	0xcb	-53
122	0xd2	-46
123	0x29	41
124	0xd4	-44
125	0xf2	-14
126	0x9a	-102
127	0x14	20
128	0x4b	75
129	0x71	113
130	0x42	66
131	0x15	21
132	0x32	50
133	0xfe	-2
134	0xdb	-37
135	0xfc	-4
136	0x12	18
137	0xd7	-41
138	0xfc	-4
139	0xca	-54
140	0x00	0
141	0xe2	-30
142	0x0b	11
143	0xd3	-45
144	0x11	17
145	0x43	67
146	0xf3	-13
147	0xdc	-36
148	0x19	25
149	0x2b	43
150	0xf9	-7
151	0x08	8
152	0x0b	11
153	0x98	-104
154	0x04	4
155	0x0a	10
156	0xe8	-24
157	0x20	32
158	0x0a	10
159	0xec	-20
160	0x1d	29
161	0xf5	-11
162	0x21	33
163	0x38	56
164	0x0c	12
165	0xc6	-58
166	0x7f	127
167	0x20	32
168	0x53	83
169	0x41	65
170	0xf8	-8
171	0xf2	-14
172	0xe3	-29
173	0xc6	-58
174	0x0b	11
175	0x3d	61
176	0x56	86
177	0xf7	-9
178	0x16	22
179	0xe8	-24
180	0xe4	-28
181	0xcd	-51
182	0xf1	-15
183	0x1d	29
184	0x1c	28
185	0xe3	-29
186	0xd9	-39
187	0xbb	-69
188	0x09	9
189	0xd8	-40
190	0x3a	58
191	0xda	-38
192	0x08	8
193	0xf7	-9
194	0x43	67
195	0xf9	-7
196	0x48	72
197	0xbc	-68
198	0x21	33
199	0x41	65
200	0x0c	12
201	0xb7	-73
202	0x05	5
203	0x22	34
204	0x09	9
205	0x11	17
206	0x00	0
207	0x56	86
208	0x02	2
209	0x34	52
210	0x14	20
211	0x30	48
212	0xd9	-39
213	0x33	51
214	0xe1	-31
215	0xea	-22
216	0xf6	-10
217	0xe4	-28
218	0xf6	-10
219	0xe8	-24
220	0xf6	-10
221	0x02	2
222	0x34	52
223	0xe2	-30
224	0xe4	-28
225	0x2a	42
226	0x1d	29
227	0xeb	-21
228	0x1a	26
229	0x06	6
230	0xcc	-52
231	0xca	-54
232	0x00	0
233	0xad	-83
234	0xf9	-7
235	0x06	6
236	0x2f	47
237	0x2f	47
238	0x04	4
239	0x1a	26
240	0x2b	43
241	0xe5	-27
242	0xd9	-39
243	0x05	5
244	0xde	-34
245	0xfa	-6
246	0xf9	-7
247	0x00	0
248	0xc9	-55
249	0xb5	-75
250	0x25	37
251	0xda	-38
252	0xa7	-89
253	0x04	4
254	0xf2	-14
255	0xe2	-30

model/depthwise_conv2d_1/depthwise i1 [1, 5, 1, 128]
0	0x06	6
1	0xc9	-55
2	0x6e	110
3	0xca	-54
4	0x53	83
5	0x6c	108
6	0xb7	-73
7	0x17	23
8	0xf1	-15
9	0xed	-19
10	0x0d	13
11	0x4f	79
12	0xd0	-48
13	0x5e	94
14	0x0c	12
15	0x7f	127
16	0x12	18
17	0x7f	127
18	0xd7	-41
19	0x7f	127
20	0x7f	127
21	0x7f	127
22	0x21	33
23	0xb0	-80
24	0xf4	-12
25	0x1c	28
26	0x81	-127
27	0x81	-127
28	0x07	7
29	0x81	-127
30	0x4b	75
31	0x16	22
32	0x06	6
33	0x81	-127
34	0xde	-34
35	0x7f	127
36	0x81	-127
37	0xe8	-24
38	0x7f	127
39	0x81	-127
40	0x7f	127
41	0xd8	-40
42	0xa3	-93
43	0xfc	-4
44	0xb0	-80
45	0xd5	-43
46	0x47	71
47	0x7f	127
48	0xd6	-42
49	0x90	-112
50	0x25	37
51	0x7f	127
52	0x10	16
53	0x00	0
54	0xe1	-31
55	0x0c	12
56	0x60	96
57	0x7f	127
58	0x7f	127
59	0x0b	11
60	0x18	24
61	0xf5	-11
62	0x81	-127
63	0x2d	45
64	0x41	65
65	0x38	56
66	0x81	-127
67	0x48	72
68	0x7f	127
69	0xbf	-65
70	0x81	-127
71	0x0e	14
72	0x53	83
73	0xd6	-42
74	0x67	103
75	0x01	1
76	0xc5	-59
77	0x93	-109
78	0x0f	15
79	0x81	-127
80	0xed	-19
81	0xe6	-26
82	0x32	50
83	0x28	40
84	0x28	40
85	0x07	7
86	0xc3	-61
87	0x7f	127
88	0x46	70
89	0xbc	-68
90	0x8a	-118
91	0x7f	127
92	0x81	-127
93	0xbe	-66
94	0x81	-127
95	0x59	89
96	0x5c	92
97	0x7f	127
98	0x8d	-115
99	0x2b	43
100	0xc4	-60
101	0x0e	14
102	0xbe	-66
103	0x81	-127
104	0x7f	127
105	0x81	-127
106	0x81	-127
107	0x7f	127
108	0x7f	127
109	0x81	-127
110	0x7f	127
111	0x71	113
112	0x81	-127
113	0x7f	127
114	0x7f	127
115	0x16	22
116	0xd7	-41
117	0x26	38
118	0x9d	-99
119	0x71	113
120	0x32	50
121	0x8b	-117
122	0x81	-127
123	0xe9	-23
124	0x7f	127
125	0x1d	29
126	0xe9	-23
127	0x5f	95
128	0xe9	-23
129	0x3c	60
130	0xb7	-73
131	0x81	-127
132	0x33	51
133	0x2b	43
134	0x41	65
135	0x01	1
136	0x41	65
137	0x81	-127
138	0x0b	11
139	0x19	25
140	0x2b	43
141	0x76	118
142	0xff	-1
143	0x2c	44
144	0xd4	-44
145	0x44	68
146	0x66	102
147	0x22	34
148	0x60	96
149	0xe8	-24
150	0xc8	-56
151	0xc5	-59
152	0x17	23
153	0x49	73
154	0xcb	-53
155	0xaa	-86
156	0x03	3
157	0xa5	-91
158	0x7f	127
159	0xc9	-55
160	0x1b	27
161	0x8f	-113
162	0x2d	45
163	0x7c	124
164	0xbe	-66
165	0x38	56
166	0x6a	106
167	0x87	-121
168	0xe3	-29
169	0x67	103
170	0x94	-108
171	0x7f	127
172	0xca	-54
173	0x81	-127
174	0x52	82
175	0x72	114
176	0x28	40
177	0x0d	13
178	0x17	23
179	0x31	49
180	0xb8	-72
181	0xf3	-13
182	0xba	-70
183	0x32	50
184	0x4f	79
185	0x72	114
186	0x69	105
187	0xed	-19
188	0x7f	127
189	0xaa	-86
190	0xc4	-60
191	0x44	68
192	0x7f	127
193	0xd7	-41
194	0xd2	-46
195	0xdf	-33
196	0xdf	-33
197	0x55	85
198	0x95	-107
199	0x7f	127
200	0x7e	126
201	0x7c	124
202	0x30	48
203	0x3b	59
204	0xa5	-91
205	0xaa	-86
206	0xc8	-56
207	0xb5	-75
208	0x62	98
209	0xd0	-48
210	0x43	67
211	0x03	3
212	0xf8	-8
213	0x81	-127
214	0xb2	-78
215	0x71	113
216	0xe3	-29
217	0x02	2
218	0x81	-127
219	0x47	71
220	0xc0	-64
221	0x48	72
222	0xc8	-56
223	0xe1	-31
224	0x09	9
225	0x57	87
226	0x84	-124
227	0x4b	75
228	0x44	68
229	0x1f	31
230	0xbf	-65
231	0xd6	-42
232	0x72	114
233	0xfc	-4
234	0xbb	-69
235	0x5f	95
236	0x1c	28
237	0xab	-85
238	0x08	8
239	0xff	-1
240	0x9e	-98
241	0x09	9
242	0x5d	93
243	0xff	-1
244	0x86	-122
245	0xd2	-46
246	0xb8	-72
247	0x7c	124
248	0x00	0
249	0x95	-107
250	0xff	-1
251	0x7f	127
252	0x37	55
253	0xd1	-47
254	0xd0	-48
255	0x25	37

model/conv2d/Conv2D i1 [128, 1, 1, 40]
0	0x7e	126
1	0x76	118
2	0x6f	111
3	0x10	16
4	0x18	24
5	0xfa	-6
6	0xb3	-77
7	0xd7	-41
8	0xc6	-58
9	0x2c	44
10	0x13	19
11	0xe5	-27
12	0xc3	-61
13	0xf9	-7
14	0x01	1
15	0x21	33
16	0x3a	58
17	0x43	67
18	0x05	5
19	0xf1	-15
20	0x95	-107
21	0xbb	-69
22	0x2c	44
23	0x91	-111
24	0xc9	-55
25	0x5a	90
26	0xb9	-71
27	0x3e	62
28	0x10	16
29	0xbe	-66
30	0x81	-127
31	0x2a	42
32	0x00	0
33	0x33	51
34	0xcd	-51
35	0x02	2
36	0x34	52
37	0xa9	-87
38	0xd9	-39
39	0x7a	122
40	0x7f	127
41	0x33	51
42	0x52	82
43	0x3b	59
44	0xa9	-87
45	0x2d	45
46	0x12	18
47	0xdf	-33
48	0xba	-70
49	0xa1	-95
50	0xc6	-58
51	0x03	3
52	0x40	64
53	0xd4	-44
54	0xd8	-40
55	0x28	40
56	0xf1	-15
57	0xe7	-25
58	0xba	-70
59	0x0a	10
60	0x27	39
61	0x18	24
62	0xca	-54
63	0xf8	-8
64	0x2d	45
65	0xdd	-35
66	0xd7	-41
67	0xc2	-62
68	0x07	7
69	0x30	48
70	0xf6	-10
71	0x2a	42
72	0x62	98
73	0x51	81
74	0xc5	-59
75	0x0e	14
76	0xfb	-5
77	0xd4	-44
78	0x14	20
79	0x0d	13
80	0x26	38
81	0x00	0
82	0x29	41
83	0x24	36
84	0xd3	-45
85	0x19	25
86	0xe8	-24
87	0x13	19
88	0x32	50
89	0x12	18
90	0x5f	95
91	0x30	48
92	0xc4	-60
93	0x81	-127
94	0x1f	31
95	0xed	-19
96	0xff	-1
97	0x3b	59
98	0xf9	-7
99	0xad	-83
100	0x36	54
101	0x87	-121
102	0x0a	10
103	0x29	41
104	0x56	86
105	0xe3	-29
106	0xf7	-9
107	0x39	57
108	0x08	8
109	0x28	40
110	0x41	65
111	0xb7	-73
112	0xf3	-13
113	0x13	19
114	0xc7	-57
115	0x0b	11
116	0x30	48
117	0x06	6
118	0xe4	-28
119	0xc9	-55
120	0x36	54
121	0xfe	-2
122	0x0e	14
123	0x44	68
124	0xd1	-47
125	0x48	72
126	0xe2	-30
127	0xe2	-30
128	0x10	16
129	0x20	32
130	0xf9	-7
131	0xee	-18
132	0x0c	12
133	0xf9	-7
134	0xc3	-61
135	0xbd	-67
136	0x1c	28
137	0xf6	-10
138	0x20	32
139	0x08	8
140	0xa1	-95
141	0x0c	12
142	0xca	-54
143	0xb3	-77
144	0x12	18
145	0xf8	-8
146	0xc5	-59
147	0x27	39
148	0x19	25
149	0xcc	-52
150	0xf7	-9
151	0xdb	-37
152	0xbd	-67
153	0xab	-85
154	0x33	51
155	0xeb	-21
156	0x81	-127
157	0x2b	43
158	0xa5	-91
159	0xb2	-78
160	0xe1	-31
161	0x15	21
162	0xf8	-8
163	0xa4	-92
164	0x39	57
165	0xe6	-26
166	0xa2	-94
167	0xda	-38
168	0x40	64
169	0x2f	47
170	0x31	49
171	0xeb	-21
172	0xdd	-35
173	0xce	-50
174	0x2e	46
175	0xdc	-36
176	0xea	-22
177	0xd4	-44
178	0xd0	-48
179	0xff	-1
180	0x53	83
181	0xb5	-75
182	0x0d	13
183	0xc8	-56
184	0x2f	47
185	0xd0	-48
186	0x81	-127
187	0x26	38
188	0xe4	-28
189	0x2c	44
190	0x08	8
191	0xd8	-40
192	0x20	32
193	0xb7	-73
194	0x37	55
195	0x4b	75
196	0xe1	-31
197	0x16	22
198	0x00	0
199	0xe6	-26
200	0xdd	-35
201	0xd2	-46
202	0x78	120
203	0x42	66
204	0x81	-127
205	0x0a	10
206	0x29	41
207	0x22	34
208	0xbe	-66
209	0xd2	-46
210	0x86	-122
211	0x11	17
212	0x10	16
213	0x64	100
214	0x68	104
215	0x48	72
216	0xed	-19
217	0xe4	-28
218	0xf9	-7
219	0x08	8
220	0xe6	-26
221	0xbb	-69
222	0x62	98
223	0xc8	-56
224	0x2a	42
225	0x7f	127
226	0xf6	-10
227	0xc6	-58
228	0x4d	77
229	0xd8	-40
230	0x05	5
231	0x84	-124
232	0x19	25
233	0xd9	-39
234	0xf5	-11
235	0x31	49
236	0x23	35
237	0xcd	-51
238	0xdf	-33
239	0x15	21
240	0xcf	-49
241	0x0b	11
242	0xd7	-41
243	0xbc	-68
244	0x45	69
245	0xed	-19
246	0xcd	-51
247	0xcd	-51
248	0xe0	-32
249	0x2a	42
250	0xe0	-32
251	0xf4	-12
252	0x38	56
253	0x2f	47
254	0x0d	13
255	0x03	3

model/depthwise_conv2d/depthwise1 i1 [1, 3, 1, 40]
0	0x7f	127
1	0x99	-103
2	0x7f	127
3	0x14	20
4	0xcd	-51
5	0x2f	47
6	0x0a	10
7	0x7f	127
8	0x1c	28
9	0xab	-85
10	0xbe	-66
11	0xff	-1
12	0xb2	-78
13	0x81	-127
14	0x62	98
15	0x8c	-116
16	0x6d	109
17	0xca	-54
18	0x13	19
19	0x14	20
20	0x81	-127
21	0x44	68
22	0xb4	-76
23	0x64	100
24	0x16	22
25	0x02	2
26	0xa6	-90
27	0x22	34
28	0xe6	-26
29	0x7f	127
30	0xae	-82
31	0x7f	127
32	0x29	41
33	0x7f	127
34	0x92	-110
35	0xb1	-79
36	0x7f	127
37	0xc5	-59
38	0x94	-108
39	0xf2	-14
40	0x5b	91
41	0xe4	-28
42	0xd6	-42
43	0x81	-127
44	0x7f	127
45	0x7f	127
46	0x7f	127
47	0x46	70
48	0x81	-127
49	0x81	-127
50	0x81	-127
51	0x2b	43
52	0x81	-127
53	0x3a	58
54	0x7f	127
55	0x81	-127
56	0xd6	-42
57	0x93	-109
58	0x7f	127
59	0x26	38
60	0x2a	42
61	0xce	-50
62	0x81	-127
63	0xa0	-96
64	0x81	-127
65	0x7f	127
66	0x21	33
67	0xe4	-28
68	0xa1	-95
69	0xea	-22
70	0x41	65
71	0xca	-54
72	0x7f	127
73	0xc9	-55
74	0x26	38
75	0xe4	-28
76	0xeb	-21
77	0x07	7
78	0x81	-127
79	0x32	50
80	0x8b	-117
81	0x81	-127
82	0xc8	-56
83	0xf9	-7
84	0x27	39
85	0x05	5
86	0xe9	-23
87	0x88	-120
88	0xf3	-13
89	0x22	34
90	0x52	82
91	0x81	-127
92	0x3d	61
93	0xea	-22
94	0x86	-122
95	0xae	-82
96	0x81	-127
97	0x7f	127
98	0x0b	11
99	0x81	-127
100	0x60	96
101	0x81	-127
102	0x63	99
103	0x81	-127
104	0xff	-1
105	0xe3	-29
106	0x7f	127
107	0x81	-127
108	0x7f	127
109	0x4a	74
110	0x7f	127
111	0x89	-119
112	0xd9	-39
113	0xa2	-94
114	0x7f	127
115	0x81	-127
116	0x94	-108
117	0x7f	127
118	0x75	117
119	0x7f	127
