benchmark/training/streaming_wakeword/trained_models/strm_ww_int8.tflite (tflite, 74304 bytes, 9 tensors)

model/dense/MatMul i1 [3, 32] scale=0.0106932 zero_point=0
0	0x43	0.7164444
1	0xc8	-0.5988192
2	0x2d	0.481194
3	0x1b	0.2887164
4	0x22	0.36356878
5	0xd5	-0.4598076
6	0xce	-0.53466
7	0x0f	0.160398
8	0x00	0.0
9	0xda	-0.4063416
10	0x2c	0.4705008
11	0xec	-0.213864
12	0xdb	-0.3956484
13	0xcb	-0.5667396
14	0xd9	-0.4170348
15	0xcc	-0.55604637
16	0x18	0.2566368
17	0xcc	-0.55604637
18	0xf5	-0.1176252
19	0x14	0.213864
20	0xdc	-0.3849552
21	0xe3	-0.3101028
22	0xe2	-0.320796
23	0xde	-0.36356878
24	0x13	0.2031708
25	0xdc	-0.3849552
26	0xfe	-0.0213864
27	0x29	0.4384212
28	0x17	0.2459436
29	0x13	0.2031708
30	0xfb	-0.053466
31	0xd4	-0.4705008
32	0xc5	-0.6308988
33	0x95	-1.1441724
34	0xa9	-0.9303084
35	0x81	-1.3580364
36	0xc4	-0.641592
37	0x15	0.22455719
38	0x1e	0.320796
39	0x92	-1.176252
40	0xbf	-0.695058
41	0x1b	0.2887164
42	0x2e	0.4918872
43	0xc6	-0.6202056
44	0x1a	0.27802318
45	0x0a	0.106932
46	0xdc	-0.3849552
47	0x2c	0.4705008
48	0x1a	0.27802318
49	0xcb	-0.5667396
50	0xd1	-0.5025804
51	0x1b	0.2887164
52	0xa7	-0.9516948
53	0xbf	-0.695058
54	0x0e	0.1497048
55	0x30	0.5132736
56	0x90	-1.1976384
57	0xc8	-0.5988192
58	0x84	-1.3259568
59	0xa5	-0.9730812
60	0x83	-1.33665
61	0xe4	-0.2994096
62	0xcf	-0.5239668
63	0x09	0.0962388
64	0xfa	-0.0641592
65	0x3a	0.6202056
66	0xfc	-0.0427728
67	0x08	0.0855456
68	0x25	0.3956484
69	0xe9	-0.2459436
70	0xee	-0.1924776
71	0x03	0.0320796
72	0x36	0.5774328
73	0x06	0.0641592
74	0xdf	-0.3528756
75	0x3f	0.6736716
76	0xe8	-0.2566368
77	0xee	-0.1924776
78	0x26	0.4063416
79	0x12	0.1924776
80	0xce	-0.53466
81	0x44	0.72713757
82	0x15	0.22455719
83	0xcf	-0.5239668
84	0x30	0.5132736
85	0x27	0.4170348
86	0x0b	0.1176252
87	0xe0	-0.3421824
88	0x0d	0.13901159
89	0x3e	0.6629784
90	0x3e	0.6629784
91	0xf2	-0.1497048
92	0x08	0.0855456
93	0x41	0.695058
94	0x44	0.72713757
95	0x01	0.0106932

model/conv2d_3/Conv2D i1 [32, 1, 1, 128]
0	0xed	-19
1	0xdd	-35
2	0xa8	-88
3	0xd1	-47
4	0x13	19
5	0xef	-17
6	0x40	64
7	0xfb	-5
8	0x04	4
9	0x18	24
10	0x0f	15
11	0x29	41
12	0x29	41
13	0xcd	-51
14	0xfd	-3
15	0x07	7
16	0x00	0
17	0xe1	-31
18	0x17	23
19	0x3b	59
20	0x14	20
21	0x30	48
22	0x27	39
23	0x24	36
24	0xdd	-35
25	0xc5	-59
26	0xcf	-49
27	0xab	-85
28	0xef	-17
29	0x29	41
30	0xea	-22
31	0x34	52
32	0xef	-17
33	0x0e	14
34	0xfe	-2
35	0xc0	-64
36	0xe7	-25
37	0x6a	106
38	0x34	52
39	0x00	0
40	0x25	37
41	0xb8	-72
42	0x21	33
43	0xba	-70
44	0xc9	-55
45	0x4d	77
46	0xe8	-24
47	0x1d	29
48	0xf2	-14
49	0x42	66
50	0x0c	12
51	0xea	-22
52	0xaf	-81
53	0x04	4
54	0x23	35
55	0x37	55
56	0x45	69
57	0x2c	44
58	0x26	38
59	0xcc	-52
60	0x18	24
61	0x44	68
62	0x08	8
63	0x17	23
64	0xe8	-24
65	0xba	-70
66	0xac	-84
67	0x28	40
68	0x41	65
69	0x3b	59
70	0xa7	-89
71	0xef	-17
72	0x24	36
73	0xfe	-2
74	0xfa	-6
75	0x06	6
76	0xf8	-8
77	0x58	88
78	0xbe	-66
79	0x01	1
80	0x48	72
81	0xbb	-69
82	0xd7	-41
83	0x27	39
84	0x38	56
85	0x53	83
86	0xce	-50
87	0x4d	77
88	0x7f	127
89	0x08	8
90	0xfc	-4
91	0xd0	-48
92	0x07	7
93	0x4b	75
94	0x60	96
95	0x14	20
96	0x50	80
97	0x19	25
98	0x35	53
99	0xf2	-14
100	0xf5	-11
101	0xf6	-10
102	0x05	5
103	0xea	-22
104	0x27	39
105	0x2b	43
106	0x1b	27
107	0x57	87
108	0x59	89
109	0xcb	-53
110	0x29	41
111	0x30	48
112	0xd9	-39
113	0xe1	-31
114	0xb9	-71
115	0x06	6
116	0x43	67
117	0x30	48
118	0xbb	-69
119	0xa0	-96
120	0xd5	-43
121	0xee	-18
122	0xd8	-40
123	0x27	39
124	0x05	5
125	0xf6	-10
126	0xa5	-91
127	0xea	-22
128	0xf1	-15
129	0x0e	14
130	0x19	25
131	0x3e	62
132	0xe1	-31
133	0x16	22
134	0x16	22
135	0x35	53
136	0x37	55
137	0x1a	26
138	0xc4	-60
139	0x33	51
140	0xe2	-30
141	0x1f	31
142	0xff	-1
143	0xe2	-30
144	0x2e	46
145	0x14	20
146	0x00	0
147	0xdd	-35
148	0x7f	127
149	0x19	25
150	0xf8	-8
151	0xdf	-33
152	0xe0	-32
153	0x21	33
154	0x14	20
155	0x1d	29
156	0xe0	-32
157	0x02	2
158	0xf5	-11
159	0xe2	-30
160	0x13	19
161	0x04	4
162	0x0c	12
163	0x29	41
164	0x03	3
165	0x07	7
166	0xde	-34
167	0x24	36
168	0xde	-34
169	0xd5	-43
170	0xb4	-76
171	0x11	17
172	0xf3	-13
173	0xfa	-6
174	0xf8	-8
175	0xd0	-48
176	0x20	32
177	0xf3	-13
178	0xec	-20
179	0x50	80
180	0x17	23
181	0xd9	-39
182	0xe2	-30
183	0xe3	-29
184	0x19	25
185	0xf3	-13
186	0xcc	-52
187	0x7d	125
188	0x53	83
189	0xc7	-57
190	0xe4	-28
191	0x09	9
192	0x03	3
193	0x10	16
194	0x32	50
195	0x00	0
196	0xd2	-46
197	0x1d	29
198	0x3a	58
199	0xeb	-21
200	0xc9	-55
201	0xfc	-4
202	0xe0	-32
203	0x2c	44
204	0x55	85
205	0xe5	-27
206	0x09	9
207	0xce	-50
208	0xe0	-32
209	0x48	72
210	0x0b	11
211	0x14	20
212	0x07	7
213	0xdc	-36
214	0x23	35
215	0xd6	-42
216	0xe4	-28
217	0xea	-22
218	0xdc	-36
219	0xbb	-69
220	0xe6	-26
221	0x29	41
222	0xea	-22
223	0xc8	-56
224	0xd5	-43
225	0xfd	-3
226	0xd9	-39
227	0xec	-20
228	0x3e	62
229	0x3a	58
230	0x29	41
231	0x04	4
232	0xd9	-39
233	0xf7	-9
234	0xe0	-32
235	0xf9	-7
236	0xb4	-76
237	0x4c	76
238	0x1c	28
239	0x13	19
240	0x07	7
241	0xe6	-26
242	0x45	69
243	0x18	24
244	0xd0	-48
245	0xbd	-67
246	0x39	57
247	0xfc	-4
248	0xf4	-12
249	0xf4	-12
250	0xe5	-27
251	0xd9	-39
252	0x2c	44
253	0x2c	44
254	0x1e	30
255	0xe0	-32

model/depthwise_conv2d_3/depthwise1 i1 [1, 15, 1, 128]
0	0x24	36
1	0x7f	127
2	0xc5	-59
3	0x3e	62
4	0x81	-127
5	0x48	72
6	0x43	67
7	0x33	51
8	0xe8	-24
9	0x12	18
10	0x7d	125
11	0x81	-127
12	0x77	119
13	0xdd	-35
14	0xeb	-21
15	0x81	-127
16	0x05	5
17	0x37	55
18	0x7f	127
19	0x81	-127
20	0x81	-127
21	0xe4	-28
22	0x7f	127
23	0x7f	127
24	0x82	-126
25	0x28	40
26	0xb4	-76
27	0x3b	59
28	0x89	-119
29	0xa3	-93
30	0x0b	11
31	0x7f	127
32	0xfa	-6
33	0x27	39
34	0x81	-127
35	0x83	-125
36	0x9d	-99
37	0xcf	-49
38	0x6b	107
39	0xa6	-90
40	0x46	70
41	0xe9	-23
42	0xd6	-42
43	0xfe	-2
44	0xd5	-43
45	0x93	-109
46	0xd5	-43
47	0x26	38
48	0x3d	61
49	0x81	-127
50	0x5f	95
51	0x7f	127
52	0xb8	-72
53	0x40	64
54	0xe5	-27
55	0x03	3
56	0x81	-127
57	0xdd	-35
58	0x55	85
59	0x81	-127
60	0x7f	127
61	0x7f	127
62	0x8a	-118
63	0x6d	109
64	0x01	1
65	0x2a	42
66	0x0f	15
67	0x0f	15
68	0xaa	-86
69	0xd7	-41
70	0x43	67
71	0xa9	-87
72	0x0b	11
73	0x81	-127
74	0xe1	-31
75	0x62	98
76	0x81	-127
77	0x7c	124
78	0x14	20
79	0x7f	127
80	0x70	112
81	0x24	36
82	0x81	-127
83	0xbf	-65
84	0x7f	127
85	0x7f	127
86	0x81	-127
87	0x9d	-99
88	0x1d	29
89	0xca	-54
90	0x81	-127
91	0x81	-127
92	0x7f	127
93	0x12	18
94	0x0c	12
95	0xbe	-66
96	0x74	116
97	0xf5	-11
98	0x06	6
99	0x7f	127
100	0x66	102
101	0x73	115
102	0x58	88
103	0x7f	127
104	0x07	7
105	0x81	-127
106	0x81	-127
107	0xe1	-31
108	0x61	97
109	0xeb	-21
110	0x2d	45
111	0x4c	76
112	0x7f	127
113	0xc2	-62
114	0x22	34
115	0xe3	-29
116	0x17	23
117	0x7f	127
118	0x76	118
119	0x3d	61
120	0xa4	-92
121	0x81	-127
122	0x72	114
123	0x7f	127
124	0x7f	127
125	0x05	5
126	0x12	18
127	0x81	-127
128	0x18	24
129	0x75	117
130	0xb6	-74
131	0x7f	127
132	0xb1	-79
133	0x48	72
134	0x56	86
135	0x7f	127
136	0xe5	-27
137	0x0d	13
138	0x65	101
139	0xe1	-31
140	0x0d	13
141	0x1a	26
142	0x9f	-97
143	0x8c	-116
144	0x3b	59
145	0x27	39
146	0x38	56
147	0x66	102
148	0xad	-83
149	0xe0	-32
150	0x43	67
151	0x3e	62
152	0xa4	-92
153	0xc7	-57
154	0xbc	-68
155	0x1f	31
156	0xbd	-67
157	0xb2	-78
158	0x06	6
159	0x31	49
160	0xf4	-12
161	0xec	-20
162	0xad	-83
163	0xe4	-28
164	0xe6	-26
165	0x1d	29
166	0x7c	124
167	0x4b	75
168	0x1d	29
169	0x12	18
170	0xe0	-32
171	0xf7	-9
172	0xdf	-33
173	0x95	-107
174	0xef	-17
175	0x1a	26
176	0x1a	26
177	0xd2	-46
178	0x6c	108
179	0x47	71
180	0x36	54
181	0x31	49
182	0xad	-83
183	0x0b	11
184	0xba	-70
185	0xc5	-59
186	0x5e	94
187	0xcb	-53
188	0x65	101
189	0x63	99
190	0x81	-127
191	0x7f	127
192	0xe9	-23
193	0x72	114
194	0x7f	127
195	0x0a	10
196	0xc8	-56
197	0xc7	-57
198	0x29	41
199	0x81	-127
200	0x1d	29
201	0x81	-127
202	0xee	-18
203	0x6c	108
204	0xb2	-78
205	0x05	5
206	0x25	37
207	0x66	102
208	0xb3	-77
209	0x06	6
210	0x9f	-97
211	0x15	21
212	0x20	32
213	0x43	67
214	0x94	-108
215	0x81	-127
216	0x4b	75
217	0xec	-20
218	0x96	-106
219	0xc3	-61
220	0x43	67
221	0xfc	-4
222	0x08	8
223	0xfb	-5
224	0x43	67
225	0xec	-20
226	0x05	5
227	0x0e	14
228	0x5a	90
229	0x74	116
230	0x22	34
231	0x3e	62
232	0xf9	-7
233	0x9a	-102
234	0x91	-111
235	0xff	-1
236	0x1a	26
237	0x11	17
238	0x15	21
239	0x32	50
240	0x53	83
241	0x9f	-97
242	0x1a	26
243	0xf5	-11
244	0x04	4
245	0x43	67
246	0x6c	108
247	0x2e	46
248	0xd2	-46
249	0xc7	-57
250	0x65	101
251	0x55	85
252	0x6a	106
253	0x08	8
254	0xd3	-45
255	0xd6	-42

model/conv2d_2/Conv2D i1 [128, 1, 1, 128]
0	0x1a	26
1	0xfc	-4
2	0x18	24
3	0xb2	-78
4	0xb5	-75
5	0xf2	-14
6	0x0e	14
7	0x49	73
8	0xf4	-12
9	0x36	54
10	0x00	0
11	0xf2	-14
12	0xd4	-44
13	0xf8	-8
14	0x33	51
15	0xe9	-23
16	0xee	-18
17	0xfc	-4
18	0x05	5
19	0xad	-83
20	0xe9	-23
21	0x1d	29
22	0x1f	31
23	0x09	9
24	0xd4	-44
25	0x00	0
26	0x0d	13
27	0xd2	-46
28	0x08	8
29	0xfd	-3
30	0xf6	-10
31	0xf7	-9
32	0x1d	29
33	0xe7	-25
34	0xea	-22
35	0x03	3
36	0x06	6
37	0x27	39
38	0xba	-70
39	0xfe	-2
40	0xff	-1
41	0x04	4
42	0x01	1
43	0x39	57
44	0xf3	-13
45	0xf4	-12
46	0xdb	-37
47	0x0e	14
48	0x0a	10
49	0x1c	28
50	0x0f	15
51	0x07	7
52	0x25	37
53	0x0e	14
54	0xeb	-21
55	0x26	38
56	0xe9	-23
57	0xb8	-72
58	0x03	3
59	0x13	19
60	0xe3	-29
61	0xf1	-15
62	0xde	-34
63	0x81	-127
64	0xfd	-3
65	0xf0	-16
66	0xf5	-11
67	0xfc	-4
68	0x0c	12
69	0x1f	31
70	0xff	-1
71	0x08	8
72	0xdd	-35
73	0xfc	-4
74	0xf6	-10
75	0x11	17
76	0x0f	15
77	0xcd	-51
78	0x14	20
79	0xeb	-21
80	0xfa	-6
81	0xb7	-73
82	0x0b	11
83	0xf5	-11
84	0x38	56
85	0xe7	-25
86	0xea	-22
87	0xe8	-24
88	0xd4	-44
89	0xd8	-40
90	0xf5	-11
91	0x2b	43
92	0x08	8
93	0xe3	-29
94	0x43	67
95	0xde	-34
96	0xf6	-10
97	0x2f	47
98	0x3c	60
99	0x1f	31
100	0xfd	-3
101	0x17	23
102	0xf6	-10
103	0xa5	-91
104	0xf4	-12
105	0xf6	-10
106	0x05	5
107	0x15	21
108	0xf6	-10
109	0x1e	30
110	0x12	18
111	0xeb	-21
112	0x01	1
113	0xeb	-21
114	0x09	9
115	0x08	8
116	0xc8	-56
117	0x1a	26
118	0xd0	-48
119	0xfc	-4
120	0x30	48
121	0x01	1
122	0x1b	27
123	0xd6	-42
124	0xfd	-3
125	0x36	54
126	0x32	50
127	0xe6	-26
128	0x0f	15
129	0xe4	-28
130	0xe2	-30
131	0xd6	-42
132	0x11	17
133	0xd2	-46
134	0xf5	-11
135	0xf1	-15
136	0x0d	13
137	0x27	39
138	0x30	48
139	0x11	17
140	0xda	-38
141	0xee	-18
142	0xf6	-10
143	0xfe	-2
144	0x04	4
145	0x13	19
146	0x16	22
147	0x08	8
148	0x19	25
149	0xca	-54
150	0x11	17
151	0x39	57
152	0x06	6
153	0xfe	-2
154	0xde	-34
155	0x0b	11
156	0xce	-50
157	0x6e	110
158	0x08	8
159	0xc9	-55
160	0xf5	-11
161	0xcd	-51
162	0x11	17
163	0xe8	-24
164	0xf0	-16
165	0xcc	-52
166	0x20	32
167	0x68	104
168	0xe7	-25
169	0x03	3
170	0xd3	-45
171	0x29	41
172	0x17	23
173	0xd7	-41
174	0x15	21
175	0x32	50
176	0xea	-22
177	0xde	-34
178	0x20	32
179	0xef	-17
180	0xe7	-25
181	0x15	21
182	0x03	3
183	0xd6	-42
184	0x0a	10
185	0xdb	-37
186	0xe3	-29
187	0xfd	-3
188	0xff	-1
189	0xf1	-15
190	0xfb	-5
191	0xe5	-27
192	0xda	-38
193	0xff	-1
194	0x2b	43
195	0x0d	13
196	0x2b	43
197	0xee	-18
198	0xd7	-41
199	0xf9	-7
200	0xfc	-4
201	0xee	-18
202	0x2a	42
203	0x14	20
204	0x4b	75
205	0x24	36
206	0xd5	-43
207	0x4c	76
208	0xc3	-61
209	0x1a	26
210	0x36	54
211	0xe5	-27
212	0x51	81
213	0xda	-38
214	0x2a	42
215	0x04	4
216	0x0f	15
217	0xf2	-14
218	0x05	5
219	0x11	17
220	0x1c	28
221	0xe3	-29
222	0x35	53
223	0xf1	-15
224	0x06	6
225	0x13	19
226	0xed	-19
227	0x27	39
228	0xcf	-49
229	0xd3	-45
230	0x02	2
231	0x00	0
232	0xc8	-56
233	0x17	23
234	0x08	8
235	0x08	8
236	0x1c	28
237	0xc8	-56
238	0x1f	31
239	0x0c	12
240	0xe7	-25
241	0x0e	14
242	0xda	-38
243	0x07	7
244	0x22	34
245	0x81	-127
246	0xe8	-24
247	0xf4	-12
248	0x21	33
249	0xca	-54
250	0x22	34
251	0xe3	-29
252	0x0b	11
253	0x09	9
254	0x2e	46
255	0xf5	-11

model/depthwise_conv2d_2/depthwise i1 [1, 10, 1, 128]
0	0x81	-127
1	0xb7	-73
2	0x0f	15
3	0x12	18
4	0x81	-127
5	0x81	-127
6	0x79	121
7	0x46	70
8	0x09	9
9	0x66	102
10	0x81	-127
11	0x91	-111
12	0x6b	107
13	0xcf	-49
14	0x27	39
15	0x81	-127
16	0x16	22
17	0x74	116
18	0x9b	-101
19	0xf7	-9
20	0x83	-125
21	0xe3	-29
22	0x78	120
23	0x81	-127
24	0x0d	13
25	0x67	103
26	0xde	-34
27	0xd2	-46
28	0x66	102
29	0xbe	-66
30	0xa3	-93
31	0xb1	-79
32	0xe8	-24
33	0x72	114
34	0x81	-127
35	0x7f	127
36	0xea	-22
37	0x81	-127
38	0x77	119
39	0xcb	-53
40	0x0a	10
41	0x5c	92
42	0x81	-127
43	0xc3	-61
44	0xb7	-73
45	0xf2	-14
46	0xe6	-26
47	0x81	-127
48	0xa3	-93
49	0x07	7
50	0xbf	-65
51	0x81	-127
52	0x48	72
53	0x81	-127
54	0x81	-127
55	0x7f	127
56	0x7f	127
57	0x7f	127
58	0x81	-127
59	0x81	-127
60	0x50	80
61	0xe7	-25
62	0x88	-120
63	0xba	-70
64	0xb4	-76
65	0x1b	27
66	0x02	2
67	0x7f	127
68	0x81	-127
69	0xf8	-8
70	0x34	52
71	0x55	85
72	0x46	70
73	0x43	67
74	0x55	85
75	0xf5	-11
76	0xbe	-66
77	0x81	-127
78	0x81	-127
79	0x7f	127
80	0x29	41
81	0x70	112
82	0x7f	127
83	0xc6	-58
84	0x9a	-102
85	0x65	101
86	0x43	67
87	0xdb	-37
88	0x63	99
89	0x18	24
90	0x7f	127
91	0x2e	46
92	0x7f	127
93	0xe0	-32
94	0x47	71
95	0x81	-127
96	0x81	-127
97	0x5f	95
98	0xd9	-39
99	0x15	21
100	0x81	-127
101	0xdb	-37
102	0x70	112
103	0x73	115
104	0xa0	-96
105	0x9a	-102
106	0xb2	-78
107	0x39	57
108	0x16	22
109	0x23	35
110	0x23	35
111	0x81	-127
112	0x81	-127
113	0x24	36
114	0x7f	127
115	0x7f	127
116	0x48	72
117	0x7f	127
118	0x16	22
119	0xb1	-79
120	0x1d	29
121	0x7f	127
122	0x1d	29
123	0xeb	-21
124	0x78	120
125	0x68	104
126	0xed	-19
127	0x81	-127
128	0xe2	-30
129	0xef	-17
130	0x44	68
131	0xd8	-40
132	0xa3	-93
133	0xac	-84
134	0x40	64
135	0x4b	75
136	0xe3	-29
137	0x7f	127
138	0x9a	-102
139	0xcc	-52
140	0x51	81
141	0x81	-127
142	0x14	20
143	0x8c	-116
144	0x46	70
145	0x45	69
146	0xd4	-44
147	0x1a	26
148	0x81	-127
149	0xf4	-12
150	0x7f	127
151	0xa9	-87
152	0x06	6
153	0x7f	127
154	0x31	49
155	0xc6	-58
156	0x22	34
157	0xa8	-88
158	0xa9	-87
159	0xc1	-63
160	0x73	115
161	0xe0	-32
162	0x8e	-114
163	0xfb	-5
164	0xea	-22
165	0xd2	-46
166	0x5e	94
167	0xe9	-23
168	0xf4	-12
169	0x2d	45
170	0xb0	-80
171	0x15	21
172	0xed	-19
173	0xb9	-71
174	0xb8	-72
175	0xc3	-61
176	0xcc	-52
177	0x2c	44
178	0x17	23
179	0xdd	-35
180	0x4f	79
181	0xd0	-48
182	0x01	1
183	0x49	73
184	0x14	20
185	0x3e	62
186	0xfb	-5
187	0xa3	-93
188	0x7c	124
189	0x23	35
190	0x93	-109
191	0xe6	-26
192	0xaa	-86
193	0x59	89
194	0x00	0
195	0xd5	-43
196	0xcd	-51
197	0xf1	-15
198	0x38	56
199	0x1e	30
200	0x5b	91
201	0x4f	79
202	0x7f	127
203	0xf0	-16
204	0x93	-109
205	0xb6	-74
206	0xbc	-68
207	0x56	86
208	0x14	20
209	0x50	80
210	0x77	119
211	0xb1	-79
212	0xe8	-24
213	0x21	33
214	0x6e	110
215	0x1f	31
216	0x43	67
217	0xf0	-16
218	0x63	99
219	0x45	69
220	0x55	85
221	0x1a	26
222	0x14	20
223	0xda	-38
224	0xb5	-75
225	0x34	52
226	0xf1	-15
227	0x1c	28
228	0xd4	-44
229	0x0d	13
230	0x1c	28
231	0x1a	26
232	0x9d	-99
233	0xec	-20
234	0x9c	-100
235	0x3a	58
236	0x28	40
237	0x3d	61
238	0x47	71
239	0x91	-111
240	0xe3	-29
241	0x44	68
242	0x6f	111
243	0x48	72
244	0xeb	-21
245	0x30	48
246	0x2d	45
247	0xdc	-36
248	0x30	48
249	0x2f	47
250	0x39	57
251	0xe7	-25
252	0x7f	127
253	0xf9	-7
254	0x01	1
255	0xc6	-58

model/conv2d_1/Conv2D i1 [128, 1, 1, 128]
0	0x00	0
1	0xdd	-35
2	0xe3	-29
3	0x19	25
4	0x07	7
5	0xe8	-24
6	0x03	3
7	0x24	36
8	0xf1	-15
9	0xab	-85
10	0x00	0
11	0x34	52
12	0x2c	44
13	0xb4	-76
14	0x10	16
15	0x0c	12
16	0x0f	15
17	0x18	24
18	0x64	100
19	0x46	70
20	0x10	16
21	0x2d	45
22	0xf8	-8
23	0xf4	-12
24	0x1c	28
25	0xdf	-33
26	0x04	4
27	0x02	2
28	0xcf	-49
29	0x09	9
30	0xd1	-47
31	0x34	52
32	0xed	-19
33	0xde	-34
34	0xb1	-79
35	0xa7	-89
36	0x1b	27
37	0xe7	-25
38	0x1d	29
39	0x3f	63
40	0x2f	47
41	0x31	49
42	0xe3	-29
43	0x21	33
44	0xe9	-23
45	0x03	3
46	0x2a	42
47	0xe6	-26
48	0x20	32
49	0x01	1
50	0x54	84
51	0xd4	-44
52	0xba	-70
53	0x55	85
54	0xf7	-9
55	0xd1	-47
56	0x18	24
57	0x0c	12
58	0xd3	-45
59	0xde	-34
60	0x2c	44
61	0xf9	-7
62	0x22	34
63	0x7f	127
64	0xcf	-49
65	0x07	7
66	0xc4	-60
67	0x07	7
68	0xf7	-9
69	0xaf	-81
70	0x00	0
71	0x1a	26
72	0x6c	108
73	0x27	39
74	0xfa	-6
75	0xea	-22
76	0x25	37
77	0x17	23
78	0xbc	-68
79	0xd8	-40
80	0xfa	-6
81	0x0e	14
82	0x52	82
83	0x31	49
84	0xed	-19
85	0x16	22
86	0x23	35
87	0xdf	-33
88	0x90	-112
89	0xf7	-9
90	0xee	-18
91	0xf8	-8
92	0x1b	27
93	0x0c	12
94	0xcb	-53
95	0x09	9
96	0x22	34
97	0xee	-18
98	0xbf	-65
99	0xe4	-28
100	0x18	24
101	0x34	52
102	0xe4	-28
103	0x01	1
104	0x1a	26
105	0x34	52
106	0xf1	-15
107	0xe6	-26
108	0x07	7
109	0x2a	42
110	0xc4	-60
111	0xe3	-29
112	0xcc	-52
113	0x26	38
114	0x0c	12
115	0xed	-19
116	0x09	9
117	0x21	33
118	0xdb	-37
119	0xf6	-10
120	0xaa	-86
121	0xc5	-59
122	0x09	9
123	0x30	48
124	0x31	49
125	0xb8	-72
126	0xeb	-21
127	0xd8	-40
128	0xfd	-3
129	0xd8	-40
130	0xfc	-4
131	0x19	25
132	0x12	18
133	0xed	-19
134	0xfd	-3
135	0x43	67
136	0xfc	-4
137	0xdf	-33
138	0xdf	-33
139	0x0b	11
140	0x29	41
141	0xe5	-27
142	0x11	17
143	0x25	37
144	0xc5	-59
145	0x16	22
146	0xf8	-8
147	0xfc	-4
148	0xd8	-40
149	0xf7	-9
150	0x1e	30
151	0x11	17
152	0x04	4
153	0x3b	59
154	0x75	117
155	0x48	72
156	0xba	-70
157	0x9c	-100
158	0x1b	27
159	0xeb	-21
160	0xd3	-45
161	0x0a	10
162	0x50	80
163	0xdf	-33
164	0x26	38
165	0xef	-17
166	0xa4	-92
167	0xf2	-14
168	0x26	38
169	0x81	-127
170	0xdd	-35
171	0xf2	-14
172	0xee	-18
173	0x25	37
174	0xda	-38
175	0x28	40
176	0xcf	-49
177	0x19	25
178	0x3d	61
179	0xd2	-46
180	0x14	20
181	0x55	85
182	0xec	-20
183	0x0b	11
184	0x39	57
185	0x05	5
186	0xd8	-40
187	0x0a	10
188	0xe1	-31
189	0x3e	62
190	0x09	9
191	0x21	33
192	0xf0	-16
193	0xd9	-39
194	0xea	-22
195	0xe4	-28
196	0x1e	30
197	0xf1	-15
198	0xf7	-9
199	0xf3	-13
200	0xd5	-43
201	0xdf	-33
202	0x11	17
203	0xdc	-36
204	0x1e	30
205	0xf7	-9
206	0x0d	13
207	0xf5	-11
208	0xfa	-6
209	0xed	-19
210	0x16	22
211	0x13	19
212	0xd8	-40
213	0xce	-50
214	0xd8	-40
215	0xf5	-11
216	0x1f	31
217	0x0e	14
218	0x06	6
219	0x09	9
220	0xe4	-28
221	0xfa	-6
222	0x0d	13
223	0xce	-50
224	0x06	6
225	0x06	6
226	0xfc	-4
227	0xe0	-32
228	0x20	32
229	0xf3	-13
230	0xfa	-6
231	0x1d	29
232	0x0f	15
233	0x26	38
234	0x1a	26
235	0xf9	-7
236	0x56	86
237	0x09	9
238	0xea	-22
239	0xde	-34
240	0x04	4
241	0x21	33
242	0x67	103
243	0xe0	-32
244	0xec	-20
245	0xaf	-81
246	0x05	5
247	0xef	-17
248	0xe9	-23
249	0x14	20
250	0x0a	10
251	0xca	-54
252	0x14	20
253	0x2b	43
254	0xf4	-12
255	0xbf	-65

model/depthwise_conv2d_1/depthwise i1 [1, 5, 1, 128]
0	0xef	-17
1	0xed	-19
2	0x9f	-97
3	0x42	66
4	0xf2	-14
5	0x81	-127
6	0xad	-83
7	0x7f	127
8	0x70	112
9	0x7f	127
10	0xdf	-33
11	0x55	85
12	0xd7	-41
13	0x81	-127
14	0x21	33
15	0x81	-127
16	0x7f	127
17	0x09	9
18	0x95	-107
19	0x7f	127
20	0x7f	127
21	0x40	64
22	0x6e	110
23	0xdd	-35
24	0x7f	127
25	0xec	-20
26	0x9b	-101
27	0x8e	-114
28	0x0d	13
29	0x7f	127
30	0x9d	-99
31	0xdb	-37
32	0xe9	-23
33	0x56	86
34	0x95	-107
35	0x75	117
36	0xa4	-92
37	0x81	-127
38	0x0a	10
39	0xde	-34
40	0xcd	-51
41	0x08	8
42	0xf3	-13
43	0x81	-127
44	0xda	-38
45	0x81	-127
46	0x8a	-118
47	0xe3	-29
48	0x3a	58
49	0x19	25
50	0x9e	-98
51	0x9a	-102
52	0x82	-126
53	0x7f	127
54	0x0f	15
55	0x9f	-97
56	0x7f	127
57	0x7f	127
58	0xff	-1
59	0xed	-19
60	0xef	-17
61	0x69	105
62	0x53	83
63	0x81	-127
64	0x84	-124
65	0x9c	-100
66	0x5b	91
67	0x7f	127
68	0x20	32
69	0x7f	127
70	0x28	40
71	0x98	-104
72	0x7f	127
73	0x7f	127
74	0xce	-50
75	0x5b	91
76	0xb7	-73
77	0x81	-127
78	0x7f	127
79	0x81	-127
80	0xf3	-13
81	0xd0	-48
82	0x81	-127
83	0x7f	127
84	0xf2	-14
85	0x3a	58
86	0x81	-127
87	0x9b	-101
88	0xb5	-75
89	0xf9	-7
90	0x64	100
91	0x7f	127
92	0xbf	-65
93	0x05	5
94	0xf3	-13
95	0x87	-121
96	0x82	-126
97	0x81	-127
98	0xca	-54
99	0x7f	127
100	0x49	73
101	0xd9	-39
102	0x81	-127
103	0xb6	-74
104	0x7f	127
105	0x09	9
106	0x96	-106
107	0xc6	-58
108	0x81	-127
109	0x01	1
110	0x7f	127
111	0x82	-126
112	0x09	9
113	0xec	-20
114	0x7f	127
115	0x2a	42
116	0xc9	-55
117	0x69	105
118	0x7f	127
119	0x8e	-114
120	0x01	1
121	0xbd	-67
122	0x70	112
123	0xc7	-57
124	0xc1	-63
125	0x7f	127
126	0x31	49
127	0x39	57
128	0x39	57
129	0x33	51
130	0x23	35
131	0x7f	127
132	0xc2	-62
133	0xd1	-47
134	0xcf	-49
135	0x17	23
136	0x7f	127
137	0x40	64
138	0x81	-127
139	0x1f	31
140	0xc6	-58
141	0xb4	-76
142	0x01	1
143	0x8e	-114
144	0x5a	90
145	0xf3	-13
146	0x81	-127
147	0x3c	60
148	0x44	68
149	0xcb	-53
150	0xc0	-64
151	0x9d	-99
152	0x6f	111
153	0xfb	-5
154	0x81	-127
155	0xa7	-89
156	0xda	-38
157	0x17	23
158	0x81	-127
159	0x39	57
160	0xd6	-42
161	0x26	38
162	0x8c	-116
163	0x7f	127
164	0x87	-121
165	0xab	-85
166	0x54	84
167	0x81	-127
168	0x95	-107
169	0x0c	12
170	0xaa	-86
171	0x2b	43
172	0xb5	-75
173	0xd5	-43
174	0x0d	13
175	0xff	-1
176	0xa2	-94
177	0xdc	-36
178	0x81	-127
179	0xba	-70
180	0xa8	-88
181	0x7b	123
182	0x2d	45
183	0x26	38
184	0x48	72
185	0x3c	60
186	0xe7	-25
187	0x81	-127
188	0xdc	-36
189	0x4c	76
190	0x53	83
191	0xd9	-39
192	0x90	-112
193	0x81	-127
194	0x0f	15
195	0xf3	-13
196	0x13	19
197	0x26	38
198	0x81	-127
199	0xde	-34
200	0x3c	60
201	0x7c	124
202	0x15	21
203	0x7f	127
204	0xf7	-9
205	0xe1	-31
206	0x11	17
207	0xb7	-73
208	0xe4	-28
209	0xbd	-67
210	0xc0	-64
211	0x58	88
212	0xff	-1
213	0x7f	127
214	0xef	-17
215	0x81	-127
216	0x3e	62
217	0xcd	-51
218	0xe0	-32
219	0x09	9
220	0xb2	-78
221	0x37	55
222	0xc7	-57
223	0x48	72
224	0x89	-119
225	0x94	-108
226	0xa5	-91
227	0x22	34
228	0x53	83
229	0x96	-106
230	0x01	1
231	0xdc	-36
232	0x4c	76
233	0x0b	11
234	0x16	22
235	0xe8	-24
236	0x15	21
237	0x0f	15
238	0x57	87
239	0x9c	-100
240	0x40	64
241	0x68	104
242	0xd1	-47
243	0x22	34
244	0x23	35
245	0x11	17
246	0x18	24
247	0xcd	-51
248	0xdd	-35
249	0x1a	26
250	0x48	72
251	0x81	-127
252	0x81	-127
253	0x3f	63
254	0x68	104
255	0xab	-85

model/conv2d/Conv2D i1 [128, 1, 1, 40]
0	0x2d	45
1	0x11	17
2	0x46	70
3	0x3f	63
4	0xf4	-12
5	0xa8	-88
6	0x64	100
7	0x90	-112
8	0x95	-107
9	0xd8	-40
10	0xed	-19
11	0x7f	127
12	0x1d	29
13	0xa0	-96
14	0xc4	-60
15	0xc4	-60
16	0xc1	-63
17	0xf3	-13
18	0xad	-83
19	0xf9	-7
20	0xd7	-41
21	0x06	6
22	0x17	23
23	0xc6	-58
24	0xb0	-80
25	0x30	48
26	0x2f	47
27	0x2b	43
28	0xdf	-33
29	0x02	2
30	0xdc	-36
31	0x2f	47
32	0xb8	-72
33	0x04	4
34	0x3b	59
35	0x11	17
36	0x21	33
37	0xf9	-7
38	0x25	37
39	0x4e	78
40	0xf5	-11
41	0xf9	-7
42	0x78	120
43	0xdf	-33
44	0x3c	60
45	0x32	50
46	0xf6	-10
47	0xe7	-25
48	0x25	37
49	0xdc	-36
50	0x0a	10
51	0x22	34
52	0x03	3
53	0xf5	-11
54	0x12	18
55	0x19	25
56	0xf4	-12
57	0x07	7
58	0xe8	-24
59	0x45	69
60	0xf1	-15
61	0xb0	-80
62	0xfe	-2
63	0x2b	43
64	0x81	-127
65	0xfd	-3
66	0x1c	28
67	0x00	0
68	0x1c	28
69	0xe2	-30
70	0x28	40
71	0xda	-38
72	0x24	36
73	0x10	16
74	0x11	17
75	0x00	0
76	0x24	36
77	0xea	-22
78	0xfa	-6
79	0xe3	-29
80	0xa8	-88
81	0xd8	-40
82	0x1a	26
83	0xe1	-31
84	0x2e	46
85	0x2c	44
86	0x2d	45
87	0xfa	-6
88	0x40	64
89	0x29	41
90	0xf1	-15
91	0xf7	-9
92	0x25	37
93	0x25	37
94	0xf9	-7
95	0x52	82
96	0xe4	-28
97	0xbd	-67
98	0xef	-17
99	0x41	65
100	0xf4	-12
101	0xa4	-92
102	0x54	84
103	0xd9	-39
104	0x6d	109
105	0x53	83
106	0x48	72
107	0xfc	-4
108	0x2a	42
109	0x3d	61
110	0xd0	-48
111	0x63	99
112	0x15	21
113	0x81	-127
114	0x43	67
115	0x51	81
116	0x99	-103
117	0xcd	-51
118	0xed	-19
119	0xd8	-40
120	0x03	3
121	0xee	-18
122	0xfa	-6
123	0xf3	-13
124	0xda	-38
125	0xe4	-28
126	0x09	9
127	0x70	112
128	0xb5	-75
129	0xf5	-11
130	0x7f	127
131	0xa5	-91
132	0xf4	-12
133	0xc4	-60
134	0xe0	-32
135	0x6c	108
136	0x28	40
137	0xa0	-96
138	0x23	35
139	0xd5	-43
140	0xf2	-14
141	0xe9	-23
142	0xf8	-8
143	0xca	-54
144	0x01	1
145	0xfa	-6
146	0x3d	61
147	0xe2	-30
148	0xaf	-81
149	0xe2	-30
150	0x30	48
151	0x1f	31
152	0x02	2
153	0xea	-22
154	0xeb	-21
155	0x3a	58
156	0x3a	58
157	0xe5	-27
158	0x08	8
159	0xe7	-25
160	0x6d	109
161	0xab	-85
162	0x08	8
163	0x86	-122
164	0xf3	-13
165	0xd8	-40
166	0xfd	-3
167	0xfa	-6
168	0x09	9
169	0x09	9
170	0xeb	-21
171	0xcd	-51
172	0x2a	42
173	0xe7	-25
174	0x2b	43
175	0xd5	-43
176	0x1f	31
177	0x09	9
178	0x07	7
179	0x30	48
180	0xfd	-3
181	0xda	-38
182	0x02	2
183	0xff	-1
184	0xe5	-27
185	0xf5	-11
186	0x09	9
187	0x81	-127
188	0x4e	78
189	0xd4	-44
190	0xca	-54
191	0x22	34
192	0x72	114
193	0x49	73
194	0x0f	15
195	0xf5	-11
196	0xf3	-13
197	0x01	1
198	0xd5	-43
199	0xec	-20
200	0x01	1
201	0xf7	-9
202	0x49	73
203	0xbe	-66
204	0xbf	-65
205	0x39	57
206	0x1a	26
207	0xf5	-11
208	0x81	-127
209	0xb2	-78
210	0x3f	63
211	0x1f	31
212	0x05	5
213	0x03	3
214	0xd1	-47
215	0x13	19
216	0xee	-18
217	0x0e	14
218	0xea	-22
219	0xdd	-35
220	0xdb	-37
221	0x2b	43
222	0xe1	-31
223	0x07	7
224	0x10	16
225	0xc0	-64
226	0xd9	-39
227	0xed	-19
228	0xed	-19
229	0xf1	-15
230	0x1b	27
231	0xee	-18
232	0x2a	42
233	0x02	2
234	0x00	0
235	0xe9	-23
236	0x24	36
237	0x12	18
238	0x0d	13
239	0xe1	-31
240	0x0f	15
241	0x59	89
242	0xd9	-39
243	0xd7	-41
244	0xb3	-77
245	0xbb	-69
246	0x1f	31
247	0x47	71
248	0x00	0
249	0x13	19
250	0x7f	127
251	0x39	57
252	0x45	69
253	0x46	70
254	0xaa	-86
255	0xfd	-3

model/depthwise_conv2d/depthwise1 i1 [1, 3, 1, 40]
0	0x81	-127
1	0x7f	127
2	0x6c	108
3	0x55	85
4	0x88	-120
5	0x7f	127
6	0x75	117
7	0xd5	-43
8	0x97	-105
9	0x81	-127
10	0x7f	127
11	0x51	81
12	0x4d	77
13	0x7f	127
14	0x81	-127
15	0x88	-120
16	0xad	-83
17	0x0d	13
18	0x81	-127
19	0xac	-84
20	0xaf	-81
21	0x6c	108
22	0x81	-127
23	0xe2	-30
24	0x7f	127
25	0xbc	-68
26	0x7f	127
27	0x81	-127
28	0x7f	127
29	0x7f	127
30	0xb2	-78
31	0x7f	127
32	0x3c	60
33	0xd0	-48
34	0x7f	127
35	0x7f	127
36	0xc8	-56
37	0xb2	-78
38	0x32	50
39	0x7f	127
40	0x85	-123
41	0x3a	58
42	0xd5	-43
43	0x7f	127
44	0x9a	-102
45	0x06	6
46	0x01	1
47	0x81	-127
48	0x0e	14
49	0xe8	-24
50	0x78	120
51	0x81	-127
52	0xbf	-65
53	0x45	69
54	0x9f	-97
55	0x38	56
56	0xc2	-62
57	0x0d	13
58	0xd9	-39
59	0xd2	-46
60	0x73	115
61	0x7f	127
62	0x3f	63
63	0xf8	-8
64	0xec	-20
65	0x3e	62
66	0xcb	-53
67	0xa8	-88
68	0xb6	-74
69	0xe2	-30
70	0xa7	-89
71	0x12	18
72	0x81	-127
73	0xb4	-76
74	0xcb	-53
75	0x18	24
76	0xc1	-63
77	0x7f	127
78	0xbc	-68
79	0x40	64
80	0x83	-125
81	0xc0	-64
82	0x81	-127
83	0x18	24
84	0x7f	127
85	0xb3	-77
86	0x81	-127
87	0xca	-54
88	0x7f	127
89	0x70	112
90	0xfb	-5
91	0x82	-126
92	0x81	-127
93	0x06	6
94	0x71	113
95	0x7f	127
96	0x7f	127
97	0x81	-127
98	0x4e	78
99	0x7f	127
100	0x81	-127
101	0x8f	-113
102	0x38	56
103	0x7f	127
104	0x8c	-116
105	0x81	-127
106	0xa1	-95
107	0x68	104
108	0xc8	-56
109	0x98	-104
110	0x7f	127
111	0xac	-84
112	0x46	70
113	0x7f	127
114	0xb5	-75
115	0xaf	-81
116	0x7f	127
117	0xab	-85
118	0x81	-127
119	0x6a	106
