benchmark/training/streaming_wakeword/trained_models/strm_ww_int8.tflite (tflite, 74520 bytes, 9 tensors)

model/dense/MatMul i1 [3, 32] scale=0.01235698 zero_point=0
0.54370713 -0.69199085 -0.4942792 -0.54370713 0.04942792 -0.7537758 -0.51899314 -0.22242564
0.51899314 -0.13592678 0.3830664 -0.33363846 -0.40778032 -0.01235698 0.02471396 -0.46956524
0.53135014 -0.4819222 -0.2965675 -0.7290618 -0.27185357 -0.39542335 0.39542335 -0.04942792
0.074141875 0.50663614 0.2471396 0.617849 0.037070937 -0.7908467 0.04942792 -0.13592678
-0.6796339 0.617849 -0.88970256 0.4819222 -1.3592678 0.630206 0.617849 0.7908467
-1.1244851 -0.9144165 -1.3221968 -0.3089245 -0.3707094 -1.3592678 -0.28421053 -0.7414188
0.42013732 -0.22242564 -0.87734556 0.4942792 -0.46956524 -0.40778032 -1.5693364 -0.3830664
-0.33363846 -0.70434785 0.2471396 -0.4819222 -1.3839817 0.45720825 -0.43249428 -0.593135
-0.23478262 -0.45720825 0.04942792 0.037070937 0.17299771 0.0617849 -0.09885584 0.037070937
0.01235698 0.33363846 0.01235698 0.34599543 0.3830664 0.21006866 0.617849 0.21006866
-0.55606407 0.50663614 0.40778032 -0.46956524 0.43249428 0.593135 0.27185357 0.51899314
0.630206 -0.23478262 -0.7537758 0.037070937 0.35835242 -0.037070937 0.6425629 0.27185357
00000000: 2cc8 d8d4 04c3 d6ee 2af5 1fe5 dfff 02da
00000010: 2bd9 e8c5 eae0 20fc 0629 1432 03c0 04f5
00000020: c932 b827 9233 3240 a5b6 95e7 e292 e9c4
00000030: 22ee b928 dadf 81e1 e5c7 14d9 9025 ddd0
00000040: eddb 0403 0e05 f803 011b 011c 1f11 3211
00000050: d329 21da 2330 162a 33ed c303 1dfd 3416

model/conv2d_3/Conv2D i1 [32, 1, 1, 128]
-110 0 60 0 0 -66 47 70
0 0 -120 0 93 0 0 0
0 0 0 -25 0 14 0 0
0 0 0 76 60 -71 0 0
0 0 11 -9 0 103 0 0
59 0 69 0 0 0 73 0
-77 0 -73 -54 100 0 0 29
0 0 0 0 -40 7 0 -38
74 -66 0 0 -58 0 0 0
25 0 0 17 -80 6 0 59
0 -1 0 0 -97 -5 0 0
0 42 -26 -70 127 0 0 30
0 0 0 0 0 0 0 7
0 0 0 0 -31 0 -26 0
0 0 -25 -41 50 0 0 0
0 25 42 64 0 0 0 0
59 0 -27 0 0 -127 -9 -40
0 0 44 0 -70 0 0 0
0 0 0 1 0 0 0 0
0 0 0 5 37 -36 0 0
0 0 7 -15 0 4 0 0
7 0 1 -4 0 0 -11 0
37 0 1 -70 -21 0 0 5
0 0 0 0 19 15 0 38
-17 -5 0 0 14 0 0 0
13 0 0 13 -2 -1 0 -1
0 -15 0 0 -19 -28 0 0
0 0 -3 20 100 0 0 -100
0 0 0 0 0 0 0 -33
0 0 0 0 -1 0 -2 0
0 0 14 4 -6 0 0 0
0 10 -42 24 0 0 0 0
00000000: 9200 3c00 00be 2f46 0000 8800 5d00 0000
00000010: 0000 00e7 000e 0000 0000 004c 3cb9 0000
00000020: 0000 0bf7 0067 0000 3b00 4500 0000 4900
00000030: b300 b7ca 6400 001d 0000 0000 d807 00da
00000040: 4abe 0000 c600 0000 1900 0011 b006 003b
00000050: 00ff 0000 9ffb 0000 002a e6ba 7f00 001e
00000060: 0000 0000 0000 0007 0000 0000 e100 e600
00000070: 0000 e7d7 3200 0000 0019 2a40 0000 0000
00000080: 3b00 e500 0081 f7d8 0000 2c00 ba00 0000
00000090: 0000 0001 0000 0000 0000 0005 25dc 0000
000000a0: 0000 07f1 0004 0000 0700 01fc 0000 f500
000000b0: 2500 01ba eb00 0005 0000 0000 130f 0026
000000c0: effb 0000 0e00 0000 0d00 000d feff 00ff
000000d0: 00f1 0000 ede4 0000 0000 fd14 6400 009c
000000e0: 0000 0000 0000 00df 0000 0000 ff00 fe00
000000f0: 0000 0e04 fa00 0000 000a d618 0000 0000

model/depthwise_conv2d_3/depthwise1 i1 [1, 15, 1, 128]
53 -84 -127 -7 -19 -96 -8 127
127 127 127 72 -90 37 -35 127
15 -11 -24 127 -59 127 -26 -79
79 -14 -1 -14 -127 -2 -49 52
-23 127 70 40 58 -41 -120 7
127 9 59 -74 4 127 34 99
-46 96 -3 -81 -37 0 27 -22
-40 -127 -127 -8 -127 87 118 -46
127 119 127 -56 -127 20 -43 47
-104 -35 10 2 13 -15 5 -28
74 122 17 -28 -127 33 58 -22
-9 127 127 76 78 73 103 -127
43 127 -127 115 65 1 -125 104
75 -17 -42 -127 -127 -78 51 95
18 20 -127 -127 127 -85 -75 5
-127 -47 -127 127 -75 127 45 -8
15 127 -91 9 66 -59 -8 80
-28 21 88 9 -61 21 67 65
-26 -25 127 112 125 2 -102 -71
-116 -127 -1 -9 -68 -7 38 71
27 51 49 27 31 -35 -57 -10
63 127 28 -36 45 37 14 121
-27 30 10 -38 -22 28 4 -14
-113 -96 -73 -91 -49 99 62 -20
73 127 93 106 -64 -2 39 -19
-127 -39 89 -2 2 -22 -47 -14
103 67 41 81 -69 26 -40 22
-59 41 56 95 52 95 -54 -55
34 65 48 70 127 93 44 11
122 16 -118 -105 -63 23 -61 -127
127 -25 -25 -52 66 -86 1 -127
-16 -50 -69 50 30 -29 123 21
00000000: 35ac 81f9 eda0 f87f 7f7f 7f48 a625 dd7f
00000010: 0ff5 e87f c57f e6b1 4ff2 fff2 81fe cf34
00000020: e97f 4628 3ad7 8807 7f09 3bb6 047f 2263
00000030: d260 fdaf db00 1bea d881 81f8 8157 76d2
00000040: 7f77 7fc8 8114 d52f 98dd 0a02 0df1 05e4
00000050: 4a7a 11e4 8121 3aea f77f 7f4c 4e49 6781
00000060: 2b7f 8173 4101 8368 4bef d681 81b2 335f
00000070: 1214 8181 7fab b505 81d1 817f b57f 2df8
00000080: 0f7f a509 42c5 f850 e415 5809 c315 4341
00000090: e6e7 7f70 7d02 9ab9 8c81 fff7 bcf9 2647
000000a0: 1b33 311b 1fdd c7f6 3f7f 1cdc 2d25 0e79
000000b0: e51e 0ada ea1c 04f2 8fa0 b7a5 cf63 3eec
000000c0: 497f 5d6a c0fe 27ed 81d9 59fe 02ea d1f2
000000d0: 6743 2951 bb1a d816 c529 385f 345f cac9
000000e0: 2241 3046 7f5d 2c0b 7a10 8a97 c117 c381
000000f0: 7fe7 e7cc 42aa 0181 f0ce bb32 1ee3 7b15

model/conv2d_2/Conv2D i1 [128, 1, 1, 128]
14 41 0 -25 0 -46 0 -11
0 10 -4 26 0 -16 -27 0
27 0 -62 26 73 14 -69 62
-30 -45 0 77 0 -62 54 21
23 -36 23 0 -31 0 34 56
-9 32 88 19 0 -37 8 18
69 17 0 -25 0 0 0 0
35 -1 0 0 -65 20 36 16
-13 0 0 -127 0 0 0 -8
21 0 -20 0 -77 -68 32 0
-7 23 7 11 -26 0 27 0
-20 0 23 -62 0 0 33 0
0 -9 -60 -25 -11 11 0 0
0 0 0 58 58 40 45 0
-20 98 -61 0 -25 0 0 -36
-29 0 -27 0 0 -34 0 18
0 0 0 0 0 0 0 0
0 0 0 0 0 0 0 0
0 0 0 0 0 0 0 0
0 0 0 0 0 0 0 0
0 0 0 0 0 0 0 0
0 0 0 0 0 0 0 0
0 0 0 0 0 0 0 0
0 0 0 0 0 0 0 0
0 0 0 0 0 0 0 0
0 0 0 0 0 0 0 0
0 0 0 0 0 0 0 0
0 0 0 0 0 0 0 0
0 0 0 0 0 0 0 0
0 0 0 0 0 0 0 0
0 0 0 0 0 0 0 0
0 0 0 0 0 0 0 0
00000000: 0e29 00e7 00d2 00f5 000a fc1a 00f0 e500
00000010: 1b00 c21a 490e bb3e e2d3 004d 00c2 3615
00000020: 17dc 1700 e100 2238 f720 5813 00db 0812
00000030: 4511 00e7 0000 0000 23ff 0000 bf14 2410
00000040: f300 0081 0000 00f8 1500 ec00 b3bc 2000
00000050: f917 070b e600 1b00 ec00 17c2 0000 2100
00000060: 00f7 c4e7 f50b 0000 0000 003a 3a28 2d00
00000070: ec62 c300 e700 00dc e300 e500 00de 0012
00000080: 0000 0000 0000 0000 0000 0000 0000 0000
00000090: 0000 0000 0000 0000 0000 0000 0000 0000
000000a0: 0000 0000 0000 0000 0000 0000 0000 0000
000000b0: 0000 0000 0000 0000 0000 0000 0000 0000
000000c0: 0000 0000 0000 0000 0000 0000 0000 0000
000000d0: 0000 0000 0000 0000 0000 0000 0000 0000
000000e0: 0000 0000 0000 0000 0000 0000 0000 0000
000000f0: 0000 0000 0000 0000 0000 0000 0000 0000

model/depthwise_conv2d_2/depthwise i1 [1, 10, 1, 128]
127 42 12 -34 -14 -33 -127 -48
114 20 -92 127 -2 23 49 127
127 -77 -127 60 -96 127 55 127
-30 -119 16 -62 -14 106 127 -127
77 79 -54 -39 32 94 -127 -112
-8 114 23 63 60 -52 -127 -127
127 -8 127 19 -3 -104 -91 11
121 -127 -40 8 95 -30 74 -111
-127 127 10 -26 -12 49 -79 -46
106 114 -9 -127 -127 -127 -78 -13
-28 127 54 -127 127 -36 -127 -127
37 121 127 127 -30 -12 -95 40
127 46 92 105 14 -127 -26 -49
127 -7 -21 111 -69 -127 5 46
18 -23 127 -127 -127 -96 46 -32
-59 54 -25 58 21 115 22 -127
44 10 -127 -1 79 47 34 24
-47 -15 -74 107 -127 71 36 -19
34 86 -70 40 -61 16 46 82
-11 -46 5 -39 76 92 24 -28
26 39 -4 76 36 -76 -36 -74
-76 -1 25 68 83 -51 -40 -59
57 19 -27 3 -40 110 -49 -64
47 -93 -3 -127 89 20 125 -123
-51 -92 59 -7 -10 72 -5 -16
2 -20 17 85 -9 -31 -11 -127
-1 31 6 -76 88 -44 -69 -17
-1 13 23 35 26 -127 -51 127
-25 37 17 58 25 -25 3 -8
-6 84 68 69 -74 -89 18 78
20 6 66 62 -27 -57 127 -8
-74 54 -53 11 -62 13 -3 -60
00000000: 7f2a 0cde f2df 81d0 7214 a47f fe17 317f
00000010: 7fb3 813c a07f 377f e289 10c2 f26a 7f81
00000020: 4d4f cad9 205e 8190 f872 173f 3ccc 8181
00000030: 7ff8 7f13 fd98 a50b 7981 d808 5fe2 4a91
00000040: 817f 0ae6 f431 b1d2 6a72 f781 8181 b2f3
00000050: e47f 3681 7fdc 8181 2579 7f7f e2f4 a128
00000060: 7f2e 5c69 0e81 e6cf 7ff9 eb6f bb81 052e
00000070: 12e9 7f81 81a0 2ee0 c536 e73a 1573 1681
00000080: 2c0a 81ff 4f2f 2218 d1f1 b66b 8147 24ed
00000090: 2256 ba28 c310 2e52 f5d2 05d9 4c5c 18e4
000000a0: 1a27 fc4c 24b4 dcb6 b4ff 1944 53cd d8c5
000000b0: 3913 e503 d86e cfc0 2fa3 fd81 5914 7d85
000000c0: cda4 3bf9 f648 fbf0 02ec 1155 f7e1 f581
000000d0: ff1f 06b4 58d4 bbef ff0d 1723 1a81 cd7f
000000e0: e725 113a 19e7 03f8 fa54 4445 b6a7 124e
000000f0: 1406 423e e5c7 7ff8 b636 cb0b c20d fdc4

model/conv2d_1/Conv2D i1 [128, 1, 1, 128]
-45 18 -37 6 -40 51 7 0
0 -15 0 5 -63 0 62 0
26 -4 0 2 -53 0 -19 -113
-1 -8 41 0 -81 95 0 -44
-88 30 3 -24 -3 79 -53 27
-1 51 66 -27 35 0 8 25
-114 -20 11 0 15 -25 -11 -23
-119 1 48 0 -45 30 9 0
20 20 39 88 103 -4 -28 -28
65 71 -13 42 0 -42 -49 -29
-15 22 -7 43 -34 -90 58 29
0 0 0 23 -7 0 0 51
-77 14 -6 23 -60 66 103 54
-90 13 -43 50 66 76 -4 -52
38 -2 -26 43 40 -3 26 -53
45 36 127 -20 0 -25 -11 -83
46 100 -19 29 -29 89 30 0
0 26 0 33 -38 0 -12 0
-2 -10 0 -15 -93 0 -60 -83
76 -34 -3 0 27 86 0 -10
17 -12 43 -80 -3 23 -8 -59
-47 -14 -33 23 -3 0 11 -36
-29 -59 66 0 25 -21 41 49
-79 59 96 0 23 -22 0 0
-1 51 70 15 39 6 -61 -127
-60 46 -11 -11 0 -24 120 15
20 -36 37 30 -15 -15 -17 -25
0 0 0 -36 3 0 0 15
16 11 -39 30 19 -49 -15 -55
-72 10 -48 56 31 27 -10 1
122 -28 39 -18 9 15 30 13
69 112 -12 63 0 -1 6 -6
00000000: d312 db06 d833 0700 00f1 0005 c100 3e00
00000010: 1afc 0002 cb00 ed8f fff8 2900 af5f 00d4
00000020: a81e 03e8 fd4f cb1b ff33 42e5 2300 0819
00000030: 8eec 0b00 0fe7 f5e9 8901 3000 d31e 0900
00000040: 1414 2758 67fc e4e4 4147 f32a 00d6 cfe3
00000050: f116 f92b dea6 3a1d 0000 0017 f900 0033
00000060: b30e fa17 c442 6736 a60d d532 424c fccc
00000070: 26fe e62b 28fd 1acb 2d24 7fec 00e7 f5ad
00000080: 2e64 ed1d e359 1e00 001a 0021 da00 f400
00000090: fef6 00f1 a300 c4ad 4cde fd00 1b56 00f6
000000a0: 11f4 2bb0 fd17 f8c5 d1f2 df17 fd00 0bdc
000000b0: e3c5 4200 19eb 2931 b13b 6000 17ea 0000
000000c0: ff33 460f 2706 c381 c42e f5f5 00e8 780f
000000d0: 14dc 251e f1f1 efe7 0000 00dc 0300 000f
000000e0: 100b d91e 13cf f1c9 b80a d038 1f1b f601
000000f0: 7ae4 27ee 090f 1e0d 4570 f43f 00ff 06fa

model/depthwise_conv2d_1/depthwise i1 [1, 5, 1, 128]
-80 -36 127 127 -3 -121 118 -23
-127 65 67 -123 127 83 13 -127
36 64 16 -17 -127 127 -127 61
127 35 127 -40 -127 68 -16 -87
-24 49 127 -73 -11 -73 127 -5
127 24 -77 -104 126 46 67 -58
-92 -37 -127 15 -127 112 -127 80
127 -54 -127 -127 127 -24 71 28
5 -99 -109 -97 -51 94 127 -63
47 -127 -77 -56 62 -11 -123 47
16 66 96 127 5 5 -42 120
-58 -122 -127 1 -127 43 46 85
100 -127 91 64 118 -90 -75 127
127 -127 127 -54 55 -31 -127 57
127 118 12 127 -46 -86 -7 127
-55 101 -15 82 53 90 -72 68
-80 -71 77 1 -73 12 127 -97
12 -31 72 -11 108 -127 -18 -97
127 15 -30 -6 -37 21 -60 73
57 81 -25 26 -80 10 124 -127
-127 49 74 -30 -99 -109 35 52
12 -63 -127 47 84 -101 -44 -99
-82 -47 -50 94 -121 123 -6 -3
79 -100 -84 110 8 -51 9 7
41 -35 -34 -127 -119 -31 -7 -127
85 -117 -22 -127 -6 -6 -68 78
67 127 -84 -27 10 80 60 10
20 127 87 -127 -81 127 53 37
100 -127 127 -13 57 -15 -61 83
78 -81 5 80 53 -127 7 -73
47 29 17 69 12 16 -77 90
-104 -63 -58 106 89 -37 -58 50
00000000: b0dc 7f7f fd87 76e9 8141 4385 7f53 0d81
00000010: 2440 10ef 817f 813d 7f23 7fd8 8144 f0a9
00000020: e831 7fb7 f5b7 7ffb 7f18 b398 7e2e 43c6
00000030: a4db 810f 8170 8150 7fca 8181 7fe8 471c
00000040: 059d 939f cd5e 7fc1 2f81 b3c8 3ef5 852f
00000050: 1042 607f 0505 d678 c686 8101 812b 2e55
00000060: 6481 5b40 76a6 b57f 7f81 7fca 37e1 8139
00000070: 7f76 0c7f d2aa f97f c965 f152 355a b844
00000080: b0b9 4d01 b70c 7f9f 0ce1 48f5 6c81 ee9f
00000090: 7f0f e2fa db15 c449 3951 e71a b00a 7c81
000000a0: 8131 4ae2 9d93 2334 0cc1 812f 549b d49d
000000b0: aed1 ce5e 877b fafd 4f9c ac6e 08cd 0907
000000c0: 29dd de81 89e1 f981 558b ea81 fafa bc4e
000000d0: 437f ace5 0a50 3c0a 147f 5781 af7f 3525
000000e0: 6481 7ff3 39f1 c353 4eaf 0550 3581 07b7
000000f0: 2f1d 1145 0c10 b35a 98c1 c66a 59db c632

model/conv2d/Conv2D i1 [128, 1, 1, 40]
1 -33 26 9 -38 16 12 4
-28 -52 -46 -55 -127 -17 12 -16
-38 -1 -35 50 21 22 4 -1
-17 16 -6 -33 1 0 7 34
-26 -6 1 9 27 9 26 -6
26 -1 -41 -12 -19 -75 -88 -19
-9 -71 11 43 24 -5 123 -60
-42 38 11 -17 40 -30 -6 -80
11 4 127 -28 13 60 88 -28
6 17 -36 1 -37 24 -77 4
108 1 8 -62 -36 -56 62 64
-78 53 117 -44 -45 4 54 -44
9 -110 -52 -127 87 84 9 91
24 59 105 22 40 69 -35 114
-28 105 -51 -93 -58 15 -100 -11
18 46 4 -70 -91 11 92 42
-11 -127 74 -44 -96 -45 113 12
108 -31 68 -85 -19 49 -37 -27
25 -27 -37 42 5 -22 51 42
32 -22 8 13 67 -9 1 -30
-6 36 26 -34 2 -2 -20 78
127 -103 5 8 14 27 43 -5
91 -32 32 -53 -11 -9 -33 -64
12 69 -26 -1 -10 6 1 0
-1 58 29 13 42 -6 -6 32
1 -10 -5 61 -48 22 8 57
5 0 -46 17 -112 -27 45 52
-38 38 10 63 -44 -127 12 -21
-89 -76 -16 26 59 14 -5 10
20 10 52 11 51 -17 -16 -5
30 103 -51 -94 77 52 6 -6
23 44 32 -127 -5 -72 -15 41
00000000: 01df 1a09 da10 0c04 e4cc d2c9 81ef 0cf0
00000010: daff dd32 1516 04ff ef10 fadf 0100 0722
00000020: e6fa 0109 1b09 1afa 1aff d7f4 edb5 a8ed
00000030: f7b9 0b2b 18fb 7bc4 d626 0bef 28e2 fab0
00000040: 0b04 7fe4 0d3c 58e4 0611 dc01 db18 b304
00000050: 6c01 08c2 dcc8 3e40 b235 75d4 d304 36d4
00000060: 0992 cc81 5754 095b 183b 6916 2845 dd72
00000070: e469 cda3 c60f 9cf5 122e 04ba a50b 5c2a
00000080: f581 4ad4 a0d3 710c 6ce1 44ab ed31 dbe5
00000090: 19e5 db2a 05ea 332a 20ea 080d 43f7 01e2
000000a0: fa24 1ade 02fe ec4e 7f99 0508 0e1b 2bfb
000000b0: 5be0 20cb f5f7 dfc0 0c45 e6ff f606 0100
000000c0: ff3a 1d0d 2afa fa20 01f6 fb3d d016 0839
000000d0: 0500 d211 90e5 2d34 da26 0a3f d481 0ceb
000000e0: a7b4 f01a 3b0e fb0a 140a 340b 33ef f0fb
000000f0: 1e67 cda2 4d34 06fa 172c 2081 fbb8 f129

model/depthwise_conv2d/depthwise1 i1 [1, 3, 1, 40]
13 -127 111 -118 15 70 66 -11
49 -127 69 -116 -127 -28 42 127
127 -33 127 -59 6 127 78 127
-9 -39 32 53 57 65 -82 101
-127 106 17 -127 -97 127 -127 -52
0 -106 90 -127 127 -36 -127 -40
127 -44 -57 -83 31 127 52 62
-36 127 44 -39 -127 -107 -7 64
-35 127 -33 112 -29 -87 18 45
100 77 -127 -46 1 -72 48 -48
127 87 -127 119 -50 -127 -38 -127
-83 83 -127 127 -14 58 -127 103
-103 42 87 127 -31 -91 -127 -44
127 -69 127 -127 -127 -127 127 -127
107 -127 1 68 127 -32 29 -127
00000000: 0d81 6f8a 0f46 42f5 3181 458c 81e4 2a7f
00000010: 7fdf 7fc5 067f 4e7f f7d9 2035 3941 ae65
00000020: 816a 1181 9f7f 81cc 0096 5a81 7fdc 81d8
00000030: 7fd4 c7ad 1f7f 343e dc7f 2cd9 8195 f940
00000040: dd7f df70 e3a9 122d 644d 81d2 01b8 30d0
00000050: 7f57 8177 ce81 da81 ad53 817f f23a 8167
00000060: 992a 577f e1a5 81d4 7fbb 7f81 8181 7f81
00000070: 6b81 0144 7fe0 1d81
