v0.1/benchmarks/image_classification/trained_models/gest_rec_model.tflite (tflite, 318964 bytes, 20 tensors)

functional_9/dense_4/BiasAdd/ReadVariableOp/resource f4 [10]
0	0x3f8a42f0	1.0801678
1	0xc0004b89	-2.0046103
2	0x3fac43db	1.3458208
3	0x3e6aaafb	0.22916786
4	0x3f553be2	0.832945
5	0xbfd59b96	-1.6688106
6	0x3ecf561f	0.40495393
7	0xbf3bc1b8	-0.73342466
8	0x3f25bb96	0.6473936
9	0xbf63459d	-0.88778096

functional_9/activation_28/Relu;functional_9/batch_normalization_28/FusedBatchNormV3;functional_9/conv2d_36/BiasAdd/ReadVariableOp/resource;functional_9/conv2d_36/BiasAdd;functional_9/conv2d_38/Conv2D;functional_9/conv2d_36/Conv2D f4 [16]
0	0xbe2f6b69	-0.17130817
1	0x3f04148f	0.5159387
2	0x3f90ee4c	1.1322722
3	0xbf446243	-0.76712435
4	0x3f146276	0.5796274
5	0xbe592aa2	-0.2120767
6	0xbe4c1090	-0.19928193
7	0xbfeec6a5	-1.8654372
8	0x3f1e5618	0.6185012
9	0x3e9fa768	0.31182408
10	0x3efce653	0.49394473
11	0xbdf8f4f0	-0.12156093
12	0x3f897fb4	1.0742097
13	0x3f20077c	0.6251142
14	0xbe8d92bb	-0.2765101
15	0x3ec966f6	0.39336365

functional_9/activation_29/Relu;functional_9/batch_normalization_29/FusedBatchNormV3;functional_9/conv2d_37/BiasAdd/ReadVariableOp/resource;functional_9/conv2d_37/BiasAdd;functional_9/conv2d_38/Conv2D;functional_9/conv2d_37/Conv2D f4 [16]
0	0xbf88b006	-1.0678718
1	0xbf708f39	-0.9396854
2	0xc02171bf	-2.5225675
3	0xbfb6c885	-1.4279944
4	0x408295bd	4.0807786
5	0x405a9ad0	3.415699
6	0x40a01b97	5.003368
7	0x40f6a06d	7.707083
8	0x409c9b0c	4.8939266
9	0x41068d27	8.409461
10	0x406bcbc2	3.6843114
11	0x40eff0ea	7.4981585
12	0x3f07a05c	0.52979064
13	0x4093cf9e	4.619094
14	0x40f8831a	7.7660036
15	0x4066d3bd	3.6066735

functional_9/activation_31/Relu;functional_9/batch_normalization_31/FusedBatchNormV3;functional_9/conv2d_39/BiasAdd/ReadVariableOp/resource;functional_9/conv2d_39/BiasAdd;functional_9/conv2d_41/Conv2D;functional_9/conv2d_39/Conv2D f4 [32]
0	0xbeca02ef	-0.39455363
1	0x40c8228e	6.254218
2	0xbf649636	-0.89291704
3	0x3fe47e97	1.7851132
4	0xbee7b152	-0.45252472
5	0xbe94109e	-0.28918928
6	0xc0a03183	-5.006044
7	0xbf134574	-0.5752785
8	0x3e25bae8	0.1618458
9	0x3f995e88	1.1981974
10	0xbf582336	-0.8442873
11	0xbf35081e	-0.7071551
12	0xbfd58ac0	-1.6682968
13	0xbfcf4ace	-1.6194704
14	0xbf6efcc8	-0.93354464
15	0x3f2b2ba1	0.6686345
16	0xbf1ac872	-0.60462105
17	0x4097bed8	4.7420464
18	0xbffed719	-1.9909393
19	0x40c704d6	6.2193403
20	0xbf2b43af	-0.6690015
21	0xc0223af4	-2.5348482
22	0xc00abacd	-2.1676514
23	0xbfe300b9	-1.7734596
24	0x410eb42e	8.918989
25	0xbf63ab1c	-0.8893297
26	0x4004ea2b	2.0767925
27	0x3fc26319	1.5186492
28	0x40edb0dc	7.4278393
29	0xbfe71e1c	-1.8056064
30	0xbf71b897	-0.94422287
31	0xbf60fc6c	-0.87885165

functional_9/activation_33/Relu;functional_9/batch_normalization_33/FusedBatchNormV3;functional_9/conv2d_42/BiasAdd/ReadVariableOp/resource;functional_9/conv2d_42/BiasAdd;functional_9/conv2d_44/Conv2D;functional_9/conv2d_42/Conv2D f4 [64]
0	0x3f57757b	0.84163636
1	0x3f0e667c	0.5562513
2	0x3f0f0ae9	0.5587602
3	0xbf689ce0	-0.9086437
4	0xc05eb026	-3.4795012
5	0x4000041c	2.0002508
6	0x3f865fd7	1.0497998
7	0x40097796	2.147924
8	0xbf419ab7	-0.756267
9	0x3e1d445f	0.15358113
10	0x4015ede0	2.3426437
11	0xbf9c0ef9	-1.2192069
12	0x403bc602	2.9339604
13	0xc0753214	-3.8311815
14	0x40a3d4d2	5.119729
15	0xbfb1e28e	-1.3897264
16	0xc082f712	-4.09266
17	0xc01e9129	-2.4776099
18	0xbf9e46b2	-1.2365324
19	0x3fb75161	1.432171
20	0xc041f6fe	-3.0307002
21	0x401345eb	2.3011425
22	0x3eff54f2	0.49869496
23	0xbfce6820	-1.6125526
24	0xbff985e3	-1.9493984
25	0xc0470424	-3.1096277
26	0xbbf9ea55	-0.0076268115
27	0xbfe24a79	-1.7678977
28	0x3f5a6bc3	0.8532068
29	0x4052dd7d	3.2947686
30	0xbeaf77e2	-0.3427115
31	0xbfcc75b5	-1.5973421
32	0xc088e722	-4.2782145
33	0xbfc596e3	-1.5436672
34	0x413310bb	11.191585
35	0xbff98edf	-1.9496726
36	0xc067a68b	-3.61954
37	0xbf736d9c	-0.95089126
38	0xbf724f54	-0.94652295
39	0xbf99ff76	-1.2031085
40	0x408f9d41	4.487946
41	0xc102a7ca	-8.165964
42	0xbf3b93a0	-0.7327213
43	0x4043a8e2	3.0571828
44	0xc0000d67	-2.000818
45	0x40683f6b	3.6288707
46	0x3fefee06	1.8744514
47	0xbf719d1c	-0.94380355
48	0xbfbefda9	-1.4921161
49	0x4017a2d9	2.3693144
50	0x408af804	4.3427753
51	0xbf986a4e	-1.1907442
52	0xc10098af	-8.037276
53	0xbf0fc9b2	-0.5616714
54	0x4003d4ae	2.059856
55	0xbf904bfd	-1.127319
56	0xbf636c82	-0.88837445
57	0xbf9964e5	-1.1983916
58	0x40066e73	2.1004913
59	0xbf51b551	-0.8191729
60	0xbebad652	-0.36491638
61	0xc0389da1	-2.884621
62	0x402c2516	2.6897635
63	0xbf70c901	-0.9405671

functional_9/dense_4/MatMul f4 [10, 64]
0	0x3f7b6797	0.9820494
1	0xbf80334f	-1.0015658
2	0xbe5a8377	-0.21339212
3	0x40a346a1	5.1023717
4	0xbe5fe133	-0.2186325
5	0xbe085a76	-0.13315758
6	0xbfb9fe4c	-1.453073
7	0xc02e81b9	-2.7266676
8	0xbeccb602	-0.3998261
9	0x3f19bebf	0.6005668
10	0xc05537d3	-3.3315322
11	0x3f53cc42	0.8273355
12	0xbec9d9fa	-0.39424115
13	0xc05cd1f9	-3.4503157
14	0xbe528296	-0.20557627
15	0xc058d1c0	-3.3878021
16	0xc00c1bba	-2.1891923
17	0xc0690163	-3.6407096
18	0x3fab4e08	1.3383188
19	0xc04c64db	-3.1936557
20	0xbfbda403	-1.4815677
21	0xc0830c86	-4.0952787
22	0xbfa9c7fe	-1.3264158
23	0xbf2cc3c1	-0.67486197
24	0xc047b16e	-3.1202044
25	0xbf6a022d	-0.9140957
26	0xbfb1a2f1	-1.3877851
27	0x401e8ba5	2.4772732
28	0xbedbc087	-0.42920324
29	0xbf971d1d	-1.180576
30	0xc00a6a98	-2.162756
31	0xc089a0d3	-4.300882
32	0xbfedf1e9	-1.858945
33	0x3ec735d8	0.38908267
34	0xbf6c7f93	-0.9238216
35	0x3ef12ec9	0.47106007
36	0xbfa492da	-1.2857316
37	0x3d2385df	0.03992259
38	0xbfefd4f7	-1.8736867
39	0xc03175c3	-2.7728126
40	0xc0065019	-2.0986388
41	0x3fb560ad	1.4170128
42	0xc084378e	-4.1317816
43	0xbfc2571e	-1.5182836
44	0xbf1c855b	-0.61140984
45	0xbfb78d1d	-1.4339939
46	0xbf052ca8	-0.52021265
47	0xc0369cbf	-2.853317
48	0x3ff3f841	1.9060136
49	0xbc9b6444	-0.018968709
50	0xc02607ed	-2.5942338
51	0x3f8d43a4	1.1036267
52	0xbf8b1d48	-1.0868311
53	0xc0226d67	-2.5379274
54	0xbf9c1d6c	-1.2196479
55	0x3ff1e8af	1.8899134
56	0x4067c26c	3.6212416
57	0xbfc63c74	-1.5487199
58	0xbf2fe748	-0.6871228
59	0x3f9c14ed	1.2193886
60	0x3f19d00a	0.6008307
61	0xc027e432	-2.623303
62	0xbf9001e2	-1.1250575
63	0xbe8fa834	-0.28058016
64	0xbf7286b1	-0.9473677
65	0xc031e716	-2.7797294
66	0x3f057756	0.5213522
67	0xbff1d468	-1.8892946
68	0xbf916510	-1.1358967
69	0xc075a3b1	-3.838116
70	0xbffd2dec	-1.9779639
71	0xc0414f99	-3.0204833
72	0xc0a444b5	-5.133387
73	0x3f439747	0.76402706
74	0xbe163efc	-0.14672464
75	0xc09b8922	-4.86049
76	0xbee2db52	-0.44307953
77	0xc094116c	-4.6271267
78	0x3e74bdd5	0.2390054
79	0x40387852	2.8823438
80	0x4091b20f	4.5529857
81	0xc08d0281	-4.4065557
82	0x3f912a04	1.1340947
83	0xc06465a8	-3.5687046
84	0xbf4c4ca9	-0.79804474
85	0xc015ac16	-2.3386283
86	0xbfb70f57	-1.4301556
87	0xbeafcff5	-0.34338346
88	0x401259ab	2.286723
89	0xbf9631ca	-1.1733944
90	0xc05f8113	-3.492253
91	0x3fd46b8b	1.659532
92	0xc0232d10	-2.5496254
93	0xbf2435b2	-0.6414443
94	0xc072ae0a	-3.7918725
95	0xbedf37a7	-0.43597147
96	0xbfdf0e54	-1.7426248
97	0x40723c22	3.7849202
98	0x3fc6b613	1.5524315
99	0xc01d1462	-2.454369
100	0x3fdb86c3	1.7150501
101	0xbf52d0c1	-0.82349783
102	0xbfe6379b	-1.798572
103	0xc0279373	-2.6183746
104	0x410c0377	8.750846
105	0xc01dc43a	-2.4651017
106	0xc0572f0f	-3.3622472
107	0x4031e1fa	2.7794175
108	0xbf776a29	-0.9664636
109	0xbfea847e	-1.8321683
110	0xc044c2e3	-3.074395
111	0x3f77c1f2	0.9678031
112	0x3fdbb441	1.7164384
113	0xbf666072	-0.89990914
114	0xc0600a5a	-3.5006318
115	0xc069a804	-3.6508799
116	0x3f356bbb	0.7086751
117	0xc02f0936	-2.7349372
118	0xbfd8cf9c	-1.6938357
119	0xbfe95fb7	-1.8232335
120	0xbfd302b2	-1.6485198
121	0xbf678dbd	-0.9045065
122	0x409059ff	4.510986
123	0xbfe4a566	-1.7862976
124	0xc00e9d9a	-2.2283692
125	0x40fa9d22	7.8316813
126	0x3ec15def	0.37766978
127	0xc0205ae2	-2.505547
128	0x3f84ccf4	1.0375047
129	0xbf18e9ac	-0.59731555
130	0xbdf0e3eb	-0.11762222
131	0xbfcc5e77	-1.5966328
132	0xbfa82c56	-1.313853
133	0x3feb2f98	1.83739
134	0xbf140229	-0.57815796
135	0x411178e7	9.092017
136	0x405d89de	3.4615397
137	0xbfecd936	-1.8503788
138	0x3f1492ae	0.58036315
139	0xbe66388c	-0.22482508
140	0xbfd7821d	-1.6836582
141	0xbe236f96	-0.15960535
142	0xbcbb8408	-0.022890106
143	0xbffd08d0	-1.9768314
144	0xc02905a3	-2.640969
145	0xc0df9ba9	-6.9877515
146	0xbfc15de9	-1.5106784
147	0x3fa56be5	1.2923552
148	0xbf4bf2e2	-0.79667485
149	0xc04111f4	-3.0167208
150	0x3eed5bdc	0.46359146
151	0x40b806b4	5.7508183
152	0xbfd0216c	-1.62602
153	0xc01e7c44	-2.4763346
154	0x3f3942d5	0.723676
155	0xbff204b5	-1.8907686
156	0xbf99b4ab	-1.200826
157	0x3f20281c	0.625612
158	0xbe6c5405	-0.23078926
159	0xc02528a2	-2.580605
160	0xc039cca1	-2.9031146
161	0xbfb5ecc8	-1.4212885
162	0xbf8455f7	-1.0338734
163	0x40426406	3.037355
164	0xc01a2baf	-2.4089162
165	0xc03a5929	-2.911692
166	0xbf2e657c	-0.681236
167	0xc03dd9a0	-2.9664078
168	0xc059e505	-3.4046032
169	0x3fbd29de	1.4778402
170	0xbfcbad3a	-1.591224
171	0xc030f302	-2.764832
172	0xbf4bee2f	-0.79660314
173	0xc02a9506	-2.6653457
174	0xc0342651	-2.8148386
175	0x3e8eabbe	0.27865404
176	0xbffde16d	-1.983442
177	0xbd068103	-0.03283788
178	0xc024c904	-2.574769
179	0x400027aa	2.002421
180	0x40163047	2.3466966
181	0x3fe773ca	1.8082211
182	0xc00adc9f	-2.1697156
183	0x403faa7d	2.9947808
184	0x3e9b7f14	0.3037039
185	0xbfc98bdb	-1.5745806
186	0x3f912239	1.1338569
187	0x3f1539f5	0.5829156
188	0xbfdc4cac	-1.7210898
189	0xc0505f3e	-3.2558131
190	0xbfc3a764	-1.5285459
191	0xc0075d91	-2.1150858
192	0xbdbd7aae	-0.09251915
193	0x3f1b0a7c	0.6056287
194	0xc04a70fe	-3.1631465
195	0x3f8e00a5	1.1093947
196	0xbf45be98	-0.7724395
197	0x3ea2ac4f	0.31772086
198	0xbf863796	-1.0485713
199	0xbf7d3056	-0.9890188
200	0xc027286d	-2.6118424
201	0x3f01ddfb	0.5072934
202	0x3f884ddd	1.0648762
203	0xbffdaeb9	-1.9818946
204	0xbf8f78a2	-1.1208689
205	0x3ccdddd7	0.025130196
206	0x3f08ac2a	0.533877
207	0xbfbe21cd	-1.4854065
208	0xbf781b17	-0.96916336
209	0xbffb8f5e	-1.9653127
210	0xc00721a1	-2.1114275
211	0x404ad4b8	3.1692333
212	0xbea429fb	-0.3206328
213	0xbfbec69c	-1.4904361
214	0xbb98169e	-0.004641368
215	0xbfe0ac28	-1.7552538
216	0xbf9e0c06	-1.2347419
217	0x3ed86102	0.4226151
218	0xbf174819	-0.5909439
219	0xbca4d66f	-0.020121781
220	0x3f835e3a	1.0263131
221	0xbf900269	-1.1250736
222	0xbd161ce7	-0.036648657
223	0xbf930779	-1.1486655
224	0x411569b4	9.338306
225	0xbfecc18e	-1.8496568
226	0xbfba259a	-1.4542725
227	0xbf4cb7f0	-0.79968166
228	0xbfd103cf	-1.6329287
229	0xbfc8955e	-1.5670583
230	0xbfa96821	-1.3234903
231	0x40c9acaa	6.302327
232	0xbffccadd	-1.9749409
233	0xbf8d9f3b	-1.1064218
234	0xbf25f8c7	-0.6483273
235	0x3efabbfc	0.48971546
236	0xbf7583f1	-0.9590445
237	0xbfb4eec1	-1.4135362
238	0xbfd955ff	-1.6979369
239	0xbf685072	-0.9074775
240	0xc0486a2a	-3.1314797
241	0x3eb44d2c	0.35215127
242	0xbc65c2d1	-0.014023499
243	0xbfeb1f28	-1.8368883
244	0xbd9cde4a	-0.07659586
245	0xbfdaa44c	-1.708139
246	0x3f92af8b	1.1459821
247	0xc000e8f4	-2.0142183
248	0xbed7907f	-0.4210243
249	0x3ee0c98e	0.43903774
250	0x3e5ea643	0.21743111
251	0xbf72c76d	-0.9483555
252	0xbfba065d	-1.4533192
253	0xc0650a65	-3.5787594
254	0xbe4fdef4	-0.20299894
255	0x400b1c56	2.1736045

functional_9/conv2d_36/Conv2D f4 [16, 3, 3, 3]
0	0x88ee71e3	-1.4350879e-33
1	0x89171eb1	-1.8190395e-33
2	0x8a2e5b18	-8.394928e-33
3	0x89b051ff	-4.2447568e-33
4	0x8a23e95e	-7.892056e-33
5	0x8a0fa38c	-6.915959e-33
6	0x089885bf	9.179611e-34
7	0x89eb7884	-5.6687524e-33
8	0x89db1956	-5.2746158e-33
9	0x8a049578	-6.383681e-33
10	0x09cf7c57	4.9950366e-33
11	0x89cb0f54	-4.8884887e-33
12	0x098d1467	3.39637e-33
13	0x883caf2a	-5.6780096e-34
14	0x894113ba	-2.3240805e-33
15	0x0876ebc2	7.4305064e-34
16	0x09fd8b7d	6.103871e-33
17	0x081e392b	4.7613596e-34
18	0x085dcce8	6.6745635e-34
19	0x0a88e4b6	1.3182355e-32
20	0x8a01b960	-6.245989e-33
21	0x8a47bc01	-9.616861e-33
22	0x8a85f9f6	-1.2901459e-32
23	0x09fc8902	6.0795635e-33
24	0x099ba13c	3.7466517e-33
25	0x0a010b01	6.213194e-33
26	0x088472fb	7.971493e-34
27	0x39cb5347	0.00038781224
28	0xbbe83db9	-0.007087436
29	0x3b92eb1a	0.0044835927
30	0xbb3e1b4d	-0.0029007972
31	0xbaaddf71	-0.0013265443
32	0xba190c90	-0.0005838359
33	0x3af8bd3b	0.0018977294
34	0xbb902440	-0.0043988526
35	0x3baffe3f	0.0053708847
36	0xbb240314	-0.0025026249
37	0x3c08d0e3	0.008350584
38	0xb9f3ab6f	-0.000464763
39	0xbb16f601	-0.0023034813
40	0x3cb4bea6	0.022063565
41	0xba9c4412	-0.0011922142
42	0xbbfa17b5	-0.0076322206
43	0xbb34c840	-0.0027585179
44	0xbaa12a22	-0.0012295882
45	0xbb5a4c74	-0.003330973
46	0x3bf5f451	0.0075059314
47	0xbc328401	-0.01089573
48	0xbbb28e97	-0.005449127
49	0x3c895170	0.016762465
50	0xbc7d1193	-0.015446085
51	0x3b38d721	0.0028204399
52	0x3a87c887	0.0010359444
53	0x3981983f	0.0002471823
54	0x3a8d7478	0.0010792157
55	0xb9b4842b	-0.00034430748
56	0x3bfd09d4	0.007722119
57	0x3be8ea7f	0.0071080322
58	0xbc534995	-0.012895961
59	0x3b862a74	0.0040944163
60	0x3b52bbc8	0.0032155383
61	0xbbd36728	-0.006451506
62	0x3a810091	0.0009842088
63	0xba7f4f35	-0.0009739281
64	0x3bddd8c6	0.006770226
65	0x3b927c71	0.004470401
66	0xbc461dc3	-0.012092057
67	0xbca76693	-0.020434653
68	0xbc90d6df	-0.017680584
69	0x3cc5f31a	0.024163771
70	0x3c446511	0.011986987
71	0x3b57e219	0.0032941161
72	0xbc468b26	-0.0121181365
73	0x3c1c1e05	0.009528642
74	0xbad7e457	-0.0016471249
75	0xbaf2e0be	-0.0018530113
76	0x3c844ab4	0.016148902
77	0x3ba9110d	0.0051595033
78	0xbc1c3324	-0.009533677
79	0xbaf17249	-0.00184209
80	0xbbe2ceeb	-0.006921639
81	0x8894d9fe	-8.958676e-34
82	0x0b6846ac	4.4734742e-32
83	0x09fb7ce5	6.0543502e-33
84	0x0a109ab3	6.9624435e-33
85	0x0b29651f	3.262429e-32
86	0x0a6f1186	1.1510727e-32
87	0x8b1bec8c	-3.0029872e-32
88	0x89a42202	-3.9513545e-33
89	0x8b22b4a9	-3.133598e-32
90	0x8bb0917e	-6.8011646e-32
91	0x8ad06572	-2.0067831e-32
92	0x8bc45667	-7.562646e-32
93	0x8b556544	-4.1098492e-32
94	0x8afda1e3	-2.4423909e-32
95	0x8a1d60bf	-7.577471e-33
96	0x8b8e82c8	-5.489319e-32
97	0x0b59fcf3	4.1982978e-32
98	0x0b57a1b2	4.152914e-32
99	0x09b3fd79	4.3331047e-33
100	0x87cb5665	-3.0594823e-34
101	0x8932a3e8	-2.1503039e-33
102	0x8b62a62a	-4.3651025e-32
103	0x8aedb25b	-2.288936e-32
104	0x0ac1d642	1.8665819e-32
105	0x0b1a4f00	2.9718754e-32
106	0x0953bbdb	2.548653e-33
107	0x8bc094c8	-7.417957e-32
108	0xbc0b7aee	-0.008513195
109	0x3b191b1d	0.0023362108
110	0x3b9b8672	0.0047462517
111	0xbc131737	-0.008977703
112	0xb8de82a6	-0.0001061012
113	0x3c399966	0.011328077
114	0xbb6ea1c5	-0.003641234
115	0xbaec3768	-0.0018021883
116	0x3b9d6f84	0.0048045535
117	0x392b9dee	0.00016366664
118	0xbad1d3cb	-0.0016008554
119	0xbb1bf522	-0.0023797234
120	0xbadd6d54	-0.0016893544
121	0xbc104b1b	-0.008806969
122	0xba8d9988	-0.0010803202
123	0xb8a0223d	-7.635772e-05
124	0xbb2fa79e	-0.0026802788
125	0x3b048542	0.002022103
126	0x3c35334d	0.011059594
127	0x3b0c6fb2	0.002142888
128	0xbbdc5686	-0.0067241816
129	0x3c8295f4	0.015940644
130	0xb84328c8	-4.6529603e-05
131	0xbbb7ab18	-0.0056051128
132	0x3b758da4	0.0037468458
133	0x3b022f3e	0.0019864584
134	0xbb66bd77	-0.0035208145
135	0x89ad782e	-4.176125e-33
136	0x8a59f17a	-1.0493587e-32
137	0x8a09e53c	-6.639424e-33
138	0x89853fc3	-3.2078547e-33
139	0x8947595b	-2.3995768e-33
140	0x8abf344c	-1.8412303e-32
141	0x89d1d17f	-5.051193e-33
142	0x89eb1566	-5.6594315e-33
143	0x89d1780d	-5.0427815e-33
144	0x8976a78a	-2.968995e-33
145	0x099be4e3	3.7530137e-33
146	0x09c11612	4.6483815e-33
147	0x89594c9a	-2.6156443e-33
148	0x8980b820	-3.098803e-33
149	0x873b873e	-1.410806e-34
150	0x08c71cb4	1.1983625e-33
151	0x898e70b6	-3.429125e-33
152	0x8943801b	-2.3532506e-33
153	0x89e95474	-5.617213e-33
154	0x88515058	-6.2988093e-34
155	0x0ac8b677	1.9327935e-32
156	0x07b4b035	2.7186955e-34
157	0x0a0b6a00	6.712543e-33
158	0x097a9a9f	3.0165358e-33
159	0x08564440	6.447851e-34
160	0x89276892	-2.0151063e-33
161	0x09ccfb98	4.934781e-33
162	0x389ed8e1	7.574424e-05
163	0xba46d26e	-0.0007584457
164	0xbab2b151	-0.0013633167
165	0x38c599a3	9.422309e-05
166	0xba3e9727	-0.0007270448
167	0xb9464910	-0.0001890997
168	0x39b30841	0.0003414769
169	0xba6a9727	-0.0008948915
170	0x37c851ec	2.3880006e-05
171	0xba0c6d68	-0.0005356879
172	0xb92499dd	-0.00015697577
173	0x3a1cfd32	0.0005988657
174	0xba0a3bcf	-0.00052731944
175	0x39807a49	0.00024505172
176	0x3b130c27	0.0022437663
177	0xb9d9826c	-0.00041486637
178	0xb9289e45	-0.00016080689
179	0x3b132215	0.0022450734
180	0xba042777	-0.0005041281
181	0x3922d52c	0.00015528937
182	0x3a83edb6	0.001006535
183	0xba8cf3d2	-0.0010753816
184	0x3963dbc8	0.00021730282
185	0x3b113edb	0.002216271
186	0xba946ab1	-0.00113233
187	0xb9352412	-0.00017274942
188	0x3b147f21	0.0022658783
189	0xba0ff2cf	-0.00054911984
190	0x38fcf29f	0.00012061488
191	0xba2392bf	-0.00062398234
192	0x38ef496b	0.00011410083
193	0x3a2a559d	0.0006497743
194	0x394be38a	0.00019444354
195	0x3a2cbee4	0.0006589724
196	0x3a8ff235	0.0010982217
197	0x3a8f9801	0.0010955335
198	0xb978f682	-0.00023742954
199	0x39c157c2	0.00036877213
200	0xbababc15	-0.0014246727
201	0x3a1620f8	0.00057269586
202	0x3a8149f4	0.0009863959
203	0xba2bc2af	-0.00065521424
204	0x3a9e6aa2	0.0012086222
205	0x3ad3f8cb	0.0016172169
206	0x39cf02ac	0.00039484107
207	0x3a13e7b7	0.0005642133
208	0x3a7bd46b	0.0009606543
209	0xba910060	-0.0011062734
210	0x3a843144	0.0010085483
211	0x3a97f358	0.0011592908
212	0xba5006b6	-0.00079355703
213	0x3aa6c294	0.0012722784
214	0x3ac12cee	0.0014738122
215	0xb9341536	-0.0001717404
216	0x3a8fadda	0.0010961846
217	0xbaf4a558	-0.0018664999
218	0xbac30ea0	-0.0014881678
219	0x3a497567	0.0007685036
220	0xbadd5bdc	-0.0016888338
221	0xbb14a5b0	-0.0022681765
222	0x3a8dc396	0.0010815735
223	0xb9f6b9a6	-0.00047059095
224	0xba787a37	-0.00094786606
225	0xbae5d50d	-0.0017534808
226	0xbaf47d08	-0.0018652985
227	0xbb22496a	-0.0024762996
228	0xbb446a92	-0.0029970747
229	0xbad6afc2	-0.0016379284
230	0xbb1d8975	-0.002403823
231	0xbaf2adcc	-0.001851493
232	0xba341e40	-0.00068709627
233	0xba4004c8	-0.0007324931
234	0x3a75438f	0.00093560753
235	0x3b5779b7	0.0032878944
236	0x3b24d26b	0.0025149833
237	0x3a1400c6	0.0005645867
238	0x3b94226f	0.0045207064
239	0x3b7ec44d	0.0038874329
240	0xb86ac363	-5.5971916e-05
241	0x3b32ce44	0.0027283588
242	0x3b41582e	0.0029502022
243	0x3b3c0da0	0.0028694645
244	0xbab45de0	-0.0013760887
245	0xbb1cb29f	-0.0023910177
246	0x3b72e4d3	0.003706266
247	0xbb99a5c5	-0.0046889507
248	0xba1e0c14	-0.00060290215
249	0x3b394bcd	0.002827394
250	0xbb1bd4a9	-0.0023777878
251	0xbab57fd2	-0.0013847298
252	0x3b073a61	0.0020634162
253	0xbab92308	-0.001412482
254	0x3b182602	0.0023216014
255	0x3c26e5fa	0.010186667

functional_9/conv2d_37/Conv2D f4 [16, 3, 3, 16]
0	0x0affba16	2.4625605e-32
1	0x8bcb5444	-7.8319545e-32
2	0x0be854bd	8.949065e-32
3	0x8aff0e52	-2.4560993e-32
4	0x8bb3ffed	-6.9333366e-32
5	0x89f15305	-5.809671e-33
6	0x8be8378d	-8.9446733e-32
7	0x8ba57615	-6.373336e-32
8	0x0b30512d	3.3957437e-32
9	0x0a36da28	8.804012e-33
10	0x0abeb413	1.8364071e-32
11	0x8bf4eb5f	-9.433953e-32
12	0x0a2de1d3	8.37212e-33
13	0x0b65689a	4.418249e-32
14	0x8bd6f8ad	-8.280397e-32
15	0x0bfca4c7	9.73148e-32
16	0x0b885f03	5.252825e-32
17	0x8ad95f01	-2.0932076e-32
18	0x0b335496	3.453778e-32
19	0x8bde139f	-8.554081e-32
20	0x8b8c5726	-5.4057165e-32
21	0x0b6aaef8	4.5198393e-32
22	0x8bf739de	-9.522801e-32
23	0x0bc0aba2	7.4213954e-32
24	0x0b02b6d2	2.5174628e-32
25	0x8b3d2f2a	-3.6435558e-32
26	0x0b322246	3.4307337e-32
27	0x8b3501c1	-3.4860651e-32
28	0x0abe2cd7	1.8313201e-32
29	0x8aa3f873	-1.5789785e-32
30	0x8ba5369d	-6.363786e-32
31	0x8b73ab0f	-4.6928788e-32
32	0x0a56851a	1.0328759e-32
33	0x09d2ca10	5.074568e-33
34	0x897ae348	-3.0199523e-33
35	0x0b308948	3.3999646e-32
36	0x0b76714b	4.746311e-32
37	0x0b98dbd2	5.887902e-32
38	0x8b9ffb58	-6.162275e-32
39	0x8bf2ae65	-9.347741e-32
40	0x8bc4fc4c	-7.587607e-32
41	0x0ab212d3	1.7147857e-32
42	0x8bbc5134	-7.2537147e-32
43	0x0b1e29ed	3.0461235e-32
44	0x0ab62464	1.7539651e-32
45	0x0aea72ce	2.2576565e-32
46	0x09236441	1.966755e-33
47	0x0b84406f	5.09415e-32
48	0x0af39c53	2.3458851e-32
49	0x0b0653d5	2.587053e-32
50	0x0b3b8239	3.611286e-32
51	0x0ab6faf5	1.7620362e-32
52	0x0b3f1516	3.6801125e-32
53	0x0a45c2e5	9.5218606e-33
54	0x8b02ce37	-2.5192228e-32
55	0x8b00ebc9	-2.4829288e-32
56	0x8ad29b4e	-2.0280684e-32
57	0x0adea164	2.1438531e-32
58	0x0a79bc7f	1.2024366e-32
59	0x892fb793	-2.1151175e-33
60	0x0b267015	3.2054758e-32
61	0x8a8fe562	-1.3856683e-32
62	0x8b2f7bca	-3.3796903e-32
63	0x0b1962bc	2.9541008e-32
64	0x8abdd4c8	-1.8280077e-32
65	0x0b985f3e	5.8691575e-32
66	0x0b2763ae	3.223802e-32
67	0x0c00cf46	9.923135e-32
68	0x0acd5687	1.977333e-32
69	0x8b9b71c4	-5.9875004e-32
70	0x8bb4757a	-6.951024e-32
71	0x0b57a511	4.1531676e-32
72	0x0b4fc004	4.0011206e-32
73	0x0a0effd1	6.885165e-33
74	0x0ad44b4a	2.0443178e-32
75	0x0ba75a55	6.4461977e-32
76	0x8b82c524	-5.03708e-32
77	0x8a73e0bc	-1.1742292e-32
78	0x8b545b2d	-4.0898308e-32
79	0x0b8d41ed	5.441042e-32
80	0x8bb6cf1b	-7.041547e-32
81	0x0bca2b04	7.787229e-32
82	0x8b6c724f	-4.5537943e-32
83	0x08acdc5e	1.04036815e-33
84	0x0badc4c9	6.6933265e-32
85	0x8aa65d36	-1.602028e-32
86	0x8b87eafa	-5.235366e-32
87	0x8bc438b4	-7.558177e-32
88	0x8a961ce8	-1.4455348e-32
89	0x093fa11c	2.3066542e-33
90	0x8bc2629b	-7.4874447e-32
91	0x8bfee735	-9.818512e-32
92	0x8b9281d9	-5.643253e-32
93	0x8b3f8fb3	-3.689337e-32
94	0x8ad725c3	-2.0717951e-32
95	0x0bcb4cf0	7.830852e-32
96	0x0bb3f3f4	6.931535e-32
97	0x0824cfae	4.959608e-34
98	0x0b4f69c1	3.994631e-32
99	0x8bbbe941	-7.238074e-32
100	0x07a9edbf	2.5568028e-34
101	0x8bae1a08	-6.706153e-32
102	0x8b45c29f	-3.8087237e-32
103	0x0b9533fd	5.7470936e-32
104	0x8a1a9c80	-7.444265e-33
105	0x0b8d0fd2	5.433503e-32
106	0x8aa952a6	-1.6305197e-32
107	0x0b06d72c	2.596934e-32
108	0x0b6318cf	4.3737274e-32
109	0x0b5d38be	4.260574e-32
110	0x8ba25e57	-6.2542077e-32
111	0x0bccb4f0	7.8850186e-32
112	0x0bbbd3f9	7.234872e-32
113	0x0b35eefb	3.503912e-32
114	0x0b4506a4	3.7945816e-32
115	0x8a0a30c4	-6.65363e-33
116	0x89ce90e5	-4.9728954e-33
117	0x0bec78cb	9.108564e-32
118	0x8b992688	-5.899143e-32
119	0x8b3d8881	-3.650277e-32
120	0x0b8bba51	5.382119e-32
121	0x8ab5c061	-1.7502031e-32
122	0x0b893f12	5.286538e-32
123	0x88c8f8f9	-1.2095595e-33
124	0x0b789f43	4.7882878e-32
125	0x8b9ba1d5	-5.9947326e-32
126	0x8ac75548	-1.9195082e-32
127	0x0bc87c3a	7.7224113e-32
128	0x0b2e621d	3.3584993e-32
129	0x0bd8a858	8.345347e-32
130	0x0bc029fb	7.4018875e-32
131	0x0b847756	5.102411e-32
132	0x0b40228b	3.7003842e-32
133	0x0b8b74fe	5.371688e-32
134	0x8aaecac4	-1.6831862e-32
135	0x0b92373c	5.632026e-32
136	0x8a360e35	-8.765653e-33
137	0x0b96ab67	5.8035796e-32
138	0x0be23cbf	8.7143434e-32
139	0x0ba24da8	6.2516974e-32
140	0x0bbc8624	7.26168e-32
141	0x8b9793f2	-5.838569e-32
142	0x0b044314	2.547274e-32
143	0x8a9915b1	-1.4741523e-32
144	0x09cd8122	4.947339e-33
145	0xbe487017	-0.19574009
146	0xbe38fb09	-0.18064512
147	0x8915566a	-1.7975854e-33
148	0xbb87bc82	-0.004142345
149	0x88b03ea3	-1.06073405e-33
150	0x3c161674	0.009160627
151	0x3d9a5a99	0.075368114
152	0x3dca5a18	0.09880465
153	0x3d92b12a	0.071626976
154	0xbe027a5d	-0.1274199
155	0x899a3684	-3.7125418e-33
156	0x3ce0fda4	0.027464695
157	0xbe1a300f	-0.15057395
158	0x08830f0c	7.887813e-34
159	0xbd8d3e24	-0.06896618
160	0x89a1f4f0	-3.898968e-33
161	0xbe4ac3c5	-0.19801243
162	0xbe450076	-0.19238457
163	0x8852c1fe	-6.3422613e-34
164	0x3d5dc72c	0.054145023
165	0x09e9c76d	5.628025e-33
166	0xb6c4c544	-5.86422e-06
167	0x3da47ab9	0.0803122
168	0x3dbc3fde	0.09191869
169	0x3e136d4f	0.14397167
170	0xbd5d66d5	-0.054053146
171	0x89f55ffa	-5.907186e-33
172	0x3d8d602f	0.06903111
173	0x3c9d0e37	0.019171817
174	0x0a2159a6	7.768729e-33
175	0xbd2a0173	-0.04150529
176	0x89f7d406	-5.9662473e-33
177	0xbe5904ce	-0.21193239
178	0xbd895733	-0.06706085
179	0x894b307c	-2.4458033e-33
180	0xbcf47af1	-0.02984378
181	0x89055ccd	-1.6052927e-33
182	0xbca3ff44	-0.020019181
183	0x3d75903a	0.059952
184	0x3dc497aa	0.0959924
185	0x3d1f58c4	0.038903013
186	0x3d97d78f	0.074141614
187	0x085048c3	6.2678254e-34
188	0x3d7801bc	0.06054853
189	0x3e063691	0.13106753
190	0x0a06d982	6.492774e-33
191	0xbcb56217	-0.0221415
192	0x8967895b	-2.7870198e-33
193	0xbd913449	-0.07090051
194	0xbdb5fe71	-0.088864215
195	0x0961f648	2.719919e-33
196	0x3dd7ae9c	0.10531351
197	0x89aef0e6	-4.2115516e-33
198	0x3d5fe7d4	0.054664448
199	0x3db710d8	0.089387596
200	0x3e129821	0.14315845
201	0x3df5dc17	0.120048694
202	0xbe229f58	-0.15881097
203	0x0916b9a1	1.8142876e-33
204	0xbd205d18	-0.03915128
205	0xbe54225b	-0.2071623
206	0x09da30ea	5.252759e-33
207	0xbd232b04	-0.039835945
208	0x89f0aae9	-5.793862e-33
209	0xbdca7711	-0.09885991
210	0xbcbf9b2f	-0.023389427
211	0x88f1e08d	-1.45574515e-33
212	0x3e1973f2	0.14985636
213	0x87324353	-1.3411016e-34
214	0x3d526270	0.05136341
215	0x3dc1e7fb	0.09468075
216	0x3e329fcb	0.17443769
217	0x3e3bf902	0.18356708
218	0xbc7840ae	-0.01515214
219	0x09870aa0	3.251006e-33
220	0xbc09e7db	-0.008417095
221	0x3c01a8b2	0.007913755
222	0x08f09087	1.4478453e-33
223	0xbc80cf0b	-0.015723726
224	0x09af9d83	4.227784e-33
225	0xbdd38431	-0.10327948
226	0x3ce624ed	0.02809378
227	0x07ca1095	3.0403328e-34
228	0x3d8275bf	0.063701145
229	0x09168bfe	1.8121417e-33
230	0x3d1e3795	0.038627226
231	0x3db98005	0.09057621
232	0x3e4324f4	0.19057065
233	0x3d92b207	0.07162862
234	0x3dc5a8f7	0.09651368
235	0x094761dd	2.3999769e-33
236	0xbcc639b6	-0.02419744
237	0x3e04b88a	0.12961021
238	0x08f16e1a	1.4530545e-33
239	0x3aca89cb	0.0015452442
240	0x8a0bb870	-6.7272954e-33
241	0x3dfc836d	0.12329755
242	0xbc2d6c5c	-0.010584917
243	0x89e5b7cc	-5.5302586e-33
244	0x3d9ce466	0.07660751
245	0x0a01473b	6.224521e-33
246	0x3d3407ec	0.043952867
247	0x3dd1a1b6	0.10235922
248	0x3d8f6379	0.07001395
249	0x3e699b42	0.22813132
250	0xbdd5dd6c	-0.104426235
251	0x889eae73	-9.550292e-34
252	0xbc8c1610	-0.017100364
253	0xbe8d7ca5	-0.2763416
254	0x0725e919	1.2481722e-34
255	0x3c7a39e9	0.015272596

functional_9/conv2d_38/Conv2D f4 [16, 3, 3, 16]
0	0x872f7cb4	-1.3202184e-34
1	0xb9ea4a1d	-0.00044687177
2	0x07e8b62f	3.5014558e-34
3	0x87ebb80b	-3.546704e-34
4	0x3badc61c	0.0053031575
5	0xbc5a7f3e	-0.013336001
6	0xbc8f59b0	-0.017498821
7	0x3b604f5b	0.0034226987
8	0xbc483c6e	-0.012221439
9	0xbc759177	-0.014988295
10	0x3a2c06a3	0.0006562268
11	0xbaf5f6fd	-0.0018765625
12	0x391a12b5	0.00014693553
13	0x3c3caae5	0.011515354
14	0x3c2631ed	0.010143739
15	0xbc784490	-0.015153065
16	0x883579be	-5.4610813e-34
17	0x3ab5d84f	0.0013873669
18	0x8418cf5e	-1.7962732e-36
19	0x07a14ce2	2.4269775e-34
20	0xbb62841b	-0.0034563604
21	0xbc70f63b	-0.014707143
22	0xbc8f8aaf	-0.017522184
23	0x3b0f4e9a	0.0021866919
24	0xbc62a880	-0.013834119
25	0xbbc93aee	-0.006141058
26	0xbd8be1e2	-0.06830193
27	0x3d76119e	0.060075395
28	0xbc0aebc0	-0.008479059
29	0x3c9cc9f2	0.019139264
30	0x3b92f9c8	0.0044853427
31	0xbc571e87	-0.013129837
32	0x87fb81a8	-3.7842488e-34
33	0xbbe467a0	-0.006970361
34	0x8855450b	-6.4178516e-34
35	0x079798e2	2.2809811e-34
36	0xbbafc5bf	-0.0053641493
37	0xbc780ca0	-0.015139729
38	0xbcdb599d	-0.02677613
39	0x3cbba7e0	0.022907197
40	0xbc131372	-0.008976804
41	0xbc9ff6be	-0.019526836
42	0xbc640dcd	-0.013919306
43	0x3d181079	0.037125085
44	0x3c3f5944	0.011678997
45	0x3c8ba69d	0.01704722
46	0x3c073d03	0.008254292
47	0xbc7410bd	-0.014896569
48	0x8865145f	-6.8936127e-34
49	0xbb7c38b9	-0.0038485958
50	0x0829fd84	5.1154594e-34
51	0x87ab6e3b	-2.5794008e-34
52	0x3be6456d	0.007027319
53	0x3c194457	0.009354672
54	0x3c28527b	0.010273571
55	0x39cd87c3	0.00039201797
56	0xbb808edd	-0.0039232806
57	0xbcc49413	-0.023996389
58	0x3cfa86b3	0.030581808
59	0xbdbdfe15	-0.09276978
60	0xbbfe2339	-0.0077556637
61	0xbc58e23d	-0.013237533
62	0x3c21bb37	0.009871296
63	0x3b830498	0.0039983504
64	0x8854b882	-6.4013317e-34
65	0xbb0334d5	-0.0020020504
66	0x0836c765	5.500302e-34
67	0x874a3e1b	-1.5215042e-34
68	0x3c938ac4	0.018010505
69	0x3bed4dac	0.007241925
70	0x3ba1db95	0.0049395063
71	0xbcbe3387	-0.02321793
72	0xb9d96320	-0.0004146332
73	0x3c8fcb26	0.017552923
74	0x3dcf120b	0.10110863
75	0xbdf375ca	-0.11887701
76	0xbcd68ec7	-0.026191128
77	0xba97fe47	-0.0011596166
78	0x3c007dff	0.00784254
79	0xbbd70651	-0.0065620323
80	0x87c83fb7	-3.0130104e-34
81	0xbc0a669a	-0.008447314
82	0x8862e075	-6.827325e-34
83	0x07bddcc9	2.8567325e-34
84	0x3c18d62d	0.009328407
85	0xbba66d1a	-0.005078924
86	0x3b712b8b	0.0036799635
87	0x3c00d097	0.007862232
88	0x3b86c021	0.004112259
89	0xbbae06bc	-0.0053108614
90	0x3c57ad4c	0.013163876
91	0xbd034686	-0.03204968
92	0xbca2a603	-0.019854551
93	0x3c900d0d	0.017584348
94	0xbaf7cd79	-0.001890584
95	0xbc91ed17	-0.017813249
96	0x87fe8e59	-3.8301337e-34
97	0xbc299ca5	-0.010352288
98	0x0820746e	4.828511e-34
99	0x862f263d	-3.2941935e-35
100	0xbc6644cd	-0.014054489
101	0x3bc42f5c	0.005987091
102	0x3d007bf2	0.031368203
103	0x3c40374a	0.011731932
104	0x3a660c32	0.0008775621
105	0x3b9d9574	0.004809076
106	0xbd3bf5f6	-0.045888864
107	0x3d6fbda5	0.05853047
108	0x3c2237d4	0.009901006
109	0xbc90db5a	-0.01768272
110	0xbcf1e746	-0.029529225
111	0xbaa21cc9	-0.0012368198
112	0x88427be2	-5.8525375e-34
113	0xbbc52440	-0.006016284
114	0x076b03ed	1.7680589e-34
115	0x8815b1a0	-4.5046854e-34
116	0x3c655611	0.013997571
117	0x3c4a4405	0.012345319
118	0x3cff62d5	0.031175056
119	0xbb224b84	-0.002476425
120	0x3b95450a	0.0045553492
121	0xbc8b8e2c	-0.017035566
122	0xbd081a76	-0.03322836
123	0x3d16a69b	0.03677998
124	0x3c3ddc3f	0.011588155
125	0xbbe597b5	-0.0070066103
126	0x3b511b66	0.00319072
127	0xbc25f947	-0.010130233
128	0x8766ca4a	-1.7362724e-34
129	0xbc23446f	-0.009965046
130	0x8791d8b5	-2.1944544e-34
131	0x881f4b27	-4.7935663e-34
132	0x3cf27e57	0.02960126
133	0x3b2d44ae	0.0026438641
134	0x3d496cdb	0.04917608
135	0xbb332f66	-0.0027341484
136	0x3bd87ac1	0.0066064303
137	0x3be7c397	0.0070728767
138	0xbbd7cb59	-0.00658552
139	0xbc597af0	-0.0132739395
140	0x3c66e7c5	0.014093344
141	0xbc1b599e	-0.009481816
142	0xbcd3c952	-0.025852833
143	0xbcade1e3	-0.021225875
144	0x8794af51	-2.2371607e-34
145	0xbb2eab6e	-0.0026652473
146	0x86a60803	-6.245403e-35
147	0x080b1e2e	4.1864267e-34
148	0xbcfc3a7f	-0.030789612
149	0xbcbdfcaa	-0.023191769
150	0xbcd7adb6	-0.026327949
151	0x3d874480	0.06604862
152	0x3c21b03d	0.009868679
153	0x3cc6eb73	0.024282193
154	0x3c83458d	0.016024375
155	0x3cbc2452	0.022966538
156	0xbc4d3631	-0.012525127
157	0xbc9441df	-0.018097816
158	0xbc18098b	-0.009279619
159	0x3c83789e	0.016048726
160	0x87e5ba23	-3.4565492e-34
161	0xbbbfa21a	-0.0058481814
162	0x868fa131	-5.402747e-35
163	0x883bb2fe	-5.648367e-34
164	0xbc7542f0	-0.014969572
165	0xbc898e6e	-0.016791549
166	0xbbefd03d	-0.007318525
167	0x3cd5c44b	0.026094576
168	0x3c02895f	0.007967322
169	0x3ce17201	0.027520182
170	0x3c6105c6	0.013734287
171	0x3c8c28ad	0.01710924
172	0xbbbc7dbd	-0.005752294
173	0xbc903eb4	-0.017608024
174	0xbc7cc483	-0.015427711
175	0x3cc88b49	0.024480479
176	0x86fa95da	-9.4259735e-35
177	0xbbc50cf5	-0.0060135075
178	0x8748f42f	-1.5118087e-34
179	0x084b963c	6.126469e-34
180	0xbb71034a	-0.0036775642
181	0xbc76dd2e	-0.015067382
182	0xbba0288d	-0.0048876465
183	0xbceed09a	-0.029152203
184	0x3be238a2	0.006903724
185	0x3c532434	0.0128870495
186	0x3c870e94	0.016486444
187	0x3be79672	0.007067495
188	0xbbb5fd30	-0.005553864
189	0xbcb38a82	-0.021916632
190	0x3c0c579f	0.008565812
191	0x3c6244b8	0.013810329
192	0x884badc1	-6.1292337e-34
193	0x3c36823f	0.0111394515
194	0x83e23cec	-1.3297073e-36
195	0x08855ecb	8.026932e-34
196	0xbc54a52c	-0.012978833
197	0xbc94e2bd	-0.018174523
198	0x3b002064	0.0019550556
199	0x3db06691	0.08613313
200	0xbb82bba9	-0.003989656
201	0x3c0ee8a2	0.008722456
202	0xbb6cc7f4	-0.0036129924
203	0x3d0153cb	0.03157405
204	0xbbe79851	-0.007067718
205	0x3cf63dea	0.03005882
206	0xbc660901	-0.014040233
207	0xbbd8de56	-0.0066183014
208	0x884f9a0e	-6.2472887e-34
209	0x3b805393	0.003916213
210	0x87b620db	-2.7403627e-34
211	0x088f5bd4	8.628088e-34
212	0xbc2f29ea	-0.010691145
213	0xbc6ffc28	-0.014647521
214	0x3c588f91	0.013217823
215	0x3cfa3f47	0.030547751
216	0x3c0e767b	0.00869524
217	0x3a2ec2ea	0.00066666177
218	0x3b0e8cda	0.0021751435
219	0x3d2bca8b	0.041941207
220	0x3b914392	0.004433104
221	0x3d150126	0.03637805
222	0xbcaeb700	-0.021327496
223	0xb9decf7e	-0.00042497733
224	0x87fcbbcb	-3.802712e-34
225	0x3a8add18	0.0010594456
226	0x8818b146	-4.594922e-34
227	0x87d899ce	-3.2590466e-34
228	0xbb32bde9	-0.002727384
229	0xbc470d4f	-0.012149169
230	0x3c830fb2	0.015998695
231	0xbd2ac211	-0.041688982
232	0x3c9379a1	0.018002333
233	0xbcedcf47	-0.029029502
234	0x39a309b6	0.00031097018
235	0xb9f7ee4c	-0.00047289056
236	0x3ba7aa08	0.005116705
237	0x3cff5a6f	0.031171052
238	0x3a6ae9df	0.0008961241
239	0xbc00975e	-0.007848589
240	0x87c052da	-2.8937645e-34
241	0x3c543232	0.012951421
242	0x072f8770	1.3205338e-34
243	0x07edfde4	3.580902e-34
244	0x3b7b5649	0.003835099
245	0xbc2de04e	-0.01061256
246	0x3c1cc7ad	0.009569091
247	0x3de10b46	0.10988478
248	0xbc474ae9	-0.012163856
249	0x3cdcd602	0.026957516
250	0x3ca62ed2	0.020285998
251	0xbc9c0208	-0.019043937
252	0x3a78e9e8	0.0009495304
253	0x3c9ced7b	0.019156208
254	0x3c876297	0.016526503
255	0xb70452e1	-7.88711e-06

functional_9/conv2d_39/Conv2D f4 [32, 3, 3, 16]
0	0xbebdfb2c	-0.3710569
1	0x3c7b00de	0.015320031
2	0xbeb62340	-0.3557377
3	0xbd047641	-0.03233934
4	0xbe8bc94c	-0.27302015
5	0xbf31f4fb	-0.69514436
6	0x3edb2929	0.4280484
7	0x3e93eed2	0.28893143
8	0xbec3ae54	-0.3821894
9	0xbddb9b5f	-0.10722994
10	0xbd3ab4d3	-0.045582604
11	0x3e732da4	0.2374788
12	0x3e8b13e7	0.27163622
13	0x3e428628	0.18996489
14	0x3df07a3e	0.11742066
15	0xbd5575e8	-0.052114397
16	0xbed57725	-0.41692463
17	0x3c33587f	0.010946392
18	0xbed551f1	-0.4166408
19	0xbe153634	-0.14571458
20	0xbe281474	-0.16414052
21	0xbf29a69b	-0.66269845
22	0x3eb9c560	0.36283398
23	0x3e1f45ec	0.15554017
24	0xbee5d19a	-0.44886476
25	0xbc6cfeca	-0.014465043
26	0x3c16862d	0.009187263
27	0xbe0ac84a	-0.13552967
28	0x3e62a5b1	0.22133519
29	0x3e8c01d0	0.27345133
30	0x3d964c77	0.07338803
31	0xbda3a2e5	-0.07990054
32	0xbee75047	-0.45178434
33	0x3d1c45b2	0.038152404
34	0xbebf26e1	-0.3733435
35	0xbe27f9f7	-0.16403948
36	0xbd8daf51	-0.069182046
37	0xbf31376d	-0.692252
38	0x3ea6be89	0.32567242
39	0x3d788116	0.06066998
40	0xbf0a2e16	-0.5397657
41	0x3e38ee9f	0.18059777
42	0xbd96b7f3	-0.07359304
43	0x3d78f1c2	0.060777433
44	0x3e20ab65	0.15690382
45	0x3e30b532	0.1725662
46	0x3dd67917	0.10472315
47	0xbdf3d67b	-0.11906143
48	0xbe250303	-0.1611443
49	0xbc9034a1	-0.01760322
50	0x3e9374c9	0.28800038
51	0xbd054fb3	-0.03254671
52	0xbcabeab5	-0.02098594
53	0xbdd405ff	-0.10352706
54	0x3d84465c	0.064587325
55	0x3d857d0b	0.06517991
56	0x3df5bc53	0.119988106
57	0x3eb4e6dd	0.35332385
58	0x3f0cdc32	0.5502349
59	0x3e569ae2	0.2095752
60	0x3f1be56d	0.6089695
61	0xbde34f43	-0.11099102
62	0x3e4a909d	0.19781728
63	0xbd066e7d	-0.032820214
64	0xbc513734	-0.012769509
65	0xbd96262e	-0.07331501
66	0x3e46f166	0.19428024
67	0xbe0392be	-0.12848946
68	0xbd762ea8	-0.06010309
69	0xbd3fcea1	-0.046827916
70	0xbd197870	-0.037468374
71	0xbcb142eb	-0.021638354
72	0x3d78c269	0.06073228
73	0x3ec609b0	0.38679266
74	0x3ecd1c04	0.40060437
75	0x3d2a2766	0.04154148
76	0x3f0f5deb	0.5600268
77	0xbd531dc4	-0.05154206
78	0x3ee2a761	0.44268325
79	0xbdae79de	-0.08519338
80	0xbe0c43c0	-0.1369772
81	0xbdfe0e6d	-0.12405095
82	0x3e051972	0.12997988
83	0xbe58ffe9	-0.21191372
84	0x3ca8fe3b	0.020629039
85	0xbe4460ed	-0.19177599
86	0xbcdfc5b3	-0.02731595
87	0xbc8e9f68	-0.017409995
88	0x3e18d4ee	0.14924976
89	0x3f01b6c2	0.5066949
90	0x3eb0e0ca	0.345465
91	0x3e1299bf	0.14316462
92	0x3efbc42d	0.49173108
93	0xbe008784	-0.12551695
94	0x3db5ce18	0.088772
95	0xbdd0f8de	-0.10203718
96	0xbeabb782	-0.33538443
97	0xbdf06ba2	-0.11739279
98	0x3d906174	0.07049838
99	0x3d859181	0.06521893
100	0xbe1cf0c5	-0.15326221
101	0xbe008d31	-0.1255386
102	0xbe28376b	-0.1642739
103	0xbdb0c4b2	-0.08631267
104	0xbedb1f9a	-0.42797548
105	0xbdeaa5d6	-0.11457412
106	0xbdd3f0a0	-0.1034863
107	0xbbcd69dd	-0.0062687234
108	0x3e6605b1	0.22463109
109	0xbd9e86ca	-0.07740553
110	0xbf236929	-0.63832337
111	0xbe6d5c28	-0.23179686
112	0xbe80167e	-0.2501716
113	0xbe308a2a	-0.17240205
114	0xbd89b3f3	-0.06723776
115	0xbd761b05	-0.06008436
116	0xbe756ec9	-0.23968042
117	0xbdd0fee0	-0.102048635
118	0xbe71ead7	-0.2362474
119	0xbd98f2cb	-0.07468184
120	0xbe9d8e48	-0.30772614
121	0xbe332e56	-0.17498145
122	0xbcb97f17	-0.022643609
123	0xbe6aa5ed	-0.22914858
124	0x3e237cf6	0.15965638
125	0xbe2859b7	-0.16440473
126	0xbec7b704	-0.39006817
127	0xbe4523a9	-0.19251885
128	0xbe98fd25	-0.29880634
129	0xbe157470	-0.14595199
130	0xbe3ad64e	-0.18245813
131	0xbd985cbd	-0.074395634
132	0xbeb823e9	-0.35964897
133	0xbe86cb7d	-0.26327124
134	0xbe3c5bb3	-0.18394355
135	0xbd02285f	-0.031776782
136	0xbe5c3ae7	-0.21506844
137	0xbdccc37f	-0.099982254
138	0x3cbed7c4	0.023296244
139	0xbe052735	-0.13003238
140	0x3db47ddc	0.08813068
141	0xbd961320	-0.073278666
142	0xbf359424	-0.7092917
143	0xbe8b622d	-0.2722334
144	0xbe2d41cb	-0.1691963
145	0xbea19abf	-0.31563374
146	0x3e82af84	0.25524533
147	0xbdc70d14	-0.09719291
148	0xbd72e26d	-0.059297968
149	0xbd956915	-0.072954334
150	0xbed07959	-0.4071758
151	0xbe4eac1d	-0.20182844
152	0xbcf7df4b	-0.030257842
153	0x3e38b207	0.18036662
154	0x3e8dbc69	0.27682808
155	0x3e8d8d22	0.27646738
156	0xbe9e7fa1	-0.30956748
157	0xbdbb14c1	-0.09134818
158	0xbe7fc258	-0.2497648
159	0x3ab48031	0.0013771114
160	0xbdcc0413	-0.099617146
161	0xbefa863a	-0.48930532
162	0x3e1449dc	0.144813
163	0xbe76d577	-0.24104868
164	0xbe31b84b	-0.17355458
165	0xbdd711a3	-0.10501411
166	0xbe0c0a1b	-0.1367573
167	0xbd8037a7	-0.06260615
168	0xbe1e02e1	-0.15430786
169	0x3eaf1f67	0.34203646
170	0x3f20d755	0.6282857
171	0x3dce903c	0.10086104
172	0xbe90d1cd	-0.28285065
173	0xbe8ed1a6	-0.27894324
174	0xbe4c0f1b	-0.19927637
175	0x3a80fa4f	0.0009840223
176	0x3c018984	0.007906321
177	0xbf019df8	-0.50631666
178	0x3e7ff582	0.24995998
179	0xbe4a725b	-0.19770186
180	0xbe6a2cfb	-0.22868721
181	0xbe310ef2	-0.17290857
182	0x3d1f7d0f	0.038937625
183	0xbd056169	-0.0325636
184	0xbe9abee8	-0.30223775
185	0x3f1cc845	0.6124309
186	0x3e9b77c2	0.30364805
187	0x3df8301b	0.121185504
188	0xbe8d49af	-0.2759528
189	0xbe9305b4	-0.2871529
190	0xbe003f5a	-0.12524167
191	0xbd8d181f	-0.06889366
192	0xbe35854b	-0.17726628
193	0xbe479f7b	-0.1949443
194	0x3de9374b	0.113874994
195	0xbe075ae2	-0.13218263
196	0xbe333af5	-0.17502959
197	0xbf008a5e	-0.5021113
198	0xbeaffaf0	-0.34371138
199	0xbe8fc2cc	-0.28078306
200	0x3d9e3d28	0.077265084
201	0x3d8df182	0.069308296
202	0xbde1115e	-0.10989641
203	0x3e453a76	0.19260582
204	0xbeaa1a44	-0.33223164
205	0xbdfd476c	-0.12367138
206	0xbea0293f	-0.31281468
207	0x3dc4d333	0.096105956
208	0xbe6b964d	-0.23006554
209	0xbe8e36d1	-0.27776197
210	0xbcb9a101	-0.02265978
211	0xbe7bda9d	-0.24595113
212	0xbe914a7e	-0.28377146
213	0xbef4d2b7	-0.47817013
214	0xbd3913ce	-0.045184903
215	0xbe3819ab	-0.17978542
216	0xbd96d193	-0.07364192
217	0x3e2aed57	0.166921
218	0x3ed8c757	0.42339584
219	0xbdd5d1a7	-0.10440379
220	0xbe9bef3e	-0.30455965
221	0xbe156a87	-0.14591418
222	0xbeb959b9	-0.36201265
223	0x3d32531a	0.043536283
224	0xbd044cc9	-0.03229979
225	0xbec12a5a	-0.37727624
226	0x3d0cd485	0.034382362
227	0xbe5d3e1e	-0.21605727
228	0xbe5f02d6	-0.21778426
229	0xbeda2199	-0.42603758
230	0x3d98a1d2	0.0745274
231	0xbdabd58f	-0.083903424
232	0xbec63dee	-0.38719124
233	0x3e9008f7	0.2813184
234	0x3e75e09f	0.24011467
235	0x3b892845	0.0041857087
236	0xbe9adb45	-0.30245414
237	0xbe8bb7d8	-0.272887
238	0xbdf2e8ef	-0.11860835
239	0x3d7048fa	0.058663346
240	0x3d45c5dd	0.0482844
241	0xbe72714f	-0.23676036
242	0x3db630f7	0.08896058
243	0xbdf3aeaf	-0.118985526
244	0xbe9b4735	-0.30327764
245	0xbe64f5ec	-0.22359437
246	0xbeabc6b7	-0.33550045
247	0xbeb7a331	-0.35866693
248	0x3d382b7e	0.044963352
249	0x3d996d09	0.074915
250	0xbdd60996	-0.10451047
251	0x3e348eb8	0.17632568
252	0xbe8dd4e6	-0.2770149
253	0xbc777618	-0.015103839
254	0xbe8aa700	-0.27080536
255	0x3e92fe64	0.2870971

functional_9/conv2d_40/Conv2D f4 [32, 3, 3, 32]
0	0xbceb55f8	-0.028727517
1	0xbd3c493a	-0.04596827
2	0x093fc980	2.3085534e-33
3	0xbe1ff53f	-0.15620898
4	0xbd6e2942	-0.058144815
5	0xbda1697c	-0.07881448
6	0xbada6000	-0.001666069
7	0xbb70db9d	-0.0036751993
8	0xbe465eb4	-0.19372064
9	0x3c89e594	0.016833104
10	0xbe358967	-0.17728196
11	0xbbca68da	-0.00617705
12	0x0772452a	1.8226382e-34
13	0xbd8fb9a3	-0.07017829
14	0x881772da	-4.5574917e-34
15	0xbdc2a545	-0.09504179
16	0xbe3fcf21	-0.18731357
17	0xbd463167	-0.048386957
18	0x08bae715	1.1248795e-33
19	0xbe2c5f8e	-0.16833326
20	0x0958cbab	2.6095818e-33
21	0xbd9301eb	-0.071781
22	0x09006fc2	1.5459988e-33
23	0x88c3b56d	-1.1778789e-33
24	0xbcfca851	-0.030841978
25	0x0795afb9	2.2522309e-34
26	0xbe372e56	-0.1788877
27	0xbd422f22	-0.04740823
28	0xbe6d1bda	-0.23155156
29	0x88b112c9	-1.0657216e-33
30	0x0800fa46	3.8812794e-34
31	0x88c5f2af	-1.1913561e-33
32	0x3cb01e2d	0.021498764
33	0x3c82148f	0.015878944
34	0x091d9df4	1.8972457e-33
35	0xbe308a6c	-0.17240304
36	0xbe20bf3c	-0.1569795
37	0xbd5ed39a	-0.054401018
38	0x3c2b526a	0.010456661
39	0xbd3e9620	-0.04652989
40	0xbe27a946	-0.16373166
41	0xbcb669df	-0.02226728
42	0xbe1fe0fc	-0.15613168
43	0x3a99b7a9	0.0011727709
44	0x07ebee9c	3.5499112e-34
45	0xbdbf3b7d	-0.09337518
46	0x08d4e1b1	1.2812346e-33
47	0xbd96345f	-0.07334208
48	0xbe173b66	-0.14768752
49	0xbcb74454	-0.022371449
50	0x8818445b	-4.5821188e-34
51	0xbe2de758	-0.16982782
52	0x8940100c	-2.3118705e-33
53	0xbc5563bd	-0.013024268
54	0x8919ab27	-1.849718e-33
55	0x08fc718c	1.5193393e-33
56	0x3d194a8c	0.03742461
57	0x090f4d89	1.7249456e-33
58	0xbddaf8f8	-0.10692018
59	0xbd3ac3fd	-0.045597065
60	0xbdb4be43	-0.08825352
61	0x891f3a5f	-1.9166375e-33
62	0x88b525c1	-1.0902417e-33
63	0x090cb8b1	1.6938728e-33
64	0x3c7f9472	0.015599357
65	0xbd8c2c7e	-0.06844424
66	0x096445f6	2.7477397e-33
67	0xbd8bd24d	-0.06827221
68	0x3cfdef7c	0.030997984
69	0xbcf76e09	-0.030203836
70	0x3c5bc0a2	0.013412626
71	0xbc8e728d	-0.017388606
72	0xbe18e1a4	-0.14929825
73	0x3cc14fbe	0.023597594
74	0xbe361698	-0.17782056
75	0xbc9aba9d	-0.018887812
76	0x08f78cb7	1.4898854e-33
77	0x3c288754	0.010286171
78	0x891735d2	-1.820127e-33
79	0x3d21dfbe	0.039520018
80	0xbe2ac55c	-0.16676849
81	0xbd5a6b44	-0.053324953
82	0x08a42d5a	9.881053e-34
83	0xbdc43dfc	-0.09582135
84	0x89472bb6	-2.3974306e-33
85	0xbcdf9597	-0.02729301
86	0x08f451ca	1.4704444e-33
87	0x090d58ee	1.7014072e-33
88	0xbc6c97e0	-0.014440507
89	0x889627a4	-9.037116e-34
90	0xbdf67a8c	-0.12035093
91	0xbd2b5c7e	-0.041836254
92	0xbdeba609	-0.11506278
93	0x87118c92	-1.0949897e-34
94	0x893aa26f	-2.2465312e-33
95	0x887a05ed	-7.5238604e-34
96	0x3cc7cdee	0.024390187
97	0x3abc49cb	0.0014365254
98	0x077e8fbe	1.9151078e-34
99	0x3c8d5e89	0.017256992
100	0x3d77a2ae	0.060457878
101	0xbcf4bf84	-0.029876478
102	0xbda955d2	-0.08268322
103	0xbd79701b	-0.060897928
104	0xbdc020c3	-0.09381249
105	0x3bcb4750	0.0062035695
106	0xbe2b185b	-0.1670851
107	0xbddff946	-0.10936217
108	0x092fef1b	2.1177286e-33
109	0x3d163d3a	0.036679484
110	0x082d7dfe	5.2208397e-34
111	0xbbbcc0a3	-0.005760269
112	0xbe1f6b76	-0.15568337
113	0xbd57e553	-0.052708935
114	0x88367c20	-5.491454e-34
115	0xbd5e22b4	-0.054232314
116	0x08705227	7.2318943e-34
117	0x3cb024c0	0.021501899
118	0x886750dd	-6.960909e-34
119	0x08939228	8.881602e-34
120	0xbd371909	-0.04470161
121	0x892e1941	-2.0956362e-33
122	0xbdad6d82	-0.084681526
123	0xbd8708c9	-0.065934725
124	0xbc4b6baa	-0.012415806
125	0x88fa8319	-1.5077149e-33
126	0x08999821	9.244118e-34
127	0x08629104	6.8179866e-34
128	0x3cd807fe	0.026370998
129	0xbc040352	-0.008057432
130	0x088bf7f3	8.424051e-34
131	0x3cc3f373	0.023919797
132	0x3cf06a81	0.02934766
133	0xbd39bade	-0.045344226
134	0xbd3c3dea	-0.045957483
135	0x3d0f9ef4	0.0350637
136	0xbe4ca2eb	-0.19984023
137	0xbd1fd873	-0.03902478
138	0xbe220650	-0.1582272
139	0xbc282622	-0.010262998
140	0x89002206	-1.5423437e-33
141	0x3d53d485	0.051716346
142	0x0881766d	7.791747e-34
143	0xbd4d7f17	-0.05017003
144	0xbe15e55c	-0.14638275
145	0xbd1d603d	-0.038421858
146	0x05af4c3c	1.6484925e-35
147	0xbd572d77	-0.052533593
148	0x890ae705	-1.671977e-33
149	0x3cf809bc	0.03027808
150	0x891ae827	-1.8646233e-33
151	0x0858da4e	6.525675e-34
152	0x3dadb801	0.084823616
153	0x876c689f	-1.7785412e-34
154	0xbe12b6ae	-0.143275
155	0xbc1bd780	-0.009511828
156	0x3d73daa9	0.059534702
157	0x07ba7b9c	2.805882e-34
158	0x0907ab80	1.6330673e-33
159	0x88871f87	-8.132429e-34
160	0x3c8d18bb	0.017223706
161	0xbcf2790f	-0.02959874
162	0x08815987	7.784953e-34
163	0x3df25884	0.11833289
164	0x3dfacfe6	0.12246685
165	0xbdca5def	-0.09881198
166	0xbc0dda51	-0.008658008
167	0x3ce047ea	0.027378041
168	0xbd9c5a3f	-0.076344006
169	0x3c733eeb	0.014846544
170	0xbd96d632	-0.07365073
171	0xbc088d19	-0.008334422
172	0x08031f57	3.945822e-34
173	0x3e154f29	0.14580978
174	0x0861f128	6.7991952e-34
175	0xbceac206	-0.02865697
176	0xbd493854	-0.049125984
177	0xbd6229d8	-0.055215687
178	0x89090e67	-1.6497547e-33
179	0x3cc587e8	0.024112657
180	0x08c83c23	1.20512e-33
181	0xbcc5d90a	-0.024151344
182	0x88b6d049	-1.1002694e-33
183	0x8933dbb2	-2.1649641e-33
184	0x3d013eba	0.03155396
185	0x88bdd248	-1.1424461e-33
186	0xbd64fe5a	-0.05590663
187	0x3c951ffa	0.018203724
188	0x3cf815b7	0.030283792
189	0x8935dd4a	-2.1891132e-33
190	0x087863dc	7.474717e-34
191	0x07b1e10e	2.6764275e-34
192	0xbca381c0	-0.01995933
193	0x3d909a9f	0.07060742
194	0x0745f822	1.4893552e-34
195	0x3d231edd	0.039824355
196	0xbb293815	-0.002582078
197	0x3cfeaf52	0.031089459
198	0xbd29b5d1	-0.04143316
199	0xbca8219b	-0.020523837
200	0xbd2444d7	-0.040104713
201	0xbce400f8	-0.027832493
202	0xbd7e7dc9	-0.062131677
203	0xbcb6da09	-0.022320764
204	0x89315f64	-2.1350452e-33
205	0x3d2c31f2	0.04203982
206	0x088effe5	8.606475e-34
207	0x3caf2973	0.02138207
208	0xbd10fab8	-0.035395354
209	0xbc19afcc	-0.009380292
210	0x08ee702a	1.4350474e-33
211	0xbda3bab1	-0.07994593
212	0x8912fe5e	-1.7693714e-33
213	0x3d068a32	0.032846637
214	0x893f18ab	-2.3002388e-33
215	0x8802ffa8	-3.9420974e-34
216	0xbda88759	-0.082289405
217	0x88814c77	-7.781882e-34
218	0xbd8252b1	-0.063634284
219	0xbd066f72	-0.032821126
220	0xbd5aca86	-0.053415798
221	0x089a0f66	9.272158e-34
222	0x07d94048	3.2688312e-34
223	0x88216540	-4.8568194e-34
224	0xbc053551	-0.008130387
225	0x3d5362b4	0.051607803
226	0x094d2f31	2.4698167e-33
227	0xba89922c	-0.0010495833
228	0x3c905743	0.017619735
229	0xbcbc26be	-0.022967692
230	0xbce5de02	-0.028059963
231	0x3d2f056f	0.04272979
232	0xbd67d092	-0.056595393
233	0xbcfccba2	-0.030858818
234	0xbcef8409	-0.029237764
235	0x3d19302e	0.037399463
236	0x88a25ee9	-9.772334e-34
237	0x3ccdc0ce	0.02511635
238	0x8818491a	-4.5826767e-34
239	0xbd291f96	-0.04128989
240	0xbd923d32	-0.07140578
241	0x3c9bd6a2	0.019023243
242	0x8776737d	-1.8540922e-34
243	0xbda283c7	-0.07935291
244	0x89289ca6	-2.029592e-33
245	0xbca38ba3	-0.019964045
246	0x890df832	-1.7088959e-33
247	0x08dab7a1	1.3163569e-33
248	0x3d32c249	0.043642316
249	0x882beb1f	-5.1734824e-34
250	0xbd2a7be8	-0.041622072
251	0x3c5d4688	0.0135055855
252	0x3c68abdc	0.014201131
253	0x091f3d1c	1.9167662e-33
254	0x84ea307d	-5.5057665e-36
255	0x090594b4	1.6079213e-33
