v0.1/benchmarks/image_classification/trained_models/pretrainedResnet.tflite (tflite, 318096 bytes, 20 tensors)

model/dense/BiasAdd/ReadVariableOp/resource f4 [10]
000000 3e 22 b6 bd eb 00 20 be c4 1c 90 3c af c3 90 3d
       -0.0889325 -0.1562535 0.017591842 0.07068574
000010 a8 f9 3e 3d fd 5f 07 be f6 be 2e 3e 2b c8 de bd
       0.04662481 -0.1322021 0.17065033 -0.10878023
000020 1e 6b dc bb e2 99 37 3e
       -0.0067266366 0.17929795

model/activation/Relu;model/batch_normalization/FusedBatchNormV3;model/conv2d/BiasAdd/ReadVariableOp/resource;model/conv2d/BiasAdd;model/conv2d_2/Conv2D;model/conv2d/Conv2D f4 [16]
000000 83 cb 1b 3f e6 ee a4 3e ae 07 32 3f 7d 51 a0 3e
       0.6085741 0.32213515 0.6954297 0.3131217
000010 1e 92 00 3f 91 ae 34 3e 8c 75 04 3f c3 77 18 3f
       0.5022296 0.17644717 0.5174186 0.5955774
000020 1b 5b 3b 3e 6c ce 9b 3e 9d e1 14 3e cf 45 38 3f
       0.18296473 0.30430925 0.1453919 0.7198152
000030 1a 2a 3e 3f 7e 99 30 be 93 9c 70 bf 09 fe b8 3f
       0.7428299 -0.17246053 -0.93988913 1.4452525

model/activation_1/Relu;model/batch_normalization_1/FusedBatchNormV3;model/conv2d_1/BiasAdd/ReadVariableOp/resource;model/conv2d_1/BiasAdd;model/conv2d_2/Conv2D;model/conv2d_1/Conv2D f4 [16]
000000 c1 2d 6e 40 60 8b 8b bf e3 a7 2a 40 42 29 a8 3f
       3.7215426 -1.0901909 2.666497 1.3137591
000010 00 2f 6d 40 34 93 00 3f 10 58 33 bf 68 6f d4 3e
       3.7059937 0.50224614 -0.7005625 0.41491246
000020 6d 2a e3 3f ea 7c 50 3c f2 d0 91 c0 9b f2 90 bf
       1.7747322 0.012725094 -4.556756 -1.1324037
000030 be 37 e6 3e cf 47 0b 3e b8 56 33 3e 7a e0 92 3f
       0.44964403 0.13601612 0.1751355 1.1474755

model/activation_3/Relu;model/batch_normalization_3/FusedBatchNormV3;model/conv2d_3/BiasAdd/ReadVariableOp/resource;model/conv2d_3/BiasAdd;model/conv2d_5/Conv2D;model/conv2d_3/Conv2D f4 [32]
000000 c4 df ab 3f e5 48 8b 3e fd 9c d7 3f 07 4e bc bf
       1.3427663 0.27204052 1.6844784 -1.4711312
000010 ea a8 0d 40 32 a7 c6 3f 9a 6d 6a bf 99 1b fd 3f
       2.2134347 1.5519774 -0.9157349 1.9774047
000020 ea 0f a4 3f 10 26 49 3f 27 c9 9a be ea f4 dd 3f
       1.2817357 0.78573704 -0.30231592 1.7340367
000030 f4 09 c2 3d 90 44 30 bf 64 1c f1 3f a8 06 e5 3e
       0.09474555 -0.6885462 1.8836789 0.4473164
000040 4b 08 1d 3f 74 52 e3 be 1f b6 d0 bf 05 3d a8 3d
       0.6134078 -0.44398844 -1.6305579 0.082147636
000050 98 aa c0 3e 1f 18 06 bf d0 61 b7 3e 49 f0 64 3f
       0.37630153 -0.52380556 0.35816813 0.89429146
000060 19 e6 de 3e 32 66 d4 3d cc 0d 34 40 98 49 5e 3e
       0.43534926 0.10371055 2.813342 0.21707761
000070 02 51 37 3f 4f ad a8 3f 6c 83 14 be 55 c7 6c 3f
       0.71607983 1.317789 -0.14503258 0.92491657

model/activation_5/Relu;model/batch_normalization_5/FusedBatchNormV3;model/conv2d_6/BiasAdd/ReadVariableOp/resource;model/conv2d_6/BiasAdd;model/conv2d_8/Conv2D;model/conv2d_6/Conv2D f4 [64]
000000 c5 ad 1d 3f 94 55 a0 3f c3 57 c4 3f 22 5b 81 bf
       0.61593276 1.2526116 1.5339283 -1.0105937
000010 75 74 20 be 44 47 b0 3e 7f e6 83 3f af 8b d9 bf
       -0.15669425 0.3442937 1.0304717 -1.6995753
000020 dd 6e 9d 3e 2c bf ba 3e 82 82 d8 3f bc fc 3c be
       0.30748644 0.36473978 1.6914828 -0.18455786
000030 a3 25 10 3f b3 46 79 3e be 6e bb 3e 95 30 ab 3f
       0.5630743 0.24343376 0.36607927 1.3374201
000040 ef 61 8f bc 83 b1 0a bf 81 05 53 3e 6a 3b 68 3f
       -0.017502753 -0.5417711 0.20607568 0.9071566
000050 20 fb 61 38 e9 de 88 3f 5e 97 1a bf 99 03 d1 bf
       5.387806e-05 1.0693027 -0.6038722 -1.6329223
000060 b1 02 bb 3f 3f 6d 69 3f e1 77 d5 3e d5 cf 72 3f
       1.4610196 0.9118232 0.41693023 0.94848377
000070 33 0a 1d bf a7 94 87 bf 85 18 ed be 05 8f eb bf
       -0.6134369 -1.059224 -0.4630777 -1.8403021
000080 1e 29 cf bf 5e e8 a7 bc 74 ea 33 3f 53 7c 72 bf
       -1.6184423 -0.020496543 0.7027962 -0.94720954
000090 2f 22 af 3f dd e2 2d c0 3b b1 8a be b6 1d 03 40
       1.3682307 -2.7169716 -0.2708834 2.0486884
0000a0 b8 5b a1 3e af d5 c1 3f 75 b7 d8 3f 63 3c bc be
       0.31515288 1.5143336 1.6930987 -0.3676482
0000b0 57 44 5e be fd 06 b2 be 6c 4a fd 3f c5 a8 dd 3d
       -0.21705757 -0.34770957 1.9788337 0.10823206
0000c0 cc 9d d5 bf 0b ba 16 be 9b d3 b1 3e a2 8d 08 3f
       -1.6688781 -0.14719407 0.34731755 0.53341115
0000d0 5d b9 63 bf 71 53 c0 be c0 3d 63 bf e1 84 8c 3f
       -0.88954717 -0.3756366 -0.887661 1.0978051
0000e0 6e 84 a8 bf a7 ab 65 3f ca 1a 46 bf 13 f3 36 3f
       -1.3165414 0.89715046 -0.77384627 0.7146465
0000f0 3f 18 b9 be f6 c1 f9 bf 32 2a 0e 3f 43 b7 9d 3f
       -0.3615131 -1.9512317 0.55533135 1.2321552

model/dense/MatMul f4 [10, 64]
000000 f9 2e 72 3f b2 63 4e bf fd 30 9c 3f ab 5c 87 3f
       0.94602925 -0.8062087 1.220245 1.0575155
000010 6e 48 fa 3e 12 41 0c c0 b6 6f 7b be 48 9a a5 be
       0.48883384 -2.1914716 -0.24554333 -0.3234427
000020 df e8 b0 bf 3b c3 c4 3e 14 b4 33 3f 6c 63 7a bf
       -1.3821067 0.384302 0.7019665 -0.97807956
000030 bc 22 03 bf 2e 76 56 be 42 81 ec bc 7d 3b 43 bf
       -0.51224875 -0.2094352 -0.028870229 -0.76262647
000040 64 cd 0c 3f 31 f2 fb bf 58 7d 39 bf 94 fd 38 3f
       0.550009 -1.9683286 -0.72456884 0.7226193
000050 06 60 08 be 27 9e 14 bf 4a 7c 1a 3f 71 8e 42 bf
       -0.1331788 -0.5805382 0.603459 -0.759986
000060 1a 99 dd 3e d0 38 69 3e 03 4a e5 3e 94 7e 94 bf
       0.4328087 0.22775578 0.4478303 -1.1601129
000070 e0 0e b3 bf 02 2d 20 3f ea a8 94 3e 12 1f 04 40
       -1.3988914 0.62568676 0.2903512 2.0643964
000080 b5 1f e9 bf 78 c5 0b c0 67 31 79 3f 3e 79 1e 3f
       -1.8212801 -2.1839275 0.97341007 0.6190375
000090 c4 24 cb 3f 3b 3b e5 bf d8 47 db bf 18 99 5a bf
       1.5870595 -1.7908701 -1.71313 -0.8538985
0000a0 78 ab 7a 3f b9 07 96 3f d5 f4 54 bf 61 4f 25 c0
       0.9791789 1.1721107 -0.83186084 -2.58297
0000b0 f0 05 36 bf 1e 4e ad 3e 05 45 be bf 6b b0 25 3f
       -0.7110281 0.3384866 -1.4864813 0.6472232
0000c0 62 6e 1e c0 ff 08 e5 3d eb 64 7f bf a6 8b c6 3f
       -2.4754872 0.111833565 -0.99763364 1.5511367
0000d0 a2 b2 bb bf 05 8b 18 be 50 7e a5 bf 83 35 9c 3f
       -1.466389 -0.14896782 -1.2929173 1.220383
0000e0 93 8f e2 3f 02 31 6f bf 5e 8a 3b 3f 4a 76 d8 bf
       1.7700065 -0.93434155 0.73258007 -1.6911099
0000f0 bc 78 1d 3e 99 70 2b 3e fa 1f be 3d 5c 3c 4f 3f
       0.15378088 0.16742171 0.09283443 0.80951476
000100 5d 67 0f c0 82 fb 93 bf 18 77 89 bf 0a bd 77 bf
       -2.2406838 -1.1561129 -1.073947 -0.96772826
000110 ce 92 25 3e b0 05 20 3f 52 96 21 3f a1 27 e1 bd
       0.16169283 0.6250868 0.63119996 -0.10993887
000120 e1 52 82 bf 48 76 a3 be b1 1b 03 bf af da 8a 3f
       -1.0181543 -0.3192618 -0.5121413 1.0847987
000130 c0 76 d1 3f 3f e1 3a bf b8 9c 56 3f 13 c2 7b bf
       1.6364365 -0.7299995 0.83832884 -0.9834301
000140 08 95 a0 3e 7b dc 9e 3f b0 ce c0 bf 76 05 9a 3e
       0.31363702 1.2411035 -1.5063076 0.3008229
000150 58 6c 98 3f 89 95 57 bf 6f 0e 7d bf d8 2c 18 3f
       1.1908064 -0.8421255 -0.9885015 0.59443426
000160 37 ab ac bd 65 cb 16 3f 4b a9 d0 3f 63 60 11 bf
       -0.08431094 0.58904105 1.6301664 -0.567877
000170 d6 80 d5 bf 03 80 a5 bf 86 c9 9b bf e8 df bc 3e
       -1.6679943 -1.2929691 -1.2170875 0.36889577
000180 7b 91 83 be ba 00 e2 bf cb f7 5f bd f6 a2 91 3e
       -0.2569693 -1.7656472 -0.054679673 0.28444642
000190 b9 28 15 bf 01 e6 98 bf d9 44 43 be 2b 68 29 c0
       -0.5826526 -1.1945192 -0.19069232 -2.646983
0001a0 aa 98 8b 3f 03 01 89 bf 1b 7e db 3e 13 a3 4a 3e
       1.0905964 -1.0703434 0.42869648 0.1978877
0001b0 dd 6d 96 3f eb aa 43 3c c1 0d 0e 3f 3d 22 83 bf
       1.1752278 0.0119426055 0.55489737 -1.0244824
0001c0 11 95 3b bc 29 f6 68 bf 41 e3 2a 40 3e 5e 83 be
       -0.011449114 -0.9100061 2.6701205 -0.2565784
0001d0 22 6b 12 3f 6a 21 a8 bf 71 a0 6d bf 70 82 c2 bf
       0.5719472 -1.3135197 -0.9282294 -1.5196056
0001e0 d3 56 00 c0 a3 c4 fd 3e 93 6a 1c 3f bc a8 17 40
       -2.0052993 0.49564084 0.6110012 2.3696737
0001f0 b9 09 f9 be 96 c7 16 3f 5b 9d f9 3f 2f e3 64 bf
       -0.4864023 0.58898294 1.9501146 -0.89409155
000200 c4 da b4 3f 90 42 61 3f 93 e0 dd 3f 9f 1d e7 bc
       1.4129262 0.8799219 1.733416 -0.028212367
000210 81 e2 cb bf b6 dc 95 bf c7 3e 5f 3f 6b 89 1b c0
       -1.5928499 -1.1707981 0.87205166 -2.4302623
000220 91 43 1f 3f db 8d 07 40 ce 20 25 be 38 c9 80 bf
       0.62212473 2.1180332 -0.16125795 -1.0061407
000230 8b db 89 3f 90 e7 0c 3f 1f de dd bf d6 aa 1a bf
       1.0770124 0.55040836 -1.7333411 -0.60416925
000240 9a 36 b9 3e 5b 4c 80 bf 29 f3 1b 3f d5 90 0c be
       0.3617447 -1.0023302 0.6091791 -0.13727124
000250 5d 83 05 c0 a8 c2 29 bf cf f4 6d 3f 14 8b 6f 3f
       -2.0861428 -0.66312647 0.92951673 0.9357159
000260 b6 fe 2a bf 65 3b a5 bf 0b 8e 2d bf a8 eb 54 40
       -0.6679491 -1.2908751 -0.67794865 3.3268833
000270 e4 80 80 bf d8 8c 75 bf 04 97 cb bf ad 0d 82 bf
       -1.0039334 -0.95918036 -1.5905461 -1.0160424
000280 0d 0c 40 bf 01 f5 b7 be 25 0f a2 bd 6a e4 74 40
       -0.7501839 -0.3592911 -0.07913045 3.8264413
000290 0c 7a ea 3e d5 5c 59 3f 05 16 e8 3f c2 07 d4 3d
       0.4579624 0.84907275 1.813172 0.10353042
0002a0 2a 8d b8 3e 45 dc 08 40 25 59 70 3e 96 db 8a 3f
       0.360452 2.1384442 0.23471506 1.0848262
0002b0 d6 66 59 bf aa a8 48 bf 86 0e 08 c0 96 62 51 3f
       -0.8492254 -0.7838236 -2.1258864 0.81791055
0002c0 ae 4d b6 3e 0e 49 e7 3e ab dc b9 bf 1e 53 09 c0
       0.3560614 0.45172924 -1.4520468 -2.145698
0002d0 42 6e 91 be bb 87 19 c0 69 f4 c7 be c4 3c 42 bb
       -0.28404433 -2.3989093 -0.39053658 -0.002963827
0002e0 7b e1 4c be 98 59 6e bf 0a 92 10 c0 9b 82 13 bf
       -0.20007889 -0.9310546 -2.2589135 -0.57621163
0002f0 7c d6 45 bf b7 7d 96 3e 8f e2 d1 bb 44 89 e3 3f
       -0.772804 0.29392788 -0.0064051817 1.7776265
000300 5d 9a 2f be a0 85 14 be 32 8d c7 3e 05 1d bb 3e
       -0.17148729 -0.14504099 0.3897491 0.36545578
000310 45 d1 cb bf b1 86 52 bf 64 9f d7 bf f4 49 fc 3e
       -1.5923239 -0.8223677 -1.6845517 0.49275172
000320 68 9e e1 bf e5 00 3c bf 03 48 7c 3e 5b 4e 24 be
       -1.7626467 -0.73438865 0.24636845 -0.16045515
000330 fb ab ae be 4f c8 91 3f a5 40 c6 3e 90 f6 50 3f
       -0.34115586 1.1389254 0.38721195 0.81626225
000340 64 78 22 bf 55 c2 b9 be e0 58 e9 3d 6a 8f 4e be
       -0.6346495 -0.36281076 0.11393905 -0.20171896
000350 0d 94 6c bf 3c 20 1b 3f ba ee ff be d2 1c 0a 3e
       -0.9241341 0.6059606 -0.4998682 0.13487557
000360 56 fb ca be fc 9d 5b 3f 8c d8 ef bf f6 21 93 bf
       -0.3964488 0.8578794 -1.873796 -1.1494739
000370 d6 af 5b bf 05 55 55 be d1 42 85 3f 60 99 9a bf
       -0.8581518 -0.20833214 1.0411016 -1.2078056
000380 f5 2c 2f 3f e0 84 01 3e b1 8d 7a bf 30 f2 08 bf
       0.68427974 0.12648344 -0.97872454 -0.5349455
000390 08 af 34 3f a4 1b 9a 3e 7a 3c 93 be bf 50 aa 3e
       0.70579576 0.30099213 -0.28757077 0.3326473
0003a0 13 8a 80 be 5f 13 b5 bf 84 7b 13 be ed 7c eb 3f
       -0.25105342 -1.4146537 -0.14402586 1.8397499
0003b0 22 90 4c bf 7a 56 54 3f ed 71 a0 3d b0 36 1a 3f
       -0.7990743 0.8294445 0.078342296 0.60239697
0003c0 e3 ed f7 3d 23 9b 4e bf 93 9f 59 be 1b 66 5f bf
       0.1210592 -0.8070547 -0.21252279 -0.87265176
0003d0 00 dc 38 bf ad 00 1a 40 9a 58 78 40 82 82 97 bf
       -0.72210693 2.4062912 3.8804078 -1.1836703
0003e0 8b b5 b0 3d 79 01 85 3f 3c 28 e3 be 00 e4 4f bf
       0.086283766 1.0391074 -0.44366634 -0.81207275
0003f0 58 81 98 bf 61 fc 5c 3f 31 e6 b6 3f 24 fd fa be
       -1.1914473 0.863226 1.4288999 -0.49021256

model/conv2d/Conv2D f4 [16, 3, 3, 3]
000000 9c b5 13 3b e1 48 42 3b 78 00 8a bb b3 6b f9 3a
       0.0022538668 0.002964549 -0.0042114817 0.0019029289
000010 a4 5d be ba c3 e9 ae bb c6 fa db 3b 3f 93 c4 3a
       -0.0014523757 -0.005337925 0.006713244 0.0014997496
000020 8d d7 14 bc d6 a3 01 bc b5 1c 65 ba ef 7f da 3b
       -0.009084594 -0.007912597 -0.00087399344 0.006668083
000030 92 34 2e ba e5 6c 6a 3b e3 03 8f ba 0e 28 e9 ba
       -0.0006645407 0.0035770473 -0.0010911193 -0.0017788426
000040 49 ba 6d bb dd 83 da ba d3 eb ee bb 19 37 3d b8
       -0.0036274365 -0.0016671378 -0.007291296 -4.5112425e-05
000050 f0 10 33 3a 30 df 5b 3b b8 4c a9 3b 43 3e 39 3c
       0.0006830832 0.0033549778 0.0051666163 0.011306348
000060 a4 97 00 bc f1 78 0a bb 5d d3 7e 3b 25 75 ba b9
       -0.007848654 -0.0021129216 0.0038883307 -0.00035563964
000070 9f ac 32 3a bf 55 2c bb 7d 76 09 3b 2d 9e ea ba
       0.00068158837 -0.0026296226 0.0020975166 -0.0017899923
000080 16 63 a7 b9 5c 5c 95 3a 8b 5c 27 bb 19 8b 15 ba
       -0.00031926547 0.0011395323 -0.0025537338 -0.0005704626
000090 35 a0 38 ba a3 34 d8 b9 6c cd 65 ba 32 4f 20 bb
       -0.00070429157 -0.00041237948 -0.0008766267 -0.0024461267
0000a0 35 12 5a bb f2 fb 33 bb 1d 72 6a 3b 6a 40 51 ba
       -0.0033275012 -0.0027463404 0.0035773583 -0.0007982316
0000b0 50 ad 30 3b f3 08 02 bb 76 5f 8c 3a 22 76 9e 3a
       0.002695877 -0.001984176 0.0010709602 0.001208965
0000c0 75 6d b7 3a 49 07 62 3a 29 8b 1a ba 32 77 32 3b
       0.0013994413 0.00086223014 -0.000589537 0.002723169
0000d0 d6 94 1d bb 3d 58 12 3b 0f 23 8a bb 37 03 b3 bb
       -0.0024045012 0.0022330426 -0.004215605 -0.0054630297
0000e0 e4 4e 25 3b 90 ea 8f 3b 0b b7 99 3b bd 75 14 3b
       0.0025224024 0.0043919757 0.00469101 0.0022653185
0000f0 89 a3 c0 bb 4f 02 4e 3b 1e 18 b4 39 b5 fb 5c 3b
       -0.00587887 0.0031434481 0.00034350244 0.0033719365
000100 1a f9 7a bb b7 89 59 ba 43 3d 9c bb cf dc a9 bb
       -0.0038295449 -0.0008298414 -0.004768045 -0.005183793
000110 d4 61 c5 ba 3d e7 60 bb 0d 8c 8c bb 4b d9 cb bb
       -0.0015059062 -0.0034317516 -0.0042891563 -0.0062209717
000120 1a 0a 12 3c f7 07 c7 39 31 c8 16 ba 70 b4 e1 3a
       0.008913541 0.00037962172 -0.0005751877 0.0017219912
000130 72 46 77 3b ca 99 cb ba 1f 09 fc 39 75 ea 97 3b
       0.0037731198 -0.0015533504 0.0004807198 0.0046361038
000140 d7 55 d5 3b 30 11 cd bb c3 e8 b4 39 08 04 2e 3a
       0.006510477 -0.0062581524 0.00034505696 0.0006638174
000150 0e 0b d6 bb 20 64 b6 3b 5c ee fd ba 8e 11 cb 39
       -0.0065320795 0.005566135 -0.0019373405 0.00038732257
000160 ad 36 89 3b 99 79 93 bb a3 cb c7 38 3f 81 50 3b
       0.004187426 -0.0045005796 9.52699e-05 0.0031815318
000170 db e3 b2 3a e9 bd bd ba 43 a5 41 3c 88 54 e8 3a
       0.0013648228 -0.0014476153 0.011819187 0.0017725388
000180 f6 77 56 3a 46 81 13 3b ce d1 7f bb c5 27 88 3b
       0.0008181328 0.0022507473 -0.0039034965 0.0041551315
000190 21 d8 09 ba 37 cd 79 bb e5 92 70 bb d4 93 2b 3a
       -0.0005258341 -0.0038116702 -0.003670865 0.00065451604
0001a0 a2 9b 61 bb 08 2f 43 bb 31 e8 2a 3b 8c fa 57 ba
       -0.003442504 -0.0029782671 0.0026078338 -0.00082389335
0001b0 9f f7 1c bc 5e d8 76 3b f5 20 d1 3b 48 4a ce bb
       -0.009580522 0.0037665586 0.0063821026 -0.006295476
0001c0 75 6d 38 3b 54 03 37 bb 0a f5 3f 3b cc 38 0e 39
       0.0028141413 -0.0027925568 0.0029290342 0.00013563334
0001d0 1b f9 a2 ba 0d 6e 01 bc 2d fa 85 3a d6 00 e3 3b
       -0.0012433858 -0.007899773 0.0010221653 0.00692759
0001e0 a0 ca e5 bb 3b 41 30 ba 48 c1 16 bb 43 7d 79 3a
       -0.00701268 -0.0006723587 -0.0023003388 0.00095172616
0001f0 7e 59 39 3b bd 3b 05 3b a0 de 01 3c 33 50 1e 3b
       0.0028282101 0.0020329796 0.007926613 0.002415669
000200 72 ca 38 bb 90 26 ed 3b 8b a4 b0 bb ea c5 53 bb
       -0.0028196839 0.007237263 -0.005390709 -0.003231401
000210 e4 9e c1 3b c4 81 cf bb 40 4c e8 ba 5b 0e 84 3b
       0.005908834 -0.006332608 -0.001772292 0.0040300316
000220 bf 06 a2 3a e6 41 63 3a c1 e3 6e bb 7e e7 dd bb
       0.001236163 0.00086691824 -0.003645167 -0.006771981
000230 7e 2b 8f bb 36 20 66 ba f6 1d 41 bb c6 b8 6f bb
       -0.0043691983 -0.00087786035 -0.002946732 -0.003657864
000240 c1 ef 81 bb 34 a0 80 ba ee ef 9c ba 6d cd 2c bb
       -0.0039653485 -0.0009813369 -0.001197336 -0.002636756
000250 d8 8a 2e 3a 59 9f 04 3a 97 e3 62 ba 38 3a b0 3b
       0.00066582626 0.0005059145 -0.00086551293 0.005378034
000260 7a bd 04 3b a2 6e 2a ba f0 b8 02 b9 ce f6 cd 3a
       0.0020254538 -0.0006501471 -0.0001246666 0.0015713812
000270 a2 13 8f 3b db 33 ec ba 4e f8 0c 3b a3 7f 94 3b
       0.004366354 -0.0018020825 0.0021510306 0.004531817
000280 8b b0 af 3b 8f 75 ee 3a 0e f8 97 3b a4 23 eb bb
       0.0053616217 0.0018192994 0.0046377247 -0.0071758796
000290 af 9e 9f 3b f0 42 ec ba d1 e8 e6 ba 85 23 f1 3b
       0.0048712115 -0.001802532 -0.0017616992 0.0073589706
0002a0 8e af 50 bb 55 aa ef 3a 96 fa f5 3a 67 62 84 bb
       -0.003184292 0.0018285016 0.0018766697 -0.004040051
0002b0 bb ab 92 bb 92 50 81 3a 5f fd 11 38 ce 36 03 3a
       -0.0044760383 0.0009865931 3.4806664e-05 0.000500542
0002c0 91 66 fd bb 6f 74 f8 3b 22 8c 1c 3c fd 67 b1 ba
       -0.007733174 0.0075822393 0.009554895 -0.0013535019
0002d0 7c bb d4 3a 18 00 e3 3b bf 19 9d 3b eb e5 8d bb
       0.0016230191 0.0069275014 0.004794329 -0.004330387
0002e0 2a b5 90 bb 4d 3e 19 bc 72 4b d3 ba 5c 75 cc 3b
       -0.0044161277 -0.009353233 -0.0016120507 0.0062395763
0002f0 8c 9d d1 bb a6 91 46 3c 21 99 35 bc 8d da 20 bc
       -0.006396955 0.012119686 -0.011083872 -0.009817732
000300 57 fb 59 3c 26 8c ee bb fb 59 09 bc 86 74 7e 3b
       0.013304553 -0.0072798906 -0.008383269 0.0038826778
000310 af 31 9a 3b a8 df 52 3a 96 43 44 3b ab a2 17 3c
       0.00470563 0.00080441916 0.002994751 0.009255092
000320 93 c0 dc 3a 84 a9 1e bb 1a ea 2b 3b 25 b2 92 3b
       0.001684206 -0.0024209926 0.0026232065 0.004476803
000330 8b 0a be bb f9 5d f8 38 20 64 b0 bb 03 db 3a bc
       -0.0057995967 0.00011843065 -0.0053830296 -0.0114047555
000340 db 26 07 3c d7 58 dd 3b 68 45 74 bc 60 9d 66 bc
       0.00824901 0.0067549753 -0.014909126 -0.014075607
000350 eb a5 60 b9 63 3b 4f 3b 3e 6f d2 3b 2b 40 2e 3c
       -0.00021424114 0.003162109 0.0064219525 0.010635416
000360 cf ee 0d 3b ea 4c a0 bb c2 77 8c 3a d7 20 b0 3b
       0.0021657234 -0.0048919814 0.0010716843 0.0053750086
000370 5d 0f 98 3b 8e da d8 3b 45 93 a1 3b f8 fa 2e ba
       0.0046405033 0.0066178506 0.004930886 -0.00066749705
000380 9b b2 a2 ba 83 15 13 ba e8 d3 76 ba 69 a7 a8 3a
       -0.0012412848 -0.00056108105 -0.0009415732 0.0012867275
000390 f1 35 b9 bb ad 1a ee 3a 53 20 ae 3b a7 f6 bc bb
       -0.0056521823 0.0018165909 0.005313912 -0.005766708
0003a0 79 9f c9 bb 00 bc 8b ba a4 97 36 3b de 5e 47 bb
       -0.006153044 -0.0010660887 0.002786138 -0.0030421535
0003b0 69 ce 81 3a b5 e4 14 ba dc 54 34 bb af ac 45 bb
       0.0009903434 -0.0005679832 -0.00275164 -0.0030162742
0003c0 a5 91 c0 b9 e1 81 4c 3a b0 23 8e ba 92 07 83 3b
       -0.00036729607 0.0007801336 -0.0010844376 0.003998705
0003d0 2c db b8 ba fa a5 d2 3a 47 7a 2b ba 94 84 78 ba
       -0.0014103404 0.0016071193 -0.0006541353 -0.0009480205
0003e0 b2 b7 ba ba de 8e 23 bb 50 82 fd ba b8 3a 4a 39
       -0.0014245419 -0.0024956982 -0.0019341204 0.00019286096
0003f0 5f 55 da 3b 21 19 26 3b d0 6b a6 3b a4 d0 49 bb
       0.006663009 0.0025344568 0.00507877 -0.0030794526

model/conv2d_1/Conv2D f4 [16, 3, 3, 16]
000000 80 30 9e 3d 9b 19 1e 3d 49 fa 8a 3c 55 e3 b2 bc
       0.077240944 0.038598638 0.016965048 -0.021836916
000010 de 47 aa bd c0 c3 08 3e 27 25 41 3d a8 e2 a6 3e
       -0.08314489 0.13355923 0.04715457 0.325948
000020 fd 5c 9b bd d5 60 48 bc 16 e7 07 3c 6f af 19 3d
       -0.075860955 -0.012230118 0.008294841 0.037520822
000030 0f d7 56 3c ad a2 e6 3d bb 7d 6c be d2 22 06 bc
       0.013112797 0.11261497 -0.23094837 -0.008187013
000040 b1 de 01 3d 48 84 d2 bd a7 f6 00 bf 0e c1 62 3e
       0.031706516 -0.10279137 -0.5037636 0.22143957
000050 e6 75 ae be 37 a1 19 3d 58 f8 c9 3d cf e5 de be
       -0.34074324 0.037507262 0.09861821 -0.43534705
000060 29 c7 c6 bd ea d6 c0 bd 67 7f 5b be 2f d9 e3 be
       -0.097059555 -0.094159916 -0.21435319 -0.44501635
000070 05 71 e2 3d 42 c1 03 be fa 40 e1 bd 4f 93 70 3d
       0.11056713 -0.12866691 -0.109987214 0.058734234
000080 37 be 8e be 8e 97 ed 3d 01 b9 d6 bc 72 ec 47 be
       -0.27879497 0.116011724 -0.026211264 -0.1952379
000090 1c 62 d5 3d 40 be 0e 3d 36 35 80 3e f9 69 56 3e
       0.104191035 0.034849405 0.25040597 0.20938863
0000a0 c0 9b 24 3e d9 9c 7d bd 9a 66 16 3c b2 94 c0 bd
       0.16075039 -0.06191716 0.009179736 -0.094033614
0000b0 38 4d a2 be 57 5a a4 3b ee 3c eb 3d 29 4a 15 be
       -0.31699538 0.005015652 0.11486231 -0.14579071
0000c0 81 84 03 be 22 11 62 bd 01 5d 4b 3e 63 8f b1 3e
       -0.12843515 -0.05519212 0.19859697 0.34679708
0000d0 8b 5d a6 3d 2f 97 ab bd 8d 2f 09 3e 5a 90 be bd
       0.08123311 -0.08378445 0.13397045 -0.093048766
0000e0 ca d0 b7 be fe 8a bc 3d f2 80 ad ba 0e 0b a1 3d
       -0.3590148 0.09206198 -0.0013237281 0.07863437
0000f0 90 46 ae bd be 58 74 3e cc 25 99 be bb 40 26 be
       -0.085095525 0.23861977 -0.2991165 -0.1623563
000100 61 b3 25 be a5 fd c4 be aa b4 99 bd 8a 5c 93 3e
       -0.16181709 -0.38474765 -0.07505162 0.2878154
000110 08 d8 2d be e3 17 cc 3d 96 72 03 bf 1e 09 55 3d
       -0.1697694 0.099654935 -0.5134672 0.052010648
000120 31 8f 8a bd f7 73 3c 3e 65 43 d8 be ee 8f 71 be
       -0.06765593 0.18403612 -0.42238918 -0.23590061
000130 ea 78 d6 be 6a c2 15 bd 6e 3d d2 bd 8b 44 a7 3e
       -0.41889125 -0.03656236 -0.10265623 0.32669482
000140 69 36 08 be 33 66 83 3e ea 8e b2 3c c2 31 22 bf
       -0.13302006 0.2566391 0.021796662 -0.63357174
000150 19 96 0a 3e cc 83 12 3e 0f 0e b5 bd 1f 18 37 be
       0.1353382 0.14308089 -0.08840572 -0.17880295
000160 86 c3 45 be 9b bf 21 3e 29 97 2f be cb 0c 06 be
       -0.19312868 0.15795748 -0.17147507 -0.13090818
000170 5c b3 13 bd 3f 68 fa bd 61 b3 ad 3d 77 33 68 3d
       -0.036059722 -0.122269146 0.084814794 0.056689706
000180 b6 25 8f 3d e3 45 ea 3d 2d e4 97 bd 3c aa d2 bd
       0.06989615 0.11439111 -0.07416568 -0.10286376
000190 4a b1 a9 3c 74 38 f9 be 18 b1 2f bd 2a 25 4b be
       0.02071442 -0.48675883 -0.0428935 -0.19838396
0001a0 1a ee f2 3d 9c 8a 7b bd ce 5e 00 bd d2 23 8e 3d
       0.118618205 -0.061411485 -0.031340413 0.06940426
0001b0 3c 91 f4 3d e8 93 97 bc 59 c0 d4 bd b8 83 62 3c
       0.11941764 -0.018503144 -0.1038825 0.0138253495
0001c0 1d 2d 45 3e ac f7 3c 3c 21 1e 35 3e f7 81 f7 bc
       0.1925549 0.011533659 0.17687275 -0.03021334
0001d0 5d 58 19 bd b6 b5 33 be 61 f2 33 be 4e d9 30 be
       -0.037437785 -0.17549786 -0.17572929 -0.17270395
0001e0 83 2b 24 be d3 3a 04 3d f0 19 3a bd 52 7d 0a bc
       -0.16032223 0.03228266 -0.045434892 -0.00845273
0001f0 f8 1b eb be 6a ba 61 bd ba 1d 3a 3d e4 22 27 bf
       -0.45919776 -0.05510942 0.045438506 -0.65287614
000200 a3 43 e0 3e b6 22 78 3e 8e ea 62 3d f2 94 d0 be
       0.43801603 0.24231991 0.05539947 -0.40738636
000210 80 7f 8b 3d 12 9a 05 bd 52 4f 4f bd 7b 25 b7 bc
       0.06811428 -0.032617636 -0.050612755 -0.02235674
000220 e8 a0 50 bd e3 f0 6c be 08 99 31 3e fa 15 16 3d
       -0.050934702 -0.23138766 0.17343533 0.036642052
000230 00 ed 93 3c 38 e8 38 be c3 97 11 3e 45 f2 de bd
       0.018057346 -0.18057334 0.14218049 -0.10886053
000240 7c 91 a3 3c 51 e3 29 bd 69 38 d9 bc 1a f4 c4 3c
       0.019966833 -0.04147655 -0.026516156 0.024042178
000250 35 ac 1b 3d 09 79 0a 3e 45 6d 51 3d 67 62 4f 3d
       0.038006026 0.13522734 0.0511296 0.050630953
000260 34 44 13 be 2b cf 1e 3d d9 e7 21 3c 26 6e 06 bd
       -0.14381486 0.03877179 0.009881937 -0.03281989
000270 53 3d 1a 3e b4 d6 45 3a a3 d2 9d 3d b1 6a fa 3d
       0.15062456 0.0007546947 0.077061914 0.12227381
000280 6d 0e 40 3d 38 8e ee bd 01 46 31 3e 07 b7 95 3d
       0.046888757 -0.1164822 0.1731186 0.073103
000290 2f 19 1b 3e 1b 58 f7 3d 45 95 af bc 6a 5e 76 be
       0.15146326 0.12077352 -0.021433482 -0.24059454
0002a0 28 39 fe bc 1d 83 69 3e 72 06 0e 3d 4d be 24 3e
       -0.031033114 0.22803922 0.034674115 0.16088219
0002b0 2c ae 4a 3d 41 72 2d 3d 9f ae 1b 3d 52 ea 85 3e
       0.04948251 0.04234529 0.03800833 0.26155335
0002c0 8e ab 9e 3d bd 5b 8d 3a fe 06 00 3e af 12 0c 3e
       0.07747565 0.0010784786 0.12502667 0.13679002
0002d0 6f 5d df 3d 07 12 36 3e d9 1f 20 3d 5c b5 14 be
       0.10906493 0.17780314 0.039092872 -0.14522308
0002e0 47 48 90 3d 9b 1e 28 3e 1f 7a ff bc f5 18 6f 3e
       0.07045036 0.16417925 -0.031186162 0.23349364
0002f0 d1 61 1a 3b 0c 80 70 bd 0b 7d e0 bc 9e d8 71 3e
       0.0023556838 -0.058715865 -0.027403375 0.23617789
000300 2d 27 a1 3d 89 d0 9b bd 1d bc 0a bd df 44 05 be
       0.078688 -0.07608134 -0.033870805 -0.13014553
000310 22 2a 99 bd 77 ba 2d be f2 e3 23 bd ef f9 72 3d
       -0.07478739 -0.16965662 -0.040012307 0.059320386
000320 98 ae 89 bd 54 ad ec bc c1 81 b9 3d 3c 15 9d bd
       -0.06722754 -0.028891243 0.09057952 -0.07670066
000330 47 1e a7 bd 28 c0 50 bd 33 91 29 3e aa ad 40 bd
       -0.08160072 -0.050964504 0.16559295 -0.04704062
000340 fa 5c e8 bc a3 ab 13 be eb 6e 65 3e 5b b2 2e bd
       -0.028364647 -0.14420943 0.22405593 -0.04265056
000350 f5 fb 96 3d e8 a4 89 be f2 fd f1 bd 2d f2 49 be
       0.07372276 -0.26883626 -0.11816014 -0.19721289
000360 d6 96 09 be 5c d9 37 3e 67 15 0e 3e b1 68 60 bd
       -0.13436446 0.1795401 0.13875352 -0.05478734
000370 ad 1a da 3b 03 5f b4 3c 76 9e 9e 3d 03 80 be bd
       0.006656012 0.022017961 0.07745068 -0.0930176
000380 c6 aa 7d bd 82 d1 d8 bd 7c 03 38 3e dc e7 10 3d
       -0.06193044 -0.105868354 0.17970079 0.03537737
000390 bb 9b 68 3d 93 b8 af 3b 91 dc 42 3a 7b 7a 87 be
       0.05678914 0.005362579 0.00074333797 -0.26460633
0003a0 0d 1f db bd 5a 9a 1c 3e e1 bf 87 3d b3 6e fa bc
       -0.10699282 0.15293255 0.06628395 -0.030570364
0003b0 c6 90 d5 3c 28 7e 0a bd 6e 59 4d bd 11 30 fb 3c
       0.02607001 -0.03381172 -0.050134115 0.030662568
0003c0 da a6 2c 3d 87 fc 25 3d 8e bb 83 bd ba ce 96 3d
       0.04215131 0.040524032 -0.064322576 0.07363649
0003d0 56 f8 f8 bd c8 e1 b2 3c fd 1e c1 3b 73 22 ac 3d
       -0.12156741 0.021836177 0.0058935867 0.08405008
0003e0 29 05 a4 3d 54 37 d3 bd 94 64 68 3d 21 58 71 bd
       0.08008797 -0.103132874 0.056736544 -0.058921937
0003f0 e9 6f 89 bd 90 a2 fa bd 78 22 a8 3d c5 e6 4a bc
       -0.06710798 -0.122380376 0.082096994 -0.012384121

model/conv2d_2/Conv2D f4 [16, 3, 3, 16]
000000 07 fb f8 bd f1 91 be 3d 53 66 7b bd df 87 6e 3c
       -0.12157255 0.0930518 -0.06137688 0.014558761
000010 f7 5d 15 be 6c 30 0c 3d e6 78 fd 3d f2 ba 04 3d
       -0.14586626 0.034225866 0.12376575 0.032404847
000020 ba 31 b9 bd 51 bb 84 3d 70 ee 2c 3d 2a 1c 82 bd
       -0.09042688 0.0648104 0.04221958 -0.06353028
000030 dc 39 1c 3d d4 06 eb 3c ea 02 e7 bc 8e 57 ce bd
       0.038141116 0.02868978 -0.028199632 -0.100752935
000040 64 d5 8b bd b8 32 08 3e 18 9d 07 3e 4c aa 30 bd
       -0.068278104 0.13300598 0.1324352 -0.043131158
000050 53 f8 43 3d 1e 85 87 bc 12 89 b1 3d dc 0f 10 3e
       0.047844242 -0.016542967 0.08668722 0.1406855
000060 6a 1a dc bd 77 42 33 bc 35 40 83 3d ab a2 cd 3d
       -0.107472256 -0.010941139 0.06408731 0.10040792
000070 25 6c 98 3d c6 be 22 3d 2e 57 32 3d e9 c5 16 bd
       0.07442502 0.039732717 0.043540172 -0.036809836
000080 de 28 0b be 16 be 37 3e be d3 02 3e fa b8 7f 3c
       -0.13589808 0.17943606 0.12776086 0.015608067
000090 58 1c 09 3e e2 78 9d bc 31 2a 31 3c c5 a9 77 3d
       0.13389719 -0.01922268 0.010813282 0.06046464
0000a0 18 d1 ac bc 6e c4 3b bd 05 b2 8a 3d 0e 54 da 3d
       -0.021095797 -0.045841627 0.06772236 0.106605634
0000b0 cb 4d 4d bd a1 31 b2 3d 6b b5 c0 bc 35 07 9a 3d
       -0.050123017 0.08700872 -0.023524007 0.07520906
0000c0 cb 7b 3c 3c 38 f0 c4 3c 6f b6 97 bc f7 a4 72 3c
       0.011504124 0.024040326 -0.018519608 0.0148098385
0000d0 c0 87 e7 bc b7 e2 29 bd 49 79 79 bc fc 20 93 3d
       -0.028262973 -0.041475978 -0.015226671 0.07184026
0000e0 8c 66 0a 3d 1a 76 d9 3c 82 d8 e0 38 c2 3d 02 bd
       0.033789203 0.026545573 0.0001072148 -0.031797178
0000f0 80 06 9a 3c ce 78 e9 bd a4 92 a9 bd 75 22 5a 3c
       0.018801928 -0.11399995 -0.082799226 0.013313879
000100 0a 06 39 3d 6d b3 7a 3d 6e 93 03 3d e6 41 05 3d
       0.045171775 0.06120627 0.03212302 0.03253355
000110 40 a9 fd 3c 45 34 6c bd 0e 32 49 3d 52 3e 37 3e
       0.030964494 -0.057667036 0.04912 0.17894867
000120 2d 9d 82 3c 2d 22 04 bd d6 f9 2a 3c 2c 7b d3 3d
       0.015944088 -0.032259155 0.010435542 0.103262275
000130 da 83 e3 3c ac 28 9d bd 90 dd e6 bc f8 5e dd bd
       0.027772833 -0.07673773 -0.028181821 -0.108091295
000140 18 a3 33 bd 45 3b 0b 3c 47 8e 23 3c 30 87 e6 bc
       -0.04385671 0.008498018 0.009982652 -0.028140634
000150 b7 01 a1 3c 7f 59 13 bc db 81 38 bc 3d 3f 55 3d
       0.019654138 -0.0089935055 -0.011261429 0.05206226
000160 e2 5e ae 3c ed be b1 bc 4a 1e 3a 3d 84 71 8e 3d
       0.021285478 -0.021697486 0.045439042 0.06955245
000170 cd bd 94 bd 19 af 75 3c 30 22 86 bd cc 50 ce bd
       -0.07262764 0.01499536 -0.065494895 -0.100740045
000180 d9 7f b9 3d 30 b4 2b 3d 8e 4a ca bd 3b 77 07 be
       0.09057588 0.041919887 -0.098775014 -0.13229077
000190 2a 3a 0d bd c5 e1 32 3d b4 66 63 bd 5f 1c d0 bb
       -0.034479298 0.04367234 -0.055517867 -0.0063510383
0001a0 56 e5 4e bc 0d f0 a5 bd 10 e9 eb bd 7a 19 02 be
       -0.01262792 -0.08102427 -0.115190625 -0.12705031
0001b0 0f eb 18 3d 1a 44 36 be fd 45 bf bd 0b ba 2a 3d
       0.037333544 -0.17799416 -0.09339521 0.04168133
0001c0 37 ad 86 3d a3 b2 9f bd bb be b4 bd 33 ad a7 bd
       0.06576007 -0.07797744 -0.088254414 -0.08187332
0001d0 ec 21 11 3d 3c d7 a0 bd 54 51 52 bd 15 f0 d6 3c
       0.03543274 -0.07853553 -0.05134709 0.026237527
0001e0 35 16 b3 3d c9 cd c5 bd 79 d7 d5 bd ad 19 f6 bb
       0.0874447 -0.09658391 -0.10441489 -0.007510385
0001f0 b7 73 03 3a e9 88 13 be bc 09 53 ba e6 36 4b bd
       0.0005014496 -0.14407696 -0.0008050462 -0.049612902
000200 d4 5f a5 3d e5 d2 09 be f8 0b 2d 3d 17 e3 6a bd
       0.080749184 -0.13459356 0.042247742 -0.057345476
000210 25 58 c4 bc d0 16 7f bd 17 68 c3 bd ab 4f 3b 3c
       -0.023967812 -0.062277615 -0.09541338 0.011432569
000220 21 60 4f 3d 09 75 8a bc 1d 01 a4 bb 08 69 15 3d
       0.050628785 -0.01690151 -0.0050050155 0.03647712
000230 f9 8c 89 bd 50 af fc bd d9 50 e6 bd ee a2 4d 3b
       -0.067163415 -0.12338126 -0.11245889 0.0031377631
000240 77 5e d8 3c df 45 e7 3d ea 79 59 bd 15 bd 50 bd
       0.026412232 0.11292624 -0.053094782 -0.050961573
000250 82 ac d0 bd a0 26 79 bd 85 2c 2c be ea 6b 1f 3d
       -0.10189153 -0.06082785 -0.16813858 0.038921274
000260 16 76 b3 bc 43 8a 11 3e 82 3e 8f 3a f1 9d 94 3c
       -0.021906894 0.14212899 0.0010928663 0.018141719
000270 92 5b ee bd 88 cc 81 3d 26 83 09 3e eb 66 05 be
       -0.116385594 0.06337839 0.13428935 -0.13027541
000280 57 e0 f1 3d bb 11 32 bd 2e 9d 5b bd 7c ea e3 3d
       0.118103676 -0.04347394 -0.053616695 0.11128709
000290 0f 0b 0b 3e 7c 71 8a 3d c3 8a f7 bd f1 48 bb bd
       0.13578437 0.06759927 -0.120870136 -0.09144772
0002a0 34 06 d8 39 93 1b 71 3c 9a 6d 7d bb b3 a3 98 3b
       0.00041203352 0.014716047 -0.0038670064 0.0046581863
0002b0 e6 22 86 bd 4c 65 20 bd 69 5e 6e 3c 97 97 5c be
       -0.06549625 -0.039159104 0.014548876 -0.21542202
0002c0 a0 16 a1 bd 4d 83 13 bd 11 fa 9b 3d cb ca ba bd
       -0.078656435 -0.03601389 0.07616056 -0.09120711
0002d0 ce 01 3b be fb 75 82 3d f9 5b 42 3e 14 db cc bd
       -0.18262407 0.06370159 0.18980397 -0.10002723
0002e0 77 09 30 3d 07 a6 8c 3c 11 67 a6 bc 9a a5 c4 bc
       0.042977776 0.017169012 -0.020312818 -0.024004746
0002f0 31 92 91 3c c5 4d be bd 0b c6 f9 bc a5 a0 16 3e
       0.017769905 -0.09292177 -0.030489942 0.14709719
000300 f0 7d 8e 3e 05 02 e5 3d b5 ff a8 bd b1 fc 24 3e
       0.27830458 0.11182026 -0.08251897 0.16112019
000310 ed 22 c2 3d 1c 30 ab bd 2b 96 8d bd 41 07 93 3d
       0.09479318 -0.083587855 -0.06913408 0.07179118
000320 c4 90 18 3e 39 4f 3e bc 92 f9 e7 3d 46 25 5c 3c
       0.14898974 -0.011615568 0.11326899 0.013436621
000330 a4 54 34 be 1a 6f 49 3e 80 f8 f3 3d 8c 12 55 be
       -0.17610413 0.19671288 0.11912632 -0.20807856
000340 cd a6 2d 3c 3b c9 2c bd 31 7c db bd 8a 02 5e bd
       0.01059885 -0.042184096 -0.10717047 -0.05420164
000350 8f 86 80 3e 5c ed 45 bb ed 36 6d bd 44 b4 19 bd
       0.2510266 -0.0030201292 -0.05791371 -0.03752543
000360 7f 41 81 3c 89 73 c9 bd b4 2e b0 3c c0 5d 5f 3d
       0.015778301 -0.0983649 0.021506645 0.054532766
000370 07 b9 f3 bd 1f 15 f8 bd f2 2a 8f bb 9c 28 78 be
       -0.119005255 -0.121134035 -0.004369133 -0.24234241
000380 0d 72 57 be be 04 f9 bd 8d 69 78 3e c3 59 31 be
       -0.210396 -0.121591076 0.24259014 -0.17319398
000390 c3 5f 85 be 8d 26 08 3e 7d 14 9c 3d af a5 5e bd
       -0.26049623 0.13295956 0.07621095 -0.054357227
0003a0 c8 b5 31 3e 8e b1 51 3c 99 1f 01 3d eb 7e 87 bc
       0.173545 0.01279868 0.031524274 -0.016540011
0003b0 1f 84 ab 3d 1f 45 82 bb e6 74 41 bc c3 a6 80 3e
       0.083748095 -0.003975525 -0.011807656 0.2512723
0003c0 57 fc 0a 3e 58 cd b9 bd 0e 4b ff bd 88 62 24 3e
       0.13572823 -0.09072369 -0.124654874 0.16053212
0003d0 9e 96 57 bd 06 a9 00 be 5c da e9 bc 5b 68 c5 bd
       -0.052633874 -0.12564477 -0.028546505 -0.09639045
0003e0 1d 12 c1 bc 38 70 f6 bc e7 62 df 3c a1 c5 29 3c
       -0.023568207 -0.030082807 0.02726884 0.01036206
0003f0 8e 91 22 be b8 c7 c5 3d d5 c7 1a 3d 85 f8 35 bd
       -0.15875837 0.09657234 0.03778823 -0.04442646

model/conv2d_3/Conv2D f4 [32, 3, 3, 16]
000000 a7 95 80 bd 04 35 4d 3c 5d 61 f6 bc b9 dd e5 bd
       -0.06278544 0.012524847 -0.030075723 -0.11223931
000010 e3 c5 10 bd 7f 66 31 be 74 3a 11 3d 9b 5e fe bd
       -0.03534497 -0.17324255 0.035456136 -0.12420388
000020 5d 35 41 be e4 6f 64 3d a6 bd dc 3c ff e3 93 3d
       -0.18868013 0.05577077 0.0269459 0.07221221
000030 0d 8b 16 3c d0 f3 b9 3d f2 75 53 3d 75 13 bd 3d
       0.009188426 0.09079707 0.051626153 0.09232227
000040 b3 1d e6 bd 48 58 02 3c b9 7a 2a bc 65 4b fd bd
       -0.112361334 0.007955618 -0.010405236 -0.12367896
000050 2c 9a 41 bd cc b6 24 be 4c c9 19 3d bd d1 30 be
       -0.04726617 -0.16085356 0.037545487 -0.17267509
000060 2a 22 0a be be 05 c9 3d 58 43 2b 3c ab f6 12 3d
       -0.13489595 0.09815548 0.010453068 0.035879772
000070 26 d4 0e 3d b3 8a 16 3e d0 f0 c0 3d 8d 00 ba 3d
       0.03487029 0.14701347 0.09420931 0.09082136
000080 6d 0a 83 bd 15 42 f3 3c 4c dc 02 3d a9 aa c6 3d
       -0.06398473 0.029694596 0.031948373 0.097005196
000090 c0 d5 78 bd 3c 8e fb 3d 09 05 a5 bc 6a f5 4b bd
       -0.060750723 0.122829884 -0.020144003 -0.049794592
0000a0 a4 fa 16 bd a9 29 55 bd 1f f5 0d 3b 9c 9a 13 bc
       -0.036860123 -0.052041683 0.0021660996 -0.00900903
0000b0 2d f9 15 3d 3d d1 93 3d d0 8c d9 3c f3 00 e3 3c
       0.036614586 0.072176434 0.026556402 0.027710414
0000c0 61 ec 22 3d 02 ee 57 bd c9 8f c4 bd 1a a3 98 bd
       0.03977621 -0.052717216 -0.09597737 -0.07452984
0000d0 0d b6 2a 3d dd 47 3d be 3a 79 7e 3c 38 10 cc bd
       0.041677523 -0.18484445 0.015531832 -0.09964031
0000e0 ac 5b 0c bd b0 b0 c0 bd 41 49 fd bd 92 8f 10 3c
       -0.034267113 -0.094087005 -0.12367488 0.008823292
0000f0 59 b3 6b 3d b1 5b c0 3d 97 f7 5b 3d c9 ce fe bc
       0.057544086 0.09392489 0.053702917 -0.031104462
000100 8e 56 68 bd f2 3b 86 bc 07 57 f7 bd 1f bb 1b be
       -0.05672317 -0.016386006 -0.12077146 -0.152081
000110 5a 49 a4 3d dc ac 9d be 9c ac 91 3d 73 39 52 be
       0.08021803 -0.30795944 0.07113001 -0.20529728
000120 5b e1 f1 bd 49 6d d4 3b f1 23 0d be 38 43 23 3d
       -0.11810561 0.0064827544 -0.13783242 0.039859027
000130 7b 0d 67 3d dc 02 01 3e e4 c6 4b 3d 52 d4 98 3d
       0.05640934 0.12598747 0.049750224 0.07462372
000140 21 9a 02 be b9 fd 85 3c a1 7b d7 bc 0e 0c 98 bd
       -0.12754108 0.016356336 -0.026304068 -0.07424174
000150 66 0f 21 3d 59 54 94 bd 3a a5 33 3b 8d ac 1c be
       0.039321326 -0.072426505 0.0027411715 -0.15300198
000160 22 c0 d4 bd 32 6d 49 bd d6 fa 27 bd a4 fe 24 3c
       -0.10388209 -0.049176402 -0.0410107 0.010070477
000170 59 42 4b 3d 0f a9 7a bc a9 b7 b8 3b 8b bf f1 3d
       0.04962382 -0.015299096 0.0056371284 0.11804112
000180 95 39 31 3e 79 ac 81 3c e9 e8 23 3d c9 50 a5 3d
       0.17307122 0.015829312 0.040017042 0.08072049
000190 a8 d8 ca 3d 46 2e 82 bd 00 48 10 be d4 8e 1f 3d
       0.09904605 -0.06356482 -0.14089966 0.03895457
0001a0 9c b4 a8 3d 12 fd cc bd c2 56 35 be cf 8f 90 3d
       0.082375735 -0.10009207 -0.17708877 0.07058679
0001b0 0a 23 78 3d ad 6c e1 3d 9f 74 9c 3d e9 d1 12 3d
       0.06058029 0.110070564 0.07639431 0.035844717
0001c0 d7 4a 43 3c 98 eb a8 3d 1f 8b 5c bd 25 31 63 bb
       0.011919699 0.08248061 -0.053843614 -0.0034666744
0001d0 12 91 aa 3d 1f 4c a0 be b6 13 17 3d d0 cd b1 bd
       0.08328451 -0.31308076 0.036884032 -0.08681834
0001e0 67 51 09 bd 36 d3 18 bd ba 5f 9f bd 6b f5 d3 3d
       -0.033524897 -0.0373108 -0.0778193 0.10349544
0001f0 54 d7 22 3c 22 58 fa 3d 37 f5 af 3d d7 74 3d 3e
       0.009939034 0.12223841 0.08591693 0.18501602
000200 4d 13 cf bd 48 dc ff 3d 5f cf 46 bd 52 06 8c bd
       -0.10111103 0.12493187 -0.04853761 -0.06837143
000210 d7 9f d9 3c 53 6b 22 be e0 bf 46 3d c5 90 db bd
       0.026565475 -0.15861253 0.04852283 -0.10720972
000220 8f 32 10 be 2d 98 58 3d bb c8 7b 3d 62 16 e4 3d
       -0.14081787 0.0528795 0.06147073 0.11137082
000230 7d 3c ae 3c 4d 5c 09 3b 24 e8 0c 3e 86 55 39 3e
       0.021269077 0.0020959557 0.1376043 0.18099031
000240 91 d9 1e 3d ab 03 4b 3d 82 aa 51 be 53 e8 4b b8
       0.038781706 0.049564045 -0.204752 -4.861534e-05
000250 94 21 6c 3e e8 54 52 3d 4f 30 3a be 85 0a 7f 3c
       0.23059684 0.051350504 -0.18182491 0.015566473
000260 cc f1 8c bd df e6 5a 3d e7 42 91 bd 16 dc f9 bd
       -0.068820566 0.053442832 -0.07092839 -0.12200181
000270 80 4a 18 3d 06 f4 2c bd b5 45 15 3d c4 48 cc 3c
       0.037180424 -0.042224906 0.03644343 0.024937041
000280 3d 85 ba 3b 84 b6 ab bc 24 0a 49 3e 92 a7 dd 3c
       0.005692153 -0.020961054 0.19632775 0.027057443
000290 17 10 ab be b4 65 9e 3c 70 77 19 3d 79 50 b9 bc
       -0.33410713 0.019335605 0.03746742 -0.02262138
0002a0 42 eb a1 3d 34 d1 6c bd d3 ca f5 3d 5e 53 1f 3d
       0.079062 -0.0578167 0.12001576 0.038897865
0002b0 63 9c b7 3b 03 0a c9 bc 83 85 82 bd b0 b5 08 bd
       0.0056033595 -0.024540907 -0.063731216 -0.033376396
0002c0 7d ba f7 3b 34 12 05 bd 8f ba a2 3c 72 96 09 3b
       0.007560073 -0.032488063 0.019864349 0.0020994213
0002d0 da db fd 3c 63 f8 fa bc e7 53 68 3d 73 7c 28 3c
       0.030988622 -0.030636018 0.05672064 0.010283577
0002e0 3c ba 49 bc 32 73 94 3d 5d ce 75 bd dc e7 1a 3d
       -0.012312468 0.07248534 -0.060011256 0.037818775
0002f0 1c a8 79 3c d9 cb aa bc e0 52 a0 bd 46 b5 a8 3a
       0.015237834 -0.020849155 -0.07828307 0.0012871407
000300 f1 51 d7 bd e6 97 2e 3e 96 e4 b9 be 36 a3 93 bd
       -0.10513676 0.17050132 -0.3630721 -0.072088644
000310 41 e5 a7 3e 9e cb 57 3d 7c ce 2a be 79 c3 54 3d
       0.32792094 0.05268442 -0.1668033 0.05194423
000320 39 82 96 bd 78 ba 9d 3d e0 f4 3f be 8b f6 4e bd
       -0.07349057 0.07701582 -0.18745756 -0.05052809
000330 4c bc e4 3b 66 11 b6 bc 4b c1 97 3d fd ce bd 3d
       0.0069804545 -0.022225093 0.074099146 0.092679955
000340 c1 83 c6 3c 94 ce ba bd 73 37 8e 3e 1d 83 dd 3d
       0.024232747 -0.09121433 0.2777668 0.108160235
000350 47 c5 d7 be e3 31 96 bd ad 72 72 3e 30 c4 a1 bd
       -0.42142698 -0.07333734 0.23676558 -0.07898748
000360 9f d0 46 bc 89 f9 e7 bd 5c e0 1e 3e 0e 11 44 3c
       -0.0121347 -0.11326892 0.15515274 0.011966957
000370 b2 47 e5 bc fe eb 53 3c 7c 47 75 bd 16 5f c7 3b
       -0.027988289 0.012934683 -0.059882626 0.006084333
000380 8a 1b 73 3d 38 dd 32 bc 0f 70 79 ba 75 3a 1b bd
       0.059352435 -0.0109170005 -0.0009515294 -0.037897546
000390 4a b4 a0 3d c2 8c 40 bd d4 1b 22 bd 83 43 3d 3d
       0.078468874 -0.047009237 -0.03957732 0.046206962
0003a0 14 28 7b 3c 3f ad 82 3d 5d ee 6f bd 48 b6 55 3d
       0.01532938 0.063807 -0.05857693 0.05217579
0003b0 b2 1e be bc 02 b7 69 3c c3 06 29 bd 2b d0 3d 3d
       -0.023207996 0.014264824 -0.041266214 0.046341103
0003c0 6a 91 9a bd 78 c2 93 3d 5f ac f9 bd da 3c 18 bd
       -0.07547267 0.07214826 -0.1219108 -0.037167408
0003d0 23 28 4a 3e 6f 5c d2 bc e0 34 3f bd 32 83 82 3d
       0.19741873 -0.025678841 -0.046681285 0.0637268
0003e0 33 56 4b bd df 62 88 bd a3 ab 83 bd 99 f0 43 3d
       -0.049642753 -0.06659483 -0.064292215 0.047836874
0003f0 2d 34 b0 bc 4c 2b 92 bc 68 7f b2 bc cb 80 a7 3c
       -0.021509254 -0.017842911 -0.021789268 0.020447155

model/conv2d_4/Conv2D f4 [32, 3, 3, 32]
000000 06 ed 85 be 0a 66 ec bd 04 f5 24 3e 8f 27 dd bb
       -0.26157397 -0.115429 0.16109091 -0.0067491005
000010 69 20 a0 bd 11 6c 1d be 71 37 59 3d c9 fc 46 3e
       -0.07818682 -0.15373255 0.05303139 0.19432367
000020 8a e5 9b 3c d4 a8 93 3c b0 70 0c bd 5a 99 9e 3c
       0.019030351 0.01802484 -0.034287155 0.019360233
000030 7a d2 70 3c 5a 7b 83 be dd f8 0a 3e 3d e1 c1 3d
       0.014698619 -0.25680047 0.13571496 0.09466789
000040 30 55 ec bd 87 15 b8 bd 89 e4 85 bd 7e 68 dd bd
       -0.11539686 -0.08988481 -0.0653773 -0.10810946
000050 cd ff f4 bd 93 5c 45 be 95 12 75 be 33 86 e9 bd
       -0.119628526 -0.19273596 -0.2393287 -0.114025496
000060 38 a2 64 be 57 8e 33 3e 41 54 4d 3e 5f 50 f7 bd
       -0.22327507 0.17534767 0.20051672 -0.120758764
000070 6f 6d 33 bd ab 89 a3 bd 8f 18 b9 bd 0b 4b 80 be
       -0.043805536 -0.079852425 -0.09037887 -0.25057253
000080 af 1a b8 3d 43 5e 8b bd a6 c6 9d 3e 8c 41 8d 3d
       0.089894645 -0.06805088 0.3081562 0.06897268
000090 ea 50 4d be 3f ea 1e be a8 16 12 3e a7 32 17 be
       -0.20050398 -0.15519045 0.14266455 -0.14765416
0000a0 57 17 fa bd 83 2b 75 3c 80 b4 d5 bd 65 db 34 3b
       -0.12211483 0.014963987 -0.10434818 0.002759659
0000b0 bd ff 91 3c 48 bb 30 3c e7 9a 11 be a6 16 dc bd
       0.01782214 0.010786839 -0.14219247 -0.10746507
0000c0 02 07 aa 3d e5 63 33 be 60 28 ea bd 80 9f d5 bd
       0.08302118 -0.17518575 -0.11433482 -0.10430813
0000d0 64 c8 34 bd 89 e9 3e be 76 fd 0d be fe 31 41 3d
       -0.04413642 -0.18643774 -0.13866219 0.047166817
0000e0 d3 3b fa bd 92 41 33 bd 1c 62 46 3e 95 06 b0 3c
       -0.12218442 -0.043763705 0.19373363 0.021487514
0000f0 42 e5 64 bd 5c 41 81 bd ef 24 e7 bd 5a b2 e4 3b
       -0.0558827 -0.063112944 -0.112863414 0.006979269
000100 f6 13 9e 3d 37 24 8f 3d 6c 8a 06 3e 11 f3 86 3e
       0.07718651 0.06989329 0.13138741 0.2635732
000110 cb b5 11 3c 60 16 80 bd c2 6f ab bd 01 ab 9e be
       0.0088934405 -0.06254268 -0.083709255 -0.3098984
000120 8b 9c 98 be f9 e2 3e 3d ed 3d a4 bd b1 8f 0e be
       -0.29806933 0.046603177 -0.08019624 -0.13922001
000130 0e 31 8f 3d 83 40 b6 3d 9e ec 52 be cd 22 6e be
       0.06991778 0.088990234 -0.20598075 -0.23255463
000140 ac 1e 53 bc 0c 0b 2e 3e 7e ab 76 bc 31 8e b3 bd
       -0.012885731 0.16996402 -0.015055535 -0.08767355
000150 de 9d 10 be f3 05 8f 3c 47 31 c5 3d 71 e9 92 3d
       -0.14122722 0.017458891 0.096285395 0.07173432
000160 de 38 4c bd 25 97 a1 bd 1a 78 f8 bd 0b 3f 65 3d
       -0.04985892 -0.07890157 -0.121322826 0.055968326
000170 3d 8a da 3d 49 22 6b 3a 4e f8 9b bd bc 2b 7f 3e
       0.10670898 0.00089696475 -0.0761572 0.24919027
000180 06 a9 4d be 11 2f 4f be c2 e6 de 3d 51 70 af be
       -0.20084009 -0.20232798 0.10883857 -0.34265378
000190 98 c2 f7 bc 1e ec 19 be c3 9b 8e bd d4 17 ec 3e
       -0.030244157 -0.15031478 -0.06963303 0.4611193
0001a0 f6 87 70 3d d4 21 16 be 27 9c 99 bc 23 f8 39 bd
       0.058723412 -0.14661342 -0.018751217 -0.045402657
0001b0 f5 ad 35 bd ce 2d 00 be 51 4f 81 3e b9 e2 12 3e
       -0.04435535 -0.12517473 0.25255826 0.143443
0001c0 4b 19 8c bd c9 6b e9 bd c8 ce 1d bd 7d 24 ac 3c
       -0.06840762 -0.113975115 -0.03852728 0.021013493
0001d0 05 92 0c 3d 4a 1c 04 3d 2a 3a 73 be 4d 05 9f 3b
       0.034318943 0.03225354 -0.23752657 0.004852927
0001e0 c2 42 71 be 7e 9a 2c 3e 73 eb c8 3d 0e 84 48 be
       -0.23560622 0.16855809 0.098105334 -0.19581625
0001f0 94 57 32 bc be bc 72 3e d6 84 03 bd e7 8b 8b be
       -0.010885138 0.23704812 -0.032109104 -0.27255175
000200 d7 ff 5e 3e d9 32 35 be 25 fb 56 3e f9 1c 06 be
       0.21777283 -0.17695178 0.20994242 -0.1309699
000210 fe dd 75 be 7d 5e be 3d ce dd e9 3d 14 db 84 bc
       -0.24010465 0.09295366 0.11419259 -0.016217746
000220 f0 bf 2a 3d 01 d4 0e 3d d5 8d 0d 3b 3a ca ad bd
       0.041686952 0.03487015 0.002159943 -0.08485837
000230 88 e5 d2 3b f2 56 65 3d d7 3a 9b bd 96 8c cb bd
       0.0064360537 0.05599112 -0.07579582 -0.09938924
000240 46 01 76 3d d3 8c 8d be e1 40 89 bc 6a f5 67 3c
       0.06005981 -0.27646503 -0.01675457 0.014157632
000250 98 7b 17 be 08 de 13 3d 34 fa c7 bd 2b 4d a4 3b
       -0.14793241 0.036100417 -0.09764519 0.005014082
000260 ec 71 08 3d 27 f4 d7 bd f3 d4 1d 3e 6c b7 53 bd
       0.03331177 -0.10544615 0.15413265 -0.051688597
000270 26 1d 9d bd d6 a4 8c 3e 62 ba 1c bd 53 0c 75 3d
       -0.07671575 0.2746951 -0.038263686 0.059826206
000280 c3 0f 3c 3e 62 30 c6 3d 07 d2 1a 3d d6 d1 11 3e
       0.18365388 0.09677197 0.037797954 0.14240202
000290 d1 4a a8 be 89 5d 8e 3d 44 7d 88 3c ec 69 76 be
       -0.3286958 0.06951434 0.016661294 -0.24063843
0002a0 48 f0 8b bc 8f f5 8c 3e 7b b2 9a bb 2d 5a 68 3d
       -0.017082348 0.27531096 -0.0047209836 0.056726623
0002b0 3d 08 7b 3d 4f 8d 54 3e ee 20 af be 02 db cd bd
       0.061287154 0.2075703 -0.3420481 -0.10051538
0002c0 42 6d 0e bb 0c c6 89 3d 4c e5 5c 3d f6 b5 5d 3d
       -0.0021732603 0.067272276 0.053929612 0.05412861
0002d0 e7 18 a6 3b 9a 4e c5 3d 81 62 b5 3c eb 4e 29 3d
       0.0050688866 0.09634133 0.022141697 0.041335028
0002e0 a8 7c af 3e ff 7b 2b be d4 1d 9d 3b a3 cb f4 3c
       0.34274793 -0.1674652 0.0047948156 0.029882258
0002f0 0c f7 e6 3d d0 0e 3e 3e 3b ce 37 bd 99 76 0f 3e
       0.11277589 0.18560338 -0.04487441 0.14010085
000300 94 f7 f8 bd 7c ae 14 be 97 7c 88 bd eb 08 07 be
       -0.12156597 -0.14519686 -0.066643886 -0.13186996
000310 4e d3 6d 3e 6e 5b 37 be b6 08 17 bd f4 8e 42 3e
       0.23225138 -0.17905971 -0.03687354 0.18999845
000320 a3 49 0a be cc e9 62 be 43 ab 3f 3d ed ab 94 bd
       -0.13504653 -0.22159499 0.046794187 -0.07259355
000330 f6 f8 0a be 3d 0b ed bd ef 0a 57 3e a1 9e 8c bc
       -0.13571534 -0.11574409 0.21000265 -0.017165484
000340 c8 dc 00 be 7a 14 c5 bd 48 1e 1d bb af 05 71 bb
       -0.12584221 -0.09623046 -0.0023974348 -0.003677707
000350 cd 8d d7 3b c0 c5 42 3d 4d 23 5a be 1d c4 9a bc
       0.0065781833 0.04755187 -0.21302529 -0.018892342
000360 0a 78 01 bc e3 b7 22 3d 97 b8 36 3e 54 ec 5f be
       -0.007902155 0.03972615 0.17843853 -0.21867496
000370 d9 ab ed bd 4d f5 f6 3d 9b df 2d be c6 04 f4 bd
       -0.11605043 0.12058506 -0.1697983 -0.11914973
000380 a7 e5 74 3e 8d 1e 48 be b6 73 f6 3d 61 98 b2 3c
       0.2391573 -0.19542904 0.12033789 0.021801176
000390 7e 45 41 3e dd 7f 38 be e8 c8 e8 3c b3 29 04 be
       0.18874165 -0.18017526 0.028416112 -0.12906532
0003a0 03 95 1f be c4 6f e9 bd 10 16 a7 3d 5a de a3 3d
       -0.15584187 -0.11398271 0.08158505 0.080013946
0003b0 7c 99 16 3c 27 50 e9 3d af 4f 2e bd af 5f 0d be
       0.009191867 0.11392241 -0.04255646 -0.13806032
0003c0 fa 31 9e 3b c6 fd 75 be 0c 9a 0b bd 91 2f 21 3e
       0.004827735 -0.24022588 -0.034082457 0.15740801
0003d0 b3 83 42 be 6d 64 af 3d 7c 31 93 be 4c 16 81 bd
       -0.18995552 0.085640766 -0.2874869 -0.06303081
0003e0 b5 c0 15 3d 5a 49 7d 3c 7a 57 5e bd 20 d0 13 be
       0.036560733 0.015459383 -0.054282643 -0.14434862
0003f0 85 40 b5 bd b4 08 01 3c bf 0a 38 bc 29 92 65 3d
       -0.08850197 0.00787561 -0.011233031 0.056047592
