v0.1/benchmarks/image_classification/trained_models/tflite_quantized_resnet.tflite (tflite, 99632 bytes, 10 tensors)

functional_9/dense_4/MatMul i1 [10, 64] scale=0.07352997 zero_point=0
00000000: 0df2 fd45 fdfe ecdb fb08 d30b fbd1 fdd2
00000010: e2ce 12d5 ecc8 eef7 d6f4 ed22 faf0 e3c6
00000020: e705 f306 ef01 e7da e313 c8eb f8ec f9d9
00000030: 1a00 dd0f f1dd ef1a 31eb f711 08dc f1fc
00000040: f3da 07e6 f1cc e5d7 ba0a febe fac1 0327
00000050: 3ec4 0fcf f5e0 edfb 1ff0 d117 ddf7 ccfa
00000060: e833 15df 17f5 e8dc 77de d226 f3e7 d60d
00000070: 17f4 d0ce 0adb e9e7 eaf4 3de8 e26b 05de
00000080: 0ef8 feea ee19 f87c 2fe7 08fd e9fe 00e5
00000090: dca1 eb12 f5d7 064e eade 0ae6 f009 fddd
000000a0: d9ed f229 dfd8 f7d8 d214 eada f5dc da04
000000b0: e500 dd1b 2019 e229 04eb 0f08 e9d4 ebe3
000000c0: ff08 d50f f504 f2f3 dc07 0ee5 f100 07ec
000000d0: f3e5 e32b fcec 00e8 ef06 f800 0ef1 00f0
000000e0: 7fe7 ecf5 eaeb ee56 e5f1 f707 f3ed e9f4
000000f0: d505 00e7 ffe9 10e5 fa06 03f3 eccf fd1e
0.95588964 -1.0294197 -0.22058992 5.0735683 -0.22058992 -0.14705995 -1.4705994 -2.720609
-0.36764985 0.5882398 -3.3088489 0.8088297 -0.36764985 -3.4559088 -0.22058992 -3.3823788
-2.2058992 -3.6764987 1.3235395 -3.161789 -1.4705994 -4.1176786 -1.3235395 -0.66176975
-3.088259 -0.8823597 -1.3970695 2.500019 -0.44117984 -1.1764796 -2.1323693 -4.2647386
-1.8382493 0.36764985 -0.95588964 0.44117984 -1.2500095 0.07352997 -1.8382493 -2.794139
-2.1323693 1.3970695 -4.1176786 -1.5441295 -0.5882398 -1.4705994 -0.51470983 -2.8676689
1.9117793 0.0 -2.573549 1.1029496 -1.1029496 -2.573549 -1.2500095 1.9117793
3.6029687 -1.5441295 -0.66176975 1.2500095 0.5882398 -2.647079 -1.1029496 -0.2941199
-0.95588964 -2.794139 0.51470983 -1.9117793 -1.1029496 -3.8235586 -1.9853092 -3.014729
-5.147098 0.7352997 -0.14705995 -4.852978 -0.44117984 -4.632388 0.22058992 2.8676689
4.5588584 -4.4117985 1.1029496 -3.6029687 -0.8088297 -2.3529592 -1.3970695 -0.36764985
2.2794292 -1.1764796 -3.4559088 1.6911894 -2.573549 -0.66176975 -3.8235586 -0.44117984
-1.7647194 3.7500286 1.5441295 -2.426489 1.6911894 -0.8088297 -1.7647194 -2.647079
8.750067 -2.500019 -3.3823788 2.794139 -0.95588964 -1.8382493 -3.088259 0.95588964
1.6911894 -0.8823597 -3.5294387 -3.6764987 0.7352997 -2.720609 -1.6911894 -1.8382493
-1.6176594 -0.8823597 4.485328 -1.7647194 -2.2058992 7.8677073 0.36764985 -2.500019
1.0294197 -0.5882398 -0.14705995 -1.6176594 -1.3235395 1.8382493 -0.5882398 9.117717
3.4559088 -1.8382493 0.5882398 -0.22058992 -1.6911894 -0.14705995 0.0 -1.9853092
-2.647079 -6.9853473 -1.5441295 1.3235395 -0.8088297 -3.014729 0.44117984 5.7353377
-1.6176594 -2.500019 0.7352997 -1.9117793 -1.1764796 0.66176975 -0.22058992 -2.573549
-2.8676689 -1.3970695 -1.0294197 3.014729 -2.426489 -2.9411988 -0.66176975 -2.9411988
-3.3823788 1.4705994 -1.6176594 -2.794139 -0.8088297 -2.647079 -2.794139 0.2941199
-1.9853092 0.0 -2.573549 1.9853092 2.3529592 1.8382493 -2.2058992 3.014729
0.2941199 -1.5441295 1.1029496 0.5882398 -1.6911894 -3.235319 -1.5441295 -2.1323693
-0.07352997 0.5882398 -3.161789 1.1029496 -0.8088297 0.2941199 -1.0294197 -0.95588964
-2.647079 0.51470983 1.0294197 -1.9853092 -1.1029496 0.0 0.51470983 -1.4705994
-0.95588964 -1.9853092 -2.1323693 3.161789 -0.2941199 -1.4705994 0.0 -1.7647194
-1.2500095 0.44117984 -0.5882398 0.0 1.0294197 -1.1029496 0.0 -1.1764796
9.338306 -1.8382493 -1.4705994 -0.8088297 -1.6176594 -1.5441295 -1.3235395 6.323578
-1.9853092 -1.1029496 -0.66176975 0.51470983 -0.95588964 -1.3970695 -1.6911894 -0.8823597
-3.161789 0.36764985 0.0 -1.8382493 -0.07352997 -1.6911894 1.1764796 -1.9853092
-0.44117984 0.44117984 0.22058992 -0.95588964 -1.4705994 -3.6029687 -0.22058992 2.2058992

functional_9/conv2d_36/Conv2D i1 [16, 3, 3, 3]
00000000: 0000 0000 0000 0000 0000 0000 0000 0000
00000010: 0000 0000 0000 0000 0000 0002 d71a eff8
00000020: fd0b e71f f230 fdf3 7ff9 d4f0 f9ed 2bc1
00000030: e160 a710 0601 06fe 2925 bc16 11de 05fb
00000040: 2417 c095 a37f 3f11 c032 f7f6 551b cef6
00000050: dc00 0000 0000 0000 0000 0000 0000 0000
00000060: 0000 0000 0000 0000 0000 0000 bc13 26b8
00000070: ff5a e3f2 2601 f3ed f3ba f7ff eb10 5811
00000080: ca7f 00d3 1e10 e400 0000 0000 0000 0000
00000090: 0000 0000 0000 0000 0000 0000 0000 0000
000000a0: 0000 04d5 b405 d7f5 13ce 01e2 f722 e20e
000000b0: 7ee9 f77e e409 38c4 0c7c c1f6 7fd5 09cf
000000c0: 0933 0f34 5656 ed1d 902d 4dcd 5f7f 1f2c
000000d0: 4ba9 4f5b c264 74f3 1fcc d616 d1c0 1ef3
000000e0: e5cf ccba acd2 bccc edeb 1a5c 4710 7f6d
000000f0: fe4d 5324 efe2 2ec6 f823 e2ef 1aee 1d7f
0 0 0 0 0 0 0 0
0 0 0 0 0 0 0 0
0 0 0 0 0 0 0 0
0 0 0 2 -41 26 -17 -8
-3 11 -25 31 -14 48 -3 -13
127 -7 -44 -16 -7 -19 43 -63
-31 96 -89 16 6 1 6 -2
41 37 -68 22 17 -34 5 -5
36 23 -64 -107 -93 127 63 17
-64 50 -9 -10 85 27 -50 -10
-36 0 0 0 0 0 0 0
0 0 0 0 0 0 0 0
0 0 0 0 0 0 0 0
0 0 0 0 -68 19 38 -72
-1 90 -29 -14 38 1 -13 -19
-13 -70 -9 -1 -21 16 88 17
-54 127 0 -45 30 16 -28 0
0 0 0 0 0 0 0 0
0 0 0 0 0 0 0 0
0 0 0 0 0 0 0 0
0 0 4 -43 -76 5 -41 -11
19 -50 1 -30 -9 34 -30 14
126 -23 -9 126 -28 9 56 -60
12 124 -63 -10 127 -43 9 -49
9 51 15 52 86 86 -19 29
-112 45 77 -51 95 127 31 44
75 -87 79 91 -62 100 116 -13
31 -52 -42 22 -47 -64 30 -13
-27 -49 -52 -70 -84 -46 -68 -52
-19 -21 26 92 71 16 127 109
-2 77 83 36 -17 -30 46 -58
-8 35 -30 -17 26 -18 29 127

functional_9/conv2d_37/Conv2D i1 [16, 3, 3, 16]
00000000: 0000 0000 0000 0000 0000 0000 0000 0000
00000010: 0000 0000 0000 0000 0000 0000 0000 0000
00000020: 0000 0000 0000 0000 0000 0000 0000 0000
00000030: 0000 0000 0000 0000 0000 0000 0000 0000
00000040: 0000 0000 0000 0000 0000 0000 0000 0000
00000050: 0000 0000 0000 0000 0000 0000 0000 0000
00000060: 0000 0000 0000 0000 0000 0000 0000 0000
00000070: 0000 0000 0000 0000 0000 0000 0000 0000
00000080: 0000 0000 0000 0000 0000 0000 0000 0000
00000090: 00a7 ae00 fe00 0422 2d21 c600 0cbc 00e1
000000a0: 00a6 a900 1900 0024 2a41 e700 1f09 00ed
000000b0: 00a0 e200 f200 f71b 2c12 2200 1b3b 00f6
000000c0: 00e0 d800 3000 1929 4136 b800 eea2 00ee
000000d0: 00d3 f500 4400 172b 4f53 f900 fc04 00f9
000000e0: 00d1 0d00 1d00 1229 5621 2c00 f53b 0001
000000f0: 0038 fb00 2300 142e 2068 d100 f883 0007
0 0 0 0 0 0 0 0
0 0 0 0 0 0 0 0
0 0 0 0 0 0 0 0
0 0 0 0 0 0 0 0
0 0 0 0 0 0 0 0
0 0 0 0 0 0 0 0
0 0 0 0 0 0 0 0
0 0 0 0 0 0 0 0
0 0 0 0 0 0 0 0
0 0 0 0 0 0 0 0
0 0 0 0 0 0 0 0
0 0 0 0 0 0 0 0
0 0 0 0 0 0 0 0
0 0 0 0 0 0 0 0
0 0 0 0 0 0 0 0
0 0 0 0 0 0 0 0
0 0 0 0 0 0 0 0
0 0 0 0 0 0 0 0
0 -89 -82 0 -2 0 4 34
45 33 -58 0 12 -68 0 -31
0 -90 -87 0 25 0 0 36
42 65 -25 0 31 9 0 -19
0 -96 -30 0 -14 0 -9 27
44 18 34 0 27 59 0 -10
0 -32 -40 0 48 0 25 41
65 54 -72 0 -18 -94 0 -18
0 -45 -11 0 68 0 23 43
79 83 -7 0 -4 4 0 -7
0 -47 13 0 29 0 18 41
86 33 44 0 -11 59 0 1
0 56 -5 0 35 0 20 46
32 104 -47 0 -8 -125 0 7

functional_9/conv2d_38/Conv2D i1 [16, 3, 3, 16]
00000000: 0000 0000 06f2 ed04 f3f0 01fe 000c 0bf0
00000010: 0001 0000 fcf0 ed02 f1f9 b740 f714 05f2
00000020: 00f9 0000 faf0 e318 f6eb f128 0c12 09f0
00000030: 00fc 0000 080a 0b00 fce6 219d f8f2 0b04
00000040: 00fe 0000 1308 05e7 0013 6c81 e4ff 08f9
00000050: 00f7 0000 0afb 0408 04fa 0ede eb13 feed
00000060: 00f5 0000 f106 220d 0105 cf3f 0bed e0ff
00000070: 00fa 0000 0f0d 21fd 05ee dd27 0cf9 03f5
00000080: 00f5 0000 2003 35fd 0708 f9f2 0ff6 e4e9
00000090: 00fd 0000 dce5 e24c 0b1c 131b f2eb f513
000000a0: 00f9 0000 efed f81e 0920 1014 f9ec ee1c
000000b0: 00f9 0000 fcef fade 080f 1308 fae7 0a10
000000c0: 000d 0000 f1eb 0264 fb0a fc24 f823 f0f8
000000d0: 0005 0000 f4ef 0f23 0a01 0330 052a e700
000000e0: 0001 0000 fdf2 12d0 15de 00ff 0624 01f7
000000f0: 000f 0000 04f4 0b7f f21f 17ea 0116 1300
0 0 0 0 6 -14 -19 4
-13 -16 1 -2 0 12 11 -16
0 1 0 0 -4 -16 -19 2
-15 -7 -73 64 -9 20 5 -14
0 -7 0 0 -6 -16 -29 24
-10 -21 -15 40 12 18 9 -16
0 -4 0 0 8 10 11 0
-4 -26 33 -99 -8 -14 11 4
0 -2 0 0 19 8 5 -25
0 19 108 -127 -28 -1 8 -7
0 -9 0 0 10 -5 4 8
4 -6 14 -34 -21 19 -2 -19
0 -11 0 0 -15 6 34 13
1 5 -49 63 11 -19 -32 -1
0 -6 0 0 15 13 33 -3
5 -18 -35 39 12 -7 3 -11
0 -11 0 0 32 3 53 -3
7 8 -7 -14 15 -10 -28 -23
0 -3 0 0 -36 -27 -30 76
11 28 19 27 -14 -21 -11 19
0 -7 0 0 -17 -19 -8 30
9 32 16 20 -7 -20 -18 28
0 -7 0 0 -4 -17 -6 -34
8 15 19 8 -6 -25 10 16
0 13 0 0 -15 -21 2 100
-5 10 -4 36 -8 35 -16 -8
0 5 0 0 -12 -17 15 35
10 1 3 48 5 42 -25 0
0 1 0 0 -3 -14 18 -48
21 -34 0 -1 6 36 1 -9
0 15 0 0 4 -12 11 127
-14 31 23 -22 1 22 19 0

functional_9/conv2d_39/Conv2D i1 [32, 3, 3, 16]
00000000: be03 c0fa cf84 4d34 bced f82b 3122 15f7
00000010: b502 b5e6 e389 411c b0fd 02e8 2831 0df2
00000020: af07 bde3 f484 3a0b 9f20 f30b 1c1f 13eb
00000030: e3fd 34fa fced 0c0c 153f 6326 6dec 23fa
00000040: fef3 23e9 f5f8 f9fc 0b45 4807 64f7 4ff1
00000050: e7ea 17da 04de fbfd 1b5b 3e1a 58ea 10ee
00000060: c4eb 0d0c e5ea e3f1 b3eb edff 28f2 8ed6
00000070: d3e1 f4f5 d5ee d6f3 c9e1 fcd7 1de3 bade
00000080: cae6 dff3 c0d1 dffa d9ee 04e9 10f3 81cf
00000090: dec0 34ec f4f1 aed7 fa24 3838 c1ee ce00
000000a0: ec9d 1dcf ddeb e4f3 e145 7f14 c7c8 d800
000000b0: 029a 33d8 d2dd 08f9 c37c 3d18 c8c6 e7f2
000000c0: dcd9 17e5 dd9b bbc7 100e ea27 bde7 c113
000000d0: d1c8 fbce c79f f7dc f122 56eb c2e3 b709
000000e0: f9b4 07d4 d4aa 0fef b239 3101 c3c9 e80c
000000f0: 0ad0 12e8 c3d3 bcb8 090f eb24 c8fd c93a
-66 3 -64 -6 -49 -124 77 52
-68 -19 -8 43 49 34 21 -9
-75 2 -75 -26 -29 -119 65 28
-80 -3 2 -24 40 49 13 -14
-81 7 -67 -29 -12 -124 58 11
-97 32 -13 11 28 31 19 -21
-29 -3 52 -6 -4 -19 12 12
21 63 99 38 109 -20 35 -6
-2 -13 35 -23 -11 -8 -7 -4
11 69 72 7 100 -9 79 -15
-25 -22 23 -38 4 -34 -5 -3
27 91 62 26 88 -22 16 -18
-60 -21 13 12 -27 -22 -29 -15
-77 -21 -19 -1 40 -14 -114 -42
-45 -31 -12 -11 -43 -18 -42 -13
-55 -31 -4 -41 29 -29 -70 -34
-54 -26 -33 -13 -64 -47 -33 -6
-39 -18 4 -23 16 -13 -127 -49
-34 -64 52 -20 -12 -15 -82 -41
-6 36 56 56 -63 -18 -50 0
-20 -99 29 -49 -35 -21 -28 -13
-31 69 127 20 -57 -56 -40 0
2 -102 51 -40 -46 -35 8 -7
-61 124 61 24 -56 -58 -25 -14
-36 -39 23 -27 -35 -101 -69 -57
16 14 -22 39 -67 -25 -63 19
-47 -56 -5 -50 -57 -97 -9 -36
-15 34 86 -21 -62 -29 -73 9
-7 -76 7 -44 -44 -86 15 -17
-78 57 49 1 -61 -55 -24 12
10 -48 18 -24 -61 -45 -68 -72
9 15 -21 36 -56 -3 -55 58

functional_9/conv2d_40/Conv2D i1 [32, 3, 3, 32]
00000000: f0e7 00aa e0d5 fffe 9609 9ffd 00da 00cc
00000010: 99e5 00a4 00d9 0000 ef00 9ee6 8100 0000
00000020: 0c09 00a1 aae2 06e6 a6f4 aa01 00cd 00d8
00000030: aff4 00a3 00f9 0000 1500 c5e7 d000 0000
00000040: 09da 00db 11ef 07f6 ae0d 9ef6 0006 0016
00000050: a5e3 00cb 00f1 0000 f800 bee9 c100 0000
00000060: 0d01 0009 21f0 d3df cd03 a4c4 0014 00fd
00000070: abe3 00e2 000c 0000 e700 d2dc f900 0000
00000080: 0efc 000d 10e7 e713 92eb a9fa 001c 00e4
00000090: b0eb 00e3 0011 0000 2f00 b1fb 2100 0000
000000a0: 09f0 0041 43ca fb0f d608 d8fb 0050 00f0
000000b0: e5e2 000d 00f3 0000 1100 e10a 1100 0000
000000c0: f527 0016 ff11 e9f5 eaf1 def4 0017 000c
000000d0: edfb 00d4 0012 0000 d300 ddee e300 0000
000000e0: fc1c 00ff 0af3 f117 e1ef f015 000e 00e9
000000f0: d90a 00d4 00f5 0000 1800 e907 0800 0000
-16 -25 0 -86 -32 -43 -1 -2
-106 9 -97 -3 0 -38 0 -52
-103 -27 0 -92 0 -39 0 0
-17 0 -98 -26 -127 0 0 0
12 9 0 -95 -86 -30 6 -26
-90 -12 -86 1 0 -51 0 -40
-81 -12 0 -93 0 -7 0 0
21 0 -59 -25 -48 0 0 0
9 -38 0 -37 17 -17 7 -10
-82 13 -98 -10 0 6 0 22
-91 -29 0 -53 0 -15 0 0
-8 0 -66 -23 -63 0 0 0
13 1 0 9 33 -16 -45 -33
-51 3 -92 -60 0 20 0 -3
-85 -29 0 -30 0 12 0 0
-25 0 -46 -36 -7 0 0 0
14 -4 0 13 16 -25 -25 19
-110 -21 -87 -6 0 28 0 -28
-80 -21 0 -29 0 17 0 0
47 0 -79 -5 33 0 0 0
9 -16 0 65 67 -54 -5 15
-42 8 -40 -5 0 80 0 -16
-27 -30 0 13 0 -13 0 0
17 0 -31 10 17 0 0 0
-11 39 0 22 -1 17 -23 -11
-22 -15 -34 -12 0 23 0 12
-19 -5 0 -44 0 18 0 0
-45 0 -35 -18 -29 0 0 0
-4 28 0 -1 10 -13 -15 23
-31 -17 -16 21 0 14 0 -23
-39 10 0 -44 0 -11 0 0
24 0 -23 7 8 0 0 0

functional_9/conv2d_41/Conv2D i1 [32, 1, 1, 16]
00000000: ee81 1ae0 1def f72a fcc8 0310 75e8 fbd0
00000010: e213 4ccc dbd9 b386 28f7 8ed5 36e5 fe81
00000020: 00e1 dbf4 feec 8198 2cb9 2c0c e507 0dd8
00000030: e1a0 00f2 f22a b881 2212 f1b5 35f4 fa14
00000040: 04e2 d9e0 e2d4 fe8d fa2b 1ce3 7ff0 0301
00000050: bc57 98f2 2d71 0934 552d 81a8 ab07 eb68
00000060: 12e3 08fd f4e6 acc2 d97f 0513 0715 0eff
00000070: 32fb 4b23 8111 7f00 a0e2 2326 fad9 b7e4
00000080: 220e b8d2 ee7f 9ca1 1b14 03fe 8d29 dad1
00000090: c722 1321 d6e9 be16 2cca ccec 7f35 e40c
000000a0: ff5e 307f fb00 3022 f809 133a 5d13 0827
000000b0: 10bc ff07 fe10 7fb4 ff0a 11fc bd0d fbf8
000000c0: f2ce 1619 e0e7 0738 fbf8 0d15 81f1 0505
000000d0: 0000 0000 0000 0000 0000 0000 0000 0000
000000e0: ed9c c4cd e6f9 347f e601 18eb 15ef 0f3e
000000f0: 1bbb c8b1 e6e5 237f 1ca2 e6ef 45c2 fc9b
-18 -127 26 -32 29 -17 -9 42
-4 -56 3 16 117 -24 -5 -48
-30 19 76 -52 -37 -39 -77 -122
40 -9 -114 -43 54 -27 -2 -127
0 -31 -37 -12 -2 -20 -127 -104
44 -71 44 12 -27 7 13 -40
-31 -96 0 -14 -14 42 -72 -127
34 18 -15 -75 53 -12 -6 20
4 -30 -39 -32 -30 -44 -2 -115
-6 43 28 -29 127 -16 3 1
-68 87 -104 -14 45 113 9 52
85 45 -127 -88 -85 7 -21 104
18 -29 8 -3 -12 -26 -84 -62
-39 127 5 19 7 21 14 -1
50 -5 75 35 -127 17 127 0
-96 -30 35 38 -6 -39 -73 -28
34 14 -72 -46 -18 127 -100 -95
27 20 3 -2 -115 41 -38 -47
-57 34 19 33 -42 -23 -66 22
44 -54 -52 -20 127 53 -28 12
-1 94 48 127 -5 0 48 34
-8 9 19 58 93 19 8 39
16 -68 -1 7 -2 16 127 -76
-1 10 17 -4 -67 13 -5 -8
-14 -50 22 25 -32 -25 7 56
-5 -8 13 21 -127 -15 5 5
0 0 0 0 0 0 0 0
0 0 0 0 0 0 0 0
-19 -100 -60 -51 -26 -7 52 127
-26 1 24 -21 21 -17 15 62
27 -69 -56 -79 -26 -27 35 127
28 -94 -26 -17 69 -62 -4 -101

functional_9/conv2d_42/Conv2D i1 [64, 3, 3, 32]
00000000: baf7 13ff 180e 0c02 1116 2610 1a00 06f7
00000010: 10c1 f22c e502 f507 e202 b8eb 0320 fc08
00000020: b313 e4ec fa08 fd28 042b 2922 1300 2dfb
00000030: f8b6 c233 e202 fcfa 0b02 b3fb f40a 0500
00000040: cc00 0be5 13d8 f20c 10ff 1905 0500 06fb
00000050: edd3 000d ed1a 1ad8 fd26 b803 05cc 0101
00000060: e902 e602 0b2e 120e 174a 1e09 0d00 270d
00000070: 11cf ad2d ead9 f5eb fcd9 dae6 fd13 e7e6
00000080: e80d 050a 2f10 f305 505c 17e3 0700 4203
00000090: e0df a934 dbda 08de 21ee d4f8 fb10 f2f3
000000a0: 010e 0ae8 15e8 051e 2c2a 0bec 0600 2fe7
000000b0: e2df ce12 e0dd 12c7 1311 f3f4 fde4 f402
000000c0: e20a e60a 2421 1c07 0d41 dee9 0c00 1e07
000000d0: 200d c714 f4e3 3afa f3d8 c214 130b f6ea
000000e0: ee20 033f 33fe 0426 fe7f 02d1 e100 2605
000000f0: 01f4 ac33 c5cf 1df1 1be7 b612 ee2b 0d08
-70 -9 19 -1 24 14 12 2
17 22 38 16 26 0 6 -9
16 -63 -14 44 -27 2 -11 7
-30 2 -72 -21 3 32 -4 8
-77 19 -28 -20 -6 8 -3 40
4 43 41 34 19 0 45 -5
-8 -74 -62 51 -30 2 -4 -6
11 2 -77 -5 -12 10 5 0
-52 0 11 -27 19 -40 -14 12
16 -1 25 5 5 0 6 -5
-19 -45 0 13 -19 26 26 -40
-3 38 -72 3 5 -52 1 1
-23 2 -26 2 11 46 18 14
23 74 30 9 13 0 39 13
17 -49 -83 45 -22 -39 -11 -21
-4 -39 -38 -26 -3 19 -25 -26
-24 13 5 10 47 16 -13 5
80 92 23 -29 7 0 66 3
-32 -33 -87 52 -37 -38 8 -34
33 -18 -44 -8 -5 16 -14 -13
1 14 10 -24 21 -24 5 30
44 42 11 -20 6 0 47 -25
-30 -33 -50 18 -32 -35 18 -57
19 17 -13 -12 -3 -28 -12 2
-30 10 -26 10 36 33 28 7
13 65 -34 -23 12 0 30 7
32 13 -57 20 -12 -29 58 -6
-13 -40 -62 20 19 11 -10 -22
-18 32 3 63 51 -2 4 38
-2 127 2 -47 -31 0 38 5
1 -12 -84 51 -59 -49 29 -15
27 -25 -74 18 -18 43 13 8

functional_9/conv2d_43/Conv2D i1 [64, 3, 3, 64]
00000000: efee f800 cd07 ecff 00ea c700 f800 2f00
00000010: ea12 00e1 e307 d300 0000 1d00 da1e de00
00000020: 0000 1700 d200 0000 0312 000f 00fe c918
00000030: 001f ec00 f4e4 e000 0000 0ef0 f700 e7fc
00000040: ecf0 0c00 d9fc ea10 00f0 e300 e900 4500
00000050: eaec 00cf f3e3 ed00 0000 fb00 fb15 f400
00000060: 0000 2500 f600 0000 2fee 0015 00e1 f215
00000070: 0026 e200 fbf7 ff00 0000 e8ff e200 0302
00000080: eeff 0200 e616 edd1 00e7 fd00 f000 3300
00000090: f7d4 0007 fb00 1100 0000 f200 2af4 0700
000000a0: 0000 1d00 e400 0000 0a4a 0008 00db d4f5
000000b0: 0029 de00 f0f4 e000 0000 04f3 fa00 06ea
000000c0: 14fe fe00 e8eb f219 0013 de00 f600 d500
000000d0: ff08 00f6 e725 d800 0000 0800 c014 eb00
000000e0: 0000 2500 1600 0000 f33d 00f4 0012 d226
000000f0: 00e6 e100 fdf0 e900 0000 eeff 0500 f3ef
-17 -18 -8 0 -51 7 -20 -1
0 -22 -57 0 -8 0 47 0
-22 18 0 -31 -29 7 -45 0
0 0 29 0 -38 30 -34 0
0 0 23 0 -46 0 0 0
3 18 0 15 0 -2 -55 24
0 31 -20 0 -12 -28 -32 0
0 0 14 -16 -9 0 -25 -4
-20 -16 12 0 -39 -4 -22 16
0 -16 -29 0 -23 0 69 0
-22 -20 0 -49 -13 -29 -19 0
0 0 -5 0 -5 21 -12 0
0 0 37 0 -10 0 0 0
47 -18 0 21 0 -31 -14 21
0 38 -30 0 -5 -9 -1 0
0 0 -24 -1 -30 0 3 2
-18 -1 2 0 -26 22 -19 -47
0 -25 -3 0 -16 0 51 0
-9 -44 0 7 -5 0 17 0
0 0 -14 0 42 -12 7 0
0 0 29 0 -28 0 0 0
10 74 0 8 0 -37 -44 -11
0 41 -34 0 -16 -12 -32 0
0 0 4 -13 -6 0 6 -22
20 -2 -2 0 -24 -21 -14 25
0 19 -34 0 -10 0 -43 0
-1 8 0 -10 -25 37 -40 0
0 0 8 0 -64 20 -21 0
0 0 37 0 22 0 0 0
-13 61 0 -12 0 18 -46 38
0 -26 -31 0 -3 -16 -23 0
0 0 -18 -1 5 0 -13 -17

functional_9/conv2d_44/Conv2D i1 [64, 1, 1, 32]
00000000: c3d5 50df a620 59eb faed 81a0 4400 dab4
00000010: 5800 b4b3 a008 022b 4a19 41e7 f734 ae00
00000020: a63d 0b25 537f e6fe ec22 fd3c 7e00 51a7
00000030: 4c2f b506 1a01 f8c4 84b5 e1e7 eee0 e5fa
00000040: 3106 f6f5 e72b ea2e 1903 e07f f200 f704
00000050: 3a04 e9fb d1e6 fffc 3dec fbf7 f0de fbff
00000060: 7c0c 06f3 bd1d d801 2c7f bdcd e000 14c5
00000070: b005 e1d8 19c3 ff15 d557 0ff7 4334 3639
00000080: 02dd 01d7 00ff dad7 fee9 d5bf bf00 ceb7
00000090: c8be 5d81 cb30 ced6 fba5 5bbc ea11 d8f4
000000a0: b705 ccdb b7a6 8c04 ffda 16dd 1100 fbde
000000b0: 81d1 0ecc d6c4 f506 84c8 18d2 0aa5 a018
000000c0: e7e6 f0e8 eff6 cfea e5f6 d1e2 f900 9719
000000d0: 81bc e5c9 bcda d9fa 0030 dfec 52cf e7f6
000000e0: ac21 c01b 56fa e2df d607 c7ee 4000 24ed
000000f0: 56bb 2d88 d4e4 dbd3 f31c fd81 efee b8e4
-61 -43 80 -33 -90 32 89 -21
-6 -19 -127 -96 68 0 -38 -76
88 0 -76 -77 -96 8 2 43
74 25 65 -25 -9 52 -82 0
-90 61 11 37 83 127 -26 -2
-20 34 -3 60 126 0 81 -89
76 47 -75 6 26 1 -8 -60
-124 -75 -31 -25 -18 -32 -27 -6
49 6 -10 -11 -25 43 -22 46
25 3 -32 127 -14 0 -9 4
58 4 -23 -5 -47 -26 -1 -4
61 -20 -5 -9 -16 -34 -5 -1
124 12 6 -13 -67 29 -40 1
44 127 -67 -51 -32 0 20 -59
-80 5 -31 -40 25 -61 -1 21
-43 87 15 -9 67 52 54 57
2 -35 1 -41 0 -1 -38 -41
-2 -23 -43 -65 -65 0 -50 -73
-56 -66 93 -127 -53 48 -50 -42
-5 -91 91 -68 -22 17 -40 -12
-73 5 -52 -37 -73 -90 -116 4
-1 -38 22 -35 17 0 -5 -34
-127 -47 14 -52 -42 -60 -11 6
-124 -56 24 -46 10 -91 -96 24
-25 -26 -16 -24 -17 -10 -49 -22
-27 -10 -47 -30 -7 0 -105 25
-127 -68 -27 -55 -68 -38 -39 -6
0 48 -33 -20 82 -49 -25 -10
-84 33 -64 27 86 -6 -30 -33
-42 7 -57 -18 64 0 36 -19
86 -69 45 -120 -44 -28 -37 -45
-13 28 -3 -127 -17 -18 -72 -28
