v0.1/benchmarks/audio_wake_words/trained_models/aww_model.tflite (tflite, 59840 bytes, 10 tensors)

functional_1/batch_normalization_1/FusedBatchNormV3;StatefulPartitionedCall/functional_1/batch_normalization_1/FusedBatchNormV3;functional_1/depthwise_conv2d/depthwise;StatefulPartitionedCall/functional_1/depthwise_conv2d/depthwise;functional_1/depthwise_conv2d/BiasAdd;StatefulPartitionedCall/functional_1/depthwise_conv2d/BiasAdd;functional_1/conv2d_4/Conv2D;StatefulPartitionedCall/functional_1/conv2d_4/Conv2D;unknown_6 i1 [1, 3, 3, 64]
-18 -70 -127 50 -82 19 64 46
-71 15 45 -52 -27 -33 -47 71
-8 -65 30 -75 -117 71 8 110
127 -8 8 27 11 -16 9 127
-96 127 -127 -78 -87 127 -43 33
12 -4 -17 96 92 60 -27 -12
56 -23 50 -41 4 10 -79 81
0 -47 83 127 93 116 -125 34
16 -9 0 -36 50 33 -2 -17
11 -10 0 30 -50 14 56 -21
-107 31 -49 127 -30 -24 -48 -83
24 -17 -31 9 -12 -11 -71 -60
-26 -68 6 66 8 -122 14 2
-33 -57 20 63 31 127 4 -11
34 -127 34 -28 -96 -33 -41 11
-43 -126 -36 -93 -61 -19 -58 4
127 -83 33 -44 -109 -80 -33 -92
-14 -61 41 -30 59 31 25 -83
31 127 -42 4 93 30 -43 127
-118 -127 118 -121 127 63 127 -81
36 51 -19 -23 39 16 -86 -11
-18 26 127 -102 56 13 -4 127
-8 -77 -127 127 -53 -5 71 -1
127 -18 2 73 38 -99 99 49
-29 127 38 40 95 -8 -30 127
-106 -8 -36 -74 -67 127 87 -39
82 -27 127 113 -108 -19 -50 -65
-111 -5 10 -16 -32 49 -7 109
-121 -83 89 -98 -127 89 -68 61
-34 -14 -98 -26 67 110 -51 90
-50 -99 32 0 13 -22 -127 -44
1 -127 49 -30 60 -87 -127 -88
00000000: eeba 8132 ae13 402e b90f 2dcc e5df d147
00000010: f8bf 1eb5 8b47 086e 7ff8 081b 0bf0 097f
00000020: a07f 81b2 a97f d521 0cfc ef60 5c3c e5f4
00000030: 38e9 32d7 040a b151 00d1 537f 5d74 8322
00000040: 10f7 00dc 3221 feef 0bf6 001e ce0e 38eb
00000050: 951f cf7f e2e8 d0ad 18ef e109 f4f5 b9c4
00000060: e6bc 0642 0886 0e02 dfc7 143f 1f7f 04f5
00000070: 2281 22e4 a0df d70b d582 dca3 c3ed c604
00000080: 7fad 21d4 93b0 dfa4 f2c3 29e2 3b1f 19ad
00000090: 1f7f d604 5d1e d57f 8a81 7687 7f3f 7faf
000000a0: 2433 ede9 2710 aaf5 ee1a 7f9a 380d fc7f
000000b0: f8b3 817f cbfb 47ff 7fee 0249 269d 6331
000000c0: e37f 2628 5ff8 e27f 96f8 dcb6 bd7f 57d9
000000d0: 52e5 7f71 94ed cebf 91fb 0af0 e031 f96d
000000e0: 87ad 599e 8159 bc3d def2 9ee6 436e cd5a
000000f0: ce9d 2000 0dea 81d4 0181 31e2 3ca9 81a8

functional_1/batch_normalization_3/FusedBatchNormV3;StatefulPartitionedCall/functional_1/batch_normalization_3/FusedBatchNormV3;functional_1/depthwise_conv2d_1/depthwise;StatefulPartitionedCall/functional_1/depthwise_conv2d_1/depthwise;functional_1/depthwise_conv2d_1/BiasAdd;StatefulPartitionedCall/functional_1/depthwise_conv2d_1/BiasAdd;functional_1/conv2d_4/Conv2D;StatefulPartitionedCall/functional_1/conv2d_4/Conv2D;unknown_18 i1 [1, 3, 3, 64]
-127 89 48 -105 103 60 -96 20
-52 -3 2 -49 -6 27 121 -6
-81 64 54 -71 53 -127 -127 -89
-36 23 -13 127 35 43 127 -38
-66 116 -95 105 127 -7 -7 -4
-56 -32 83 -17 127 4 1 -58
-62 27 -47 78 18 99 -23 -69
-44 -116 59 29 -53 -56 -7 0
-110 -88 -28 -100 -56 83 -7 -127
-25 -50 19 -44 50 69 21 127
-12 27 2 -127 -23 -66 100 127
68 11 127 103 48 -127 -103 -56
78 -22 -127 -127 -11 92 -106 -17
-26 -74 28 85 30 -43 -17 81
-4 7 -78 24 -27 46 10 -19
-39 -20 47 32 -53 110 126 -25
-78 34 -127 -2 -58 127 -87 -46
-5 127 125 -2 -70 -31 -17 -21
-54 -23 29 -47 -34 -105 13 -80
-46 -25 -102 -2 -58 58 71 93
-18 -33 96 113 -62 -78 18 -127
-4 62 -19 -127 19 42 -65 -122
19 -43 -19 -4 127 -125 127 -3
-6 -120 79 -90 -33 -5 28 96
37 127 -25 -38 51 94 53 14
-1 97 55 32 127 -127 127 -27
-70 35 18 -41 127 -39 24 -22
33 -4 -102 44 -20 36 103 4
-1 127 -120 98 66 -65 -29 89
-32 119 127 -35 69 40 19 -127
-7 3 -127 8 -9 127 -5 59
9 -40 44 -49 70 39 -20 39
00000000: 8159 3097 673c a014 ccfd 02cf fa1b 79fa
00000010: af40 36b9 3581 81a7 dc17 f37f 232b 7fda
00000020: be74 a169 7ff9 f9fc c8e0 53ef 7f04 01c6
00000030: c21b d14e 1263 e9bb d48c 3b1d cbc8 f900
00000040: 92a8 e49c c853 f981 e7ce 13d4 3245 157f
00000050: f41b 0281 e9be 647f 440b 7f67 3081 99c8
00000060: 4eea 8181 f55c 96ef e6b6 1c55 1ed5 ef51
00000070: fc07 b218 e52e 0aed d9ec 2f20 cb6e 7ee7
00000080: b222 81fe c67f a9d2 fb7f 7dfe bae1 efeb
00000090: cae9 1dd1 de97 0db0 d2e7 9afe c63a 475d
000000a0: eedf 6071 c2b2 1281 fc3e ed81 132a bf86
000000b0: 13d5 edfc 7f83 7ffd fa88 4fa6 dffb 1c60
000000c0: 257f e7da 335e 350e ff61 3720 7f81 7fe5
000000d0: ba23 12d7 7fd9 18ea 21fc 9a2c ec24 6704
000000e0: ff7f 8862 42bf e359 e077 7fdd 4528 1381
000000f0: f903 8108 f77f fb3b 09d8 2ccf 4627 ec27

functional_1/batch_normalization_5/FusedBatchNormV3;StatefulPartitionedCall/functional_1/batch_normalization_5/FusedBatchNormV3;functional_1/depthwise_conv2d_2/depthwise;StatefulPartitionedCall/functional_1/depthwise_conv2d_2/depthwise;functional_1/depthwise_conv2d_2/BiasAdd;StatefulPartitionedCall/functional_1/depthwise_conv2d_2/BiasAdd;functional_1/conv2d_4/Conv2D;StatefulPartitionedCall/functional_1/conv2d_4/Conv2D;unknown_30 i1 [1, 3, 3, 64]
127 -66 47 74 126 -127 24 -61
-88 96 3 -9 -63 -127 23 63
103 -13 -79 -127 88 -69 127 -84
127 75 -127 -127 57 38 88 127
127 94 43 123 91 93 51 14
127 67 -115 -95 76 -54 85 127
-127 -84 127 52 92 127 110 28
-74 127 23 -127 81 -69 4 123
-44 -127 44 6 88 -115 -53 -3
-112 -97 -94 -19 33 -87 -30 -21
73 -43 -51 24 -104 29 -73 -64
-10 35 -3 -64 0 14 -17 59
8 0 -21 114 11 -29 9 -10
95 -49 -127 -31 -25 127 -53 61
-46 2 57 49 42 10 83 0
-74 100 83 -103 18 38 12 -31
46 -66 127 92 40 -111 -127 93
-116 83 127 52 74 1 62 75
54 96 69 -20 -68 14 91 -47
-109 -24 14 9 31 2 53 6
55 -123 -60 18 122 106 119 20
88 127 94 -52 -40 106 127 79
-22 21 110 12 96 31 78 -51
-107 -61 -61 64 17 45 11 127
98 -36 70 14 38 33 13 -56
-17 52 82 61 -15 -125 13 89
86 -48 -61 -1 48 -9 -1 -31
66 127 -75 -41 17 57 44 85
59 -18 74 127 67 -19 93 41
120 36 -110 -15 5 -50 13 78
-16 -33 57 49 8 65 107 -18
-67 25 -51 -33 26 -51 20 125
00000000: 7fbe 2f4a 7e81 18c3 a860 03f7 c181 173f
00000010: 67f3 b181 58bb 7fac 7f4b 8181 3926 587f
00000020: 7f5e 2b7b 5b5d 330e 7f43 8da1 4cca 557f
00000030: 81ac 7f34 5c7f 6e1c b67f 1781 51bb 047b
00000040: d481 2c06 588d cbfd 909f a2ed 21a9 e2eb
00000050: 49d5 cd18 981d b7c0 f623 fdc0 000e ef3b
00000060: 0800 eb72 0be3 09f6 5fcf 81e1 e77f cb3d
00000070: d202 3931 2a0a 5300 b664 5399 1226 0ce1
00000080: 2ebe 7f5c 2891 815d 8c53 7f34 4a01 3e4b
00000090: 3660 45ec bc0e 5bd1 93e8 0e09 1f02 3506
000000a0: 3785 c412 7a6a 7714 587f 5ecc d86a 7f4f
000000b0: ea15 6e0c 601f 4ecd 95c3 c340 112d 0b7f
000000c0: 62dc 460e 2621 0dc8 ef34 523d f183 0d59
000000d0: 56d0 c3ff 30f7 ffe1 427f b5d7 1139 2c55
000000e0: 3bee 4a7f 43ed 5d29 7824 92f1 05ce 0d4e
000000f0: f0df 3931 0841 6bee bd19 cddf 1acd 147d

functional_1/batch_normalization_7/FusedBatchNormV3;StatefulPartitionedCall/functional_1/batch_normalization_7/FusedBatchNormV3;functional_1/depthwise_conv2d_3/depthwise;StatefulPartitionedCall/functional_1/depthwise_conv2d_3/depthwise;functional_1/depthwise_conv2d_3/BiasAdd;StatefulPartitionedCall/functional_1/depthwise_conv2d_3/BiasAdd;functional_1/conv2d_4/Conv2D;StatefulPartitionedCall/functional_1/conv2d_4/Conv2D;unknown_42 i1 [1, 3, 3, 64]
71 -127 -127 99 -127 -63 51 114
-127 88 126 -101 127 -127 108 85
-94 -72 88 -60 -73 82 66 93
-107 -127 127 -127 111 -125 -52 -15
77 73 74 -29 -86 -127 -127 60
114 -76 -52 -43 -44 -50 116 98
92 98 -87 90 97 -127 -93 -127
-42 108 -68 -89 127 61 119 -102
90 -89 -25 125 -118 -1 -53 122
-107 75 127 -59 101 -94 127 88
-37 29 5 125 -73 108 108 127
-58 -3 112 -49 127 -86 -127 -46
87 -44 105 -60 -59 -110 -92 127
88 -127 -32 -45 -31 -113 78 94
104 90 -21 85 69 -42 -122 -93
39 114 -60 59 85 104 102 -115
-34 -96 -107 127 -63 -62 -94 127
-108 86 104 -123 113 -86 86 76
-127 -3 -121 -94 -72 31 127 117
-124 -67 67 -18 86 -21 -69 -53
83 -105 85 14 -99 -65 -81 35
52 -67 2 -48 9 -101 65 104
106 90 -81 89 85 16 48 -35
127 67 -20 127 39 106 90 -70
23 -7 -36 11 -24 32 54 4
17 15 5 -4 36 26 33 0
-79 -111 49 -17 -72 0 32 26
3 14 25 -85 -8 -17 -19 -40
21 16 -23 -27 -13 -106 -15 -9
-13 -12 -48 -40 -75 -69 51 -13
31 -6 -20 55 11 -124 -47 -88
-38 13 -39 -95 11 18 23 -64
00000000: 4781 8163 81c1 3372 8158 7e9b 7f81 6c55
00000010: a2b8 58c4 b752 425d 9581 7f81 6f83 ccf1
00000020: 4d49 4ae3 aa81 813c 72b4 ccd5 d4ce 7462
00000030: 5c62 a95a 6181 a381 d66c bca7 7f3d 779a
00000040: 5aa7 e77d 8aff cb7a 954b 7fc5 65a2 7f58
00000050: db1d 057d b76c 6c7f c6fd 70cf 7faa 81d2
00000060: 57d4 69c4 c592 a47f 5881 e0d3 e18f 4e5e
00000070: 685a eb55 45d6 86a3 2772 c43b 5568 668d
00000080: dea0 957f c1c2 a27f 9456 6885 71aa 564c
00000090: 81fd 87a2 b81f 7f75 84bd 43ee 56eb bbcb
000000a0: 5397 550e 9dbf af23 34bd 02d0 099b 4168
000000b0: 6a5a af59 5510 30dd 7f43 ec7f 276a 5aba
000000c0: 17f9 dc0b e820 3604 110f 05fc 241a 2100
000000d0: b191 31ef b800 201a 030e 19ab f8ef edd8
000000e0: 1510 e9e5 f396 f1f7 f3f4 d0d8 b5bb 33f3
000000f0: 1ffa ec37 0b84 d1a8 da0d d9a1 0b12 17c0

functional_1/dense/MatMul;StatefulPartitionedCall/functional_1/dense/MatMul i1 [12, 64] scale=0.0082086325 zero_point=0
-0.3283453 0.082086325 0.057460427 -0.33655393 -0.38580573 -0.56639564 -0.32013667 0.049251795
-0.09850359 0.024625897 0.19700718 -0.56639564 -0.558187 -0.7387769 -0.16417265 0.5746043
0.3283453 -0.36938846 0.5828129 0.3037194 0.32013667 -0.59102154 -0.46789205 -0.69773376
-0.48430932 -0.12312949 -0.22984171 0.3037194 -0.14775538 -0.13954675 -0.12312949 -0.33655393
-0.082086325 0.47610068 -0.4514748 0.28730214 -0.4514748 -0.45968342 0.16417265 -0.36938846
0.17238128 0.31192803 -0.10671222 -0.18058991 -0.45968342 -0.049251795 -0.27088487 -0.18058991
-0.4514748 -0.32013667 0.402223 0.33655393 -0.5007266 -0.16417265 -0.5335611 -0.36117983
-0.43505752 0.10671222 0.03283453 -0.402223 -0.5007266 0.6074388 -0.09029496 0.558187
-0.09850359 0.36117983 0.12312949 -0.21342444 -0.33655393 -0.402223 0.2544676 -0.3037194
-0.5992302 0.4514748 -0.057460427 0.3775971 0.12312949 -0.14775538 -0.2544676 -0.3037194
-0.15596402 0.41043162 -0.24625897 0.51714385 0.26267624 -0.47610068 -0.19700718 -0.3775971
-0.7387769 -0.4514748 -0.31192803 -0.5335611 -0.43505752 0.5499784 0.14775538 -0.402223
-0.33655393 0.402223 -0.5253525 0.3283453 -0.44326615 -0.16417265 -0.31192803 -0.48430932
-0.20521581 0.3529712 0.3283453 0.43505752 -0.0082086325 -0.34476256 0.24625897 -0.7634028
0.5007266 0.2790935 -0.057460427 -0.09029496 0.5992302 -0.5828129 -0.03283453 -0.43505752
-0.3283453 0.016417265 -0.5335611 -0.5499784 -0.38580573 -0.32013667 -0.6566906 -0.06566906
-0.64848197 -0.4514748 0.39401436 0.48430932 0.18879855 0.024625897 0.049251795 -0.54176974
-0.49251795 -0.804446 -0.6320647 -0.12312949 -0.27088487 -0.13133812 0.19700718 -0.48430932
-0.6813165 0.43505752 -0.6566906 -0.67310786 0.46789205 0.54176974 -0.09029496 0.3283453
0.29551077 -0.20521581 -0.43505752 -0.41043162 -0.12312949 0.024625897 0.41043162 -0.22984171
-0.36117983 -0.45968342 0.041043162 0.20521581 -0.18058991 0.5992302 0.34476256 0.5828129
-0.31192803 -0.46789205 -0.34476256 -0.5089352 -0.36938846 -0.14775538 -0.114920855 0.41864026
-0.61564744 -0.7305683 -0.402223 -0.13954675 -0.34476256 0.4268489 -0.0082086325 0.03283453
-0.23805034 0.41043162 0.41864026 -0.38580573 -0.43505752 -0.18058991 0.4268489 -0.558187
-0.03283453 0.5746043 0.41043162 0.09029496 0.22984171 -0.18879855 -0.082086325 -0.2790935
-0.3037194 0.29551077 -0.5253525 -0.6074388 0.45968342 -0.72235966 -0.5253525 -0.45968342
-0.23805034 0.03283453 -0.18058991 0.27088487 -0.29551077 -0.41043162 -0.23805034 0.049251795
0.049251795 0.06566906 0.32013667 -0.36117983 -0.5253525 0.36938846 -0.29551077 -0.3529712
-0.7798201 0.51714385 0.3283453 -0.34476256 -0.56639564 -0.402223 0.32013667 -0.22163308
-0.48430932 0.024625897 -0.64027333 0.14775538 0.0 -0.59102154 0.3037194 0.15596402
-0.33655393 -0.64848197 -0.66489923 -0.3775971 0.24625897 -0.6074388 -0.114920855 -0.7305683
0.22163308 0.5499784 0.5253525 -0.66489923 -0.61564744 -0.114920855 -0.12312949 0.3529712
00000000: d80a 07d7 d1bb d906 f403 18bb bca6 ec46
00000010: 28d3 4725 27b8 c7ab c5f1 e425 eeef f1d7
00000020: f63a c923 c9c8 14d3 1526 f3ea c8fa dfea
00000030: c9d9 3129 c3ec bfd4 cb0d 04cf c34a f544
00000040: f42c 0fe6 d7cf 1fdb b737 f92e 0fee e1db
00000050: ed32 e23f 20c6 e8d2 a6c9 dabf cb43 12cf
00000060: d731 c028 caec dac5 e72b 2835 ffd6 1ea3
00000070: 3d22 f9f5 49b9 fccb d802 bfbd d1d9 b0f8
00000080: b1c9 303b 1703 06be c49e b3f1 dff0 18c5
00000090: ad35 b0ae 3942 f528 24e7 cbce f103 32e4
000000a0: d4c8 0519 ea49 2a47 dac7 d6c2 d3ee f233
000000b0: b5a7 cfef d634 ff04 e332 33d1 cbea 34bc
000000c0: fc46 320b 1ce9 f6de db24 c0b6 38a8 c0c8
000000d0: e304 ea21 dcce e306 0608 27d4 c02d dcd5
000000e0: a13f 28d6 bbcf 27e5 c503 b212 00b8 2513
000000f0: d7b1 afd2 1eb6 f2a7 1b43 40af b5f2 f12b

functional_1/conv2d/Conv2D;StatefulPartitionedCall/functional_1/conv2d/Conv2D i1 [64, 10, 4, 1]
-14 -21 -12 32 -6 3 -1 63
1 -13 38 44 27 35 69 -9
66 56 35 -118 57 15 4 -127
1 -27 -62 -39 -50 -31 -54 28
-30 -10 -15 102 -33 10 -13 45
-80 -21 -60 -21 -22 51 -35 -13
-32 58 -4 34 46 11 -77 49
13 17 -120 0 34 -63 -70 -39
52 0 -18 -66 31 -14 -14 -127
66 103 21 -44 53 82 110 -22
16 3 -7 -83 4 11 -49 -27
-6 40 -108 74 5 37 -57 93
-10 -4 47 90 5 -95 127 62
-52 -57 24 -39 -15 -10 -45 -103
33 70 -46 -10 63 2 98 48
13 -42 60 26 -9 -38 46 -24
7 -67 21 -47 -77 -4 0 -59
-81 -52 -49 -120 -41 4 -15 -84
-98 -25 0 -18 -60 -14 -8 30
-82 -56 -42 40 -80 6 24 127
78 28 1 86 21 50 61 34
-19 115 37 -2 -49 100 25 -55
-23 11 12 -126 3 -20 -27 -100
73 -48 -10 -67 17 -77 -64 -10
-19 -64 24 25 -14 -4 -5 127
-57 -27 15 -33 -41 67 27 -125
43 77 2 -127 -5 77 -24 -114
-24 68 5 -37 14 29 9 26
-7 -28 -23 27 -18 -6 -13 67
9 -59 11 76 39 16 -37 97
94 -40 22 27 127 -35 -42 39
93 -3 -58 57 -44 34 27 51
00000000: f2eb f420 fa03 ff3f 01f3 262c 1b23 45f7
00000010: 4238 238a 390f 0481 01e5 c2d9 cee1 ca1c
00000020: e2f6 f166 df0a f32d b0eb c4eb ea33 ddf3
00000030: e03a fc22 2e0b b331 0d11 8800 22c1 bad9
00000040: 3400 eebe 1ff2 f281 4267 15d4 3552 6eea
00000050: 1003 f9ad 040b cfe5 fa28 944a 0525 c75d
00000060: f6fc 2f5a 05a1 7f3e ccc7 18d9 f1f6 d399
00000070: 2146 d2f6 3f02 6230 0dd6 3c1a f7da 2ee8
00000080: 07bd 15d1 b3fc 00c5 afcc cf88 d704 f1ac
00000090: 9ee7 00ee c4f2 f81e aec8 d628 b006 187f
000000a0: 4e1c 0156 1532 3d22 ed73 25fe cf64 19c9
000000b0: e90b 0c82 03ec e59c 49d0 f6bd 11b3 c0f6
000000c0: edc0 1819 f2fc fb7f c7e5 0fdf d743 1b83
000000d0: 2b4d 0281 fb4d e88e e844 05db 0e1d 091a
000000e0: f9e4 e91b eefa f343 09c5 0b4c 2710 db61
000000f0: 5ed8 161b 7fdd d627 5dfd c639 d422 1b33

functional_1/conv2d_1/Conv2D;StatefulPartitionedCall/functional_1/conv2d_1/Conv2D i1 [64, 1, 1, 64]
71 -20 8 -37 -38 -70 -22 -46
-59 -70 31 13 29 15 63 34
-60 7 -17 6 -9 39 -29 58
3 -73 57 24 40 54 25 -77
-30 -18 -47 -75 11 -23 31 -127
-48 27 -27 29 -67 -1 -3 -95
-57 84 -15 63 43 -37 17 65
-20 -36 64 -9 -20 -15 38 24
8 -127 10 20 16 7 12 -11
22 -22 15 -47 33 -38 33 -32
4 -47 5 47 32 -56 -92 -75
-38 17 6 14 1 9 -74 -32
29 -57 -33 29 3 -47 78 -117
6 -34 -6 18 10 -8 -34 -19
45 27 -81 -72 22 32 5 -32
45 -47 -58 -42 21 -15 -49 38
4 11 -7 7 -22 8 127 14
7 -45 6 -43 -37 -63 33 -34
-7 -26 -49 -11 -21 -87 -37 19
-26 22 -32 16 -50 10 -3 -44
5 -14 75 42 13 -14 39 -53
3 -22 -8 -49 -26 45 0 -61
19 6 21 -68 6 40 81 -80
-18 -34 71 22 24 49 -13 73
-21 46 48 -66 42 42 -19 -18
49 71 -18 -32 -3 -47 28 -16
-42 -37 -62 -3 -5 -32 19 -58
-24 -57 -27 -45 -7 13 74 7
-54 21 56 19 -38 -81 41 37
79 -127 4 18 48 60 15 -3
31 -61 -25 19 -36 58 10 -37
42 -27 -8 -45 -2 32 56 38
00000000: 47ec 08db daba ead2 c5ba 1f0d 1d0f 3f22
00000010: c407 ef06 f727 e33a 03b7 3918 2836 19b3
00000020: e2ee d1b5 0be9 1f81 d01b e51d bdff fda1
00000030: c754 f13f 2bdb 1141 ecdc 40f7 ecf1 2618
00000040: 0881 0a14 1007 0cf5 16ea 0fd1 21da 21e0
00000050: 04d1 052f 20c8 a4b5 da11 060e 0109 b6e0
00000060: 1dc7 df1d 03d1 4e8b 06de fa12 0af8 deed
00000070: 2d1b afb8 1620 05e0 2dd1 c6d6 15f1 cf26
00000080: 040b f907 ea08 7f0e 07d3 06d5 dbc1 21de
00000090: f9e6 cff5 eba9 db13 e616 e010 ce0a fdd4
000000a0: 05f2 4b2a 0df2 27cb 03ea f8cf e62d 00c3
000000b0: 1306 15bc 0628 51b0 eede 4716 1831 f349
000000c0: eb2e 30be 2a2a edee 3147 eee0 fdd1 1cf0
000000d0: d6db c2fd fbe0 13c6 e8c7 e5d3 f90d 4a07
000000e0: ca15 3813 daaf 2925 4f81 0412 303c 0ffd
000000f0: 1fc3 e713 dc3a 0adb 2ae5 f8d3 fe20 3826

functional_1/conv2d_2/Conv2D;StatefulPartitionedCall/functional_1/conv2d_2/Conv2D i1 [64, 1, 1, 64]
16 -84 -7 -55 49 -29 29 6
28 61 -69 -16 26 -42 36 -57
-44 -20 42 -38 33 -45 -20 -11
-34 9 -44 21 -54 22 -127 -38
65 48 -26 0 74 -40 8 -58
-26 -21 -18 -39 -62 -8 -15 30
5 16 -88 46 -6 -22 42 -85
-21 -100 47 -35 27 5 -33 12
14 45 -14 -4 -16 25 19 -30
-79 0 -38 45 -42 20 -25 -43
5 72 -17 -71 -2 -28 25 -74
-1 -37 -49 -6 -1 11 -32 -66
34 -8 -107 40 66 20 72 -60
-34 6 -16 75 35 -15 54 -84
-11 -62 -40 -20 -19 -59 -54 70
-51 35 54 -5 127 -2 75 94
48 19 32 15 22 -1 -14 127
-15 46 19 84 44 -73 22 39
-40 -2 35 37 14 -43 5 -78
-30 36 -14 64 -22 42 26 46
-24 -21 -37 -15 -12 -65 -55 -30
-52 -47 2 -73 -87 -26 -14 -14
11 -58 -97 -48 -69 36 -13 -7
9 -27 47 1 -33 18 -45 -5
-13 -78 -27 -76 -41 18 65 16
20 -34 18 -86 -16 13 -47 -33
-3 25 -70 -15 84 40 -95 59
-21 10 -37 24 68 -24 40 -12
47 37 -100 -38 -127 -59 19 -36
-56 -82 -42 41 2 -77 -40 -103
9 38 -41 -74 -112 10 -17 39
36 14 -116 67 29 -67 55 -4
00000000: 10ac f9c9 31e3 1d06 1c3d bbf0 1ad6 24c7
00000010: d4ec 2ada 21d3 ecf5 de09 d415 ca16 81da
00000020: 4130 e600 4ad8 08c6 e6eb eed9 c2f8 f11e
00000030: 0510 a82e faea 2aab eb9c 2fdd 1b05 df0c
00000040: 0e2d f2fc f019 13e2 b100 da2d d614 e7d5
00000050: 0548 efb9 fee4 19b6 ffdb cffa ff0b e0be
00000060: 22f8 9528 4214 48c4 de06 f04b 23f1 36ac
00000070: f5c2 d8ec edc5 ca46 cd23 36fb 7ffe 4b5e
00000080: 3013 200f 16ff f27f f12e 1354 2cb7 1627
00000090: d8fe 2325 0ed5 05b2 e224 f240 ea2a 1a2e
000000a0: e8eb dbf1 f4bf c9e2 ccd1 02b7 a9e6 f2f2
000000b0: 0bc6 9fd0 bb24 f3f9 09e5 2f01 df12 d3fb
000000c0: f3b2 e5b4 d712 4110 14de 12aa f00d d1df
000000d0: fd19 baf1 5428 a13b eb0a db18 44e8 28f4
000000e0: 2f25 9cda 81c5 13dc c8ae d629 02b3 d899
000000f0: 0926 d7b6 900a ef27 240e 8c43 1dbd 37fc

functional_1/conv2d_3/Conv2D;StatefulPartitionedCall/functional_1/conv2d_3/Conv2D i1 [64, 1, 1, 64]
42 -31 -47 -37 -40 71 118 44
-91 69 -34 -86 -16 -26 -86 -87
-6 15 -78 -10 -65 -17 84 -74
87 127 -96 -27 17 19 58 -26
85 -60 53 78 -53 8 -13 -49
-40 72 -34 6 -32 85 -82 13
2 -31 2 83 -60 -105 9 34
-11 -3 24 33 -85 27 57 59
44 59 -32 -50 -66 -99 7 -1
-15 -23 -24 83 13 14 -54 -44
-26 27 37 5 -52 82 -67 -54
20 65 1 113 -14 69 -1 -32
127 34 7 122 -27 -52 51 -8
61 -58 58 -4 7 -7 -18 73
-55 42 -11 -47 74 -70 74 -14
57 7 44 -38 -64 -6 62 0
30 -17 13 4 -73 -32 59 -15
-50 -48 -29 -5 58 68 43 -106
-49 -48 -34 38 16 23 -5 63
-12 -5 35 9 127 63 78 20
-98 -16 -21 101 -29 -49 17 -41
64 -2 -15 -38 4 27 -8 96
-45 39 2 -12 17 15 41 40
56 -39 -25 -16 1 35 -10 -38
64 -103 -27 82 17 76 121 -26
-80 20 -39 -50 14 -42 43 -48
84 -115 4 68 -87 25 42 -60
64 -77 -56 -122 12 -74 16 -100
75 -22 45 47 -34 -53 -47 -33
-72 74 -41 -75 -106 -51 -5 -31
-61 1 69 -51 50 -53 -18 -7
86 80 42 26 -20 -10 -21 -127
00000000: 2ae1 d1db d847 762c a545 deaa f0e6 aaa9
00000010: fa0f b2f6 bfef 54b6 577f a0e5 1113 3ae6
00000020: 55c4 354e cb08 f3cf d848 de06 e055 ae0d
00000030: 02e1 0253 c497 0922 f5fd 1821 ab1b 393b
00000040: 2c3b e0ce be9d 07ff f1e9 e853 0d0e cad4
00000050: e61b 2505 cc52 bdca 1441 0171 f245 ffe0
00000060: 7f22 077a e5cc 33f8 3dc6 3afc 07f9 ee49
00000070: c92a f5d1 4aba 4af2 3907 2cda c0fa 3e00
00000080: 1eef 0d04 b7e0 3bf1 ced0 e3fb 3a44 2b96
00000090: cfd0 de26 1017 fb3f f4fb 2309 7f3f 4e14
000000a0: 9ef0 eb65 e3cf 11d7 40fe f1da 041b f860
000000b0: d327 02f4 110f 2928 38d9 e7f0 0123 f6da
000000c0: 4099 e552 114c 79e6 b014 d9ce 0ed6 2bd0
000000d0: 548d 0444 a919 2ac4 40b3 c886 0cb6 109c
000000e0: 4bea 2d2f decb d1df b84a d7b5 96cd fbe1
000000f0: c301 45cd 32cb eef9 5650 2a1a ecf6 eb81

functional_1/conv2d_4/Conv2D;StatefulPartitionedCall/functional_1/conv2d_4/Conv2D i1 [64, 1, 1, 64]
38 72 21 -7 -108 10 -45 101
-48 22 -90 -44 -61 8 -94 19
39 -13 -8 54 -23 13 -41 -88
-72 -50 24 55 -14 -63 56 91
6 15 -127 -7 -89 -6 39 22
65 84 -40 -61 4 -2 -34 111
65 38 -123 -66 -43 30 7 33
-23 11 -31 21 21 -43 80 69
27 -59 -18 36 24 5 17 -53
127 -96 -63 56 -35 -62 28 21
-64 16 -5 8 17 -16 45 -50
-56 -24 -93 -44 7 45 8 53
33 -36 26 46 -14 28 10 -17
35 -12 -24 -44 20 -67 -12 12
65 -15 -28 -87 81 91 3 21
51 -26 34 -30 32 9 3 3
34 -47 27 109 28 -5 7 -17
6 23 83 -48 -12 -26 40 -31
10 -3 25 -11 110 -17 10 -44
-14 10 16 -23 17 46 -42 9
-83 -57 127 12 86 -22 -20 -39
-5 25 -21 21 -71 -17 -24 51
5 -8 -36 -39 28 50 23 -30
-3 -63 50 6 6 -12 -50 -24
24 29 68 12 42 -19 9 -75
40 92 2 -121 32 6 110 -69
-10 4 49 -12 -29 83 27 -2
80 51 127 -12 54 10 -43 -4
-13 -38 -14 7 61 74 16 -9
2 83 -65 27 -33 -59 -28 -22
43 23 41 24 115 -2 25 80
-33 23 -16 45 -44 -42 54 -7
00000000: 2648 15f9 940a d365 d016 a6d4 c308 a213
00000010: 27f3 f836 e90d d7a8 b8ce 1837 f2c1 385b
00000020: 060f 81f9 a7fa 2716 4154 d8c3 04fe de6f
00000030: 4126 85be d51e 0721 e90b e115 15d5 5045
00000040: 1bc5 ee24 1805 11cb 7fa0 c138 ddc2 1c15
00000050: c010 fb08 11f0 2dce c8e8 a3d4 072d 0835
00000060: 21dc 1a2e f21c 0aef 23f4 e8d4 14bd f40c
00000070: 41f1 e4a9 515b 0315 33e6 22e2 2009 0303
00000080: 22d1 1b6d 1cfb 07ef 0617 53d0 f4e6 28e1
00000090: 0afd 19f5 6eef 0ad4 f20a 10e9 112e d609
000000a0: adc7 7f0c 56ea ecd9 fb19 eb15 b9ef e833
000000b0: 05f8 dcd9 1c32 17e2 fdc1 3206 06f4 cee8
000000c0: 181d 440c 2aed 09b5 285c 0287 2006 6ebb
000000d0: f604 31f4 e353 1bfe 5033 7ff4 360a d5fc
000000e0: f3da f207 3d4a 10f7 0253 bf1b dfc5 e4ea
000000f0: 2b17 2918 73fe 1950 df17 f02d d4d6 36f9
