v0.1/benchmarks/anomaly_detection/trained_models/ToyCar/baseline_tf23/model/model_ToyCar_quant.tflite (tflite, 275728 bytes, 20 tensors)

functional_1/dense/BiasAdd/ReadVariableOp/resource f4 [128]
000000 29 a5 0c bf c5 c7 02 c0 7a bb 94 3f 24 8d f7 40
       -0.54939514 -2.043443 1.1619713 7.735979
000010 d3 e6 6c 40 fa e8 1e 40 61 ae 4c 40 9c 08 98 bf
       3.7015884 2.4829698 3.1981432 -1.1877627
000020 3c 69 d8 be 3f f1 97 3e 01 de 1d 3f 6a 4c e4 3f
       -0.42267787 0.29676244 0.61666876 1.783582
000030 1e 66 e1 be d7 c4 9a 40 1d d7 98 40 a3 40 dd c0
       -0.44023222 4.8365283 4.776259 -6.91414
000040 a2 03 dd bf c4 42 fb be 31 d0 0d 40 48 4f 02 c0
       -1.7266734 -0.49074376 2.215832 -2.036089
000050 18 ae 87 c0 10 91 d5 c0 46 74 97 c0 34 c6 3b bf
       -4.2400017 -6.673958 -4.7329435 -0.7334931
000060 f8 76 be 40 7f 61 c1 c0 e2 36 fa 40 0a 23 81 3f
       5.9520226 -6.0431514 7.8191996 1.0088818
000070 aa 7c ab 40 b9 5d 67 40 c7 4d 6b c0 dd ba 24 bf
       5.358968 3.6150954 -3.6766222 -0.6434763
000080 e8 e3 c1 3f 45 67 17 40 64 6c 5f 40 a0 f0 df bd
       1.5147676 2.365678 3.4909906 -0.109345675
000090 7c 7f f1 c0 ea 1f 00 c1 4c 74 3f c0 5f 88 66 40
       -7.546812 -8.0077915 -2.9914732 3.6020734
0000a0 df fc 01 c1 d4 7a ef 40 34 56 36 41 82 b0 8d c0
       -8.124236 7.4837437 11.396046 -4.4277964
0000b0 46 0c 1d c0 8a f5 a1 c0 71 d3 6e 40 fe 14 2c c0
       -2.453874 -5.061223 3.7316554 -2.6887813
0000c0 12 bc 7e 3e 44 da 8b be 4b 8c e3 bf 59 36 78 c0
       0.2487643 -0.2731496 -1.7777189 -3.878317
0000d0 18 b4 49 c0 e7 5d 02 be e9 71 64 40 5e 66 98 c0
       -3.151617 -0.12731133 3.5694525 -4.762496
0000e0 a4 e8 82 3f f4 e1 88 c0 c6 ba dc 40 77 22 1b 40
       1.0227246 -4.277582 6.8977995 2.4239786
0000f0 c0 cb 77 40 5b e2 05 41 7c ee 11 c0 06 16 43 c0
       3.871811 8.367763 -2.280181 -3.0482192
000100 2c 6c 21 c1 c8 99 40 40 0c aa 9c c0 f6 fe 08 c1
       -10.088909 3.009386 -4.8957577 -8.562246
000110 f2 c8 21 40 d6 1d 49 40 ec 63 05 c0 bb 4a 86 40
       2.5278897 3.142446 -2.0842237 4.1966224
000120 5a 1a 0c 41 a6 b4 10 bf ec c7 8a c0 86 43 95 40
       8.7564335 -0.5652565 -4.3369045 4.6644926
000130 c1 6e 08 c0 74 ea 0d 40 80 04 31 be 8c 78 66 c0
       -2.13176 2.217435 -0.17286873 -3.6011076
000140 5f 52 d0 3f 9d 25 9f 3e 36 a4 4a c0 4e 86 7e 40
       1.6275138 0.31083384 -3.1662726 3.9769473
000150 9c cc be c0 b4 6b 91 3f 13 00 8b bf 01 18 27 40
       -5.9624767 1.1360993 -1.0859398 2.61084
000160 4e 6b 1c 40 ab 4c 10 40 4d 55 91 c0 8d 22 93 40
       2.4440494 2.2546794 -4.5416627 4.5979676
000170 27 9e 12 3f c6 e8 81 40 44 95 cf 3f 90 11 e1 c0
       0.5727257 4.0596647 1.6217427 -7.033394
000180 b7 a2 46 40 94 43 8d 40 74 2d e0 bf 24 b3 06 40
       3.1036813 4.4144993 -1.7513871 2.1046839
000190 e7 61 f7 40 23 46 77 3f 0d a0 03 40 dd a7 8d 40
       7.730701 0.96591395 2.0566437 4.426741
0001a0 4a fc c2 c0 88 14 84 40 8f e3 0a c1 6e 0f 0d 3f
       -6.093297 4.1275063 -8.680556 0.5510167
0001b0 12 3c 9f c0 66 31 d8 3f e8 e1 fd 3f c0 98 c5 bf
       -4.976083 1.6890075 1.9834566 -1.5437241
0001c0 f6 33 20 40 2e 44 0e c0 74 a7 36 bf 6a fb b8 bf
       2.5031714 -2.2229114 -0.71349263 -1.4451725
0001d0 31 8b 24 bf e2 57 2c 40 94 7c 93 bf b6 53 05 c0
       -0.6427489 2.692864 -1.1522393 -2.0832343
0001e0 82 fe 91 bf 0c cb 6b c0 30 7d 30 3e 0c dd 17 c0
       -1.1405795 -3.684268 0.17235255 -2.3728666
0001f0 a9 07 62 bf 18 bd 22 c0 00 18 f2 3c e9 96 82 40
       -0.8829294 -2.5427914 0.02955246 4.0809216

functional_1/dense_1/BiasAdd/ReadVariableOp/resource f4 [128]
000000 ed 6f 1f bf c8 ad 23 bf 08 f0 13 3e 48 e5 19 3f
       -0.6228016 -0.63937044 0.14447033 0.6011548
000010 3d c9 79 be 66 95 ff 3e 12 48 d8 be 34 86 f2 3f
       -0.24393173 0.4991867 -0.42242485 1.8947206
000020 eb 55 d4 be 64 bc 02 40 b1 d6 32 3f 2a 7c b3 be
       -0.414718 2.0427485 0.69858843 -0.35055667
000030 a8 98 82 3e c2 1f 24 bd 09 e9 21 bf e1 e7 33 3f
       0.25507092 -0.04006935 -0.6324621 0.70275694
000040 9b b4 54 3f ec 20 96 3d 36 e7 78 be 4a 9a 85 3f
       0.8308808 0.07330498 -0.2430695 1.043771
000050 d0 f8 7b 3f 7d f3 0a 3f f7 b6 3d be 10 76 17 bd
       0.9842653 0.54277784 -0.18526827 -0.036977828
000060 1c 4f 37 bf e8 91 2c 3e 04 95 e4 bf 2d 3d f7 be
       -0.71605086 0.16852534 -1.7857976 -0.4828886
000070 01 5c 7e 3f e4 02 13 3d dd 24 3b 3e f6 61 c3 3d
       0.99359137 0.03589143 0.18275781 0.09540169
000080 58 93 5a be 83 2c 16 bf ee b8 f6 be e1 f6 ad be
       -0.2134527 -0.5866167 -0.48187965 -0.33977416
000090 fc 16 f6 be 4e a4 ac be c8 be 86 bf 9c 4a 46 bf
       -0.4806441 -0.33719105 -1.0526972 -0.77457595
0000a0 7e fd f2 3d 1c b4 85 be 16 f7 49 bf e2 51 52 be
       0.11864756 -0.26113975 -0.7889265 -0.20539048
0000b0 31 e2 79 bd 43 62 c6 be ef 22 df be 1c c6 4a 3d
       -0.06100673 -0.38746843 -0.4358134 0.049505338
0000c0 fc 39 20 bf 34 a1 1a 3f 28 26 84 3e b0 6f 8b 3f
       -0.6258848 0.60402226 0.2581036 1.0893459
0000d0 ab 8c 46 be 35 8a 5a bf a8 8f 6a 3d 98 ee 5d bf
       -0.19389598 -0.8536714 0.057265908 -0.8669219
0000e0 00 c3 98 bc 33 9f 0a c0 1d 9b 3e 3f 40 b8 05 bc
       -0.01864767 -2.1659667 0.74455434 -0.008161604
0000f0 4d aa d5 be 7a 8f 07 3e e9 29 75 3e 36 58 33 bf
       -0.41731492 0.13238326 0.23941769 -0.70056474
000100 be 51 69 bf 0a ae 8b 3e dd 19 a3 bf de 4a 02 be
       -0.91140354 0.2728122 -1.2742268 -0.12723872
000110 61 8c 2d 3f cf f0 28 bf 95 07 9e bf b2 e8 d7 3e
       0.67792326 -0.65992445 -1.2346064 0.4216972
000120 3a a4 0a 3f 69 82 ff be f5 69 00 c0 b4 27 07 3f
       0.5415684 -0.49904183 -2.006467 0.5279496
000130 9f ae 05 bf ee f8 b8 be c6 7f 86 3d b4 37 22 be
       -0.52219576 -0.36127418 0.065673396 -0.15841562
000140 08 59 76 be 60 dc a8 3f b8 58 ea 3e 51 2b 67 3e
       -0.240574 1.3192253 0.45770812 0.22575118
000150 f8 55 1a 3e 5c 06 1e 3e 26 c3 bc 3e 26 7e 95 be
       0.15071857 0.15432113 0.36867636 -0.29197806
000160 6a de df be 35 0e 31 3f 3d ef 39 3f cf da 05 be
       -0.43724376 0.69162303 0.72630674 -0.1307175
000170 e8 b7 53 3f 54 ce 25 3e 2a 9a 17 bf 39 d8 75 3e
       0.82702494 0.16191989 -0.5921961 0.24008264
000180 3e 1e f3 3f 9e 19 91 be 18 19 91 be ee d2 52 be
       1.8993604 -0.28339857 -0.28339458 -0.20588276
000190 32 a9 67 3f 62 cd b0 bf c8 c1 fd bc 38 bf d2 bd
       0.90492547 -1.3812678 -0.030976191 -0.10290378
0001a0 0f 0e a3 3f 7c 96 e4 3c b0 a2 18 bf c2 05 e5 3e
       1.2738665 0.027903788 -0.5962324 0.44730955
0001b0 9d 89 8b 3f bf 53 4b 3e b6 99 9b bd fc e3 ae be
       1.0901371 0.19856165 -0.075976774 -0.34158313
0001c0 0a eb d6 3d 95 c3 74 3f 18 21 6d 3e 3c 55 61 bf
       0.10494049 0.95610934 0.23157156 -0.8802068
0001d0 7f ad 73 3f d2 9c c9 3e ae 07 97 bf 4c d7 8c 3c
       0.9518661 0.39377457 -1.1799219 0.017192505
0001e0 5c e4 a4 3d ea cc b6 3d 13 2c 66 3e 4d 3d b0 bd
       0.080513686 0.08925803 0.2247775 -0.08605442
0001f0 d4 8a 62 be d3 02 82 3f 86 94 b8 bf dc 0d 46 3f
       -0.22123271 1.0157112 -1.4420326 0.773649

functional_1/dense_2/BiasAdd/ReadVariableOp/resource f4 [128]
000000 b0 a2 fa 3e 3f d9 98 bf 90 28 bf 3e b6 0f 4b bd
       0.48952246 -1.1941298 0.37335634 -0.04957553
000010 b3 55 26 bd 62 33 2c bf 10 5d 32 bd e8 82 ae 3d
       -0.040609073 -0.67265904 -0.043545783 0.08521062
000020 72 2c 54 bd 9e 6a 48 3e c9 38 7b be a5 45 e3 3e
       -0.0518002 0.19571921 -0.2453338 0.44389072
000030 50 e1 ec bc 80 c2 05 3e 2c 7f 0a 3e 96 63 d9 3c
       -0.028916031 0.13062477 0.13525075 0.026536744
000040 30 90 7d be 0c 8a 04 3f a0 0a 64 be 60 8f 69 3d
       -0.24762034 0.5177314 -0.22269678 0.0570215
000050 00 a3 6d 3c 91 71 0e 3e e6 86 84 be c0 d9 81 bd
       0.014504194 0.1391051 -0.2588417 -0.06340361
000060 e1 20 0e 3e d6 40 ad 3e e0 d5 c0 3d 00 4e 25 bb
       0.1387973 0.33838528 0.094157934 -0.0025223494
000070 b0 db 98 3d ea cd d0 3c 35 50 ed 3e 50 bd f6 3d
       0.07463777 0.025488812 0.46350256 0.12047827
000080 8f d1 a6 3e c4 9a 72 3e b0 96 0a 3e 08 bc 06 3f
       0.32581756 0.23691851 0.13534045 0.5263066
000090 2c bf 0c bd 9f 17 e8 3d f2 75 a1 3b 10 a1 01 bc
       -0.034362003 0.1133263 0.0049273903 -0.007911935
0000a0 05 13 57 3f 14 8e 49 3e fa bf be bd 0c 7e a2 3e
       0.84013397 0.19683105 -0.093139604 0.3173679
0000b0 0e b8 de 3e 7e f5 82 3e 30 85 18 3d ad 3d d2 3e
       0.43499798 0.2557792 0.037236392 0.4106268
0000c0 ee 07 62 3e 39 c9 7f 3e 64 7f 89 3e 6e 7d 84 3d
       0.22073337 0.24979104 0.26855004 0.06469236
0000d0 48 a8 87 bd d0 78 01 bd 5c 17 a4 be 04 cb 2b 3f
       -0.06623894 -0.031609356 -0.32049072 0.6710665
0000e0 96 db 93 3d 78 71 bf 3d 48 2c eb 3c 80 00 bf 3e
       0.07219617 0.09347814 0.028707638 0.3730507
0000f0 50 a2 ee 3e 8c 2b fd 3d 64 0a 53 3d e3 ea 6f 3d
       0.4660821 0.123618215 0.05152358 0.058573615
000100 60 e1 fe 3d 68 b8 07 3e 80 d6 8c 3d 1b 6c 71 3e
       0.124453306 0.13253939 0.0687685 0.23576395
000110 e9 eb b2 3e 00 c1 d5 3b b8 58 a8 3d 87 53 91 3e
       0.3494561 0.0065232515 0.08220047 0.2838404
000120 80 55 d8 bc ce bf 31 3e c6 52 09 be 44 04 2c 3e
       -0.026407957 0.17358324 -0.13410482 0.16798502
000130 99 24 c3 be 3e c3 d3 3e 5c d5 25 3e 78 86 cd bd
       -0.3811386 0.41359895 0.16194671 -0.100354135
000140 08 53 8a 3d c2 29 80 be 83 63 3d 3f ea ce f6 bd
       0.06754118 -0.2503186 0.7397997 -0.120511845
000150 a6 28 3a 3e 11 bf 8b 3e f0 45 be 3e 28 a6 1d 3e
       0.18179569 0.2729421 0.37162733 0.15395415
000160 78 8f 17 3d 28 4d 08 3e 3c a2 a1 be 60 41 2e 3e
       0.037002057 0.13310683 -0.31569088 0.17017126
000170 38 fc a9 bf 00 a2 d3 ba 62 b8 14 be 92 11 96 bd
       -1.3280096 -0.0016146302 -0.14523461 -0.0732757
000180 f7 bd ec bc 10 98 76 be 64 15 15 be 83 5d 17 3d
       -0.028899176 -0.24081445 -0.14558941 0.036954414
000190 da cc b7 3d 20 c4 f0 bd 37 45 09 3d a6 39 ac 3e
       0.08974619 -0.11756158 0.033513274 0.33637732
0001a0 48 28 f4 3c d0 67 b6 3e 70 c9 f6 bd 56 a3 ff 3d
       0.029804364 0.35626078 -0.1205014 0.12482326
0001b0 d5 3e 4c 3d d0 42 fe bd d6 d6 3f 3e 81 e2 b8 bd
       0.04986461 -0.12415087 0.18734297 -0.09027577
0001c0 00 6f f5 b9 bd e2 ff bd 70 2d 4c be e9 9a 3c bd
       -0.00046812743 -0.12494419 -0.19939208 -0.04604617
0001d0 4a 24 51 be 12 87 4d 3c 00 f0 7d 3c ea 7f 42 bd
       -0.20424 0.01254441 0.015499115 -0.04748527
0001e0 68 04 3b bd c0 33 ab bc 48 59 49 3e a0 86 6f 3d
       -0.0456585 -0.0208987 0.19662964 0.058477998
0001f0 4b 22 26 be 5d 7e af be 40 db da 3a 45 36 76 3e
       -0.16224019 -0.34276095 0.0016697422 0.2404414

functional_1/dense_3/BiasAdd/ReadVariableOp/resource f4 [128]
000000 8d bc 99 bd 72 f2 86 3e fa 2a 19 3f ab b8 6d 3f
       -0.07506666 0.26356846 0.598312 0.92859906
000010 bc fa f9 3e 08 d0 13 3d 0c 74 6d 3f 04 86 b4 3d
       0.48824108 0.036087066 0.927552 0.08814624
000020 38 44 17 3e f7 46 13 3f 9e 93 83 bf 03 50 4a be
       0.14772117 0.5753016 -1.0279424 -0.19757085
000030 74 b1 dd be 36 25 60 bf f9 5a 03 bf b2 66 bf bf
       -0.43299448 -0.8755678 -0.5131069 -1.4953215
000040 1f 86 84 bf 30 37 01 bd 90 cd 05 be 40 b0 81 3d
       -1.035343 -0.03154677 -0.13066697 0.06332445
000050 e4 5c d4 3e c4 29 4e 3e 7a 26 8c 3e 1d 2a 41 bf
       0.4147712 0.2013312 0.27373105 -0.75454885
000060 2e c4 80 3e 6b 46 12 3f ac 58 a4 bd f9 8b 1f 3f
       0.25149673 0.571387 -0.08024725 0.62322956
000070 e7 23 a2 3f e4 8c a3 3f 6c 8a f5 bd 82 24 bf bd
       1.2667207 1.2777371 -0.119892925 -0.09333135
000080 b0 54 30 be bc b8 85 bf c2 b2 de bf 04 76 6e 3e
       -0.17219806 -1.0447001 -1.7398303 0.23287207
000090 c1 92 6b be 15 81 0e bf c7 a6 40 bf 65 9f d9 be
       -0.23005201 -0.55665714 -0.7525448 -0.4250442
0000a0 1b ca f0 3e 89 6e b9 bf 28 6f 51 3e 16 46 07 c0
       0.47029194 -1.4486858 0.20452559 -2.1136527
0000b0 13 d9 0b bf b3 de 18 3f 88 7f 51 bd 54 36 43 bf
       -0.54628104 0.5971481 -0.051147014 -0.76254773
0000c0 57 a4 8b 3d 5d 7f ae be 05 7e 79 3f 93 f3 1e bf
       0.06818455 -0.34081545 0.97457916 -0.62090415
0000d0 18 52 3f 3e e0 d7 d5 bc 8f 43 3a 3f 80 34 6b be
       0.1868366 -0.026103914 0.72759336 -0.22969246
0000e0 20 22 f8 3d 60 8c 0e 3e 86 38 b3 3e f8 95 13 3e
       0.12115884 0.13920736 0.3500406 0.14412677
0000f0 3a 5d 2b c0 46 78 9e 3e ae 8e a2 bd 80 21 eb bb
       -2.677565 0.30951136 -0.0793737 -0.0071756244
000100 bd 4c 01 c0 60 2c 8e bd 7c e1 10 bf 78 78 db 3d
       -2.0203087 -0.069420576 -0.5659406 0.10716337
000110 1f 0b 39 3e c7 1f 1c 3f ae 16 a3 be 82 f4 95 3e
       0.18070649 0.6098599 -0.3185324 0.29288107
000120 e0 7c 62 bc 4e 95 85 3d 95 73 50 3f e6 e4 dc 3e
       -0.013823718 0.06522618 0.81426364 0.43143386
000130 f4 36 ee 3e e8 8e 6e 3e 80 d1 94 3f 1a 45 f2 3e
       0.465263 0.23296702 1.1626434 0.47318345
000140 a3 3a 39 3f 80 61 b8 bd c6 19 d8 bd 9a ca 24 be
       0.723551 -0.09002972 -0.10551791 -0.16092911
000150 00 13 c5 3e e2 8e 8b 3e 06 54 87 3e b4 7f 4e 3f
       0.38491058 0.27257448 0.26431292 0.8066361
000160 83 74 28 bf 4a d7 e6 be 77 58 c5 be 11 07 2d 3f
       -0.6580278 -0.45086128 -0.38544056 0.6758891
000170 6c 26 65 3e 2c 77 f6 bf 1a 93 80 bd 9c 9b 93 be
       0.22377938 -1.9255118 -0.062780574 -0.28829658
000180 88 4b 16 be d8 7d 73 3d 0d b0 ff be 40 0b 15 be
       -0.1467725 0.059446186 -0.49939004 -0.14555073
000190 7b 69 a5 3e 3b a1 fe 3e 98 5e 75 3f f0 95 01 c0
       0.32307038 0.49732384 0.95847464 -2.0247765
0001a0 44 28 5e 3f be 00 3c bf b9 f9 8c be 1c 7f f7 3e
       0.8678019 -0.7343863 -0.27534273 0.48339164
0001b0 63 e5 0f bf a2 b7 cc 3f 09 62 00 40 7c 09 33 3f
       -0.5620939 1.599354 2.0059836 0.69936347
0001c0 de bd 1d be 96 2d 9a 3e 60 b7 39 be 54 1d 5f bd
       -0.1540446 0.30112904 -0.18136358 -0.05447133
0001d0 6a c4 39 bf e7 fd 70 bf 54 d5 84 3d c8 e8 89 be
       -0.7256533 -0.94137424 0.064860016 -0.2693541
0001e0 ee e7 96 bf 6d 20 bb 3e f3 d8 cf 3e e4 60 95 3f
       -1.1789529 0.36548176 0.40595207 1.1670194
0001f0 41 77 12 bf 1f d9 69 40 b3 ad a1 3e c2 a5 b1 bf
       -0.5721322 3.653877 0.31577834 -1.387871

functional_1/dense_4/BiasAdd/ReadVariableOp/resource f4 [8]
000000 2a 51 3d 40 87 29 2f 40 0c cb 08 40 57 14 02 40
       2.9580789 2.7369096 2.137393 2.0324914
000010 e2 a2 eb 3f 16 a9 da 3f de 61 b9 3f 7e 83 5f 40
       1.8409083 1.7082851 1.4482992 3.4924006

functional_1/dense_5/BiasAdd/ReadVariableOp/resource f4 [128]
000000 1d c4 91 bf f7 c8 1f 3f a8 df 96 c0 0d 1c ac c0
       -1.1387974 0.62416023 -4.714802 -5.378424
000010 31 6f 84 c0 40 14 82 40 4e df db 3f bf 3b 07 c1
       -4.138573 4.064972 1.7177522 -8.452086
000020 bc d7 6b c0 34 97 8c 3e 91 12 8d 3f 20 76 31 41
       -3.6850424 0.2745911 1.1021291 11.091339
000030 04 21 53 40 1d a9 9f c0 6c 7e 92 3e 9f ba 88 40
       3.29889 -4.9893937 0.28612077 4.272781
000040 3a 99 17 41 87 b9 08 c0 f5 7c 90 3f 7b f7 c4 c0
       9.474909 -2.1363237 1.1288134 -6.15521
000050 cc 5c 5a 40 7d 66 82 3f c0 f5 54 bf 3d f3 42 40
       3.4119139 1.0187527 -0.83187485 3.046096
000060 83 5b 7b 40 69 ee 52 bf e7 9f 8d 3f a0 f7 54 bf
       3.9274604 -0.82395035 1.1064423 -0.83190346
000070 24 00 73 c0 f6 7a 04 40 cc c5 d1 c0 4f 2e 80 3f
       -3.7968836 2.070005 -6.555395 1.0014132
000080 8c ab 9a 40 4d 9c 35 c0 a3 55 24 3f 8f 64 79 c0
       4.833441 -2.8376648 0.6419317 -3.8967626
000090 fc 84 61 3e f9 b4 30 40 ce 22 3e 40 c7 b7 6a 40
       0.22023386 2.7610457 2.9708743 3.6674669
0000a0 6f b4 ce 40 ba 35 80 40 22 86 c2 c0 9d 4d d9 40
       6.4595256 4.0065584 -6.0788736 6.7907243
0000b0 74 ed 49 c0 5d a8 73 bf 44 a3 23 41 ea b3 e6 3f
       -3.155118 -0.95178777 10.22736 1.8023655
0000c0 23 6c f6 3f 20 d6 6e c0 40 e2 43 c0 2d 2d 54 c0
       1.9251751 -3.7318192 -3.0606842 -3.3152573
0000d0 79 5c 30 c0 86 c0 af 40 fb 95 ad 40 59 b6 d5 40
       -2.755644 5.4922514 5.424558 6.678509
0000e0 35 cd 16 40 70 1e 1e c0 43 50 ec 3f 3e f3 6f c0
       2.3562748 -2.4706078 1.8461994 -3.7492213
0000f0 64 c0 f8 40 8a 1e 0a c0 7e 2f 28 c0 60 d6 07 41
       7.773485 -2.158114 -2.6278987 8.489838
000100 d8 61 18 c0 c8 19 b8 bf af 0c 26 c0 74 0a 32 c1
       -2.380972 -1.4382868 -2.5945241 -11.127552
000110 4d 52 63 c0 83 26 81 3f 39 6a e6 40 a7 0a b2 bf
       -3.5518982 1.0089878 7.2004666 -1.3909501
000120 62 62 25 3f bf 34 21 c1 e9 87 9a 40 24 27 84 40
       0.64603245 -10.075377 4.8290906 4.129778
000130 fd a1 b8 40 26 a1 9d 40 7c 84 84 c0 99 a2 9a c0
       5.769774 4.9259214 -4.1411724 -4.8323483
000140 cc e0 aa be 54 00 c7 3f 61 05 b7 bf ee c2 16 c1
       -0.3337463 1.5546975 -1.4298517 -9.42259
000150 bc 67 59 c0 49 c8 92 40 7c 67 d5 40 4c d9 24 40
       -3.3969564 4.586949 6.6688824 2.5757627
000160 c6 99 2a bf 00 41 28 40 1b 53 71 40 e2 81 55 c0
       -0.6664089 2.6289673 3.7706974 -3.3360524
000170 80 e2 e4 bb 8d 27 94 c0 81 9e c0 bf 9e e0 06 c0
       -0.0069850087 -4.629828 -1.5048372 -2.1074595
000180 7b ad 95 3e 22 af 71 40 cd e2 b4 40 59 db 93 c0
       0.29233918 3.7763143 5.6526856 -4.620526
000190 5f 68 e6 c0 d1 e5 80 3f b9 06 01 c1 bd e3 29 c1
       -7.2002406 1.0070134 -8.064141 -10.6181
0001a0 86 9c 4a 40 18 f4 a5 3d 5e 40 92 c0 18 32 86 c0
       3.1658034 0.08103198 -4.5703573 -4.193615
0001b0 ba 01 1a 40 36 9c 1e c0 0d 53 6f bf 0a 81 10 c0
       2.4063554 -2.4782844 -0.934861 -2.257876
0001c0 1c 26 75 bd bc 30 1b c1 4c 4b be bd 7a 8a ad c0
       -0.059850797 -9.699398 -0.092917055 -5.423154
0001d0 d2 9f bc 40 b0 2b e3 bf 48 8c 27 41 29 81 02 c0
       5.8945093 -1.7747707 10.471748 -2.0391333
0001e0 81 73 8b 3f d0 59 2a c0 ea 4c 0b 3f 19 a3 7b bf
       1.0894624 -2.6617317 0.54414237 -0.9829574
0001f0 ca ae 53 40 7f 55 b5 40 4d 23 f7 3e 6f 91 67 c0
       3.3075433 5.6666865 0.4826912 -3.6182516

functional_1/dense_6/BiasAdd/ReadVariableOp/resource f4 [128]
000000 b3 64 a5 3f 4f 0e f5 3e 1c 38 11 3f de 7e 52 bf
       1.2921356 0.4786248 0.5672624 -0.82224834
000010 97 ac 50 bf 92 1a 2a bf e4 15 ce 3d 0b b8 9c be
       -0.8151335 -0.66446793 0.10062769 -0.30609164
000020 92 d3 2e bf ec b5 44 3e 04 03 5d 3f 66 31 2b 3e
       -0.6829158 0.19210023 0.86332726 0.16718063
000030 27 aa 9c be 0d f5 a1 3f 08 58 25 3e db 2c 5c 3e
       -0.30598566 1.2652909 0.16146863 0.21501486
000040 ff e9 81 3f 9e 27 04 3f 2c e8 36 3f f0 9f 7d 3f
       1.0149535 0.5162295 0.71448016 0.9907217
000050 7c 6c d2 3f 04 fe b7 3e 00 44 07 3f 07 2f 8e bf
       1.6439357 0.35935986 0.52838135 -1.1108102
000060 ea 7e 18 3f dc 98 11 bf fe 49 40 bf 40 b4 23 bb
       0.59568655 -0.5687387 -0.75112903 -0.0024979264
000070 e0 0d 23 be ea f2 15 bf 6c d2 00 bd 42 ec 41 3f
       -0.15923262 -0.5857378 -0.031450674 0.75751126
000080 49 cf 9b 3f 67 ff 93 bf 34 70 53 3f b9 0c d6 3e
       1.2172633 -1.1562318 0.82593083 0.41806582
000090 77 a2 8f 3f c5 09 06 bf d2 c2 b2 3f 8a 22 d3 3e
       1.1221455 -0.5235866 1.3965704 0.4123729
0000a0 b8 7d 13 be 64 39 d8 bd 50 16 1f 3f a3 60 9b bf
       -0.14403427 -0.105578214 0.6214342 -1.2138866
0000b0 1e 21 49 3e e2 f2 ec bf f8 41 70 be e0 ec f8 3b
       0.1964154 -1.8511622 -0.23462665 0.007596597
0000c0 e8 21 90 3e b0 27 b2 3f d0 77 dc be ba 9e 54 3f
       0.28150868 1.3918362 -0.4306016 0.830547
0000d0 bd 1e a7 be 36 d7 87 3f e0 ba e2 3c 11 c9 e2 bf
       -0.3264064 1.0612552 0.027677 -1.7717611
0000e0 d5 c5 f0 be 62 19 22 3e 5e 39 aa 3f d0 f4 15 3d
       -0.47025934 0.15829995 1.3298757 0.036610425
0000f0 e2 ef f6 3e 5e 52 36 3f 26 85 24 bf d6 9c ee 3e
       0.4822989 0.7121943 -0.6426567 0.4660403
000100 23 c8 00 40 3d 1c bb 3e 79 fb 2a bf 28 f1 ad bd
       2.0122154 0.36544982 -0.66789967 -0.084932625
000110 56 7d 01 be 4f 14 11 bf f0 88 1e 3f 2c 57 6c 3f
       -0.12645468 -0.56671613 0.619277 0.92320514
000120 6e 28 32 3f 66 29 30 be 8f ca 1b 3f 34 c7 8b 3f
       0.6959294 -0.17203292 0.60855955 1.0920167
000130 20 5e 3b bf d2 d9 27 3e 1d c7 10 be 2a 6b 44 bd
       -0.731905 0.16391686 -0.14138456 -0.047953762
000140 a9 aa 35 3f 53 91 6f bf ac da 42 3e 98 0e 91 3e
       0.7096353 -0.9358112 0.19028729 0.28331447
000150 fe 1a 34 3f 44 38 56 bf 84 70 be 3e d6 41 22 3e
       0.70353687 -0.83679605 0.37195218 0.15845427
000160 0f 4c 71 be 08 b3 63 3d 9d c8 19 bf 18 3c b1 3e
       -0.2356417 0.05559066 -0.60071737 0.3461616
000170 a5 28 85 3f c5 fd cb 3f b2 b2 22 be 06 40 01 3f
       1.0403029 1.5936819 -0.1588848 0.50488317
000180 f6 46 9d 3d 08 a2 74 c0 d8 f4 42 bf 78 1b 7c bd
       0.0767955 -3.8223896 -0.7615485 -0.061549634
000190 f9 e5 c6 3e 0f c9 3c bf 44 10 32 be 46 a1 26 3f
       0.3884733 -0.7374429 -0.17389017 0.65089834
0001a0 91 9f 8a 3e 2f 0e 97 3e 86 cb 00 3f 36 8f e8 bd
       0.27074865 0.2950301 0.5031055 -0.1135544
0001b0 bf af 22 3f 1c 8b e2 be 32 df d1 3f 18 eb 49 40
       0.6354942 -0.44246757 1.6396239 3.154974
0001c0 0b 07 65 3f 78 a1 01 bf 4b 1a 30 3f 34 0c a4 bf
       0.8946387 -0.50637007 0.6879012 -1.2816224
0001d0 8f 7b b9 bf b0 c2 dd 3f ac 16 65 be 8b a3 b4 be
       -1.4490832 1.7325039 -0.2237193 -0.35281023
0001e0 7f d3 e4 bf e5 ec 0e 3e a0 fd 70 40 9b e1 98 bf
       -1.7877043 0.13957556 3.76548 -1.1943849
0001f0 0f a8 fd 3e d1 6a aa 3e ac 9d 2b be e1 71 c8 3f
       0.4954228 0.3328462 -0.16759366 1.5659753

functional_1/dense_7/BiasAdd/ReadVariableOp/resource f4 [128]
000000 92 1a 0f be d8 17 93 3f 12 6f e2 be ec 6d 1d 3e
       -0.1397498 1.1491652 -0.44225365 0.15373963
000010 7a e2 ee 3e 9a 1e b9 3e 06 fa ed be 14 5e 45 bd
       0.46657163 0.3615616 -0.46479815 -0.048185423
000020 1b 67 3a bf 34 a5 75 be da 43 bf be 62 3b cf 3f
       -0.72813576 -0.23988801 -0.37356454 1.6189997
000030 b8 05 66 bf d5 9a c2 3e 5b ba e2 3f 34 a3 70 bf
       -0.89852476 0.38008752 1.7713121 -0.9399903
000040 8d 07 2d 3f 57 b2 f2 3e a0 20 0c 3f c0 49 14 3b
       0.67589647 0.47401688 0.5473728 0.0022626966
000050 52 94 57 bf 50 14 0d bf 5e 98 a9 3e da 3b 2d 3f
       -0.84210694 -0.5510912 0.3312406 0.6766945
000060 b7 13 0c be de d3 b1 be 00 f9 3c 3d 15 e5 b4 bf
       -0.13679396 -0.34731954 0.046135902 -1.413241
000070 d7 55 81 3e 27 a3 e1 3f 58 1f d9 3e 04 4c a0 3e
       0.25260803 1.7627915 0.42406726 0.31307995
000080 ec 9a 91 bf f0 b1 85 3d 8d a9 9c be 2f c6 1d be
       -1.1375403 0.065280795 -0.30598107 -0.15407632
000090 20 50 6d 3f 9c 71 31 bf 85 1e 1d 40 14 ec 21 3f
       0.92700386 -0.6931398 2.4549878 0.6325085
0000a0 c7 6c a3 3e 25 48 15 40 89 57 4c bf 49 5c d4 3f
       0.31918928 2.3325284 -0.7982107 1.6590663
0000b0 8c 3d 21 3d 0c ae 8b bd 39 41 8e 3f ea 51 13 bf
       0.039365336 -0.06820306 1.1113654 -0.57546866
0000c0 fc 34 ba be f4 14 ab be e4 11 96 bf 67 77 55 3f
       -0.3636855 -0.33414423 -1.172421 0.8338532
0000d0 4c 1f 7a bf 0c 40 84 be 68 66 5d 3f 84 5c eb 3e
       -0.97704005 -0.25830114 0.86484385 0.4596902
0000e0 83 bd 89 be 88 24 d7 3e ee b2 2b 3f 78 a7 71 3d
       -0.26902398 0.4202006 0.670699 0.0589976
0000f0 f2 32 0f 40 b6 16 c8 be ca eb e1 be 64 8e 0b 3f
       2.2374845 -0.39079827 -0.44125205 0.54514146
000100 6e 12 08 bf 96 c0 47 3f 07 46 3d 3f ed a1 f0 be
       -0.5315312 0.7802824 0.7393498 -0.4699854
000110 52 7e 3b c0 14 81 1b 40 95 c0 43 be ac 9c a9 be
       -2.929585 2.4297533 -0.19116433 -0.33127344
000120 40 84 4e bd f0 fe 9b 3d c4 dd 7e 3f 8b 91 5c bf
       -0.050419092 0.07616985 0.9955714 -0.8615958
000130 95 6a 17 3f 8e c9 8e bf f8 ca ac bf 33 a9 4e 3e
       0.59147006 -1.115526 -1.3499441 0.20181732
000140 b4 9b 99 bd 92 10 af be 3c 06 d8 bf 34 f0 f4 3f
       -0.07500401 -0.3419233 -1.6876903 1.9135804
000150 f3 f9 99 3e eb 1a 88 3f 84 13 3a bf fe d1 06 3f
       0.3007351 1.0633215 -0.7268603 0.5266417
000160 94 f7 86 be 82 19 01 3f 72 e1 62 bf 3e ca bd be
       -0.26360762 0.50429547 -0.8862525 -0.3706836
000170 40 9d 46 3c 10 4b ba 3e 12 c1 31 be c8 d8 19 c0
       0.012122452 0.36385393 -0.17358807 -2.4038563
000180 13 aa da 3e c4 14 df be 24 48 29 40 00 e0 fc bb
       0.4270788 -0.4357053 2.645028 -0.0077171326
000190 a4 23 d5 3e ab f7 df 3e ea 3e 81 3f 37 2a 06 3f
       0.41628754 0.43743643 1.0097325 0.52408165
0001a0 ef 68 03 3e 6c 9a 32 40 08 c1 fa 3e b1 4e 62 bf
       0.12832998 2.7906752 0.48975396 -0.88401324
0001b0 4f 36 ce 3f 7b 2d 30 3e 63 a0 37 be 22 63 ad be
       1.6110324 0.1720485 -0.17932276 -0.33864695
0001c0 b4 fd bd 3f 71 3c 8f 3e 4e ec 88 be 8b 86 44 3f
       1.4843049 0.279758 -0.26742786 0.76767796
0001d0 3e de 23 3e a4 1a 4a 3f e8 d8 95 3f 76 0a 28 be
       0.16002747 0.789469 1.170682 -0.1641024
0001e0 21 6c 81 bd 7e b8 b9 3e 88 65 01 bd 1e 92 52 3f
       -0.06319452 0.3627357 -0.03159097 0.8225421
0001f0 5c e9 87 3f a2 1d 29 be d2 7b b1 bf ec ed 43 be
       1.0618091 -0.1651521 -1.3865912 -0.19133729

functional_1/dense_8/BiasAdd/ReadVariableOp/resource f4 [128]
000000 be 7f de be 60 13 2b 3d 0d 12 03 40 34 b8 42 3f
       -0.43456835 0.041766524 2.0479767 0.7606232
000010 c2 e1 b1 3f fc 3c 84 3f a0 b6 71 3d b3 80 a5 3f
       1.3897021 1.0331111 0.059012055 1.2929901
000020 11 59 17 40 17 01 f2 3f 41 5a 35 3f de 49 f2 3f
       2.3648112 1.8906583 0.7084084 1.8928792
000030 e6 87 7c bf ff b3 7c 3f 8b 71 a4 3e 78 1a 24 40
       -0.98644865 0.9871215 0.32117876 2.5641155
000040 b9 3d 9d 3f 2b 4b b9 3f c6 fe 28 40 fd fd b7 3f
       1.2284461 1.4476064 2.6405501 1.4374386
000050 5c 35 be 3f 24 03 3a 3f 86 31 9f be fd dd e1 3e
       1.4860034 0.7266104 -0.3109247 0.44114676
000060 fc c7 bd 3f 4b 9a 6e 3f ea 00 07 40 7f e2 a5 3e
       1.4826655 0.9320418 2.1094308 0.32399365
000070 8a d4 e6 3f d8 2a 6c be 01 5b ca 3f 26 ad 15 40
       1.8033612 -0.23063219 1.5809022 2.3386931
000080 80 3e 10 3f 02 cc eb 3e 25 b0 b1 3f 7e a8 cd 3f
       0.5634537 0.46054083 1.388188 1.6067045
000090 fe 37 38 3f 44 55 22 3f 6c 1c 29 40 8e 68 44 3f
       0.7196044 0.63411355 2.6423597 0.7672204
0000a0 c8 18 be 3f 8e 18 95 3e 16 95 af be 2e ea b0 3f
       1.4851313 0.29120296 -0.3429343 1.3821466
0000b0 6a f4 16 40 f8 ca 4b 40 fa 31 ee 3f 68 d5 1d 40
       2.3586679 3.1842632 1.8609002 2.4661503
0000c0 23 cb c6 3e ee fb 00 40 34 f6 ed 3f 3d 9b 31 3f
       0.38826856 2.0153766 1.859076 0.693775
0000d0 42 91 17 40 47 fc 4d 40 9a b4 b5 be 9e e3 a9 3f
       2.3682408 3.2185228 -0.3548935 1.3272588
0000e0 e8 3e 86 3f 28 51 38 3e f4 99 5e 3f c9 4a 95 3f
       1.0487947 0.17999709 0.86953664 1.1663448
0000f0 9a 18 82 3f b2 fa 5a 3e e2 8f 1c 3f e8 8b 28 3f
       1.0163758 0.21384695 0.6115705 0.6583848
000100 d8 1b 32 3f 14 8a 58 3f 40 bf fd bd 04 e7 61 40
       0.69573736 0.8458569 -0.12389994 3.529725
000110 7b 95 32 3f b0 4a c4 3e 1b 2a a6 3f bf a9 a6 3f
       0.6975934 0.38338232 1.29816 1.3020552
000120 0a 2d 64 bf e8 72 fa 3e 55 f6 8a 3f 40 85 df 3f
       -0.89131224 0.48915792 1.0856425 1.746254
000130 94 08 35 3e 68 d7 83 bd de 36 53 3f 9b 95 e4 3f
       0.17679054 -0.0643757 0.82505596 1.7858156
000140 d7 8e 64 3f b1 11 72 3f 2a 00 28 3f c0 7b 59 3e
       0.89280456 0.94558245 0.6562525 0.21238613
000150 c6 b6 07 3f c2 e7 0e 3f c8 f5 ac 3f 79 84 3d 40
       0.53013265 0.55822384 1.3512506 2.9612105
000160 60 c0 34 bd cb c5 a3 3f 42 1c 2d 3f 5e 30 d8 3e
       -0.044128776 1.2794737 0.67621243 0.422244
000170 6b a6 8f 3f 3c a2 43 be 86 76 f3 3e 43 14 52 3f
       1.1222662 -0.19104856 0.47551364 0.82062167
000180 88 2a 08 40 d4 1c 23 40 0c 6e c2 3f a8 d8 72 3e
       2.127596 2.5486345 1.5189834 0.2371546
000190 b8 08 34 3f ef 19 17 bf 62 90 a3 3f 71 b2 bc 3f
       0.70325804 -0.59023947 1.2778437 1.4741956
0001a0 58 bd 81 3e 40 07 1e bd f2 84 aa be 89 e7 f2 3f
       0.2533977 -0.038581133 -0.33304554 1.8976909
0001b0 1e a2 b4 3f 87 f7 d0 3f 83 21 af 3f ee 42 94 be
       1.4111974 1.6325539 1.3682102 -0.28957313
0001c0 cf bf ff 3f 2a ba 8d 3f e2 38 a6 3e fe ba 99 3f
       1.998041 1.1072438 0.32465273 1.201019
0001d0 18 d1 0a 40 5f 6e 40 40 c6 3d 13 3f 90 e1 99 3e
       2.169012 3.0067365 0.57516134 0.30054903
0001e0 52 57 32 40 37 44 bd 3f 69 d3 04 bf bd e7 1d 40
       2.7865796 1.4786443 -0.51885086 2.4672692
0001f0 14 7f 27 3f 56 3e b8 3e e4 01 d2 3f 3c cc 0d 40
       0.6542828 0.3598506 1.6406827 2.2155905

functional_1/dense_9/BiasAdd/ReadVariableOp/resource f4 [640]
000000 d2 ec c7 bf 6a 44 62 bf 34 21 96 be b1 e6 81 3d
       -1.5619147 -0.8838564 -0.29322207 0.06342829
000010 d6 b6 fe bc c2 32 6d bd 0b a0 a3 be fe c8 82 bd
       -0.031093042 -0.057909735 -0.3195804 -0.063859925
000020 63 c2 15 be a3 a7 6c 3d db aa 85 bc 21 c7 46 be
       -0.14624934 0.05777706 -0.016316822 -0.19411899
000030 75 a2 b9 be 30 4f 52 be 2f 9e ba be 36 89 de be
       -0.36256757 -0.2053802 -0.3644881 -0.4346406
000040 48 44 db be 6c 4a 1a be b4 5a 86 be f6 a0 93 be
       -0.42825532 -0.15067452 -0.26241076 -0.2883374
000050 a4 65 8d be 2f 38 b2 be f4 6b d3 be fa 49 e1 be
       -0.27616608 -0.3480849 -0.412933 -0.44001752
000060 7c 46 13 bf c5 ef dc be 03 f5 fa be 7d b6 af be
       -0.57529426 -0.4315168 -0.49015054 -0.34318915
000070 d6 e3 d9 be 34 0a f1 be 4d 7a ef be 21 80 a8 be
       -0.42556638 -0.47078097 -0.46772996 -0.32910255
000080 db 6e c6 be 23 9f 04 bf 19 93 1f bf b3 14 09 bf
       -0.3875645 -0.51805323 -0.6233383 -0.5354721
000090 1a 9c 07 bf 3b 64 d8 be 6f 9e db be d2 c3 fe be
       -0.5297257 -0.4226397 -0.42894313 -0.49758774
0000a0 1e 3a 1a bf c4 ea 79 be 4a 63 93 be 6e 24 fa be
       -0.6024493 -0.24405962 -0.2878669 -0.4885592
0000b0 f0 56 2c bf ec 59 bb be 11 0a 90 be 17 50 d6 be
       -0.67320156 -0.36592042 -0.2813268 -0.4185798
0000c0 a5 99 0b bf 0a 72 18 bf f2 ae f0 be 59 67 89 be
       -0.5453132 -0.5954901 -0.47008473 -0.2683666
0000d0 80 28 9a be 20 c6 ae be 3b fc a7 be a2 0c cd be
       -0.30109024 -0.34135532 -0.32809624 -0.400487
0000e0 a5 2c 06 bf e2 5d 1e bf c4 c1 24 bf b4 b0 1f bf
       -0.5241187 -0.61862004 -0.6435816 -0.62379
0000f0 c4 98 ef be b4 b8 a8 be 5b 76 c1 be 95 65 18 bf
       -0.46796238 -0.32953417 -0.3778561 -0.5953
000100 e4 38 1c bf cd 73 2d bf cb ad 20 bf 35 d7 33 bf
       -0.6102431 -0.6775482 -0.6276519 -0.70250255
000110 07 9a 32 bf f8 1a 1e bf 63 84 1f bf 40 26 16 bf
       -0.6976628 -0.617599 -0.6231138 -0.58652115
000120 6a ef 18 bf 52 03 03 bf 91 ed c0 be e1 d1 0c bf
       -0.59740317 -0.5117694 -0.3768125 -0.5500775
000130 3f af 0b bf 5e 56 2d bf 79 20 1a bf 5f b2 2a bf
       -0.5456428 -0.6770991 -0.602058 -0.6667842
000140 62 c9 4b bf 26 c5 3a bf 81 c2 44 bf 11 35 46 bf
       -0.7960416 -0.72957075 -0.7685929 -0.7742472
000150 ff cb 5e bf 53 81 7d bf 61 33 62 bf 1c 4c 78 bf
       -0.87030023 -0.9902546 -0.8835965 -0.96991134
000160 c6 51 4a bf eb 9c 57 bf ab 5a 3b bf 76 06 29 bf
       -0.79031026 -0.8422381 -0.73185223 -0.66025484
000170 e9 fa 4f bf b4 95 6f bf 50 e8 40 bf 36 97 46 bf
       -0.81242234 -0.93587804 -0.7535448 -0.7757448
000180 33 f7 6b bf f8 83 80 bf 07 98 64 bf 04 7e 32 bf
       -0.9217407 -1.0040274 -0.89294475 -0.69723535
000190 54 9b 35 bf 55 0a 54 bf 85 12 51 bf e7 24 62 bf
       -0.70940137 -0.82828265 -0.81668884 -0.8833756
0001a0 0a c4 5a bf 48 06 67 bf ae b8 56 bf 01 7d 5f bf
       -0.8545538 -0.9024396 -0.8387555 -0.87300116
0001b0 02 ca 98 bf b7 b4 7c bf f5 d7 46 bf 51 89 47 bf
       -1.1936648 -0.9871325 -0.77673274 -0.77943903
0001c0 d1 58 5a bf cd 5b 82 bf 13 6d 7b bf 84 76 6d bf
       -0.85291773 -1.0184265 -0.9821331 -0.92758965
0001d0 74 a6 82 bf db 5e 76 bf db 7d 80 bf 98 5a 86 bf
       -1.0207047 -0.9623849 -1.0038408 -1.0496397
0001e0 3d fb 7d bf 86 36 59 bf 4f 52 6a bf 2a 6b 3f bf
       -0.99211484 -0.8484882 -0.9153184 -0.74772894
0001f0 79 b5 4f bf 66 d2 6a bf 7e 2d ad bf e4 3c 0b c0
       -0.8113628 -0.9172729 -1.3529508 -2.1755915
000200 d7 02 c7 bf 98 7f 60 bf 1d bc 94 be 38 7c 51 3c
       -1.5547742 -0.8769469 -0.2904977 0.012785964
000210 30 d3 e7 bd b7 e5 26 be 6e e2 be be 36 26 13 be
       -0.11319578 -0.16298567 -0.37282127 -0.14370045
000220 d6 ba 68 be a0 3d 0d 3d cc e2 02 bd 30 3b 58 be
       -0.22727522 0.0344826 -0.03195457 -0.21116328
000230 3a ab bf be e6 75 36 be 13 cb a8 be 7a 71 d9 be
       -0.37435323 -0.17818412 -0.32967433 -0.42469388
000240 08 21 db be 90 72 28 be 91 37 81 be 7b 57 8a be
       -0.42798638 -0.16449952 -0.25237706 -0.27019867
000250 46 2e 71 be f5 da af be f3 39 d6 be 80 c6 d8 be
       -0.23552808 -0.34346738 -0.41841087 -0.42338943
000260 b2 81 1c bf 33 5b ea be b4 f4 04 bf 90 5d b3 be
       -0.611354 -0.45772704 -0.5193589 -0.3503232
000270 42 78 e3 be 08 25 00 bf de 96 f3 be b4 59 aa be
       -0.44427687 -0.50056505 -0.4757604 -0.33271563
000280 5b a6 c9 be f3 b9 0b bf 6d 5b 1f bf fb 57 08 bf
       -0.39384732 -0.5458061 -0.6224888 -0.5325925
000290 38 52 07 bf da 5b d4 be 6c 25 dc be e7 b7 ef be
       -0.5285983 -0.41476327 -0.429973 -0.46819994
0002a0 f9 09 12 bf c2 1e 70 be d3 60 84 be 95 cc fc be
       -0.5704647 -0.23449233 -0.2585512 -0.49374834
0002b0 6e 89 27 bf 1b 59 ac be a1 eb 9c be a8 39 e6 be
       -0.65444076 -0.33661732 -0.3064852 -0.44965863
0002c0 74 0b 0f bf 7f df 15 bf 4b 7a 04 bf 50 33 a7 be
       -0.5587685 -0.5854415 -0.51749104 -0.32656336
0002d0 d6 42 a0 be 54 b4 ae be 4b 2c a3 be bb 44 ca be
       -0.31300992 -0.34121954 -0.3186973 -0.39505562
0002e0 74 eb 0f bf 2f dc 1d bf 02 6d 1c bf 6d e9 1c bf
       -0.5621865 -0.616641 -0.6110383 -0.6129368
0002f0 ca 02 08 bf 3a 49 b7 be c3 c0 ba be 8c 16 0f bf
       -0.53129256 -0.35798055 -0.3647519 -0.5589378
000300 08 c1 1d bf 26 9b 26 bf ce e7 14 bf b8 91 2c bf
       -0.6162267 -0.6508049 -0.58166206 -0.6740985
000310 f1 63 29 bf cc fb 1f bf be 3f 1d bf 64 bb 10 bf
       -0.66168123 -0.62493587 -0.6142539 -0.56535935
000320 b1 06 12 bf 86 ba fa be 3b 24 b2 be 53 c1 07 bf
       -0.5704146 -0.4897043 -0.34793267 -0.53029364
000330 a2 52 07 bf bc 3b 23 bf 4e b4 1f bf c5 a3 32 bf
       -0.5286046 -0.6376302 -0.623845 -0.6978114
000340 6e ec 46 bf 3a 3a 36 bf 30 13 3f bf d9 0a 3e bf
       -0.77704513 -0.71182597 -0.7463865 -0.742353
000350 c1 31 50 bf 14 43 6a bf a3 18 47 bf 7c f5 52 bf
       -0.8132592 -0.91508603 -0.7777197 -0.8240583
000360 9e e9 3e bf 1e 1e 54 bf a0 02 2e bf 05 3d 1b bf
       -0.7457522 -0.82858455 -0.67972755 -0.60639983
000370 56 eb 46 bf 5e 69 68 bf 2f b6 3e bf 6f 92 4a bf
       -0.77702844 -0.9078578 -0.7449674 -0.7912969
000380 e4 2f 70 bf d8 62 81 bf 77 24 63 bf dc 1b 36 bf
       -0.93823075 -1.010829 -0.88727516 -0.7113626
000390 f1 c3 3e bf bf 33 4c bf dd 71 49 bf ab e6 61 bf
       -0.7451773 -0.7976646 -0.78689367 -0.88242596
0003a0 4c e1 54 bf 39 22 5e bf 66 56 4d bf 59 37 54 bf
       -0.83156276 -0.8677097 -0.8020996 -0.82896954
0003b0 99 37 94 bf d5 d3 76 bf 84 9f 3f bf a1 74 47 bf
       -1.1579467 -0.9641698 -0.74852777 -0.77912337
0003c0 88 9c 5b bf b2 e5 7a bf e5 5c 76 bf 7c 7c 6b bf
       -0.8578572 -0.9800674 -0.96235496 -0.91986823
0003d0 4b cd 79 bf e3 1d 6c bf 5f 6d 78 bf d6 5f 82 bf
       -0.9757888 -0.92233104 -0.9704189 -1.0185497
0003e0 c7 b8 6a bf 68 da 48 bf e5 ea 5c bf 88 9e 2f bf
       -0.916882 -0.7845826 -0.8629592 -0.68601274
0003f0 cd 75 3f bf e7 4d 5e bf f7 23 aa bf 69 bd 08 c0
       -0.74789125 -0.8683762 -1.3292226 -2.1365607

functional_1/dense/MatMul i1 [128, 640] scale=0.0003798215 zero_point=0
000000 ff fd ff ff fd fd fc ff fb ff 01 00 00 fe fc ff
       -0.0003798215 -0.0011394644 -0.0003798215 -0.0003798215 -0.0011394644 -0.0011394644 -0.001519286 -0.0003798215 -0.0018991075 -0.0003798215 0.0003798215 0.0 0.0 -0.000759643 -0.001519286 -0.0003798215
000010 fc fe 01 01 ff fe 00 fc fd fc f9 fc fd fb f6 f8
       -0.001519286 -0.000759643 0.0003798215 0.0003798215 -0.0003798215 -0.000759643 0.0 -0.001519286 -0.0011394644 -0.001519286 -0.0026587504 -0.001519286 -0.0011394644 -0.0018991075 -0.003798215 -0.003038572
000020 f7 f8 fc fc fe 01 fe fc fe ff 01 fd fe 03 01 00
       -0.0034183934 -0.003038572 -0.001519286 -0.001519286 -0.000759643 0.0003798215 -0.000759643 -0.001519286 -0.000759643 -0.0003798215 0.0003798215 -0.0011394644 -0.000759643 0.0011394644 0.0003798215 0.0
000030 03 00 01 00 01 01 ff fd fd fd fe fc fc fe ff fe
       0.0011394644 0.0 0.0003798215 0.0 0.0003798215 0.0003798215 -0.0003798215 -0.0011394644 -0.0011394644 -0.0011394644 -0.000759643 -0.001519286 -0.001519286 -0.000759643 -0.0003798215 -0.000759643
000040 fc f9 fb fa fd fe fd fc fc 00 02 fe fe fe 01 00
       -0.001519286 -0.0026587504 -0.0018991075 -0.0022789289 -0.0011394644 -0.000759643 -0.0011394644 -0.001519286 -0.001519286 0.0 0.000759643 -0.000759643 -0.000759643 -0.000759643 0.0003798215 0.0
000050 fc fe fd fb f8 f9 fd f9 fb f8 fc ff fd fc fb fb
       -0.001519286 -0.000759643 -0.0011394644 -0.0018991075 -0.003038572 -0.0026587504 -0.0011394644 -0.0026587504 -0.0018991075 -0.003038572 -0.001519286 -0.0003798215 -0.0011394644 -0.001519286 -0.0018991075 -0.0018991075
000060 fc fc fd fb fd fd fd fe fc fd fd fe fd 00 fc fe
       -0.001519286 -0.001519286 -0.0011394644 -0.0018991075 -0.0011394644 -0.0011394644 -0.0011394644 -0.000759643 -0.001519286 -0.0011394644 -0.0011394644 -0.000759643 -0.0011394644 0.0 -0.001519286 -0.000759643
000070 fc fe fd 00 fd fd fe ff ff 00 ff fe fe fe 00 fd
       -0.001519286 -0.000759643 -0.0011394644 0.0 -0.0011394644 -0.0011394644 -0.000759643 -0.0003798215 -0.0003798215 0.0 -0.0003798215 -0.000759643 -0.000759643 -0.000759643 0.0 -0.0011394644
000080 02 fe 01 03 03 02 fe fe fc 00 fe 00 01 ff fe fe
       0.000759643 -0.000759643 0.0003798215 0.0011394644 0.0011394644 0.000759643 -0.000759643 -0.000759643 -0.001519286 0.0 -0.000759643 0.0 0.0003798215 -0.0003798215 -0.000759643 -0.000759643
000090 fe ff ff 02 01 01 fc ff 00 ff fb fe fe fe fb f8
       -0.000759643 -0.0003798215 -0.0003798215 0.000759643 0.0003798215 0.0003798215 -0.001519286 -0.0003798215 0.0 -0.0003798215 -0.0018991075 -0.000759643 -0.000759643 -0.000759643 -0.0018991075 -0.003038572
0000a0 f9 fa fc fe ff 01 01 fd fd 00 03 02 03 05 05 06
       -0.0026587504 -0.0022789289 -0.001519286 -0.000759643 -0.0003798215 0.0003798215 0.0003798215 -0.0011394644 -0.0011394644 0.0 0.0011394644 0.000759643 0.0011394644 0.0018991075 0.0018991075 0.0022789289
0000b0 04 03 04 04 02 03 00 ff 02 fe ff 01 02 01 02 02
       0.001519286 0.0011394644 0.001519286 0.001519286 0.000759643 0.0011394644 0.0 -0.0003798215 0.000759643 -0.000759643 -0.0003798215 0.0003798215 0.000759643 0.0003798215 0.000759643 0.000759643
0000c0 00 fd ff 00 00 01 00 fd 00 03 03 02 01 01 02 00
       0.0 -0.0011394644 -0.0003798215 0.0 0.0 0.0003798215 0.0 -0.0011394644 0.0 0.0011394644 0.0011394644 0.000759643 0.0003798215 0.0003798215 0.000759643 0.0
0000d0 ff ff ff 00 fc fd 00 fd 01 ff fd fe ff fe fe fe
       -0.0003798215 -0.0003798215 -0.0003798215 0.0 -0.001519286 -0.0011394644 0.0 -0.0011394644 0.0003798215 -0.0003798215 -0.0011394644 -0.000759643 -0.0003798215 -0.000759643 -0.000759643 -0.000759643
0000e0 00 ff fd fd 01 03 02 03 ff ff ff ff fd 00 ff fe
       0.0 -0.0003798215 -0.0011394644 -0.0011394644 0.0003798215 0.0011394644 0.000759643 0.0011394644 -0.0003798215 -0.0003798215 -0.0003798215 -0.0003798215 -0.0011394644 0.0 -0.0003798215 -0.000759643
0000f0 02 01 01 03 01 01 00 03 03 04 03 03 03 04 06 03
       0.000759643 0.0003798215 0.0003798215 0.0011394644 0.0003798215 0.0003798215 0.0 0.0011394644 0.0011394644 0.001519286 0.0011394644 0.0011394644 0.0011394644 0.001519286 0.0022789289 0.0011394644

functional_1/dense_1/MatMul i1 [128, 128] scale=0.013248957 zero_point=0
000000 04 fb 00 ff 0b ff 01 00 ff 02 06 01 fe fe 02 fe
       0.052995827 -0.06624478 0.0 -0.013248957 0.14573853 -0.013248957 0.013248957 0.0 -0.013248957 0.026497914 0.07949374 0.013248957 -0.026497914 -0.026497914 0.026497914 -0.026497914
000010 fe 02 01 ff ff 02 fa ff 01 ff ff 01 02 0a 03 01
       -0.026497914 0.026497914 0.013248957 -0.013248957 -0.013248957 0.026497914 -0.07949374 -0.013248957 0.013248957 -0.013248957 -0.013248957 0.013248957 0.026497914 0.13248956 0.03974687 0.013248957
000020 04 ff ff 00 ff 00 fc 02 02 00 00 05 fe fe ff fb
       0.052995827 -0.013248957 -0.013248957 0.0 -0.013248957 0.0 -0.052995827 0.026497914 0.026497914 0.0 0.0 0.06624478 -0.026497914 -0.026497914 -0.013248957 -0.06624478
000030 ff fe 01 00 02 01 07 fd 06 fa fe 01 04 fd 00 f9
       -0.013248957 -0.026497914 0.013248957 0.0 0.026497914 0.013248957 0.0927427 -0.03974687 0.07949374 -0.07949374 -0.026497914 0.013248957 0.052995827 -0.03974687 0.0 -0.0927427
000040 00 fe fe 03 00 00 02 fe 00 01 02 01 ff 01 02 02
       0.0 -0.026497914 -0.026497914 0.03974687 0.0 0.0 0.026497914 -0.026497914 0.0 0.013248957 0.026497914 0.013248957 -0.013248957 0.013248957 0.026497914 0.026497914
000050 01 fd 02 ff ff 01 04 05 01 01 00 00 fe ff 01 00
       0.013248957 -0.03974687 0.026497914 -0.013248957 -0.013248957 0.013248957 0.052995827 0.06624478 0.013248957 0.013248957 0.0 0.0 -0.026497914 -0.013248957 0.013248957 0.0
000060 ff fc 03 fe 02 00 0d 04 ff ff 01 01 01 01 04 03
       -0.013248957 -0.052995827 0.03974687 -0.026497914 0.026497914 0.0 0.17223644 0.052995827 -0.013248957 -0.013248957 0.013248957 0.013248957 0.013248957 0.013248957 0.052995827 0.03974687
000070 01 01 ff 01 06 09 f2 00 02 fe 04 00 00 02 f6 ff
       0.013248957 0.013248957 -0.013248957 0.013248957 0.07949374 0.11924061 -0.1854854 0.0 0.026497914 -0.026497914 0.052995827 0.0 0.0 0.026497914 -0.13248956 -0.013248957
000080 fa fd 04 01 0b fd 04 03 04 00 fc 00 01 f6 00 fa
       -0.07949374 -0.03974687 0.052995827 0.013248957 0.14573853 -0.03974687 0.052995827 0.03974687 0.052995827 0.0 -0.052995827 0.0 0.013248957 -0.13248956 0.0 -0.07949374
000090 fe 00 03 00 ff 02 01 00 03 fe 01 ff 05 fd 08 04
       -0.026497914 0.0 0.03974687 0.0 -0.013248957 0.026497914 0.013248957 0.0 0.03974687 -0.026497914 0.013248957 -0.013248957 0.06624478 -0.03974687 0.105991654 0.052995827
0000a0 01 02 01 00 ff 07 04 00 f8 01 00 01 0a 03 ff 04
       0.013248957 0.026497914 0.013248957 0.0 -0.013248957 0.0927427 0.052995827 0.0 -0.105991654 0.013248957 0.0 0.013248957 0.13248956 0.03974687 -0.013248957 0.052995827
0000b0 fa ff fc fa fd 02 ff f7 01 00 03 02 ff 01 fe fa
       -0.07949374 -0.013248957 -0.052995827 -0.07949374 -0.03974687 0.026497914 -0.013248957 -0.11924061 0.013248957 0.0 0.03974687 0.026497914 -0.013248957 0.013248957 -0.026497914 -0.07949374
0000c0 fb ff 08 04 00 00 04 04 ff ff 04 fa 00 fd 04 01
       -0.06624478 -0.013248957 0.105991654 0.052995827 0.0 0.0 0.052995827 0.052995827 -0.013248957 -0.013248957 0.052995827 -0.07949374 0.0 -0.03974687 0.052995827 0.013248957
0000d0 02 04 08 00 fe 01 01 04 fb fd 02 fd fa 02 00 fe
       0.026497914 0.052995827 0.105991654 0.0 -0.026497914 0.013248957 0.013248957 0.052995827 -0.06624478 -0.03974687 0.026497914 -0.03974687 -0.07949374 0.026497914 0.0 -0.026497914
0000e0 01 00 05 03 02 fd 03 02 fb 03 10 01 f8 fe 02 01
       0.013248957 0.0 0.06624478 0.03974687 0.026497914 -0.03974687 0.03974687 0.026497914 -0.06624478 0.03974687 0.21198331 0.013248957 -0.105991654 -0.026497914 0.026497914 0.013248957
0000f0 08 07 00 06 09 00 00 00 01 02 02 00 ff 03 fa 04
       0.105991654 0.0927427 0.0 0.07949374 0.11924061 0.0 0.0 0.0 0.013248957 0.026497914 0.026497914 0.0 -0.013248957 0.03974687 -0.07949374 0.052995827

functional_1/dense_2/MatMul i1 [128, 128] scale=0.027808828 zero_point=0
000000 02 02 00 fb 00 fe fd 00 01 00 00 fe 00 fe 02 02
       0.055617657 0.055617657 0.0 -0.13904414 0.0 -0.055617657 -0.08342648 0.0 0.027808828 0.0 0.0 -0.055617657 0.0 -0.055617657 0.055617657 0.055617657
000010 ff 03 00 f9 fc 02 00 00 00 00 00 00 00 01 ff fb
       -0.027808828 0.08342648 0.0 -0.1946618 -0.11123531 0.055617657 0.0 0.0 0.0 0.0 0.0 0.0 0.0 0.027808828 -0.027808828 -0.13904414
000020 00 ff fd 00 01 01 00 03 00 00 fe 01 01 ff 01 00
       0.0 -0.027808828 -0.08342648 0.0 0.027808828 0.027808828 0.0 0.08342648 0.0 0.0 -0.055617657 0.027808828 0.027808828 -0.027808828 0.027808828 0.0
000030 fe ff ff f9 00 02 ff 00 01 00 01 ff 00 fe 01 fe
       -0.055617657 -0.027808828 -0.027808828 -0.1946618 0.0 0.055617657 -0.027808828 0.0 0.027808828 0.0 0.027808828 -0.027808828 0.0 -0.055617657 0.027808828 -0.055617657
000040 fd 00 fe 00 00 ff 01 00 00 ff 00 ff 00 fc 02 03
       -0.08342648 0.0 -0.055617657 0.0 0.0 -0.027808828 0.027808828 0.0 0.0 -0.027808828 0.0 -0.027808828 0.0 -0.11123531 0.055617657 0.08342648
000050 00 00 01 01 00 02 fe 00 02 01 ff fe fd ff 01 fe
       0.0 0.0 0.027808828 0.027808828 0.0 0.055617657 -0.055617657 0.0 0.055617657 0.027808828 -0.027808828 -0.055617657 -0.08342648 -0.027808828 0.027808828 -0.055617657
000060 00 ff 00 ff 00 01 03 02 02 fe 00 ff 03 01 ff fe
       0.0 -0.027808828 0.0 -0.027808828 0.0 0.027808828 0.08342648 0.055617657 0.055617657 -0.055617657 0.0 -0.027808828 0.08342648 0.027808828 -0.027808828 -0.055617657
000070 03 00 ff 02 ff ff 01 03 03 ff 01 00 ff 00 fe ff
       0.08342648 0.0 -0.027808828 0.055617657 -0.027808828 -0.027808828 0.027808828 0.08342648 0.08342648 -0.027808828 0.027808828 0.0 -0.027808828 0.0 -0.055617657 -0.027808828
000080 f9 ec 00 fc 08 04 fd fe 0b 03 da 0c 0c f7 fc 09
       -0.1946618 -0.55617654 0.0 -0.11123531 0.22247063 0.11123531 -0.08342648 -0.055617657 0.30589712 0.08342648 -1.0567355 0.33370593 0.33370593 -0.25027946 -0.11123531 0.25027946
000090 07 0a 07 fd fe 0d 03 1a f8 06 18 ff 06 fa 0b 05
       0.1946618 0.27808827 0.1946618 -0.08342648 -0.055617657 0.36151478 0.08342648 0.72302955 -0.22247063 0.16685297 0.66741186 -0.027808828 0.16685297 -0.16685297 0.30589712 0.13904414
0000a0 04 10 fa 02 fd 02 00 03 fc 0a 08 ee 05 01 f7 f9
       0.11123531 0.44494125 -0.16685297 0.055617657 -0.08342648 0.055617657 0.0 0.08342648 -0.11123531 0.27808827 0.22247063 -0.5005589 0.13904414 0.027808828 -0.25027946 -0.1946618
0000b0 fa 00 0b fc 00 06 04 03 ff 05 09 03 e9 07 01 fc
       -0.16685297 0.0 0.30589712 -0.11123531 0.0 0.16685297 0.11123531 0.08342648 -0.027808828 0.13904414 0.25027946 0.08342648 -0.6396031 0.1946618 0.027808828 -0.11123531
0000c0 02 fe e1 fb 00 00 fe cc 03 00 14 05 f8 01 fa f6
       0.055617657 -0.055617657 -0.86207366 -0.13904414 0.0 0.0 -0.055617657 -1.4460591 0.08342648 0.0 0.55617654 0.13904414 -0.22247063 0.027808828 -0.16685297 -0.27808827
0000d0 17 04 18 07 ff 26 fe f3 fc 01 fe f1 01 05 fe 13
       0.6396031 0.11123531 0.66741186 0.1946618 -0.027808828 1.0567355 -0.055617657 -0.36151478 -0.11123531 0.027808828 -0.055617657 -0.41713244 0.027808828 0.13904414 -0.055617657 0.52836776
0000e0 00 01 00 02 03 fc f9 f5 0a 01 fa 01 09 fd 04 f6
       0.0 0.027808828 0.0 0.055617657 0.08342648 -0.11123531 -0.1946618 -0.30589712 0.27808827 0.027808828 -0.16685297 0.027808828 0.25027946 -0.08342648 0.11123531 -0.27808827
0000f0 ff f7 01 fe f3 f7 fd f6 01 f8 f2 fb 00 fd 01 03
       -0.027808828 -0.25027946 0.027808828 -0.055617657 -0.36151478 -0.25027946 -0.08342648 -0.27808827 0.027808828 -0.22247063 -0.3893236 -0.13904414 0.0 -0.08342648 0.027808828 0.08342648

functional_1/dense_3/MatMul i1 [128, 128] scale=0.09469795 zero_point=0
000000 00 02 00 ff ff 00 00 00 ff 01 01 00 00 00 00 00
       0.0 0.1893959 0.0 -0.09469795 -0.09469795 0.0 0.0 0.0 -0.09469795 0.09469795 0.09469795 0.0 0.0 0.0 0.0 0.0
000010 00 00 01 00 00 ff ff 01 fe 01 fe 00 fd 01 02 01
       0.0 0.0 0.09469795 0.0 0.0 -0.09469795 -0.09469795 0.09469795 -0.1893959 0.09469795 -0.1893959 0.0 -0.28409386 0.09469795 0.1893959 0.09469795
000020 01 ff 00 00 01 00 00 00 00 00 ff ff 01 00 00 00
       0.09469795 -0.09469795 0.0 0.0 0.09469795 0.0 0.0 0.0 0.0 0.0 -0.09469795 -0.09469795 0.09469795 0.0 0.0 0.0
000030 02 00 ff 00 ff ff 00 00 03 01 00 00 00 fe ff 00
       0.1893959 0.0 -0.09469795 0.0 -0.09469795 -0.09469795 0.0 0.0 0.28409386 0.09469795 0.0 0.0 0.0 -0.1893959 -0.09469795 0.0
000040 02 00 01 01 00 00 fe 01 01 ff fc ff 00 01 01 02
       0.1893959 0.0 0.09469795 0.09469795 0.0 0.0 -0.1893959 0.09469795 0.09469795 -0.09469795 -0.3787918 -0.09469795 0.0 0.09469795 0.09469795 0.1893959
000050 01 00 00 fe 01 00 02 ff ff 00 ff 00 01 00 02 00
       0.09469795 0.0 0.0 -0.1893959 0.09469795 0.0 0.1893959 -0.09469795 -0.09469795 0.0 -0.09469795 0.0 0.09469795 0.0 0.1893959 0.0
000060 ff ff fe 00 01 00 01 00 ff 00 01 02 02 00 fe ff
       -0.09469795 -0.09469795 -0.1893959 0.0 0.09469795 0.0 0.09469795 0.0 -0.09469795 0.0 0.09469795 0.1893959 0.1893959 0.0 -0.1893959 -0.09469795
000070 00 00 00 fd 03 01 01 01 02 00 01 00 ff 00 ff 01
       0.0 0.0 0.0 -0.28409386 0.28409386 0.09469795 0.09469795 0.09469795 0.1893959 0.0 0.09469795 0.0 -0.09469795 0.0 -0.09469795 0.09469795
000080 02 01 01 03 fd 01 ff 00 ff 00 01 fe 00 fe 01 fe
       0.1893959 0.09469795 0.09469795 0.28409386 -0.28409386 0.09469795 -0.09469795 0.0 -0.09469795 0.0 0.09469795 -0.1893959 0.0 -0.1893959 0.09469795 -0.1893959
000090 01 fd 02 fd 00 fd ff 01 01 00 ff 00 01 04 fd ff
       0.09469795 -0.28409386 0.1893959 -0.28409386 0.0 -0.28409386 -0.09469795 0.09469795 0.09469795 0.0 -0.09469795 0.0 0.09469795 0.3787918 -0.28409386 -0.09469795
0000a0 00 fe 02 00 fd fe 02 00 00 00 fe 02 01 03 ff 00
       0.0 -0.1893959 0.1893959 0.0 -0.28409386 -0.1893959 0.1893959 0.0 0.0 0.0 -0.1893959 0.1893959 0.09469795 0.28409386 -0.09469795 0.0
0000b0 03 00 fe fe 02 03 00 00 00 02 00 00 ff 00 ff 00
       0.28409386 0.0 -0.1893959 -0.1893959 0.1893959 0.28409386 0.0 0.0 0.0 0.1893959 0.0 0.0 -0.09469795 0.0 -0.09469795 0.0
0000c0 02 ff 01 fc 00 00 00 01 01 01 01 01 00 01 01 fe
       0.1893959 -0.09469795 0.09469795 -0.3787918 0.0 0.0 0.0 0.09469795 0.09469795 0.09469795 0.09469795 0.09469795 0.0 0.09469795 0.09469795 -0.1893959
0000d0 01 00 03 00 01 00 01 01 ff 00 00 00 02 00 02 ff
       0.09469795 0.0 0.28409386 0.0 0.09469795 0.0 0.09469795 0.09469795 -0.09469795 0.0 0.0 0.0 0.1893959 0.0 0.1893959 -0.09469795
0000e0 ff 00 02 ff fe 00 04 00 00 ff 01 fe 01 00 ff ff
       -0.09469795 0.0 0.1893959 -0.09469795 -0.1893959 0.0 0.3787918 0.0 0.0 -0.09469795 0.09469795 -0.1893959 0.09469795 0.0 -0.09469795 -0.09469795
0000f0 01 fe ff 00 03 ff 00 05 01 02 01 ff 01 00 00 ff
       0.09469795 -0.1893959 -0.09469795 0.0 0.28409386 -0.09469795 0.0 0.47348976 0.09469795 0.1893959 0.09469795 -0.09469795 0.09469795 0.0 0.0 -0.09469795
