v0.1/benchmarks/anomaly_detection/trained_models/ToyCar/baseline_tf23/model/model_ToyCar_quant_fullint_micro.tflite (tflite, 277248 bytes, 10 tensors)

functional_1/dense/MatMul i1 [128, 640] scale=0.00027755965 zero_point=0
00000000: 1f51 6246 2909 191a fddf 02ee e9e9 0a0a
00000010: fd3f 3240 2c43 7556 4837 f6f0 0ff0 b492
00000020: d2dc 130a e2ed d6c0 ff0b 14e5 e6ef 2f30
00000030: 334b 4a22 e0eb e4df f5e5 e107 f5df f004
00000040: ecee f9ec cd0c 14f3 f1f4 efe3 e9e0 dce8
00000050: 1b08 e7d4 e0e8 0100 170b 08ff f60d f6f1
00000060: 0df9 e904 0911 2a17 1e0d 09f3 fef4 ec09
00000070: fbf6 0df9 f7ff 1112 0bf5 eff9 02fe 06f4
00000080: 2137 6b47 2c14 0744 32e3 dcd9 bbd5 0803
00000090: 021f 463a 2e34 5f5d 1d0e ebbe fe14 b3a2
000000a0: b7ac f7f7 e5ed edd9 0310 f503 03ff 4329
000000b0: 4551 0ffa f6c6 de02 08fa e4f0 e2ca edea
000000c0: f2df f6ec d3ef edd3 d1f5 fed5 dbdf d2f8
000000d0: 0af2 d8f7 f5e8 0d0f 1015 07ee 0e0e 09eb
000000e0: f311 fee0 1d0b ee14 ec11 0c14 15f9 0df7
000000f0: d4f2 d0e8 f3e9 01fe faf8 e816 fced 0c06
0.00860435 0.022482332 0.027200846 0.019429175 0.011379946 0.002498037 0.006938991 0.007216551
-0.000832679 -0.009159468 0.0005551193 -0.004996074 -0.006383872 -0.006383872 0.0027755965 0.0027755965
-0.000832679 0.017486257 0.013877982 0.017763818 0.012212625 0.018596496 0.03247448 0.02387013
0.019984296 0.0152657805 -0.0027755965 -0.0044409544 0.0041633947 -0.0044409544 -0.021094533 -0.030531561
-0.012767744 -0.009992148 0.005273633 0.0027755965 -0.008326789 -0.005273633 -0.011657505 -0.017763818
-0.00027755965 0.0030531562 0.005551193 -0.0074941106 -0.007216551 -0.004718514 0.0130453035 0.013322864
0.0141555425 0.020816974 0.020539414 0.009437028 -0.008881909 -0.0058287526 -0.0077716704 -0.009159468
-0.0030531562 -0.0074941106 -0.00860435 0.0019429176 -0.0030531562 -0.009159468 -0.0044409544 0.0011102386
-0.005551193 -0.004996074 -0.0019429176 -0.005551193 -0.0141555425 0.003330716 0.005551193 -0.0036082754
-0.0041633947 -0.003330716 -0.004718514 -0.00804923 -0.006383872 -0.008881909 -0.009992148 -0.006661432
0.0074941106 0.0022204772 -0.006938991 -0.012212625 -0.008881909 -0.006661432 0.00027755965 0.0
0.006383872 0.0030531562 0.0022204772 -0.00027755965 -0.0027755965 0.0036082754 -0.0027755965 -0.0041633947
0.0036082754 -0.0019429176 -0.006383872 0.0011102386 0.002498037 0.004718514 0.011657505 0.006383872
0.008326789 0.0036082754 0.002498037 -0.0036082754 -0.0005551193 -0.003330716 -0.005551193 0.002498037
-0.0013877982 -0.0027755965 0.0036082754 -0.0019429176 -0.002498037 -0.00027755965 0.004718514 0.004996074
0.0030531562 -0.0030531562 -0.004718514 -0.0019429176 0.0005551193 -0.0005551193 0.001665358 -0.003330716
0.009159468 0.0152657805 0.029698882 0.019706735 0.012212625 0.005551193 0.0019429176 0.018874057
0.013877982 -0.00804923 -0.009992148 -0.010824827 -0.019151617 -0.011935065 0.0022204772 0.000832679
0.0005551193 0.00860435 0.019429175 0.01609846 0.012767744 0.014433102 0.026368167 0.025813047
0.00804923 0.0038858352 -0.0058287526 -0.018318936 -0.0005551193 0.005551193 -0.021372093 -0.026090607
-0.020261854 -0.02331501 -0.002498037 -0.002498037 -0.0074941106 -0.005273633 -0.005273633 -0.010824827
0.000832679 0.0044409544 -0.0030531562 0.000832679 0.000832679 -0.00027755965 0.018596496 0.011379946
0.019151617 0.022482332 0.0041633947 -0.001665358 -0.0027755965 -0.01609846 -0.009437028 0.0005551193
0.0022204772 -0.001665358 -0.0077716704 -0.0044409544 -0.008326789 -0.014988221 -0.005273633 -0.0061063124
-0.0038858352 -0.009159468 -0.0027755965 -0.005551193 -0.012490184 -0.004718514 -0.005273633 -0.012490184
-0.0130453035 -0.0030531562 -0.0005551193 -0.011935065 -0.010269707 -0.009159468 -0.012767744 -0.0022204772
0.0027755965 -0.0038858352 -0.011102386 -0.002498037 -0.0030531562 -0.006661432 0.0036082754 0.0041633947
0.0044409544 0.0058287526 0.0019429176 -0.004996074 0.0038858352 0.0038858352 0.002498037 -0.0058287526
-0.0036082754 0.004718514 -0.0005551193 -0.008881909 0.00804923 0.0030531562 -0.004996074 0.005551193
-0.005551193 0.004718514 0.003330716 0.005551193 0.0058287526 -0.0019429176 0.0036082754 -0.002498037
-0.012212625 -0.0038858352 -0.013322864 -0.006661432 -0.0036082754 -0.006383872 0.00027755965 -0.0005551193
-0.001665358 -0.0022204772 -0.006661432 0.0061063124 -0.0011102386 -0.005273633 0.003330716 0.001665358

functional_1/dense_1/MatMul i1 [128, 128] scale=0.012640552 zero_point=0
00000000: fffe f2ff f903 0404 0301 00fd fe01 fefc
00000010: 04fb fa00 03f5 06fe 0102 07fc 00ff 0404
00000020: 0302 0401 fc01 fe05 fd01 04fd 0102 fffa
00000030: 0404 02fa 09ff ff02 f904 f0ff 00fd fcfc
00000040: 0b02 04fe 0309 12ff 0202 fdfa 04f9 08fd
00000050: 01ff fdff 0302 05f9 fc00 03fd fcfb 0505
00000060: 0002 0000 00fe fc01 0001 09fe fdf7 0102
00000070: 00fd 0402 05fa 0002 fa04 0000 feff 0402
00000080: 01ff fe00 04fc 0100 04fe fefb fdfc 0101
00000090: fdff fc07 00fe 0204 03f7 0bff 0101 fe00
000000a0: 02ff fa02 01f6 04fe 03fc 06fc 0002 1104
000000b0: 03fd fe01 fefc 0506 0201 0002 04fc 010c
000000c0: f902 08ff 0503 0004 08ff 0b00 00fc 0103
000000d0: fffe 00fc fd03 05ff ff00 fb0a 0900 0202
000000e0: f402 fc01 0101 0004 0001 05ff 02fe 0002
000000f0: f907 00fc 06fe 05fd 000a ff04 fb02 0002
-0.012640552 -0.025281103 -0.17696773 -0.012640552 -0.08848386 0.037921656 0.050562207 0.050562207
0.037921656 0.012640552 0.0 -0.037921656 -0.025281103 0.012640552 -0.025281103 -0.050562207
0.050562207 -0.06320276 -0.07584331 0.0 0.037921656 -0.13904607 0.07584331 -0.025281103
0.012640552 0.025281103 0.08848386 -0.050562207 0.0 -0.012640552 0.050562207 0.050562207
0.037921656 0.025281103 0.050562207 0.012640552 -0.050562207 0.012640552 -0.025281103 0.06320276
-0.037921656 0.012640552 0.050562207 -0.037921656 0.012640552 0.025281103 -0.012640552 -0.07584331
0.050562207 0.050562207 0.025281103 -0.07584331 0.113764964 -0.012640552 -0.012640552 0.025281103
-0.08848386 0.050562207 -0.20224883 -0.012640552 0.0 -0.037921656 -0.050562207 -0.050562207
0.13904607 0.025281103 0.050562207 -0.025281103 0.037921656 0.113764964 0.22752993 -0.012640552
0.025281103 0.025281103 -0.037921656 -0.07584331 0.050562207 -0.08848386 0.10112441 -0.037921656
0.012640552 -0.012640552 -0.037921656 -0.012640552 0.037921656 0.025281103 0.06320276 -0.08848386
-0.050562207 0.0 0.037921656 -0.037921656 -0.050562207 -0.06320276 0.06320276 0.06320276
0.0 0.025281103 0.0 0.0 0.0 -0.025281103 -0.050562207 0.012640552
0.0 0.012640552 0.113764964 -0.025281103 -0.037921656 -0.113764964 0.012640552 0.025281103
0.0 -0.037921656 0.050562207 0.025281103 0.06320276 -0.07584331 0.0 0.025281103
-0.07584331 0.050562207 0.0 0.0 -0.025281103 -0.012640552 0.050562207 0.025281103
0.012640552 -0.012640552 -0.025281103 0.0 0.050562207 -0.050562207 0.012640552 0.0
0.050562207 -0.025281103 -0.025281103 -0.06320276 -0.037921656 -0.050562207 0.012640552 0.012640552
-0.037921656 -0.012640552 -0.050562207 0.08848386 0.0 -0.025281103 0.025281103 0.050562207
0.037921656 -0.113764964 0.13904607 -0.012640552 0.012640552 0.012640552 -0.025281103 0.0
0.025281103 -0.012640552 -0.07584331 0.025281103 0.012640552 -0.12640552 0.050562207 -0.025281103
0.037921656 -0.050562207 0.07584331 -0.050562207 0.0 0.025281103 0.21488938 0.050562207
0.037921656 -0.037921656 -0.025281103 0.012640552 -0.025281103 -0.050562207 0.06320276 0.07584331
0.025281103 0.012640552 0.0 0.025281103 0.050562207 -0.050562207 0.012640552 0.15168662
-0.08848386 0.025281103 0.10112441 -0.012640552 0.06320276 0.037921656 0.0 0.050562207
0.10112441 -0.012640552 0.13904607 0.0 0.0 -0.050562207 0.012640552 0.037921656
-0.012640552 -0.025281103 0.0 -0.050562207 -0.037921656 0.037921656 0.06320276 -0.012640552
-0.012640552 0.0 -0.06320276 0.12640552 0.113764964 0.0 0.025281103 0.025281103
-0.15168662 0.025281103 -0.050562207 0.012640552 0.012640552 0.012640552 0.0 0.050562207
0.0 0.012640552 0.06320276 -0.012640552 0.025281103 -0.025281103 0.0 0.025281103
-0.08848386 0.08848386 0.0 -0.050562207 0.07584331 -0.025281103 0.06320276 -0.037921656
0.0 0.12640552 -0.012640552 0.050562207 -0.06320276 0.025281103 0.0 0.025281103

functional_1/dense_2/MatMul i1 [128, 128] scale=0.03733857 zero_point=0
00000000: fe00 0100 0000 01ff 0200 0001 fd01 0101
00000010: 0001 ff01 fe02 0101 fffd fdff 0101 0102
00000020: 03fe ffff 0102 ff00 00fe 0200 0201 ff00
00000030: 01fe 01ff fa00 00f7 02fd ff00 fe01 0005
00000040: 0000 fd03 0100 0102 0001 0102 00ff 00fe
00000050: fe00 0100 06ff fe03 fefd fffe 0201 0002
00000060: 00fd 00fe 0004 00ff f9f6 fe00 ff01 0100
00000070: 0102 0200 0100 00ff 0201 03d9 fe01 0100
00000080: ffff feff fffe fe03 fe00 fc00 0100 fd00
00000090: fb02 01fe 00fb ffff 0101 04fe 01f8 05ff
000000a0: 0106 04fc ff03 fdfd 02fe 0102 01fc 00f8
000000b0: 01ff fe03 fe00 ff02 0400 0600 0004 fcfe
000000c0: ff01 0206 0402 0201 0103 0101 01fd f300
000000d0: 01fe fc00 ff01 fa02 01fd fffe 0202 0202
000000e0: 0201 0300 fe02 f906 01ff fe02 fa01 0203
000000f0: ff00 f0fd 0001 0103 05f9 ffff fffe 03fd
-0.07467714 0.0 0.03733857 0.0 0.0 0.0 0.03733857 -0.03733857
0.07467714 0.0 0.0 0.03733857 -0.11201571 0.03733857 0.03733857 0.03733857
0.0 0.03733857 -0.03733857 0.03733857 -0.07467714 0.07467714 0.03733857 0.03733857
-0.03733857 -0.11201571 -0.11201571 -0.03733857 0.03733857 0.03733857 0.03733857 0.07467714
0.11201571 -0.07467714 -0.03733857 -0.03733857 0.03733857 0.07467714 -0.03733857 0.0
0.0 -0.07467714 0.07467714 0.0 0.07467714 0.03733857 -0.03733857 0.0
0.03733857 -0.07467714 0.03733857 -0.03733857 -0.22403142 0.0 0.0 -0.3360471
0.07467714 -0.11201571 -0.03733857 0.0 -0.07467714 0.03733857 0.0 0.18669285
0.0 0.0 -0.11201571 0.11201571 0.03733857 0.0 0.03733857 0.07467714
0.0 0.03733857 0.03733857 0.07467714 0.0 -0.03733857 0.0 -0.07467714
-0.07467714 0.0 0.03733857 0.0 0.22403142 -0.03733857 -0.07467714 0.11201571
-0.07467714 -0.11201571 -0.03733857 -0.07467714 0.07467714 0.03733857 0.0 0.07467714
0.0 -0.11201571 0.0 -0.07467714 0.0 0.14935428 0.0 -0.03733857
-0.26137 -0.3733857 -0.07467714 0.0 -0.03733857 0.03733857 0.03733857 0.0
0.03733857 0.07467714 0.07467714 0.0 0.03733857 0.0 0.0 -0.03733857
0.07467714 0.03733857 0.11201571 -1.4562042 -0.07467714 0.03733857 0.03733857 0.0
-0.03733857 -0.03733857 -0.07467714 -0.03733857 -0.03733857 -0.07467714 -0.07467714 0.11201571
-0.07467714 0.0 -0.14935428 0.0 0.03733857 0.0 -0.11201571 0.0
-0.18669285 0.07467714 0.03733857 -0.07467714 0.0 -0.18669285 -0.03733857 -0.03733857
0.03733857 0.03733857 0.14935428 -0.07467714 0.03733857 -0.29870856 0.18669285 -0.03733857
0.03733857 0.22403142 0.14935428 -0.14935428 -0.03733857 0.11201571 -0.11201571 -0.11201571
0.07467714 -0.07467714 0.03733857 0.07467714 0.03733857 -0.14935428 0.0 -0.29870856
0.03733857 -0.03733857 -0.07467714 0.11201571 -0.07467714 0.0 -0.03733857 0.07467714
0.14935428 0.0 0.22403142 0.0 0.0 0.14935428 -0.14935428 -0.07467714
-0.03733857 0.03733857 0.07467714 0.22403142 0.14935428 0.07467714 0.07467714 0.03733857
0.03733857 0.11201571 0.03733857 0.03733857 0.03733857 -0.11201571 -0.4854014 0.0
0.03733857 -0.07467714 -0.14935428 0.0 -0.03733857 0.03733857 -0.22403142 0.07467714
0.03733857 -0.11201571 -0.03733857 -0.07467714 0.07467714 0.07467714 0.07467714 0.07467714
0.07467714 0.03733857 0.11201571 0.0 -0.07467714 0.07467714 -0.26137 0.22403142
0.03733857 -0.03733857 -0.07467714 0.07467714 -0.22403142 0.03733857 0.07467714 0.11201571
-0.03733857 0.0 -0.5974171 -0.11201571 0.0 0.03733857 0.03733857 0.11201571
0.18669285 -0.26137 -0.03733857 -0.03733857 -0.03733857 -0.07467714 0.11201571 -0.11201571

functional_1/dense_3/MatMul i1 [128, 128] scale=0.08097847 zero_point=0
00000000: 03fa 00fd 04f7 0004 0307 fc07 fd03 fef7
00000010: 0104 03fe 0100 0400 ff02 fdfc fdff 0105
00000020: 01fe 00ff fcfd feff 01ff 03ff 00fc 07ff
00000030: 02fa fe01 fefb faf8 ffff fe05 ffff fafb
00000040: ff00 fdfd de04 06f9 0503 00f1 0002 ffff
00000050: 02fc 0201 f706 fc01 020a 0205 03ff fe00
00000060: 0302 0106 0201 0500 00f8 02ff 0400 fa04
00000070: fafe fb00 fcff fefb 0100 fe02 fffd fa01
00000080: d400 0400 ff01 01ff 0001 02fc 0000 0200
00000090: 0100 02fd fb01 ff00 ff00 ff02 00ff 0000
000000a0: fffe 0501 01fd 01ff 00fe ffff 00fd 0000
000000b0: 0100 01fd cd02 05ff ffff ff02 e600 0001
000000c0: fb00 0102 00ff fcfe 0102 01fa 0000 ff01
000000d0: fefe 0301 fd01 fe01 0011 00fc 0000 ff00
000000e0: ffff 00ff 0200 0003 01ff 00ff 01ff fffc
000000f0: 0001 0000 0000 00f5 0206 01ff 0bff 0101
0.2429354 -0.4858708 0.0 -0.2429354 0.32391387 -0.7288062 0.0 0.32391387
0.2429354 0.5668493 -0.32391387 0.5668493 -0.2429354 0.2429354 -0.16195694 -0.7288062
0.08097847 0.32391387 0.2429354 -0.16195694 0.08097847 0.0 0.32391387 0.0
-0.08097847 0.16195694 -0.2429354 -0.32391387 -0.2429354 -0.08097847 0.08097847 0.40489233
0.08097847 -0.16195694 0.0 -0.08097847 -0.32391387 -0.2429354 -0.16195694 -0.08097847
0.08097847 -0.08097847 0.2429354 -0.08097847 0.0 -0.32391387 0.5668493 -0.08097847
0.16195694 -0.4858708 -0.16195694 0.08097847 -0.16195694 -0.40489233 -0.4858708 -0.64782774
-0.08097847 -0.08097847 -0.16195694 0.40489233 -0.08097847 -0.08097847 -0.4858708 -0.40489233
-0.08097847 0.0 -0.2429354 -0.2429354 -2.753268 0.32391387 0.4858708 -0.5668493
0.40489233 0.2429354 0.0 -1.214677 0.0 0.16195694 -0.08097847 -0.08097847
0.16195694 -0.32391387 0.16195694 0.08097847 -0.7288062 0.4858708 -0.32391387 0.08097847
0.16195694 0.80978465 0.16195694 0.40489233 0.2429354 -0.08097847 -0.16195694 0.0
0.2429354 0.16195694 0.08097847 0.4858708 0.16195694 0.08097847 0.40489233 0.0
0.0 -0.64782774 0.16195694 -0.08097847 0.32391387 0.0 -0.4858708 0.32391387
-0.4858708 -0.16195694 -0.40489233 0.0 -0.32391387 -0.08097847 -0.16195694 -0.40489233
0.08097847 0.0 -0.16195694 0.16195694 -0.08097847 -0.2429354 -0.4858708 0.08097847
-3.5630527 0.0 0.32391387 0.0 -0.08097847 0.08097847 0.08097847 -0.08097847
0.0 0.08097847 0.16195694 -0.32391387 0.0 0.0 0.16195694 0.0
0.08097847 0.0 0.16195694 -0.2429354 -0.40489233 0.08097847 -0.08097847 0.0
-0.08097847 0.0 -0.08097847 0.16195694 0.0 -0.08097847 0.0 0.0
-0.08097847 -0.16195694 0.40489233 0.08097847 0.08097847 -0.2429354 0.08097847 -0.08097847
0.0 -0.16195694 -0.08097847 -0.08097847 0.0 -0.2429354 0.0 0.0
0.08097847 0.0 0.08097847 -0.2429354 -4.129902 0.16195694 0.40489233 -0.08097847
-0.08097847 -0.08097847 -0.08097847 0.16195694 -2.1054401 0.0 0.0 0.08097847
-0.40489233 0.0 0.08097847 0.16195694 0.0 -0.08097847 -0.32391387 -0.16195694
0.08097847 0.16195694 0.08097847 -0.4858708 0.0 0.0 -0.08097847 0.08097847
-0.16195694 -0.16195694 0.2429354 0.08097847 -0.2429354 0.08097847 -0.16195694 0.08097847
0.0 1.376634 0.0 -0.32391387 0.0 0.0 -0.08097847 0.0
-0.08097847 -0.08097847 0.0 -0.08097847 0.16195694 0.0 0.0 0.2429354
0.08097847 -0.08097847 0.0 -0.08097847 0.08097847 -0.08097847 -0.08097847 -0.32391387
0.0 0.08097847 0.0 0.0 0.0 0.0 0.0 -0.89076316
0.16195694 0.4858708 0.08097847 -0.08097847 0.89076316 -0.08097847 0.08097847 0.08097847

functional_1/dense_4/MatMul i1 [8, 128] scale=0.006143213 zero_point=0
00000000: 0552 02fb 0105 f9d8 0402 08fe f007 f7fe
00000010: fd04 fcfd 0207 ecff fcfd fc00 fe01 00fe
00000020: fcfb 05ff d72b fbf6 0703 fed8 f9fd fafb
00000030: f6fd fc09 07fd fd03 fffb 0403 f4fb 160f
00000040: 0003 1000 04fe eff7 fdf7 fff9 fdfa 040c
00000050: f203 1bfe 0804 0803 1c0b eef7 ff0f 05fc
00000060: 03f0 e8f7 0704 050d 1000 1206 00ff fa05
00000070: 0c13 0013 fdfd fa00 0001 f3fa fd06 0103
00000080: 0303 0202 0002 0504 ffff fe06 fcfd 05fd
00000090: 01f9 fd02 0630 0602 f903 0a00 00fd 051a
000000a0: fdfd f10a fe02 00fb fc01 01fb 0101 fffb
000000b0: 1902 03f4 fdfd 00fd 0306 0111 f708 f1fb
000000c0: e8f5 fe00 04fc 09fb 0606 fff0 fd02 0209
000000d0: f804 ecfa fdff 0002 ee25 0103 fbfe 07f4
000000e0: 0300 1d05 fc0d 0400 fbee fe0e 0201 fe01
000000f0: 0d02 08f2 04fc 0901 fc01 fffd 0300 08f8
0.030716063 0.50374347 0.012286426 -0.030716063 0.006143213 0.030716063 -0.04300249 -0.24572851
0.024572851 0.012286426 0.049145702 -0.012286426 -0.098291405 0.04300249 -0.055288915 -0.012286426
-0.018429639 0.024572851 -0.024572851 -0.018429639 0.012286426 0.04300249 -0.122864254 -0.006143213
-0.024572851 -0.018429639 -0.024572851 0.0 -0.012286426 0.006143213 0.0 -0.012286426
-0.024572851 -0.030716063 0.030716063 -0.006143213 -0.25187173 0.26415816 -0.030716063 -0.061432127
0.04300249 0.018429639 -0.012286426 -0.24572851 -0.04300249 -0.018429639 -0.036859278 -0.030716063
-0.061432127 -0.018429639 -0.024572851 0.055288915 0.04300249 -0.018429639 -0.018429639 0.018429639
-0.006143213 -0.030716063 0.024572851 0.018429639 -0.073718555 -0.030716063 0.13515069 0.09214819
0.0 0.018429639 0.098291405 0.0 0.024572851 -0.012286426 -0.10443462 -0.055288915
-0.018429639 -0.055288915 -0.006143213 -0.04300249 -0.018429639 -0.036859278 0.024572851 0.073718555
-0.08600498 0.018429639 0.16586675 -0.012286426 0.049145702 0.024572851 0.049145702 0.018429639
0.17200996 0.06757534 -0.11057783 -0.055288915 -0.006143213 0.09214819 0.030716063 -0.024572851
0.018429639 -0.098291405 -0.14743711 -0.055288915 0.04300249 0.024572851 0.030716063 0.07986177
0.098291405 0.0 0.11057783 0.036859278 0.0 -0.006143213 -0.036859278 0.030716063
0.073718555 0.11672104 0.0 0.11672104 -0.018429639 -0.018429639 -0.036859278 0.0
0.0 0.006143213 -0.07986177 -0.036859278 -0.018429639 0.036859278 0.006143213 0.018429639
0.018429639 0.018429639 0.012286426 0.012286426 0.0 0.012286426 0.030716063 0.024572851
-0.006143213 -0.006143213 -0.012286426 0.036859278 -0.024572851 -0.018429639 0.030716063 -0.018429639
0.006143213 -0.04300249 -0.018429639 0.012286426 0.036859278 0.29487422 0.036859278 0.012286426
-0.04300249 0.018429639 0.061432127 0.0 0.0 -0.018429639 0.030716063 0.15972354
-0.018429639 -0.018429639 -0.09214819 0.061432127 -0.012286426 0.012286426 0.0 -0.030716063
-0.024572851 0.006143213 0.006143213 -0.030716063 0.006143213 0.006143213 -0.006143213 -0.030716063
0.15358032 0.012286426 0.018429639 -0.073718555 -0.018429639 -0.018429639 0.0 -0.018429639
0.018429639 0.036859278 0.006143213 0.10443462 -0.055288915 0.049145702 -0.09214819 -0.030716063
-0.14743711 -0.06757534 -0.012286426 0.0 0.024572851 -0.024572851 0.055288915 -0.030716063
0.036859278 0.036859278 -0.006143213 -0.098291405 -0.018429639 0.012286426 0.012286426 0.055288915
-0.049145702 0.024572851 -0.122864254 -0.036859278 -0.018429639 -0.006143213 0.0 0.012286426
-0.11057783 0.22729887 0.006143213 0.018429639 -0.030716063 -0.012286426 0.04300249 -0.073718555
0.018429639 0.0 0.17815317 0.030716063 -0.024572851 0.07986177 0.024572851 0.0
-0.030716063 -0.11057783 -0.012286426 0.08600498 0.012286426 0.006143213 -0.012286426 0.006143213
0.07986177 0.012286426 0.049145702 -0.08600498 0.024572851 -0.024572851 0.055288915 0.006143213
-0.024572851 0.006143213 -0.006143213 -0.018429639 0.018429639 0.0 0.049145702 -0.049145702

functional_1/dense_5/MatMul i1 [128, 8] scale=0.037909158 zero_point=0
00000000: f5eb 02ed e30b fcff 05f6 e410 e803 02e8
00000010: 08fc 0208 01e1 fc02 e1f8 fff8 fdf4 f5fc
00000020: 17f5 e8f7 d8c7 05f2 b3f8 05fe ed09 050c
00000030: 0007 08e8 f807 01f2 0d13 fc1a edf0 fcfe
00000040: f106 14f8 f0ef f70b 180a f6fa 0505 0303
00000050: 09e7 0f0e f6ed fc06 06fe f2ef f80c d803
00000060: f7f4 fb3a ec1b efee 010d 121d f409 fffe
00000070: 0506 fe08 dfe2 0325 02cf 08f3 1414 fcd6
00000080: 020b e6fe fc01 0415 f9f9 fe16 0cf4 ff12
00000090: 05f9 021e 02dc fc0e f50c fd29 f71b feef
000000a0: fc13 fc04 e304 001f f820 f0ea f508 fd01
000000b0: f63d e107 01f5 0321 0405 fde9 03ed 041e
000000c0: c0f1 f4e7 f5fa fffe fbf4 170a fa01 faf8
000000d0: 2304 0c08 fdfe 0206 08fd 08f8 07de fac5
000000e0: 09fb f2f3 fa0b 03e9 06f9 fbf7 fb01 8106
000000f0: 2506 ff05 05f6 fdf9 14f9 f9f8 0afb 06fb
-0.41700074 -0.79609233 0.075818315 -0.720274 -1.0993656 0.41700074 -0.15163663 -0.037909158
0.18954578 -0.37909156 -1.0614564 0.6065465 -0.9098198 0.11372747 0.075818315 -0.9098198
0.30327326 -0.15163663 0.075818315 0.30327326 0.037909158 -1.1751839 -0.15163663 0.075818315
-1.1751839 -0.30327326 -0.037909158 -0.30327326 -0.11372747 -0.4549099 -0.41700074 -0.15163663
0.87191063 -0.41700074 -0.9098198 -0.3411824 -1.5163662 -2.160822 0.18954578 -0.5307282
-2.9190052 -0.30327326 0.18954578 -0.075818315 -0.720274 0.3411824 0.18954578 0.4549099
0.0 0.2653641 0.30327326 -0.9098198 -0.30327326 0.2653641 0.037909158 -0.5307282
0.49281904 0.720274 -0.15163663 0.9856381 -0.720274 -0.6065465 -0.15163663 -0.075818315
-0.5686374 0.22745495 0.7581831 -0.30327326 -0.6065465 -0.6444557 -0.3411824 0.41700074
0.9098198 0.37909156 -0.37909156 -0.22745495 0.18954578 0.18954578 0.11372747 0.11372747
0.3411824 -0.94772893 0.5686374 0.5307282 -0.37909156 -0.720274 -0.15163663 0.22745495
0.22745495 -0.075818315 -0.5307282 -0.6444557 -0.30327326 0.4549099 -1.5163662 0.11372747
-0.3411824 -0.4549099 -0.18954578 2.1987312 -0.7581831 1.0235473 -0.6444557 -0.6823648
0.037909158 0.49281904 0.6823648 1.0993656 -0.4549099 0.3411824 -0.037909158 -0.075818315
0.18954578 0.22745495 -0.075818315 0.30327326 -1.2510022 -1.1372747 0.11372747 1.4026388
0.075818315 -1.8575487 0.30327326 -0.49281904 0.7581831 0.7581831 -0.15163663 -1.5921847
0.075818315 0.41700074 -0.9856381 -0.075818315 -0.15163663 0.037909158 0.15163663 0.79609233
-0.2653641 -0.2653641 -0.075818315 0.8340015 0.4549099 -0.4549099 -0.037909158 0.6823648
0.18954578 -0.2653641 0.075818315 1.1372747 0.075818315 -1.3647296 -0.15163663 0.5307282
-0.41700074 0.4549099 -0.11372747 1.5542755 -0.3411824 1.0235473 -0.075818315 -0.6444557
-0.15163663 0.720274 -0.15163663 0.15163663 -1.0993656 0.15163663 0.0 1.1751839
-0.30327326 1.213093 -0.6065465 -0.8340015 -0.41700074 0.30327326 -0.11372747 0.037909158
-0.37909156 2.3124585 -1.1751839 0.2653641 0.037909158 -0.41700074 0.11372747 1.2510022
0.15163663 0.18954578 -0.11372747 -0.87191063 0.11372747 -0.720274 0.15163663 1.1372747
-2.426186 -0.5686374 -0.4549099 -0.94772893 -0.41700074 -0.22745495 -0.037909158 -0.075818315
-0.18954578 -0.4549099 0.87191063 0.37909156 -0.22745495 0.037909158 -0.22745495 -0.30327326
1.3268205 0.15163663 0.4549099 0.30327326 -0.11372747 -0.075818315 0.075818315 0.22745495
0.30327326 -0.11372747 0.30327326 -0.30327326 0.2653641 -1.2889113 -0.22745495 -2.2366402
0.3411824 -0.18954578 -0.5307282 -0.49281904 -0.22745495 0.41700074 0.11372747 -0.87191063
0.22745495 -0.2653641 -0.18954578 -0.3411824 -0.18954578 0.037909158 -4.814463 0.22745495
1.4026388 0.22745495 -0.037909158 0.18954578 0.18954578 -0.37909156 -0.11372747 -0.2653641
0.7581831 -0.2653641 -0.2653641 -0.30327326 0.37909156 -0.18954578 0.22745495 -0.18954578

functional_1/dense_6/MatMul i1 [128, 128] scale=0.0139816785 zero_point=0
00000000: 010c 06fe 0101 1004 09f0 f5fc 0105 fdf7
00000010: f5fc 0a0d fbfd fc0b fbf9 0b03 16fc 03ea
00000020: fafb fa08 0bf2 0d00 0801 0205 090c f80d
00000030: 03f6 fffb f9f9 0301 fc09 f703 f107 f90e
00000040: fbfe 0c07 ffd7 050c 02ff 0416 ff02 ebfe
00000050: fa00 ecf8 fc09 0e00 05f0 f002 fa01 ff00
00000060: f6f3 0d03 0401 0712 d9f5 10ff ffef 05fc
00000070: 0c15 1619 0005 0701 05f8 08fd 0af1 0001
00000080: f7f4 ff05 f4f0 faf7 fdf7 fd09 0a07 f515
00000090: fdfa 01ff ff08 df09 0504 0d0e fdff edf9
000000a0: f5fe 09fd 08f8 030a 0401 fff6 07f6 1005
000000b0: f504 fbe7 0aff fffd 0a06 e9f8 f200 0503
000000c0: 00fa ff0f f108 fc14 fdfc f200 1df3 0700
000000d0: 0a02 f8fa 07ff 0006 fe01 ee03 0503 03ff
000000e0: f7ff 06f2 010b 0008 f907 0e14 fcf1 10fc
000000f0: f5fd e902 0af2 0404 eaf3 fdfe ff14 fa05
0.0139816785 0.16778015 0.08389007 -0.027963357 0.0139816785 0.0139816785 0.22370686 0.055926714
0.1258351 -0.22370686 -0.15379846 -0.055926714 0.0139816785 0.069908395 -0.041945037 -0.1258351
-0.15379846 -0.055926714 0.13981679 0.18176182 -0.069908395 -0.041945037 -0.055926714 0.15379846
-0.069908395 -0.09787175 0.15379846 0.041945037 0.30759692 -0.055926714 0.041945037 -0.30759692
-0.08389007 -0.069908395 -0.08389007 0.11185343 0.15379846 -0.1957435 0.18176182 0.0
0.11185343 0.0139816785 0.027963357 0.069908395 0.1258351 0.16778015 -0.11185343 0.18176182
0.041945037 -0.13981679 -0.0139816785 -0.069908395 -0.09787175 -0.09787175 0.041945037 0.0139816785
-0.055926714 0.1258351 -0.1258351 0.041945037 -0.20972517 0.09787175 -0.09787175 0.1957435
-0.069908395 -0.027963357 0.16778015 0.09787175 -0.0139816785 -0.5732488 0.069908395 0.16778015
0.027963357 -0.0139816785 0.055926714 0.30759692 -0.0139816785 0.027963357 -0.29361525 -0.027963357
-0.08389007 0.0 -0.27963358 -0.11185343 -0.055926714 0.1258351 0.1957435 0.0
0.069908395 -0.22370686 -0.22370686 0.027963357 -0.08389007 0.0139816785 -0.0139816785 0.0
-0.13981679 -0.18176182 0.18176182 0.041945037 0.055926714 0.0139816785 0.09787175 0.2516702
-0.54528546 -0.15379846 0.22370686 -0.0139816785 -0.0139816785 -0.23768854 0.069908395 -0.055926714
0.16778015 0.29361525 0.30759692 0.34954196 0.0 0.069908395 0.09787175 0.0139816785
0.069908395 -0.11185343 0.11185343 -0.041945037 0.13981679 -0.20972517 0.0 0.0139816785
-0.1258351 -0.16778015 -0.0139816785 0.069908395 -0.16778015 -0.22370686 -0.08389007 -0.1258351
-0.041945037 -0.1258351 -0.041945037 0.1258351 0.13981679 0.09787175 -0.15379846 0.29361525
-0.041945037 -0.08389007 0.0139816785 -0.0139816785 -0.0139816785 0.11185343 -0.46139538 0.1258351
0.069908395 0.055926714 0.18176182 0.1957435 -0.041945037 -0.0139816785 -0.26565188 -0.09787175
-0.15379846 -0.027963357 0.1258351 -0.041945037 0.11185343 -0.11185343 0.041945037 0.13981679
0.055926714 0.0139816785 -0.0139816785 -0.13981679 0.09787175 -0.13981679 0.22370686 0.069908395
-0.15379846 0.055926714 -0.069908395 -0.34954196 0.13981679 -0.0139816785 -0.0139816785 -0.041945037
0.13981679 0.08389007 -0.3215786 -0.11185343 -0.1957435 0.0 0.069908395 0.041945037
0.0 -0.08389007 -0.0139816785 0.20972517 -0.20972517 0.11185343 -0.055926714 0.27963358
-0.041945037 -0.055926714 -0.1957435 0.0 0.40546867 -0.18176182 0.09787175 0.0
0.13981679 0.027963357 -0.11185343 -0.08389007 0.09787175 -0.0139816785 0.0 0.08389007
-0.027963357 0.0139816785 -0.2516702 0.041945037 0.069908395 0.041945037 0.041945037 -0.0139816785
-0.1258351 -0.0139816785 0.08389007 -0.1957435 0.0139816785 0.15379846 0.0 0.11185343
-0.09787175 0.09787175 0.1957435 0.27963358 -0.055926714 -0.20972517 0.22370686 -0.055926714
-0.15379846 -0.041945037 -0.3215786 0.027963357 0.13981679 -0.1957435 0.055926714 0.055926714
-0.30759692 -0.18176182 -0.041945037 -0.027963357 -0.0139816785 0.27963358 -0.08389007 0.069908395

functional_1/dense_7/MatMul i1 [128, 128] scale=0.017078487 zero_point=0
00000000: f1fb ecfc 1ffb 02fe f701 07f0 f91c f1ec
00000010: faf4 fe19 ec11 f902 0dfd 1913 fd09 e302
00000020: fc00 0110 03fd 0107 18fb 0f18 ec07 0b0a
00000030: 15f7 faff 00f0 0f07 f7f2 01fc ff0a 0202
00000040: 0306 f6fc 0500 1305 04f6 0804 ecf1 0d02
00000050: 0d0e fbf7 f1fe ffe5 0619 1afd 1e0c f300
00000060: d907 f2f9 ef04 0408 0709 f2d9 ecf5 fb0d
00000070: f50d ff0d f6ed eaf7 f103 ee14 e7f8 1005
00000080: 01f9 0f15 03ff fd0a 0602 f606 0103 f917
00000090: f4f8 fffd f802 08f8 f1ff f20f ed18 060c
000000a0: fef2 09fc 01e1 f805 0efa fbff 0ffa 0508
000000b0: 0ff9 fbfb fd01 060c f4fc 0a0b f9fb 0403
000000c0: f3fd 0ff7 0601 06f4 fd01 0200 fc03 0804
000000d0: 03f5 06fa 0111 f304 0800 0303 ff08 fe03
000000e0: 0406 0209 0bfe 0ff5 0600 fe04 0210 fc05
000000f0: 15f4 f2fd f30d 0df7 02fe 05fb 010d 00f8
-0.2561773 -0.08539244 -0.34156975 -0.06831395 0.52943313 -0.08539244 0.034156974 -0.034156974
-0.15370639 0.017078487 0.11954941 -0.2732558 -0.11954941 0.47819763 -0.2561773 -0.34156975
-0.10247092 -0.20494184 -0.034156974 0.42696217 -0.34156975 0.29033428 -0.11954941 0.034156974
0.22202033 -0.05123546 0.42696217 0.32449126 -0.05123546 0.15370639 -0.49527612 0.034156974
-0.06831395 0.0 0.017078487 0.2732558 0.05123546 -0.05123546 0.017078487 0.11954941
0.40988368 -0.08539244 0.2561773 0.40988368 -0.34156975 0.11954941 0.18786336 0.17078488
0.35864824 -0.15370639 -0.10247092 -0.017078487 0.0 -0.2732558 0.2561773 0.11954941
-0.15370639 -0.23909882 0.017078487 -0.06831395 -0.017078487 0.17078488 0.034156974 0.034156974
0.05123546 0.10247092 -0.17078488 -0.06831395 0.08539244 0.0 0.32449126 0.08539244
0.06831395 -0.17078488 0.1366279 0.06831395 -0.34156975 -0.2561773 0.22202033 0.034156974
0.22202033 0.23909882 -0.08539244 -0.15370639 -0.2561773 -0.034156974 -0.017078487 -0.46111915
0.10247092 0.42696217 0.44404066 -0.05123546 0.5123546 0.20494184 -0.22202033 0.0
-0.666061 0.11954941 -0.23909882 -0.11954941 -0.29033428 0.06831395 0.06831395 0.1366279
0.11954941 0.15370639 -0.23909882 -0.666061 -0.34156975 -0.18786336 -0.08539244 0.22202033
-0.18786336 0.22202033 -0.017078487 0.22202033 -0.17078488 -0.32449126 -0.37572673 -0.15370639
-0.2561773 0.05123546 -0.30741277 0.34156975 -0.42696217 -0.1366279 0.2732558 0.08539244
0.017078487 -0.11954941 0.2561773 0.35864824 0.05123546 -0.017078487 -0.05123546 0.17078488
0.10247092 0.034156974 -0.17078488 0.10247092 0.017078487 0.05123546 -0.11954941 0.39280522
-0.20494184 -0.1366279 -0.017078487 -0.05123546 -0.1366279 0.034156974 0.1366279 -0.1366279
-0.2561773 -0.017078487 -0.23909882 0.2561773 -0.32449126 0.40988368 0.10247092 0.20494184
-0.034156974 -0.23909882 0.15370639 -0.06831395 0.017078487 -0.52943313 -0.1366279 0.08539244
0.23909882 -0.10247092 -0.08539244 -0.017078487 0.2561773 -0.10247092 0.08539244 0.1366279
0.2561773 -0.11954941 -0.08539244 -0.08539244 -0.05123546 0.017078487 0.10247092 0.20494184
-0.20494184 -0.06831395 0.17078488 0.18786336 -0.11954941 -0.08539244 0.06831395 0.05123546
-0.22202033 -0.05123546 0.2561773 -0.15370639 0.10247092 0.017078487 0.10247092 -0.20494184
-0.05123546 0.017078487 0.034156974 0.0 -0.06831395 0.05123546 0.1366279 0.06831395
0.05123546 -0.18786336 0.10247092 -0.10247092 0.017078487 0.29033428 -0.22202033 0.06831395
0.1366279 0.0 0.05123546 0.05123546 -0.017078487 0.1366279 -0.034156974 0.05123546
0.06831395 0.10247092 0.034156974 0.15370639 0.18786336 -0.034156974 0.2561773 -0.18786336
0.10247092 0.0 -0.034156974 0.06831395 0.034156974 0.2732558 -0.06831395 0.08539244
0.35864824 -0.20494184 -0.23909882 -0.05123546 -0.22202033 0.22202033 0.22202033 -0.15370639
0.034156974 -0.034156974 0.08539244 -0.08539244 0.017078487 0.22202033 0.0 -0.1366279

functional_1/dense_8/MatMul i1 [128, 128] scale=0.0077411938 zero_point=0
00000000: f708 f5ff f500 1aff e70d fff2 fb04 eafe
00000010: 09fa f0df 011a fbfc 02f1 07eb 0ff0 f0fc
00000020: f7f9 03fd fce9 01fd f8f4 f600 1efb f707
00000030: eb2e 12ed 011f fefa f1f7 faec 0c04 eae9
00000040: f906 04f8 040c 0711 fa02 0d07 30f4 ef06
00000050: f6fc 06f2 e71a 1812 eaed fb0b e11e 00f7
00000060: 0307 1d08 feff 07fc 06fb f217 2111 03f3
00000070: ea16 0ffb 00f8 fefb fbf3 1bf9 faf8 f6e0
00000080: 04f3 f30e 0202 0405 fde6 11f6 fbff edf5
00000090: 08f8 ef0b 0efc 0b13 fc56 fb06 01f8 15f0
000000a0: f6fb 05e3 f1f4 0ef9 f7ec 1ef6 050e 080c
000000b0: 0305 0709 fffc f7fd 070b 0e04 f403 0208
000000c0: 05f9 fdff 06f3 010a ed04 ffe6 f800 e8f3
000000d0: f5f0 02fd ecfc fdfa 2d03 000e 0201 0b0a
000000e0: 0c0f f9f6 0df4 0e02 0aee 0811 e9eb e8ff
000000f0: f7f9 0aef 00ed fbff 04fb ff0a fff4 1215
-0.069670744 0.06192955 -0.08515313 -0.0077411938 -0.08515313 0.0 0.20127104 -0.0077411938
-0.19352984 0.10063552 -0.0077411938 -0.10837671 -0.038705967 0.030964775 -0.17030627 -0.0154823875
0.069670744 -0.04644716 -0.1238591 -0.2554594 0.0077411938 0.20127104 -0.038705967 -0.030964775
0.0154823875 -0.11611791 0.054188356 -0.16256507 0.11611791 -0.1238591 -0.1238591 -0.030964775
-0.069670744 -0.054188356 0.02322358 -0.02322358 -0.030964775 -0.17804746 0.0077411938 -0.02322358
-0.06192955 -0.09289432 -0.077411935 0.0 0.23223582 -0.038705967 -0.069670744 0.054188356
-0.16256507 0.35609493 0.13934149 -0.14708269 0.0077411938 0.239977 -0.0154823875 -0.04644716
-0.11611791 -0.069670744 -0.04644716 -0.15482387 0.09289432 0.030964775 -0.17030627 -0.17804746
-0.054188356 0.04644716 0.030964775 -0.06192955 0.030964775 0.09289432 0.054188356 0.13160029
-0.04644716 0.0154823875 0.10063552 0.054188356 0.3715773 -0.09289432 -0.13160029 0.04644716
-0.077411935 -0.030964775 0.04644716 -0.10837671 -0.19352984 0.20127104 0.18578865 0.13934149
-0.17030627 -0.14708269 -0.038705967 0.08515313 -0.239977 0.23223582 0.0 -0.069670744
0.02322358 0.054188356 0.22449462 0.06192955 -0.0154823875 -0.0077411938 0.054188356 -0.030964775
0.04644716 -0.038705967 -0.10837671 0.17804746 0.2554594 0.13160029 0.02322358 -0.10063552
-0.17030627 0.17030627 0.11611791 -0.038705967 0.0 -0.06192955 -0.0154823875 -0.038705967
-0.038705967 -0.10063552 0.20901223 -0.054188356 -0.04644716 -0.06192955 -0.077411935 -0.2477182
0.030964775 -0.10063552 -0.10063552 0.10837671 0.0154823875 0.0154823875 0.030964775 0.038705967
-0.02322358 -0.20127104 0.13160029 -0.077411935 -0.038705967 -0.0077411938 -0.14708269 -0.08515313
0.06192955 -0.06192955 -0.13160029 0.08515313 0.10837671 -0.030964775 0.08515313 0.14708269
-0.030964775 0.66574264 -0.038705967 0.04644716 0.0077411938 -0.06192955 0.16256507 -0.1238591
-0.077411935 -0.038705967 0.038705967 -0.22449462 -0.11611791 -0.09289432 0.10837671 -0.054188356
-0.069670744 -0.15482387 0.23223582 -0.077411935 0.038705967 0.10837671 0.06192955 0.09289432
0.02322358 0.038705967 0.054188356 0.069670744 -0.0077411938 -0.030964775 -0.069670744 -0.02322358
0.054188356 0.08515313 0.10837671 0.030964775 -0.09289432 0.02322358 0.0154823875 0.06192955
0.038705967 -0.054188356 -0.02322358 -0.0077411938 0.04644716 -0.10063552 0.0077411938 0.077411935
-0.14708269 0.030964775 -0.0077411938 -0.20127104 -0.06192955 0.0 -0.18578865 -0.10063552
-0.08515313 -0.1238591 0.0154823875 -0.02322358 -0.15482387 -0.030964775 -0.02322358 -0.04644716
0.3483537 0.02322358 0.0 0.10837671 0.0154823875 0.0077411938 0.08515313 0.077411935
0.09289432 0.11611791 -0.054188356 -0.077411935 0.10063552 -0.09289432 0.10837671 0.0154823875
0.077411935 -0.13934149 0.06192955 0.13160029 -0.17804746 -0.16256507 -0.18578865 -0.0077411938
-0.069670744 -0.054188356 0.077411935 -0.13160029 0.0 -0.14708269 -0.038705967 -0.0077411938
0.030964775 -0.038705967 -0.0077411938 0.077411935 -0.0077411938 -0.09289432 0.13934149 0.16256507

functional_1/dense_9/MatMul i1 [640, 128] scale=0.017564222 zero_point=0
00000000: edcf 03f2 dcd6 d2f8 f6f1 ead2 f5da 0af9
00000010: f4e4 f10e e089 e8f9 eaec f9ec e0e5 e2f5
00000020: feda ccea dcf2 f1e4 f0f5 eaef d4ed d3fd
00000030: e5de e5fb e1f8 e601 e1dc fec6 e7e8 d3e5
00000040: f3ea 11e5 e8df eec6 fddd e1ea eac8 0ab2
00000050: f7db d2da eefc e2f6 e7e7 ebef e007 f1fe
00000060: eeee f1f9 f3fa def7 f7e7 ffee f1ef ead4
00000070: e8f7 f0eb d6dd c6e3 c9e4 e0ff d9f6 f0d5
00000080: e7e0 f9f6 e6d3 f502 03fa f604 e3f7 1203
00000090: 01e7 eb00 eee0 e107 e7e4 0cf6 d0f2 d6e9
000000a0: 020d e3ef c803 ebd2 01f2 ecf6 f3f4 e807
000000b0: f6fa eef7 feed da16 efd0 ecc1 fce3 e3eb
000000c0: 1104 deef e6f7 f9c0 f2fd def8 fbeb eff6
000000d0: 0cdc e7f8 e1f2 e500 fee7 27ee e00f f4ea
000000e0: ffee f6f3 fb1b f5eb f200 f8f1 e0f6 f0df
000000f0: e607 132e ddf0 def0 e9ea f6ed e049 fef7
-0.3337202 -0.8606469 0.052692667 -0.24589911 -0.632312 -0.73769736 -0.8079542 -0.14051378
-0.17564222 -0.26346332 -0.3864129 -0.8079542 -0.19320644 -0.6674404 0.17564222 -0.122949556
-0.21077067 -0.49179822 -0.26346332 0.24589911 -0.5620551 -2.0901425 -0.42154133 -0.122949556
-0.3864129 -0.35128444 -0.122949556 -0.35128444 -0.5620551 -0.47423398 -0.52692664 -0.19320644
-0.035128444 -0.6674404 -0.91333956 -0.3864129 -0.632312 -0.24589911 -0.26346332 -0.49179822
-0.28102756 -0.19320644 -0.3864129 -0.2985918 -0.7728258 -0.3337202 -0.79039 -0.052692667
-0.47423398 -0.5971836 -0.47423398 -0.08782111 -0.5444909 -0.14051378 -0.45666978 0.017564222
-0.5444909 -0.632312 -0.035128444 -1.0187249 -0.43910557 -0.42154133 -0.79039 -0.47423398
-0.22833489 -0.3864129 0.2985918 -0.47423398 -0.42154133 -0.57961935 -0.316156 -1.0187249
-0.052692667 -0.61474776 -0.5444909 -0.3864129 -0.3864129 -0.98359644 0.17564222 -1.3700093
-0.158078 -0.64987624 -0.8079542 -0.6674404 -0.316156 -0.07025689 -0.52692664 -0.17564222
-0.43910557 -0.43910557 -0.36884868 -0.2985918 -0.5620551 0.122949556 -0.26346332 -0.035128444
-0.316156 -0.316156 -0.26346332 -0.122949556 -0.22833489 -0.10538533 -0.5971836 -0.158078
-0.158078 -0.43910557 -0.017564222 -0.316156 -0.26346332 -0.2985918 -0.3864129 -0.7728258
-0.42154133 -0.158078 -0.28102756 -0.36884868 -0.73769736 -0.61474776 -1.0187249 -0.50936246
-0.9660322 -0.49179822 -0.5620551 -0.017564222 -0.68500465 -0.17564222 -0.28102756 -0.75526154
-0.43910557 -0.5620551 -0.122949556 -0.17564222 -0.45666978 -0.79039 -0.19320644 0.035128444
0.052692667 -0.10538533 -0.17564222 0.07025689 -0.50936246 -0.158078 0.316156 0.052692667
0.017564222 -0.43910557 -0.36884868 0.0 -0.316156 -0.5620551 -0.5444909 0.122949556
-0.43910557 -0.49179822 0.21077067 -0.17564222 -0.84308267 -0.24589911 -0.73769736 -0.4039771
0.035128444 0.22833489 -0.50936246 -0.2985918 -0.98359644 0.052692667 -0.36884868 -0.8079542
0.017564222 -0.24589911 -0.35128444 -0.17564222 -0.22833489 -0.21077067 -0.42154133 0.122949556
-0.17564222 -0.10538533 -0.316156 -0.158078 -0.035128444 -0.3337202 -0.6674404 0.3864129
-0.2985918 -0.84308267 -0.35128444 -1.106546 -0.07025689 -0.50936246 -0.50936246 -0.36884868
0.2985918 0.07025689 -0.5971836 -0.2985918 -0.45666978 -0.158078 -0.122949556 -1.1241102
-0.24589911 -0.052692667 -0.5971836 -0.14051378 -0.08782111 -0.36884868 -0.2985918 -0.17564222
0.21077067 -0.632312 -0.43910557 -0.14051378 -0.5444909 -0.24589911 -0.47423398 0.0
-0.035128444 -0.43910557 0.68500465 -0.316156 -0.5620551 0.26346332 -0.21077067 -0.3864129
-0.017564222 -0.316156 -0.17564222 -0.22833489 -0.08782111 0.47423398 -0.19320644 -0.36884868
-0.24589911 0.0 -0.14051378 -0.26346332 -0.5620551 -0.17564222 -0.28102756 -0.57961935
-0.45666978 0.122949556 0.3337202 0.8079542 -0.61474776 -0.28102756 -0.5971836 -0.28102756
-0.4039771 -0.3864129 -0.17564222 -0.3337202 -0.5620551 1.2821882 -0.035128444 -0.158078
