v0.1/benchmarks/anomaly_detection/trained_models/ToyCar/baseline_tf23/model/model_ToyCar_quant_fullint_micro.tflite (tflite, 277248 bytes, 10 tensors)

functional_1/dense/MatMul i1 [128, 640] scale=0.0003798215 zero_point=0
000000 ff fd ff ff fd fd fc ff fb ff 01 00 00 fe fc ff
       -0.0003798215 -0.0011394644 -0.0003798215 -0.0003798215 -0.0011394644 -0.0011394644 -0.001519286 -0.0003798215 -0.0018991075 -0.0003798215 0.0003798215 0.0 0.0 -0.000759643 -0.001519286 -0.0003798215
000010 fc fe 01 01 ff fe 00 fc fd fc f9 fc fd fb f6 f8
       -0.001519286 -0.000759643 0.0003798215 0.0003798215 -0.0003798215 -0.000759643 0.0 -0.001519286 -0.0011394644 -0.001519286 -0.0026587504 -0.001519286 -0.0011394644 -0.0018991075 -0.003798215 -0.003038572
000020 f7 f8 fc fc fe 01 fe fc fe ff 01 fd fe 03 01 00
       -0.0034183934 -0.003038572 -0.001519286 -0.001519286 -0.000759643 0.0003798215 -0.000759643 -0.001519286 -0.000759643 -0.0003798215 0.0003798215 -0.0011394644 -0.000759643 0.0011394644 0.0003798215 0.0
000030 03 00 01 00 01 01 ff fd fd fd fe fc fc fe ff fe
       0.0011394644 0.0 0.0003798215 0.0 0.0003798215 0.0003798215 -0.0003798215 -0.0011394644 -0.0011394644 -0.0011394644 -0.000759643 -0.001519286 -0.001519286 -0.000759643 -0.0003798215 -0.000759643
000040 fc f9 fb fa fd fe fd fc fc 00 02 fe fe fe 01 00
       -0.001519286 -0.0026587504 -0.0018991075 -0.0022789289 -0.0011394644 -0.000759643 -0.0011394644 -0.001519286 -0.001519286 0.0 0.000759643 -0.000759643 -0.000759643 -0.000759643 0.0003798215 0.0
000050 fc fe fd fb f8 f9 fd f9 fb f8 fc ff fd fc fb fb
       -0.001519286 -0.000759643 -0.0011394644 -0.0018991075 -0.003038572 -0.0026587504 -0.0011394644 -0.0026587504 -0.0018991075 -0.003038572 -0.001519286 -0.0003798215 -0.0011394644 -0.001519286 -0.0018991075 -0.0018991075
000060 fc fc fd fb fd fd fd fe fc fd fd fe fd 00 fc fe
       -0.001519286 -0.001519286 -0.0011394644 -0.0018991075 -0.0011394644 -0.0011394644 -0.0011394644 -0.000759643 -0.001519286 -0.0011394644 -0.0011394644 -0.000759643 -0.0011394644 0.0 -0.001519286 -0.000759643
000070 fc fe fd 00 fd fd fe ff ff 00 ff fe fe fe 00 fd
       -0.001519286 -0.000759643 -0.0011394644 0.0 -0.0011394644 -0.0011394644 -0.000759643 -0.0003798215 -0.0003798215 0.0 -0.0003798215 -0.000759643 -0.000759643 -0.000759643 0.0 -0.0011394644
000080 02 fe 01 03 03 02 fe fe fc 00 fe 00 01 ff fe fe
       0.000759643 -0.000759643 0.0003798215 0.0011394644 0.0011394644 0.000759643 -0.000759643 -0.000759643 -0.001519286 0.0 -0.000759643 0.0 0.0003798215 -0.0003798215 -0.000759643 -0.000759643
000090 fe ff ff 02 01 01 fc ff 00 ff fb fe fe fe fb f8
       -0.000759643 -0.0003798215 -0.0003798215 0.000759643 0.0003798215 0.0003798215 -0.001519286 -0.0003798215 0.0 -0.0003798215 -0.0018991075 -0.000759643 -0.000759643 -0.000759643 -0.0018991075 -0.003038572
0000a0 f9 fa fc fe ff 01 01 fd fd 00 03 02 03 05 05 06
       -0.0026587504 -0.0022789289 -0.001519286 -0.000759643 -0.0003798215 0.0003798215 0.0003798215 -0.0011394644 -0.0011394644 0.0 0.0011394644 0.000759643 0.0011394644 0.0018991075 0.0018991075 0.0022789289
0000b0 04 03 04 04 02 03 00 ff 02 fe ff 01 02 01 02 02
       0.001519286 0.0011394644 0.001519286 0.001519286 0.000759643 0.0011394644 0.0 -0.0003798215 0.000759643 -0.000759643 -0.0003798215 0.0003798215 0.000759643 0.0003798215 0.000759643 0.000759643
0000c0 00 fd ff 00 00 01 00 fd 00 03 03 02 01 01 02 00
       0.0 -0.0011394644 -0.0003798215 0.0 0.0 0.0003798215 0.0 -0.0011394644 0.0 0.0011394644 0.0011394644 0.000759643 0.0003798215 0.0003798215 0.000759643 0.0
0000d0 ff ff ff 00 fc fd 00 fd 01 ff fd fe ff fe fe fe
       -0.0003798215 -0.0003798215 -0.0003798215 0.0 -0.001519286 -0.0011394644 0.0 -0.0011394644 0.0003798215 -0.0003798215 -0.0011394644 -0.000759643 -0.0003798215 -0.000759643 -0.000759643 -0.000759643
0000e0 00 ff fd fd 01 03 02 03 ff ff ff ff fd 00 ff fe
       0.0 -0.0003798215 -0.0011394644 -0.0011394644 0.0003798215 0.0011394644 0.000759643 0.0011394644 -0.0003798215 -0.0003798215 -0.0003798215 -0.0003798215 -0.0011394644 0.0 -0.0003798215 -0.000759643
0000f0 02 01 01 03 01 01 00 03 03 04 03 03 03 04 06 03
       0.000759643 0.0003798215 0.0003798215 0.0011394644 0.0003798215 0.0003798215 0.0 0.0011394644 0.0011394644 0.001519286 0.0011394644 0.0011394644 0.0011394644 0.001519286 0.0022789289 0.0011394644

functional_1/dense_1/MatMul i1 [128, 128] scale=0.013248957 zero_point=0
000000 04 fb 00 ff 0b ff 01 00 ff 02 06 01 fe fe 02 fe
       0.052995827 -0.06624478 0.0 -0.013248957 0.14573853 -0.013248957 0.013248957 0.0 -0.013248957 0.026497914 0.07949374 0.013248957 -0.026497914 -0.026497914 0.026497914 -0.026497914
000010 fe 02 01 ff ff 02 fa ff 01 ff ff 01 02 0a 03 01
       -0.026497914 0.026497914 0.013248957 -0.013248957 -0.013248957 0.026497914 -0.07949374 -0.013248957 0.013248957 -0.013248957 -0.013248957 0.013248957 0.026497914 0.13248956 0.03974687 0.013248957
000020 04 ff ff 00 ff 00 fc 02 02 00 00 05 fe fe ff fb
       0.052995827 -0.013248957 -0.013248957 0.0 -0.013248957 0.0 -0.052995827 0.026497914 0.026497914 0.0 0.0 0.06624478 -0.026497914 -0.026497914 -0.013248957 -0.06624478
000030 ff fe 01 00 02 01 07 fd 06 fa fe 01 04 fd 00 f9
       -0.013248957 -0.026497914 0.013248957 0.0 0.026497914 0.013248957 0.0927427 -0.03974687 0.07949374 -0.07949374 -0.026497914 0.013248957 0.052995827 -0.03974687 0.0 -0.0927427
000040 00 fe fe 03 00 00 02 fe 00 01 02 01 ff 01 02 02
       0.0 -0.026497914 -0.026497914 0.03974687 0.0 0.0 0.026497914 -0.026497914 0.0 0.013248957 0.026497914 0.013248957 -0.013248957 0.013248957 0.026497914 0.026497914
000050 01 fd 02 ff ff 01 04 05 01 01 00 00 fe ff 01 00
       0.013248957 -0.03974687 0.026497914 -0.013248957 -0.013248957 0.013248957 0.052995827 0.06624478 0.013248957 0.013248957 0.0 0.0 -0.026497914 -0.013248957 0.013248957 0.0
000060 ff fc 03 fe 02 00 0d 04 ff ff 01 01 01 01 04 03
       -0.013248957 -0.052995827 0.03974687 -0.026497914 0.026497914 0.0 0.17223644 0.052995827 -0.013248957 -0.013248957 0.013248957 0.013248957 0.013248957 0.013248957 0.052995827 0.03974687
000070 01 01 ff 01 06 09 f2 00 02 fe 04 00 00 02 f6 ff
       0.013248957 0.013248957 -0.013248957 0.013248957 0.07949374 0.11924061 -0.1854854 0.0 0.026497914 -0.026497914 0.052995827 0.0 0.0 0.026497914 -0.13248956 -0.013248957
000080 fa fd 04 01 0b fd 04 03 04 00 fc 00 01 f6 00 fa
       -0.07949374 -0.03974687 0.052995827 0.013248957 0.14573853 -0.03974687 0.052995827 0.03974687 0.052995827 0.0 -0.052995827 0.0 0.013248957 -0.13248956 0.0 -0.07949374
000090 fe 00 03 00 ff 02 01 00 03 fe 01 ff 05 fd 08 04
       -0.026497914 0.0 0.03974687 0.0 -0.013248957 0.026497914 0.013248957 0.0 0.03974687 -0.026497914 0.013248957 -0.013248957 0.06624478 -0.03974687 0.105991654 0.052995827
0000a0 01 02 01 00 ff 07 04 00 f8 01 00 01 0a 03 ff 04
       0.013248957 0.026497914 0.013248957 0.0 -0.013248957 0.0927427 0.052995827 0.0 -0.105991654 0.013248957 0.0 0.013248957 0.13248956 0.03974687 -0.013248957 0.052995827
0000b0 fa ff fc fa fd 02 ff f7 01 00 03 02 ff 01 fe fa
       -0.07949374 -0.013248957 -0.052995827 -0.07949374 -0.03974687 0.026497914 -0.013248957 -0.11924061 0.013248957 0.0 0.03974687 0.026497914 -0.013248957 0.013248957 -0.026497914 -0.07949374
0000c0 fb ff 08 04 00 00 04 04 ff ff 04 fa 00 fd 04 01
       -0.06624478 -0.013248957 0.105991654 0.052995827 0.0 0.0 0.052995827 0.052995827 -0.013248957 -0.013248957 0.052995827 -0.07949374 0.0 -0.03974687 0.052995827 0.013248957
0000d0 02 04 08 00 fe 01 01 04 fb fd 02 fd fa 02 00 fe
       0.026497914 0.052995827 0.105991654 0.0 -0.026497914 0.013248957 0.013248957 0.052995827 -0.06624478 -0.03974687 0.026497914 -0.03974687 -0.07949374 0.026497914 0.0 -0.026497914
0000e0 01 00 05 03 02 fd 03 02 fb 03 10 01 f8 fe 02 01
       0.013248957 0.0 0.06624478 0.03974687 0.026497914 -0.03974687 0.03974687 0.026497914 -0.06624478 0.03974687 0.21198331 0.013248957 -0.105991654 -0.026497914 0.026497914 0.013248957
0000f0 08 07 00 06 09 00 00 00 01 02 02 00 ff 03 fa 04
       0.105991654 0.0927427 0.0 0.07949374 0.11924061 0.0 0.0 0.0 0.013248957 0.026497914 0.026497914 0.0 -0.013248957 0.03974687 -0.07949374 0.052995827

functional_1/dense_2/MatMul i1 [128, 128] scale=0.027808828 zero_point=0
000000 02 02 00 fb 00 fe fd 00 01 00 00 fe 00 fe 02 02
       0.055617657 0.055617657 0.0 -0.13904414 0.0 -0.055617657 -0.08342648 0.0 0.027808828 0.0 0.0 -0.055617657 0.0 -0.055617657 0.055617657 0.055617657
000010 ff 03 00 f9 fc 02 00 00 00 00 00 00 00 01 ff fb
       -0.027808828 0.08342648 0.0 -0.1946618 -0.11123531 0.055617657 0.0 0.0 0.0 0.0 0.0 0.0 0.0 0.027808828 -0.027808828 -0.13904414
000020 00 ff fd 00 01 01 00 03 00 00 fe 01 01 ff 01 00
       0.0 -0.027808828 -0.08342648 0.0 0.027808828 0.027808828 0.0 0.08342648 0.0 0.0 -0.055617657 0.027808828 0.027808828 -0.027808828 0.027808828 0.0
000030 fe ff ff f9 00 02 ff 00 01 00 01 ff 00 fe 01 fe
       -0.055617657 -0.027808828 -0.027808828 -0.1946618 0.0 0.055617657 -0.027808828 0.0 0.027808828 0.0 0.027808828 -0.027808828 0.0 -0.055617657 0.027808828 -0.055617657
000040 fd 00 fe 00 00 ff 01 00 00 ff 00 ff 00 fc 02 03
       -0.08342648 0.0 -0.055617657 0.0 0.0 -0.027808828 0.027808828 0.0 0.0 -0.027808828 0.0 -0.027808828 0.0 -0.11123531 0.055617657 0.08342648
000050 00 00 01 01 00 02 fe 00 02 01 ff fe fd ff 01 fe
       0.0 0.0 0.027808828 0.027808828 0.0 0.055617657 -0.055617657 0.0 0.055617657 0.027808828 -0.027808828 -0.055617657 -0.08342648 -0.027808828 0.027808828 -0.055617657
000060 00 ff 00 ff 00 01 03 02 02 fe 00 ff 03 01 ff fe
       0.0 -0.027808828 0.0 -0.027808828 0.0 0.027808828 0.08342648 0.055617657 0.055617657 -0.055617657 0.0 -0.027808828 0.08342648 0.027808828 -0.027808828 -0.055617657
000070 03 00 ff 02 ff ff 01 03 03 ff 01 00 ff 00 fe ff
       0.08342648 0.0 -0.027808828 0.055617657 -0.027808828 -0.027808828 0.027808828 0.08342648 0.08342648 -0.027808828 0.027808828 0.0 -0.027808828 0.0 -0.055617657 -0.027808828
000080 f9 ec 00 fc 08 04 fd fe 0b 03 da 0c 0c f7 fc 09
       -0.1946618 -0.55617654 0.0 -0.11123531 0.22247063 0.11123531 -0.08342648 -0.055617657 0.30589712 0.08342648 -1.0567355 0.33370593 0.33370593 -0.25027946 -0.11123531 0.25027946
000090 07 0a 07 fd fe 0d 03 1a f8 06 18 ff 06 fa 0b 05
       0.1946618 0.27808827 0.1946618 -0.08342648 -0.055617657 0.36151478 0.08342648 0.72302955 -0.22247063 0.16685297 0.66741186 -0.027808828 0.16685297 -0.16685297 0.30589712 0.13904414
0000a0 04 10 fa 02 fd 02 00 03 fc 0a 08 ee 05 01 f7 f9
       0.11123531 0.44494125 -0.16685297 0.055617657 -0.08342648 0.055617657 0.0 0.08342648 -0.11123531 0.27808827 0.22247063 -0.5005589 0.13904414 0.027808828 -0.25027946 -0.1946618
0000b0 fa 00 0b fc 00 06 04 03 ff 05 09 03 e9 07 01 fc
       -0.16685297 0.0 0.30589712 -0.11123531 0.0 0.16685297 0.11123531 0.08342648 -0.027808828 0.13904414 0.25027946 0.08342648 -0.6396031 0.1946618 0.027808828 -0.11123531
0000c0 02 fe e1 fb 00 00 fe cc 03 00 14 05 f8 01 fa f6
       0.055617657 -0.055617657 -0.86207366 -0.13904414 0.0 0.0 -0.055617657 -1.4460591 0.08342648 0.0 0.55617654 0.13904414 -0.22247063 0.027808828 -0.16685297 -0.27808827
0000d0 17 04 18 07 ff 26 fe f3 fc 01 fe f1 01 05 fe 13
       0.6396031 0.11123531 0.66741186 0.1946618 -0.027808828 1.0567355 -0.055617657 -0.36151478 -0.11123531 0.027808828 -0.055617657 -0.41713244 0.027808828 0.13904414 -0.055617657 0.52836776
0000e0 00 01 00 02 03 fc f9 f5 0a 01 fa 01 09 fd 04 f6
       0.0 0.027808828 0.0 0.055617657 0.08342648 -0.11123531 -0.1946618 -0.30589712 0.27808827 0.027808828 -0.16685297 0.027808828 0.25027946 -0.08342648 0.11123531 -0.27808827
0000f0 ff f7 01 fe f3 f7 fd f6 01 f8 f2 fb 00 fd 01 03
       -0.027808828 -0.25027946 0.027808828 -0.055617657 -0.36151478 -0.25027946 -0.08342648 -0.27808827 0.027808828 -0.22247063 -0.3893236 -0.13904414 0.0 -0.08342648 0.027808828 0.08342648

functional_1/dense_3/MatMul i1 [128, 128] scale=0.09469795 zero_point=0
000000 00 02 00 ff ff 00 00 00 ff 01 01 00 00 00 00 00
       0.0 0.1893959 0.0 -0.09469795 -0.09469795 0.0 0.0 0.0 -0.09469795 0.09469795 0.09469795 0.0 0.0 0.0 0.0 0.0
000010 00 00 01 00 00 ff ff 01 fe 01 fe 00 fd 01 02 01
       0.0 0.0 0.09469795 0.0 0.0 -0.09469795 -0.09469795 0.09469795 -0.1893959 0.09469795 -0.1893959 0.0 -0.28409386 0.09469795 0.1893959 0.09469795
000020 01 ff 00 00 01 00 00 00 00 00 ff ff 01 00 00 00
       0.09469795 -0.09469795 0.0 0.0 0.09469795 0.0 0.0 0.0 0.0 0.0 -0.09469795 -0.09469795 0.09469795 0.0 0.0 0.0
000030 02 00 ff 00 ff ff 00 00 03 01 00 00 00 fe ff 00
       0.1893959 0.0 -0.09469795 0.0 -0.09469795 -0.09469795 0.0 0.0 0.28409386 0.09469795 0.0 0.0 0.0 -0.1893959 -0.09469795 0.0
000040 02 00 01 01 00 00 fe 01 01 ff fc ff 00 01 01 02
       0.1893959 0.0 0.09469795 0.09469795 0.0 0.0 -0.1893959 0.09469795 0.09469795 -0.09469795 -0.3787918 -0.09469795 0.0 0.09469795 0.09469795 0.1893959
000050 01 00 00 fe 01 00 02 ff ff 00 ff 00 01 00 02 00
       0.09469795 0.0 0.0 -0.1893959 0.09469795 0.0 0.1893959 -0.09469795 -0.09469795 0.0 -0.09469795 0.0 0.09469795 0.0 0.1893959 0.0
000060 ff ff fe 00 01 00 01 00 ff 00 01 02 02 00 fe ff
       -0.09469795 -0.09469795 -0.1893959 0.0 0.09469795 0.0 0.09469795 0.0 -0.09469795 0.0 0.09469795 0.1893959 0.1893959 0.0 -0.1893959 -0.09469795
000070 00 00 00 fd 03 01 01 01 02 00 01 00 ff 00 ff 01
       0.0 0.0 0.0 -0.28409386 0.28409386 0.09469795 0.09469795 0.09469795 0.1893959 0.0 0.09469795 0.0 -0.09469795 0.0 -0.09469795 0.09469795
000080 02 01 01 03 fd 01 ff 00 ff 00 01 fe 00 fe 01 fe
       0.1893959 0.09469795 0.09469795 0.28409386 -0.28409386 0.09469795 -0.09469795 0.0 -0.09469795 0.0 0.09469795 -0.1893959 0.0 -0.1893959 0.09469795 -0.1893959
000090 01 fd 02 fd 00 fd ff 01 01 00 ff 00 01 04 fd ff
       0.09469795 -0.28409386 0.1893959 -0.28409386 0.0 -0.28409386 -0.09469795 0.09469795 0.09469795 0.0 -0.09469795 0.0 0.09469795 0.3787918 -0.28409386 -0.09469795
0000a0 00 fe 02 00 fd fe 02 00 00 00 fe 02 01 03 ff 00
       0.0 -0.1893959 0.1893959 0.0 -0.28409386 -0.1893959 0.1893959 0.0 0.0 0.0 -0.1893959 0.1893959 0.09469795 0.28409386 -0.09469795 0.0
0000b0 03 00 fe fe 02 03 00 00 00 02 00 00 ff 00 ff 00
       0.28409386 0.0 -0.1893959 -0.1893959 0.1893959 0.28409386 0.0 0.0 0.0 0.1893959 0.0 0.0 -0.09469795 0.0 -0.09469795 0.0
0000c0 02 ff 01 fc 00 00 00 01 01 01 01 01 00 01 01 fe
       0.1893959 -0.09469795 0.09469795 -0.3787918 0.0 0.0 0.0 0.09469795 0.09469795 0.09469795 0.09469795 0.09469795 0.0 0.09469795 0.09469795 -0.1893959
0000d0 01 00 03 00 01 00 01 01 ff 00 00 00 02 00 02 ff
       0.09469795 0.0 0.28409386 0.0 0.09469795 0.0 0.09469795 0.09469795 -0.09469795 0.0 0.0 0.0 0.1893959 0.0 0.1893959 -0.09469795
0000e0 ff 00 02 ff fe 00 04 00 00 ff 01 fe 01 00 ff ff
       -0.09469795 0.0 0.1893959 -0.09469795 -0.1893959 0.0 0.3787918 0.0 0.0 -0.09469795 0.09469795 -0.1893959 0.09469795 0.0 -0.09469795 -0.09469795
0000f0 01 fe ff 00 03 ff 00 05 01 02 01 ff 01 00 00 ff
       0.09469795 -0.1893959 -0.09469795 0.0 0.28409386 -0.09469795 0.0 0.47348976 0.09469795 0.1893959 0.09469795 -0.09469795 0.09469795 0.0 0.0 -0.09469795

functional_1/dense_4/MatMul i1 [8, 128] scale=0.0055294675 zero_point=0
000000 02 00 fc 04 00 ff 1d e9 4b 12 11 01 02 fe ff 03
       0.011058935 0.0 -0.02211787 0.02211787 0.0 -0.0055294675 0.16035455 -0.12717775 0.41471007 0.099530414 0.09400095 0.0055294675 0.011058935 -0.011058935 -0.0055294675 0.016588403
000010 00 a0 01 01 00 03 01 ff 00 fd 02 fe 04 fd 03 fe
       0.0 -0.5308289 0.0055294675 0.0055294675 0.0 0.016588403 0.0055294675 -0.0055294675 0.0 -0.016588403 0.011058935 -0.011058935 0.02211787 -0.016588403 0.016588403 -0.011058935
000020 ff 03 02 a4 ff f5 ff 00 01 d2 06 03 00 00 ff fd
       -0.0055294675 0.016588403 0.011058935 -0.508711 -0.0055294675 -0.06082414 -0.0055294675 0.0 0.0055294675 -0.2543555 0.033176806 0.016588403 0.0 0.0 -0.0055294675 -0.016588403
000030 02 00 01 01 fe 01 00 f7 4e fc 00 fb 04 ee 18 fa
       0.011058935 0.0 0.0055294675 0.0055294675 -0.011058935 0.0055294675 0.0 -0.049765207 0.43129846 -0.02211787 0.0 -0.027647337 0.02211787 -0.099530414 0.13270722 -0.033176806
000040 fd e1 06 fc 00 fc 00 01 03 12 02 02 eb fe e3 05
       -0.016588403 -0.1714135 0.033176806 -0.02211787 0.0 -0.02211787 0.0 0.0055294675 0.016588403 0.099530414 0.011058935 0.011058935 -0.11611882 -0.011058935 -0.16035455 0.027647337
000050 ff d9 01 01 fa 01 fd d5 03 00 ff 02 fd fd fd 02
       -0.0055294675 -0.21564923 0.0055294675 0.0055294675 -0.033176806 0.0055294675 -0.016588403 -0.2377671 0.016588403 0.0 -0.0055294675 0.011058935 -0.016588403 -0.016588403 -0.016588403 0.011058935
000060 0e ff 00 f3 00 ff 01 06 14 07 2b 02 ff ff 02 f7
       0.077412546 -0.0055294675 0.0 -0.071883075 0.0 -0.0055294675 0.0055294675 0.033176806 0.11058935 0.038706273 0.2377671 0.011058935 -0.0055294675 -0.0055294675 0.011058935 -0.049765207
000070 ff ff 08 04 33 01 fe 81 ff 0c 02 00 ff ff fe f9
       -0.0055294675 -0.0055294675 0.04423574 0.02211787 0.28200284 0.0055294675 -0.011058935 -0.7022424 -0.0055294675 0.06635361 0.011058935 0.0 -0.0055294675 -0.0055294675 -0.011058935 -0.038706273
000080 ff fe 01 00 0e ff fe 00 fe 00 2e 00 01 01 05 fe
       -0.0055294675 -0.011058935 0.0055294675 0.0 0.077412546 -0.0055294675 -0.011058935 0.0 -0.011058935 0.0 0.2543555 0.0 0.0055294675 0.0055294675 0.027647337 -0.011058935
000090 01 01 00 0a fe 00 00 08 00 f8 fe 00 00 04 00 00
       0.0055294675 0.0055294675 0.0 0.055294674 -0.011058935 0.0 0.0 0.04423574 0.0 -0.04423574 -0.011058935 0.0 0.0 0.02211787 0.0 0.0
0000a0 00 00 ff ff 08 ff ff e5 15 e5 03 ff fe fd f7 ff
       0.0 0.0 -0.0055294675 -0.0055294675 0.04423574 -0.0055294675 -0.0055294675 -0.14929563 0.11611882 -0.14929563 0.016588403 -0.0055294675 -0.011058935 -0.016588403 -0.049765207 -0.0055294675
0000b0 fc 05 02 03 18 00 01 f8 fc 03 fc fd d7 fc fc 03
       -0.02211787 0.027647337 0.011058935 0.016588403 0.13270722 0.0 0.0055294675 -0.04423574 -0.02211787 0.016588403 -0.02211787 -0.016588403 -0.22670817 -0.02211787 -0.02211787 0.016588403
0000c0 02 03 04 00 ff fe e8 01 fc ff 01 ff ff 01 02 02
       0.011058935 0.016588403 0.02211787 0.0 -0.0055294675 -0.011058935 -0.13270722 0.0055294675 -0.02211787 -0.0055294675 0.0055294675 -0.0055294675 -0.0055294675 0.0055294675 0.011058935 0.011058935
0000d0 13 f6 f1 fe 02 00 01 00 00 09 f5 fe 10 00 ff fc
       0.105059884 -0.055294674 -0.08294201 -0.011058935 0.011058935 0.0 0.0055294675 0.0 0.0 0.049765207 -0.06082414 -0.011058935 0.08847148 0.0 -0.0055294675 -0.02211787
0000e0 04 01 f5 fc f6 ff fc ff 05 fa fd 02 f7 06 01 03
       0.02211787 0.0055294675 -0.06082414 -0.02211787 -0.055294674 -0.0055294675 -0.02211787 -0.0055294675 0.027647337 -0.033176806 -0.016588403 0.011058935 -0.049765207 0.033176806 0.0055294675 0.016588403
0000f0 fe 00 01 ff 00 01 ff 00 04 fd 02 ff fd 02 ff fd
       -0.011058935 0.0 0.0055294675 -0.0055294675 0.0 0.0055294675 -0.0055294675 0.0 0.02211787 -0.016588403 0.011058935 -0.0055294675 -0.016588403 0.011058935 -0.0055294675 -0.016588403

functional_1/dense_5/MatMul i1 [128, 8] scale=0.032301404 zero_point=0
000000 01 01 0d 01 fc ee ff 0e f9 fa ed 21 ec f8 0f ff
       0.032301404 0.032301404 0.41991824 0.032301404 -0.12920561 -0.58142525 -0.032301404 0.45221967 -0.22610983 -0.19380842 -0.6137267 1.0659463 -0.64602804 -0.25841123 0.48452106 -0.032301404
000010 00 05 f0 0d f7 1a 1d 1b 01 13 fe ee 1c 0b fb 1a
       0.0 0.16150701 -0.51682246 0.41991824 -0.29071262 0.8398365 0.9367407 0.8721379 0.032301404 0.6137267 -0.06460281 -0.58142525 0.90443933 0.35531545 -0.16150701 0.8398365
000020 1f 07 f7 0b 08 de 05 0a fc 0d f3 ef ee f2 07 f2
       1.0013435 0.22610983 -0.29071262 0.35531545 0.25841123 -1.0982478 0.16150701 0.32301402 -0.12920561 0.41991824 -0.41991824 -0.5491239 -0.58142525 -0.45221967 0.22610983 -0.45221967
000030 ec fc 06 00 fe 10 f6 05 55 01 fe fb 01 05 03 08
       -0.64602804 -0.12920561 0.19380842 0.0 -0.06460281 0.51682246 -0.32301402 0.16150701 2.7456193 0.032301404 -0.06460281 -0.16150701 0.032301404 0.16150701 0.09690421 0.25841123
000040 02 06 04 00 f6 21 ef 1b 0d fb 0e e8 f5 4c fb f4
       0.06460281 0.19380842 0.12920561 0.0 -0.32301402 1.0659463 -0.5491239 0.8721379 0.41991824 -0.16150701 0.45221967 -0.7752337 -0.35531545 2.4549067 -0.16150701 -0.38761684
000050 fd fc ff ed 01 18 f9 00 97 ff 05 06 fe 00 fa f8
       -0.09690421 -0.12920561 -0.032301404 -0.6137267 0.032301404 0.7752337 -0.22610983 0.0 -3.3916473 -0.032301404 0.16150701 0.19380842 -0.06460281 0.0 -0.19380842 -0.25841123
000060 f0 ef 01 f4 fc 1a 03 fc 41 f2 fa fd 02 f6 0a ff
       -0.51682246 -0.5491239 0.032301404 -0.38761684 -0.12920561 0.8398365 0.09690421 -0.12920561 2.0995913 -0.45221967 -0.19380842 -0.09690421 0.06460281 -0.32301402 0.32301402 -0.032301404
000070 fe 07 f3 01 04 e5 ff 0b fe fb e8 f1 04 ef 04 f5
       -0.06460281 0.22610983 -0.41991824 0.032301404 0.12920561 -0.8721379 -0.032301404 0.35531545 -0.06460281 -0.16150701 -0.7752337 -0.48452106 0.12920561 -0.5491239 0.12920561 -0.35531545
000080 fd 04 db fc de e3 fc e1 00 05 02 f2 04 1b f8 0d
       -0.09690421 0.12920561 -1.1951519 -0.12920561 -1.0982478 -0.9367407 -0.12920561 -1.0013435 0.0 0.16150701 0.06460281 -0.45221967 0.12920561 0.8721379 -0.25841123 0.41991824
000090 03 e4 f9 ff ff 07 f8 0e 03 0a 12 09 fb 0c 03 1d
       0.09690421 -0.90443933 -0.22610983 -0.032301404 -0.032301404 0.22610983 -0.25841123 0.45221967 0.09690421 0.32301402 0.58142525 0.29071262 -0.16150701 0.38761684 0.09690421 0.9367407
0000a0 03 02 d3 18 06 13 ea ee f5 f8 00 fb fc 17 19 f6
       0.09690421 0.06460281 -1.4535632 0.7752337 0.19380842 0.6137267 -0.7106309 -0.58142525 -0.35531545 -0.25841123 0.0 -0.16150701 -0.12920561 0.74293226 0.8075351 -0.32301402
0000b0 04 fb 16 f9 ff 00 0b fb 03 d3 01 04 03 f9 ff 02
       0.12920561 -0.16150701 0.7106309 -0.22610983 -0.032301404 0.0 0.35531545 -0.16150701 0.09690421 -1.4535632 0.032301404 0.12920561 0.09690421 -0.22610983 -0.032301404 0.06460281
0000c0 f9 07 f5 f8 f3 0f f9 ef 09 00 f4 04 fc 01 f3 11
       -0.22610983 0.22610983 -0.35531545 -0.25841123 -0.41991824 0.48452106 -0.22610983 -0.5491239 0.29071262 0.0 -0.38761684 0.12920561 -0.12920561 0.032301404 -0.41991824 0.5491239
0000d0 fe 07 fa 02 0d ce 01 f6 e9 09 1a 23 e2 05 ff fa
       -0.06460281 0.22610983 -0.19380842 0.06460281 0.41991824 -1.6150702 0.032301404 -0.32301402 -0.74293226 0.29071262 0.8398365 1.1305491 -0.9690421 0.16150701 -0.032301404 -0.19380842
0000e0 f9 02 3c b5 d5 d9 3c 3d f8 08 e5 bb 50 ed 02 05
       -0.22610983 0.06460281 1.9380842 -2.4226053 -1.3889604 -1.2597548 1.9380842 1.9703857 -0.25841123 0.25841123 -0.8721379 -2.228797 2.5841122 -0.6137267 0.06460281 0.16150701
0000f0 fa 1e 0d fe 16 fc 05 0e 0b ff 10 31 b5 0d f8 fa
       -0.19380842 0.9690421 0.41991824 -0.06460281 0.7106309 -0.12920561 0.16150701 0.45221967 0.35531545 -0.032301404 0.51682246 1.5827688 -2.4226053 0.41991824 -0.25841123 -0.19380842

functional_1/dense_6/MatMul i1 [128, 128] scale=0.017436521 zero_point=0
000000 fe 0e fe 00 fc 05 05 fc 00 f8 02 fe ff 0d fd 01
       -0.034873042 0.2441113 -0.034873042 0.0 -0.069746085 0.087182604 0.087182604 -0.069746085 0.0 -0.13949217 0.034873042 -0.034873042 -0.017436521 0.22667478 -0.052309565 0.017436521
000010 00 08 fd fb ff fe ff 02 ff fe ea 09 04 1c fc d4
       0.0 0.13949217 -0.052309565 -0.087182604 -0.017436521 -0.034873042 -0.017436521 0.034873042 -0.017436521 -0.034873042 -0.38360345 0.15692869 0.069746085 0.4882226 -0.069746085 -0.7672069
000020 fa 00 ff 01 f8 fc 00 00 03 05 fd 00 22 fb 06 fe
       -0.10461913 0.0 -0.017436521 0.017436521 -0.13949217 -0.069746085 0.0 0.0 0.052309565 0.087182604 -0.052309565 0.0 0.59284174 -0.087182604 0.10461913 -0.034873042
000030 04 00 fc 00 fe 07 fe 03 05 fa f9 08 09 04 fe 07
       0.069746085 0.0 -0.069746085 0.0 -0.034873042 0.12205565 -0.034873042 0.052309565 0.087182604 -0.10461913 -0.12205565 0.13949217 0.15692869 0.069746085 -0.034873042 0.12205565
000040 06 fc 05 fe f5 01 01 09 fe 01 00 00 00 fc f4 f7
       0.10461913 -0.069746085 0.087182604 -0.034873042 -0.19180173 0.017436521 0.017436521 0.15692869 -0.034873042 0.017436521 0.0 0.0 0.0 -0.069746085 -0.20923826 -0.15692869
000050 04 fa ec 02 03 08 ff 04 e2 e8 06 03 03 00 03 0e
       0.069746085 -0.10461913 -0.34873042 0.034873042 0.052309565 0.13949217 -0.017436521 0.069746085 -0.5230956 -0.41847652 0.10461913 0.052309565 0.052309565 0.0 0.052309565 0.2441113
000060 f9 14 07 f0 03 e6 ff 06 06 08 02 03 fc fe ff 03
       -0.12205565 0.34873042 0.12205565 -0.27898434 0.052309565 -0.45334956 -0.017436521 0.10461913 0.10461913 0.13949217 0.034873042 0.052309565 -0.069746085 -0.034873042 -0.017436521 0.052309565
000070 f9 01 01 08 ff e8 00 ff 00 ec 01 06 fb 06 05 04
       -0.12205565 0.017436521 0.017436521 0.13949217 -0.017436521 -0.41847652 0.0 -0.017436521 0.0 -0.34873042 0.017436521 0.10461913 -0.087182604 0.10461913 0.087182604 0.069746085
000080 05 f4 fb fe 06 01 01 04 f7 ff 01 fb fe 00 0c 00
       0.087182604 -0.20923826 -0.087182604 -0.034873042 0.10461913 0.017436521 0.017436521 0.069746085 -0.15692869 -0.017436521 0.017436521 -0.087182604 -0.034873042 0.0 0.20923826 0.0
000090 f7 fe f7 f8 ff ff f9 05 00 fc 07 03 f8 fb f8 03
       -0.15692869 -0.034873042 -0.15692869 -0.13949217 -0.017436521 -0.017436521 -0.12205565 0.087182604 0.0 -0.069746085 0.12205565 0.052309565 -0.13949217 -0.087182604 -0.13949217 0.052309565
0000a0 04 fd f7 03 ff 0d 0a 02 02 04 03 fe fa 03 fd 03
       0.069746085 -0.052309565 -0.15692869 0.052309565 -0.017436521 0.22667478 0.17436521 0.034873042 0.034873042 0.069746085 0.052309565 -0.034873042 -0.10461913 0.052309565 -0.052309565 0.052309565
0000b0 01 fb f7 f4 05 0c 09 fa fd 02 f3 f7 0a fc 04 fe
       0.017436521 -0.087182604 -0.15692869 -0.20923826 0.087182604 0.20923826 0.15692869 -0.10461913 -0.052309565 0.034873042 -0.22667478 -0.15692869 0.17436521 -0.069746085 0.069746085 -0.034873042
0000c0 02 fd 03 04 f9 f8 01 fd 05 01 03 fe fa fa f7 06
       0.034873042 -0.052309565 0.052309565 0.069746085 -0.12205565 -0.13949217 0.017436521 -0.052309565 0.087182604 0.017436521 0.052309565 -0.034873042 -0.10461913 -0.10461913 -0.15692869 0.10461913
0000d0 00 fd 04 fd 00 fe f9 0a 05 0a f0 fa 07 00 fd fa
       0.0 -0.052309565 0.069746085 -0.052309565 0.0 -0.034873042 -0.12205565 0.17436521 0.087182604 0.17436521 -0.27898434 -0.10461913 0.12205565 0.0 -0.052309565 -0.10461913
0000e0 fc 02 0d 05 03 03 f8 ff ff 05 fe f2 fb 04 fc fe
       -0.069746085 0.034873042 0.22667478 0.087182604 0.052309565 0.052309565 -0.13949217 -0.017436521 -0.017436521 0.087182604 -0.034873042 -0.2441113 -0.087182604 0.069746085 -0.069746085 -0.034873042
0000f0 05 fa 07 fc 02 08 ff ff 10 00 fc fe fc 04 ec f1
       0.087182604 -0.10461913 0.12205565 -0.069746085 0.034873042 0.13949217 -0.017436521 -0.017436521 0.27898434 0.0 -0.069746085 -0.034873042 -0.069746085 0.069746085 -0.34873042 -0.2615478

functional_1/dense_7/MatMul i1 [128, 128] scale=0.01612813 zero_point=0
000000 03 14 fb fb 01 e7 05 01 ff 12 00 fa 0a f9 ff ec
       0.04838439 0.3225626 -0.08064065 -0.08064065 0.01612813 -0.40320325 0.08064065 0.01612813 -0.01612813 0.29030633 0.0 -0.09676878 0.1612813 -0.11289691 -0.01612813 -0.3225626
000010 fa fb fb fd fd f9 07 f0 ed f7 f8 07 02 06 ff 00
       -0.09676878 -0.08064065 -0.08064065 -0.04838439 -0.04838439 -0.11289691 0.11289691 -0.25805008 -0.30643448 -0.14515316 -0.12902504 0.11289691 0.03225626 0.09676878 -0.01612813 0.0
000020 09 00 ed 0f ff ed ff f2 fc 07 14 07 23 04 0c fe
       0.14515316 0.0 -0.30643448 0.24192196 -0.01612813 -0.30643448 -0.01612813 -0.22579382 -0.06451252 0.11289691 0.3225626 0.11289691 0.56448454 0.06451252 0.19353756 -0.03225626
000030 f8 ef f8 09 04 00 06 eb 07 07 15 01 fa 04 0e fc
       -0.12902504 -0.2741782 -0.12902504 0.14515316 0.06451252 0.0 0.09676878 -0.33869073 0.11289691 0.11289691 0.33869073 0.01612813 -0.09676878 0.06451252 0.22579382 -0.06451252
000040 01 01 09 0d f1 f7 02 00 f2 11 06 fe f3 02 03 07
       0.01612813 0.01612813 0.14515316 0.20966569 -0.24192196 -0.14515316 0.03225626 0.0 -0.22579382 0.2741782 0.09676878 -0.03225626 -0.20966569 0.03225626 0.04838439 0.11289691
000050 04 fa 02 0f 07 00 0e 00 fe fe fe fc 07 fc 15 00
       0.06451252 -0.09676878 0.03225626 0.24192196 0.11289691 0.0 0.22579382 0.0 -0.03225626 -0.03225626 -0.03225626 -0.06451252 0.11289691 -0.06451252 0.33869073 0.0
000060 09 12 05 ee ea fd 05 f5 0b 02 fc 09 08 e5 07 ee
       0.14515316 0.29030633 0.08064065 -0.29030633 -0.35481888 -0.04838439 0.08064065 -0.17740944 0.17740944 0.03225626 -0.06451252 0.14515316 0.12902504 -0.43545952 0.11289691 -0.29030633
000070 08 ff f9 ea 10 fc 09 f4 df 04 08 07 fe f0 f4 02
       0.12902504 -0.01612813 -0.11289691 -0.35481888 0.25805008 -0.06451252 0.14515316 -0.19353756 -0.5322283 0.06451252 0.12902504 0.11289691 -0.03225626 -0.25805008 -0.19353756 0.03225626
000080 01 06 02 02 ff f3 07 ff fb fa 07 03 eb fb fd 03
       0.01612813 0.09676878 0.03225626 0.03225626 -0.01612813 -0.20966569 0.11289691 -0.01612813 -0.08064065 -0.09676878 0.11289691 0.04838439 -0.33869073 -0.08064065 -0.04838439 0.04838439
000090 0a 04 ff f4 04 04 ee fa 14 fd 03 f9 03 11 04 01
       0.1612813 0.06451252 -0.01612813 -0.19353756 0.06451252 0.06451252 -0.29030633 -0.09676878 0.3225626 -0.04838439 0.04838439 -0.11289691 0.04838439 0.2741782 0.06451252 0.01612813
0000a0 0f 00 fe 08 f9 fc f3 06 03 04 03 f4 fd ff de fe
       0.24192196 0.0 -0.03225626 0.12902504 -0.11289691 -0.06451252 -0.20966569 0.09676878 0.04838439 0.06451252 0.04838439 -0.19353756 -0.04838439 -0.01612813 -0.5483564 -0.03225626
0000b0 07 0f f5 00 fb 09 06 ff fe 00 f9 17 0e f2 e0 f7
       0.11289691 0.24192196 -0.17740944 0.0 -0.08064065 0.14515316 0.09676878 -0.01612813 -0.03225626 0.0 -0.11289691 0.370947 0.22579382 -0.22579382 -0.51610017 -0.14515316
0000c0 fe f7 02 fd 0e fb 00 fa 07 f9 ff 08 09 fa 05 09
       -0.03225626 -0.14515316 0.03225626 -0.04838439 0.22579382 -0.08064065 0.0 -0.09676878 0.11289691 -0.11289691 -0.01612813 0.12902504 0.14515316 -0.09676878 0.08064065 0.14515316
0000d0 01 f8 f0 04 fc 02 06 fb ff 01 ff f1 11 ed f5 fb
       0.01612813 -0.12902504 -0.25805008 0.06451252 -0.06451252 0.03225626 0.09676878 -0.08064065 -0.01612813 0.01612813 -0.01612813 -0.24192196 0.2741782 -0.30643448 -0.17740944 -0.08064065
0000e0 05 fb fc fb 04 00 fc f4 ff 01 06 f9 09 02 fe 00
       0.08064065 -0.08064065 -0.06451252 -0.08064065 0.06451252 0.0 -0.06451252 -0.19353756 -0.01612813 0.01612813 0.09676878 -0.11289691 0.14515316 0.03225626 -0.03225626 0.0
0000f0 0a fe f5 06 04 00 fe 11 fb 02 04 fa eb fc 01 05
       0.1612813 -0.03225626 -0.17740944 0.09676878 0.06451252 0.0 -0.03225626 0.2741782 -0.08064065 0.03225626 0.06451252 -0.09676878 -0.33869073 -0.06451252 0.01612813 0.08064065

functional_1/dense_8/MatMul i1 [128, 128] scale=0.009386699 zero_point=0
000000 0e 0d 03 fb ff eb 10 fb f4 02 0b 02 fd 03 46 02
       0.13141379 0.122027084 0.028160095 -0.046933495 -0.009386699 -0.19712067 0.15018718 -0.046933495 -0.11264038 0.018773397 0.103253685 0.018773397 -0.028160095 0.028160095 0.6570689 0.018773397
000010 01 00 02 f9 0e 00 06 fe f9 05 e8 f3 1f 00 09 10
       0.009386699 0.0 0.018773397 -0.065706894 0.13141379 0.0 0.05632019 -0.018773397 -0.065706894 0.046933495 -0.22528076 -0.122027084 0.29098767 0.0 0.084480286 0.15018718
000020 fd 12 02 fe 04 f1 f4 f9 0a 07 fc 26 fa 0d 0a 02
       -0.028160095 0.16896057 0.018773397 -0.018773397 0.037546795 -0.14080048 -0.11264038 -0.065706894 0.09386699 0.065706894 -0.037546795 0.35669455 -0.05632019 0.122027084 0.09386699 0.018773397
000030 06 0b e9 0c 04 fc 05 fa ff 09 0e 06 08 e9 fe f1
       0.05632019 0.103253685 -0.21589407 0.11264038 0.037546795 -0.037546795 0.046933495 -0.05632019 -0.009386699 0.084480286 0.13141379 0.05632019 0.07509359 -0.21589407 -0.018773397 -0.14080048
000040 f9 f9 fe fc f1 07 f8 f8 fe fe 0a ff 00 fa fe 02
       -0.065706894 -0.065706894 -0.018773397 -0.037546795 -0.14080048 0.065706894 -0.07509359 -0.07509359 -0.018773397 -0.018773397 0.09386699 -0.009386699 0.0 -0.05632019 -0.018773397 0.018773397
000050 10 06 0b f4 06 02 fb 00 f0 0e 03 05 f1 01 06 05
       0.15018718 0.05632019 0.103253685 -0.11264038 0.05632019 0.018773397 -0.046933495 0.0 -0.15018718 0.13141379 0.028160095 0.046933495 -0.14080048 0.009386699 0.05632019 0.046933495
000060 08 04 0d ed fa f2 fa ff f9 08 08 0f 03 17 fa fe
       0.07509359 0.037546795 0.122027084 -0.17834727 -0.05632019 -0.13141379 -0.05632019 -0.009386699 -0.065706894 0.07509359 0.07509359 0.14080048 0.028160095 0.21589407 -0.05632019 -0.018773397
000070 08 ff f3 05 07 fa 08 0e ff 10 f9 01 ee fb fe 12
       0.07509359 -0.009386699 -0.122027084 0.046933495 0.065706894 -0.05632019 0.07509359 0.13141379 -0.009386699 0.15018718 -0.065706894 0.009386699 -0.16896057 -0.046933495 -0.018773397 0.16896057
000080 12 0a f8 00 fa f7 06 fb 05 f0 0a 0a fd 00 01 ea
       0.16896057 0.09386699 -0.07509359 0.0 -0.05632019 -0.084480286 0.05632019 -0.046933495 0.046933495 -0.15018718 0.09386699 0.09386699 -0.028160095 0.0 0.009386699 -0.20650737
000090 00 fd 08 0f fd 03 25 fb fb 10 15 fe 00 05 fb 04
       0.0 -0.028160095 0.07509359 0.14080048 -0.028160095 0.028160095 0.34730786 -0.046933495 -0.046933495 0.15018718 0.19712067 -0.018773397 0.0 0.046933495 -0.046933495 0.037546795
0000a0 03 f7 f3 0a 06 0a fa 08 f8 ff 02 05 fb fa fe f2
       0.028160095 -0.084480286 -0.122027084 0.09386699 0.05632019 0.09386699 -0.05632019 0.07509359 -0.07509359 -0.009386699 0.018773397 0.046933495 -0.046933495 -0.05632019 -0.018773397 -0.13141379
0000b0 eb 0f 08 0a 02 03 13 0d fd fd f8 0c f4 06 0c 0f
       -0.19712067 0.14080048 0.07509359 0.09386699 0.018773397 0.028160095 0.17834727 0.122027084 -0.028160095 -0.028160095 -0.07509359 0.11264038 -0.11264038 0.05632019 0.11264038 0.14080048
0000c0 04 06 06 fa 06 ff 0d fd 03 f2 02 04 f5 01 fc e1
       0.037546795 0.05632019 0.05632019 -0.05632019 0.05632019 -0.009386699 0.122027084 -0.028160095 0.028160095 -0.13141379 0.018773397 0.037546795 -0.103253685 0.009386699 -0.037546795 -0.29098767
0000d0 f6 fb f7 08 0b 02 f3 18 04 00 fe f9 fe 05 05 f7
       -0.09386699 -0.046933495 -0.084480286 0.07509359 0.103253685 0.018773397 -0.122027084 0.22528076 0.037546795 0.0 -0.018773397 -0.065706894 -0.018773397 0.046933495 0.046933495 -0.084480286
0000e0 f4 00 02 03 fa f6 ed 0d ef 05 00 01 0d fe 03 02
       -0.11264038 0.0 0.018773397 0.028160095 -0.05632019 -0.09386699 -0.17834727 0.122027084 -0.15957388 0.046933495 0.0 0.009386699 0.122027084 -0.018773397 0.028160095 0.018773397
0000f0 00 04 f7 00 01 fe e9 16 0c f6 eb 0e 08 01 ff ec
       0.0 0.037546795 -0.084480286 0.0 0.009386699 -0.018773397 -0.21589407 0.20650737 0.11264038 -0.09386699 -0.19712067 0.13141379 0.07509359 0.009386699 -0.009386699 -0.18773398

functional_1/dense_9/MatMul i1 [640, 128] scale=0.024760896 zero_point=0
000000 d5 e9 e9 fc e6 e0 f9 ff dd f5 f5 fd f4 ee f7 d8
       -1.0647185 -0.5695006 -0.5695006 -0.099043585 -0.64378333 -0.7923487 -0.17332627 -0.024760896 -0.8666314 -0.27236986 -0.27236986 -0.07428269 -0.29713076 -0.44569615 -0.22284807 -0.99043584
000010 c2 f5 a8 d8 11 f4 f7 d3 f7 dd 0a eb dd ec f9 f2
       -1.5351756 -0.27236986 -2.178959 -0.99043584 0.42093524 -0.29713076 -0.22284807 -1.1142403 -0.22284807 -0.8666314 0.24760896 -0.5199788 -0.8666314 -0.49521792 -0.17332627 -0.34665254
000020 f9 03 ed fe 14 d0 ea e9 e9 f5 e9 e4 06 0c f1 f0
       -0.17332627 0.07428269 -0.47045702 -0.049521793 0.49521792 -1.188523 -0.5447397 -0.5695006 -0.5695006 -0.27236986 -0.5695006 -0.6933051 0.14856538 0.29713076 -0.37141344 -0.39617434
000030 13 ee e1 d9 f8 e9 d9 d5 dc 06 ef ed f4 eb 1b ee
       0.47045702 -0.44569615 -0.7675878 -0.96567494 -0.19808717 -0.5695006 -0.96567494 -1.0647185 -0.8913923 0.14856538 -0.42093524 -0.47045702 -0.29713076 -0.5199788 0.6685442 -0.44569615
000040 02 0e f9 03 fb ea db eb ef d2 ee e8 e0 f2 fc f5
       0.049521793 0.34665254 -0.17332627 0.07428269 -0.12380448 -0.5447397 -0.9161532 -0.5199788 -0.42093524 -1.1390013 -0.44569615 -0.5942615 -0.7923487 -0.34665254 -0.099043585 -0.27236986
000050 e8 f4 e9 f7 ff 00 dc ff eb cd f8 fc ea e1 dd ed
       -0.5942615 -0.29713076 -0.5695006 -0.22284807 -0.024760896 0.0 -0.8913923 -0.024760896 -0.5199788 -1.2628057 -0.19808717 -0.099043585 -0.5447397 -0.7675878 -0.8666314 -0.47045702
000060 ef 05 f7 ee f1 ff da e4 e2 ea dd de e7 fc e9 fe
       -0.42093524 0.12380448 -0.22284807 -0.44569615 -0.37141344 -0.024760896 -0.94091403 -0.6933051 -0.7428269 -0.5447397 -0.8666314 -0.8418705 -0.6190224 -0.099043585 -0.5695006 -0.049521793
000070 f4 ff eb 05 fb f1 07 f7 d9 18 e9 e8 f8 f8 e9 e5
       -0.29713076 -0.024760896 -0.5199788 0.12380448 -0.12380448 -0.37141344 0.17332627 -0.22284807 -0.96567494 0.5942615 -0.5695006 -0.5942615 -0.19808717 -0.19808717 -0.5695006 -0.6685442
000080 f7 e5 e0 e4 04 f2 fd 0a 04 f5 f5 02 f2 da f9 fa
       -0.22284807 -0.6685442 -0.7923487 -0.6933051 0.099043585 -0.34665254 -0.07428269 0.24760896 0.099043585 -0.27236986 -0.27236986 0.049521793 -0.34665254 -0.94091403 -0.17332627 -0.14856538
000090 cc ed e6 e6 07 f5 f1 dd f4 fc f7 d4 fb 14 0e f7
       -1.2875667 -0.47045702 -0.64378333 -0.64378333 0.17332627 -0.27236986 -0.37141344 -0.8666314 -0.29713076 -0.099043585 -0.22284807 -1.0894794 -0.12380448 0.49521792 0.34665254 -0.22284807
0000a0 01 03 f1 00 38 db fc ef ea e4 f7 fa fa f4 f7 f0
       0.024760896 0.07428269 -0.37141344 0.0 1.3866102 -0.9161532 -0.099043585 -0.42093524 -0.5447397 -0.6933051 -0.22284807 -0.14856538 -0.14856538 -0.29713076 -0.22284807 -0.39617434
0000b0 ff f2 f7 f0 09 f8 08 f6 e9 09 ff f2 ea f5 f9 fa
       -0.024760896 -0.34665254 -0.22284807 -0.39617434 0.22284807 -0.19808717 0.19808717 -0.24760896 -0.5695006 0.22284807 -0.024760896 -0.34665254 -0.5447397 -0.27236986 -0.17332627 -0.14856538
0000c0 04 fc dd 0f 21 f6 ee e6 0e c0 02 f8 ed ec f7 f2
       0.099043585 -0.099043585 -0.8666314 0.37141344 0.8171096 -0.24760896 -0.44569615 -0.64378333 0.34665254 -1.5846974 0.049521793 -0.19808717 -0.47045702 -0.49521792 -0.22284807 -0.34665254
0000d0 f8 05 d4 f1 11 d6 f0 f1 0a ef 08 09 ec fd e3 02
       -0.19808717 0.12380448 -1.0894794 -0.37141344 0.42093524 -1.0399576 -0.39617434 -0.37141344 0.24760896 -0.42093524 0.19808717 0.22284807 -0.49521792 -0.07428269 -0.718066 0.049521793
0000e0 f3 07 e5 e7 fe 11 f4 f8 f0 f7 f9 f7 04 14 e3 f9
       -0.32189167 0.17332627 -0.6685442 -0.6190224 -0.049521793 0.42093524 -0.29713076 -0.19808717 -0.39617434 -0.22284807 -0.17332627 -0.22284807 0.099043585 0.49521792 -0.718066 -0.17332627
0000f0 ee f3 fc f8 ed f1 eb 0a e5 0b f7 e7 eb f0 0f ec
       -0.44569615 -0.32189167 -0.099043585 -0.19808717 -0.47045702 -0.37141344 -0.5199788 0.24760896 -0.6685442 0.27236986 -0.22284807 -0.6190224 -0.5199788 -0.39617434 0.37141344 -0.49521792
