v0.1/training/anomaly_detection/trained_models/ToyCar/baseline_tf23/model/model_ToyCar_quant.tflite (tflite, 275728 bytes, 20 tensors)

functional_1/dense/BiasAdd/ReadVariableOp/resource f4 [128]
0	0x4129a9d5	10.603963
1	0x3fa1ab34	1.2630372
2	0xbfa28391	-1.2696401
3	0xc0cc66e7	-6.3875613
4	0x40a2f509	5.0924115
5	0xbfd261bc	-1.6436076
6	0x410eb9e8	8.920387
7	0xbf7560f8	-0.9585109
8	0x4085f72c	4.1864223
9	0x3fb4b595	1.4117914
10	0xc090eed7	-4.5291553
11	0x40c026b0	6.0047226
12	0xc120101e	-10.003935
13	0x40b06bd2	5.5131617
14	0x40302f36	2.7528815
15	0x408d0909	4.407353
16	0x407b5803	3.9272468
17	0xc0ec587e	-7.3858023
18	0xc0dcb7db	-6.8974433
19	0xc0d2d3ad	-6.5883393
20	0x408b0db4	4.3454227
21	0xc083f192	-4.1232386
22	0x403b8811	2.9301798
23	0xbed1c4c8	-0.40970445
24	0x41780f22	15.503695
25	0xc1307516	-11.028585
26	0x40d961eb	6.793203
27	0x40a2f3b0	5.092247
28	0x3fe667c8	1.8000422
29	0xc0b2b150	-5.5841446
30	0xc0583080	-3.3779602
31	0x402d1efc	2.7050161
32	0x40a1318c	5.037298
33	0xc1021a31	-8.131394
34	0xc0bd9bac	-5.925253
35	0xc0e12c86	-7.036685
36	0xbf60533b	-0.87627
37	0xc02bf68b	-2.6869228
38	0x4052617f	3.2872007
39	0xc05a9d41	-3.415848
40	0xc13e8101	-11.906495
41	0x40201e44	2.5018473
42	0xc0083625	-2.1283047
43	0x3fdc77a0	1.7224007
44	0x407ad556	3.919271
45	0xbfa3a2af	-1.2784022
46	0x412373cf	10.215774
47	0x408759f4	4.2297306
48	0x3fa598cd	1.2937256
49	0x3f604f0e	0.8762063
50	0x4013696c	2.3033094
51	0x3fb1eceb	1.3900427
52	0x3ffdea20	1.9837074
53	0xc08d98d3	-4.4249053
54	0xc01b65af	-2.4280813
55	0xc0666778	-3.6000652
56	0x3fef8e5e	1.8715322
57	0x40d3d327	6.6195254
58	0xc0356420	-2.8342361
59	0xc12b7779	-10.716668
60	0x4059cb41	3.4030306
61	0xc15ad3c2	-13.676699
62	0xc09b1797	-4.8466296
63	0x405eb86b	3.480006
64	0xbfc92367	-1.5713929
65	0xc0670692	-3.609776
66	0x3d758d38	0.05994913
67	0x402aa7f3	2.6665008
68	0x40fe1b4f	7.9408336
69	0x40ca5377	6.3226886
70	0xc0376a2c	-2.8658552
71	0xc03f3793	-2.987767
72	0x409bb786	4.866153
73	0xc0105377	-2.2550943
74	0xc0686d61	-3.631676
75	0x3fea99d6	1.8328197
76	0x3d8e38dc	0.06944439
77	0xc03f420b	-2.988406
78	0xc0df551b	-6.979139
79	0x403436c5	2.8158429
80	0xc0d44c41	-6.6343083
81	0xc08b5f31	-4.35537
82	0x4067fa90	3.6246681
83	0x40b724a2	5.723222
84	0x40f79da6	7.737994
85	0xbf1a0f9b	-0.6018006
86	0xc116acde	-9.417204
87	0xc079d699	-3.903723
88	0xc0b97eb2	-5.7967157
89	0x4038da46	2.8883224
90	0xbfdb1c84	-1.7118077
91	0xc0106c9a	-2.2566285
92	0x40a53fb6	5.164027
93	0x3f805628	1.0026293
94	0x40119293	2.2745712
95	0xbf803a9e	-1.0017889
96	0xc09cc4cc	-4.899023
97	0xc030d7f9	-2.763182
98	0x40b09111	5.5177083
99	0xbf8eaf92	-1.114733
100	0xbefbff87	-0.4921839
101	0xc1004cb1	-8.0187235
102	0xc0300d96	-2.7508292
103	0x40e02434	7.0044193
104	0x40b267da	5.575177
105	0xbf732fea	-0.94994986
106	0x3ebc9114	0.36829436
107	0xc0172bb1	-2.3620417
108	0xc044418c	-3.0665007
109	0xc038fa88	-2.8902912
110	0xc05127d5	-3.2680562
111	0x400c5bb8	2.193098
112	0x3e46146c	0.19343728
113	0xbf9f4ec0	-1.2445908
114	0x3e248cb8	0.16069305
115	0x40094bfe	2.1452632
116	0x40e9220a	7.285405
117	0xc0918be7	-4.548328
118	0xbfbfe505	-1.4991766
119	0xc022c993	-2.543553
120	0xbf5702d6	-0.839887
121	0x41367e99	11.405908
122	0xbdbfaaf8	-0.093587816
123	0x40317327	2.7726533
124	0xbfadeb59	-1.3587447
125	0x4029ddf6	2.6541724
126	0xbf98688a	-1.1906903
127	0x4027850f	2.6174963

functional_1/dense_1/BiasAdd/ReadVariableOp/resource f4 [128]
0	0xbecf0fef	-0.40441844
1	0xbf7d0c9d	-0.9884737
2	0xbe15db78	-0.14634502
3	0x3db3360d	0.08750544
4	0x3f22fd1e	0.63667476
5	0x3e60d5d6	0.21956572
6	0xbf2e860d	-0.68173295
7	0xbec4bcb1	-0.3842521
8	0x3d8f4f42	0.06997539
9	0xbd80a1b8	-0.062808454
10	0xbc4d5880	-0.012533307
11	0x3dbba39a	0.09162064
12	0x3edb415c	0.42823303
13	0x3c4a0820	0.012331039
14	0xbeb3c8bb	-0.35114083
15	0x3eaf8028	0.34277463
16	0x3e9b8228	0.3037274
17	0x3f66a666	0.90097654
18	0xbe8b80d1	-0.27246717
19	0xbfbb45ba	-1.4630654
20	0xbd2aa18c	-0.04165797
21	0xbe2b5388	-0.16731083
22	0x3f2f9fc6	0.6860317
23	0xbe93ec8a	-0.28891402
24	0x3d66a843	0.05631281
25	0xbf2da1ac	-0.67824817
26	0x3e019fe8	0.12658656
27	0xbe7d6b2c	-0.24747914
28	0xbdec426d	-0.11536107
29	0x3dc63c02	0.09679414
30	0xbe51bc7e	-0.2048206
31	0x3ee2a0aa	0.44263202
32	0x3f1e7b16	0.61906564
33	0x3f0c3524	0.54768586
34	0x3ecf9608	0.40544152
35	0xbf132476	-0.5747751
36	0x3eea3de9	0.4575036
37	0x3ef03328	0.4691403
38	0x3f1c1195	0.6096433
39	0xbda82434	-0.0821003
40	0xbe207946	-0.15671262
41	0x3f0b6b70	0.5446081
42	0xbe8c5e10	-0.27415514
43	0xbcf2ae1d	-0.02962404
44	0xbefecaa0	-0.49763966
45	0xbee4df21	-0.44701484
46	0xbf5fa410	-0.87359715
47	0xbc16dc78	-0.009207837
48	0xbe03780a	-0.1283876
49	0x3ed60442	0.41800123
50	0xbf13b7da	-0.5770241
51	0x3f7837f4	0.9696038
52	0x3d4ad180	0.0495162
53	0x3ebc3a79	0.3676336
54	0xbe4d589c	-0.20053333
55	0x3e299120	0.16559267
56	0x3f0cf992	0.55068314
57	0x3f080575	0.53133327
58	0x3f0b43f6	0.54400575
59	0xbfb56e9e	-1.4174383
60	0x3ec34de9	0.38145378
61	0xbdb314c9	-0.08744199
62	0x3d8bd920	0.06828523
63	0xbe4d877a	-0.20071211
64	0xbf94d4c2	-1.1627429
65	0x3f9f8194	1.2461419
66	0xbea6e4f8	-0.32596564
67	0xbe1f5fc2	-0.15563872
68	0xbe61afda	-0.22039738
69	0xbe97628a	-0.29567367
70	0xbfaa16fd	-1.3288265
71	0x3f362482	0.71149457
72	0x3ef8b796	0.48577565
73	0x3e61b6a2	0.22042325
74	0x3ed94b59	0.42440298
75	0x3e3eebe5	0.18644674
76	0xbfb8af3b	-1.4428476
77	0x3e53df29	0.20690598
78	0xbd91741c	-0.07102224
79	0xbe408f62	-0.18804696
80	0xbeb76ffc	-0.35827625
81	0x3e26f466	0.16304168
82	0xbe1486e6	-0.14504585
83	0xbf270bb6	-0.65252244
84	0x3f2d4dbc	0.6769674
85	0xbec197ca	-0.37811118
86	0x3f343830	0.70398235
87	0xbe7ec7c0	-0.24880886
88	0xbe09093c	-0.13382429
89	0x3d505aa4	0.05086769
90	0xbf28ff87	-0.66014904
91	0x3ed95d4c	0.42453992
92	0x3f178a0c	0.5919502
93	0xbf92cc96	-1.1468685
94	0xbe95bd4b	-0.29245982
95	0x3e00a2e0	0.12562132
96	0x3e9c1c63	0.30490407
97	0x3f2c2480	0.67243195
98	0x3ed69164	0.419078
99	0xbe5230eb	-0.20526473
100	0xbfab88aa	-1.3401082
101	0xbe925df4	-0.28587306
102	0x3eaad6c3	0.33366975
103	0xbe2f1e04	-0.17101294
104	0xbf1aff62	-0.60545933
105	0x3e00ec31	0.125901
106	0x3f1c1a40	0.60977554
107	0xbd71af42	-0.05900503
108	0x3e745d06	0.2386361
109	0xbe8cba95	-0.274861
110	0xbf199507	-0.5999302
111	0xbe830a10	-0.25593615
112	0xbf0b59b8	-0.54433775
113	0xbf0502e6	-0.5195755
114	0x3f299211	0.66238505
115	0xbf9fe7ea	-1.249265
116	0x3da65460	0.08121562
117	0xbe13c5ac	-0.14430875
118	0x3fa70cce	1.3050783
119	0x3e5113b6	0.20417675
120	0xbdbd33fa	-0.09238429
121	0xbe0bcd6f	-0.13652585
122	0x3f56760c	0.83773875
123	0x3fc8fbb6	1.5701816
124	0x3f62c6a0	0.8858433
125	0x3f89c14a	1.0762112
126	0xbed7f316	-0.42177647
127	0xbf4a1403	-0.78936785

functional_1/dense_2/BiasAdd/ReadVariableOp/resource f4 [128]
0	0x3eb884da	0.36038858
1	0x3d8a8f04	0.06765559
2	0x3d83088c	0.063981146
3	0xbe60404c	-0.21899527
4	0x3d873e4b	0.06603678
5	0x3c026920	0.007959634
6	0x3efe7026	0.49694937
7	0xbdcce764	-0.10005072
8	0xbe473260	-0.1945281
9	0x3c82f2b8	0.015984878
10	0x3e29a6b0	0.16567492
11	0xbd57a800	-0.05265045
12	0x3d480cb0	0.048840225
13	0xbd74f454	-0.059803322
14	0x3d0b23fc	0.033969864
15	0x3ed05e30	0.4069686
16	0xbe05365c	-0.13009018
17	0xc00edfb6	-2.2324042
18	0xbe0dc9a4	-0.13846451
19	0xbfc3701a	-1.5268586
20	0x3e3b8cfc	0.183155
21	0xbe0d689f	-0.13809441
22	0x3e7a73e1	0.24458267
23	0xbf62a0b0	-0.8852644
24	0x3db1f7d8	0.086898506
25	0x3d11246c	0.035435125
26	0xbff2892c	-1.8948112
27	0x3d788b5a	0.06067977
28	0xbd5bc708	-0.053656608
29	0xbf1f4855	-0.62219745
30	0x3daac948	0.083391726
31	0x3e9cfadc	0.3066014
32	0xbece751a	-0.40323716
33	0xbcc03cc0	-0.023466468
34	0xbe9093df	-0.28237817
35	0xbb3e0c40	-0.0028999
36	0x3bebce46	0.0071962206
37	0x3e0d20d9	0.13782062
38	0xbd066e80	-0.032820225
39	0x3e503992	0.20334461
40	0xbf3ab596	-0.7293333
41	0x3cbf574a	0.023357052
42	0x3ec5792e	0.38569015
43	0x3e6c3ec0	0.23070812
44	0x3f346d99	0.7047973
45	0x3effc0fa	0.49951917
46	0xbcd1f290	-0.025628358
47	0xbc1ecc78	-0.009692304
48	0xbe5c6100	-0.21521378
49	0x3d8d28f0	0.06892574
50	0x3eae8208	0.3408358
51	0xbf1282aa	-0.5723063
52	0x3e20b90c	0.1569559
53	0xbd2f9e90	-0.042875826
54	0x3ebe9c69	0.37228706
55	0x3e305be0	0.17222548
56	0x3d04532a	0.032305874
57	0xbdc37288	-0.095433295
58	0xbef646b8	-0.4810083
59	0x3e0f7de0	0.14012861
60	0x3e3c59dc	0.18393654
61	0xbd5b7850	-0.053581536
62	0x3e96515c	0.29358947
63	0x3e3092fd	0.17243572
64	0xbd49efdb	-0.04930101
65	0xc0443074	-3.0654573
66	0xbd8612c0	-0.06546545
67	0x3d894d26	0.06704168
68	0x3c2bddd0	0.010489896
69	0x3f151b0b	0.5824439
70	0x3adc9900	0.0016830266
71	0x3d083a40	0.033258677
72	0x3df58534	0.11988297
73	0xbdb21270	-0.08694923
74	0xbf0a3888	-0.5399251
75	0x3e79b810	0.2438662
76	0x3dbe0890	0.09278977
77	0xbe864f08	-0.2623217
78	0xbe0bbe5a	-0.13646832
79	0x3e924d5e	0.2857465
80	0xbdb736da	-0.08946009
81	0x3debe79b	0.115187846
82	0xbe45de5c	-0.19323105
83	0x3ce7d470	0.02829954
84	0xbd7da908	-0.06192878
85	0x3ed38d79	0.41318873
86	0xbf1859c8	-0.59511995
87	0xbc03a7e8	-0.008035637
88	0xbe363ea3	-0.17797332
89	0xbd0e16c0	-0.034689665
90	0xbf12d720	-0.57359505
91	0xbe420153	-0.18945818
92	0xbc571468	-0.013127424
93	0x3ed243a6	0.41067237
94	0x3e57db84	0.21079832
95	0x3e07163e	0.13192078
96	0x3b72e300	0.0037061572
97	0xbd605758	-0.054770797
98	0x3dfccdf4	0.1234397
99	0x3f86c938	1.0530157
100	0x3e0e1de8	0.13878596
101	0x3e83ae44	0.25718892
102	0x3d3f64de	0.046727054
103	0x3e223fd0	0.15844655
104	0xbd8f749a	-0.07004662
105	0x3d8a6ae4	0.06758669
106	0x3d6c7eb6	0.05773803
107	0x3e225928	0.15854323
108	0xbdab698d	-0.083697416
109	0xbe880944	-0.2656957
110	0x3d79bce0	0.06097114
111	0x3de1abf4	0.110191256
112	0x3c46ed05	0.012141471
113	0xbefcc0b2	-0.49365765
114	0xbeb69092	-0.35657173
115	0x3f0178ae	0.5057477
116	0xbdd411ca	-0.103549555
117	0x3e609f6e	0.21935818
118	0x3d80d718	0.06291026
119	0xbd764b70	-0.060130537
120	0xbe39d964	-0.18149334
121	0x3e7cd5b8	0.24690902
122	0xbc8d3394	-0.017236508
123	0x3ec5e626	0.38652152
124	0x3e4a91e0	0.1978221
125	0x3f303d4a	0.6884352
126	0xbd6e1752	-0.05812771
127	0x3e4c0592	0.19924

functional_1/dense_3/BiasAdd/ReadVariableOp/resource f4 [128]
0	0x3d8efac8	0.069814265
1	0x3eb29660	0.34880352
2	0xbe2fd067	-0.17169343
3	0xbecafd5a	-0.39646417
4	0xbe132f8a	-0.14373603
5	0xbb0330c0	-0.002001807
6	0xbfa33b5e	-1.2752492
7	0xbeaf57ec	-0.34246767
8	0x3e7d1eff	0.24718855
9	0xbd8f5fc0	-0.07000685
10	0xbf9dd699	-1.2331115
11	0xbd67e959	-0.056619022
12	0xc07e0e52	-3.969624
13	0x3e8de44b	0.27713236
14	0x3e8b21a6	0.2717411
15	0x3ea4b144	0.32166493
16	0xbeeb2afa	-0.45931226
17	0xbebc6966	-0.36799163
18	0x3e14be5e	0.14525744
19	0xbe03123e	-0.12799928
20	0xbe717a19	-0.23581733
21	0x3de8a218	0.11359042
22	0xbe150da2	-0.14555982
23	0xbe89de06	-0.26927203
24	0xbf9753fd	-1.1822506
25	0xbe26705c	-0.16253799
26	0x400dd250	2.2159615
27	0xbe1c78cc	-0.15280455
28	0xbf6f2b6b	-0.93425626
29	0x3dc4864d	0.09595928
30	0xbfa2f9e9	-1.2732517
31	0x3f17d20c	0.5930488
32	0xbe9fbea5	-0.31200138
33	0xbe740d47	-0.2383319
34	0x3e11cc14	0.14238006
35	0x3d3980e8	0.04528895
36	0xbf6aa3fc	-0.9165647
37	0x3df97d94	0.12182155
38	0x3d11d9cc	0.035608098
39	0x3d659b00	0.056056023
40	0xbd2832ee	-0.041064195
41	0xbdfb2882	-0.122635856
42	0xbf85b849	-1.0446864
43	0xbf78a5aa	-0.97127783
44	0xba5d5c00	-0.000844419
45	0xbfb87480	-1.4410553
46	0x3ef3fdd4	0.47654593
47	0xbeab1697	-0.33415672
48	0x3f3a4d61	0.7277432
49	0x3f2e78a1	0.68152815
50	0x3e370d10	0.17876077
51	0xbf9ee20e	-1.2412736
52	0x3e5b550f	0.21419166
53	0x3d2a0b38	0.041514605
54	0x3f2b289e	0.6685885
55	0xbfe5c462	-1.7950556
56	0xbeb6f589	-0.35734203
57	0x3eb126e0	0.34599972
58	0x3c158cd0	0.009127811
59	0xbcab54b5	-0.020914415
60	0xbcbf8e58	-0.023383304
61	0xbe2cbc03	-0.16868596
62	0x3ec616d0	0.3868928
63	0x3eae40f1	0.3403392
64	0x3ee7f618	0.45304942
65	0xbd94b182	-0.072604194
66	0xbf111578	-0.56673384
67	0xbb356f80	-0.0027684867
68	0xbe3a1c66	-0.18174896
69	0x3e68198e	0.22665998
70	0xbea788b2	-0.32721478
71	0x3da22b4a	0.07918413
72	0x3d8d91d4	0.0691258
73	0xbdf7c38a	-0.12097843
74	0x3e49468c	0.19655818
75	0x3d0ab1e0	0.03386104
76	0xbd8da862	-0.06916882
77	0x3d9acecd	0.07558975
78	0x3e4efc80	0.20213509
79	0xbe1cd0c6	-0.15314016
80	0x3e549df9	0.20763387
81	0xbda1d3c9	-0.07901723
82	0xb9886800	-0.00026017427
83	0xbf17f736	-0.5936159
84	0x3d0df030	0.03465289
85	0xbf756a3a	-0.95865214
86	0xbd944d2e	-0.07241283
87	0x3e79dbf4	0.24400312
88	0x3da2afe8	0.07943708
89	0x3dc4f254	0.09616533
90	0x3cd954fe	0.026529785
91	0x3f0cfd7c	0.55074286
92	0xbd0c63b0	-0.034274757
93	0xbd42df28	-0.0475761
94	0x3e932675	0.28740278
95	0x3e6cb17c	0.2311458
96	0x3e8cdde8	0.2751305
97	0xc04ff35e	-3.249229
98	0x3f25df68	0.64794016
99	0x3d6ab0d7	0.057297554
100	0xbe473ca4	-0.19456726
101	0xbd813aa8	-0.06310016
102	0xbd914eed	-0.07095132
103	0x3e90d940	0.2829075
104	0x3e91403a	0.28369313
105	0x3d1880d0	0.03723222
106	0x3e9b97ba	0.30389196
107	0x3f383e12	0.7196971
108	0x3eaf62a6	0.3425495
109	0x3e420ffe	0.18951413
110	0x3e256d26	0.16154918
111	0x3b99afe8	0.004690159
112	0x3e0995bf	0.1343603
113	0x3dc92490	0.09821427
114	0xbd1ad7ea	-0.037803568
115	0xbbe32ac0	-0.0069325864
116	0x3e415292	0.18879154
117	0xbd9a5a3c	-0.07536742
118	0xbd321e10	-0.0434857
119	0xbd09729b	-0.033556562
120	0x3e2d9282	0.1695042
121	0x3e602e70	0.21892715
122	0xc045df51	-3.0917552
123	0xbcc43000	-0.02394867
124	0x3e6d15e8	0.23152888
125	0x3e5b0cec	0.21391648
126	0xbea74188	-0.32667184
127	0x3e27f354	0.16401416

functional_1/dense_4/BiasAdd/ReadVariableOp/resource f4 [8]
0	0x4077a82d	3.8696396
1	0x3f6b724c	0.9197128
2	0x3f983e6e	1.1894052
3	0x3fde6c7c	1.7376857
4	0x3fe47bd1	1.7850286
5	0x3f4af1ec	0.79275393
6	0x402c3288	2.6905842
7	0x3f2fe7db	0.6871316

functional_1/dense_5/BiasAdd/ReadVariableOp/resource f4 [128]
0	0x40d3f380	6.623474
1	0x400790a5	2.1182034
2	0xbeaf564a	-0.3424552
3	0x40ef7167	7.482593
4	0x403c492c	2.941966
5	0x41341f0d	11.257581
6	0x3fcb5722	1.5885966
7	0xc004b769	-2.0736945
8	0x404cccce	3.2000003
9	0xc072f7f7	-3.7963846
10	0xbf77d7fb	-0.96813935
11	0x40bbe549	5.871739
12	0x3e799c60	0.24376059
13	0xc072ec13	-3.7956588
14	0x3e366894	0.17813331
15	0x400ba92c	2.1822004
16	0x3e2622cf	0.16224216
17	0xbed0067f	-0.40629956
18	0xbfca3a8a	-1.5799115
19	0xbf5de577	-0.8667826
20	0x3f027162	0.5095426
21	0x40386f1b	2.8817813
22	0xbf986096	-1.1904476
23	0x3d868d08	0.06569868
24	0x415daeae	13.855146
25	0x3eba56d4	0.3639437
26	0xc0ea0008	-7.312504
27	0x3f94db94	1.162951
28	0x3f987a3c	1.1912303
29	0x41609326	14.035925
30	0xc0b5c151	-5.679848
31	0xc01c0425	-2.437753
32	0xc10bab44	-8.729313
33	0xbf0db861	-0.55359465
34	0xbfc07f76	-1.5038898
35	0xbe6c1bac	-0.23057431
36	0x3e25bc2f	0.16185068
37	0x3fceb7ed	1.614988
38	0x3f4e5bb8	0.806087
39	0x4058c3a7	3.3869417
40	0x4036800f	2.851566
41	0x3fa3ec10	1.2806416
42	0x3d1b7470	0.03795284
43	0xbf1b9200	-0.60769653
44	0x41839b70	16.450897
45	0xbf1e3502	-0.61799634
46	0xbf2edcdd	-0.6830576
47	0x3f655fc6	0.89599264
48	0x41048d59	8.284509
49	0x3fae25d0	1.360529
50	0xc05ad2bc	-3.4191122
51	0xbfb632d0	-1.4234257
52	0x3fbb41a8	1.4629412
53	0xbf8a80ee	-1.0820596
54	0xbf70f7a6	-0.9412788
55	0x408608ce	4.188575
56	0xc0d68bf1	-6.7045827
57	0xbf133051	-0.574956
58	0x40a0ee79	5.0291104
59	0xc0261b09	-2.5954
60	0x3f77aced	0.9674824
61	0x407bd136	3.9346442
62	0x40edc243	7.4299636
63	0x4081534f	4.0414195
64	0x416366e6	14.212622
65	0x405ecd59	3.4812834
66	0x3f922f92	1.1420767
67	0x3d5dd148	0.054154664
68	0xc0033e13	-2.0506637
69	0x3fc2df82	1.5224459
70	0xc1063230	-8.387253
71	0x405db615	3.4642384
72	0x409a200d	4.8164124
73	0xc172d42b	-15.176799
74	0xc013ec72	-2.3113065
75	0xc02ecd32	-2.7312741
76	0x3fdcb414	1.7242455
77	0x3f91b00d	1.1381851
78	0x3eca5c67	0.39523622
79	0xbfc4249e	-1.5323675
80	0x3fb513e9	1.4146701
81	0xc090d10b	-4.525518
82	0x3f6ffcac	0.9374492
83	0x3d0d225a	0.03445659
84	0xc0748042	-3.8203282
85	0x3f3269b2	0.6969253
86	0x3e1fa287	0.15589343
87	0xbf753820	-0.95788765
88	0x3e4ea158	0.20178735
89	0x40c6adbe	6.208709
90	0xbf3aee65	-0.7302001
91	0xc04bbabb	-3.1832721
92	0x40fd20a6	7.9102354
93	0x4170ce75	15.050405
94	0x40691cd5	3.6423848
95	0xbfa2eed6	-1.2729137
96	0xbf5b345c	-0.8562677
97	0xc0055d2e	-2.0838122
98	0x4019b0fa	2.4014268
99	0xbfffcc58	-1.9984236
100	0x3f9b3930	1.2126827
101	0xbf6bf418	-0.9216933
102	0xbf86bb16	-1.0525844
103	0x3e5375b2	0.20650366
104	0x3f8746ef	1.0568522
105	0xbf224f15	-0.6340192
106	0x3fb5dde2	1.4208338
107	0x3fa7b3e6	1.3101776
108	0xc00e8436	-2.2268195
109	0x3e059354	0.13044482
110	0xc0418bc2	-3.0241551
111	0x3e8b81fe	0.27247614
112	0xbfe86223	-1.8154949
113	0xc104a421	-8.290071
114	0x3eb68bdc	0.3565358
115	0x402b51b2	2.6768613
116	0xc0475769	-3.11471
117	0x401680d7	2.3516138
118	0xc0da11aa	-6.8146563
119	0x408f9cca	4.4878893
120	0xbed921b4	-0.42408526
121	0xc084971b	-4.1434455
122	0xc090dca0	-4.526932
123	0xbfd5cdfe	-1.6703489
124	0x40504bc9	3.2546256
125	0xbfa668b2	-1.30007
126	0x3fd57ca3	1.6678661
127	0x40eeac63	7.4585433

functional_1/dense_6/BiasAdd/ReadVariableOp/resource f4 [128]
0	0xbf1620f4	-0.5864403
1	0xbccaeb10	-0.02477029
2	0x3fb549f9	1.41632
3	0x3f354739	0.708118
4	0x3fae6023	1.3623089
5	0xbf3fed05	-0.7497104
6	0xbee0fcb4	-0.43942797
7	0x3e5ad211	0.21369196
8	0x3e005332	0.12531736
9	0x3f28b1db	0.65896386
10	0x3f8ddabe	1.108238
11	0x3fa8fd53	1.3202308
12	0x3e6515cb	0.22371595
13	0x3f89f1a1	1.0776864
14	0xbbcae1a0	-0.0061914474
15	0xbf57815f	-0.8418178
16	0x3da06530	0.078318
17	0x3ec2f2dc	0.38075912
18	0xbf816a4a	-1.0110562
19	0x3e1b237c	0.15150255
20	0xbf5d1368	-0.86357737
21	0xbf857cea	-1.0428746
22	0x3f9b99b9	1.2156287
23	0xbe974f11	-0.2955251
24	0x3edd6efb	0.43248734
25	0xbf054e32	-0.5207244
26	0x3dbfead4	0.09370962
27	0x3e2845b0	0.16432834
28	0x3e88366c	0.2660402
29	0xbfbff683	-1.4997104
30	0x3fa3ea90	1.2805958
31	0x3d85f204	0.065403014
32	0x3edcd6cc	0.43132627
33	0xbf656d67	-0.8962006
34	0x3e8e0a31	0.2774215
35	0x3fa42aa7	1.2825516
36	0xbe5e13c4	-0.21687227
37	0x3f56b8a0	0.83875465
38	0xbf42a50d	-0.760331
39	0xbfa09b13	-1.2547325
40	0x3f85fc3e	1.0467603
41	0x3f5fe546	0.8745922
42	0xbf3d0f4a	-0.73851454
43	0x3ea28171	0.3173938
44	0xbf0a4270	-0.54007626
45	0xbcbb4820	-0.02286154
46	0x3ef1f632	0.47258145
47	0x3e2de67f	0.16982459
48	0x3ef0921e	0.4698648
49	0xbf78aec2	-0.9714166
50	0xbf0a8ba9	-0.54119354
51	0x3efd2292	0.49440438
52	0xbeba5b28	-0.36397672
53	0x3fb0a1a8	1.3799334
54	0x3f07c2a8	0.53031397
55	0x3eda0740	0.42583656
56	0x3f580f0f	0.8439798
57	0xbe10b490	-0.14131379
58	0x3d8366fa	0.064161256
59	0x3d67e004	0.056610122
60	0x3e927d99	0.28611448
61	0xc032c1b2	-2.7930722
62	0x3fa83165	1.3140074
63	0xbe9d891f	-0.30768678
64	0x3ffcef09	1.9760448
65	0xbf3ffb6c	-0.74993014
66	0xbf81e440	-1.0147781
67	0x3df60578	0.12012762
68	0xbed975ed	-0.42472783
69	0xbe1efed3	-0.15526895
70	0xbffb4f95	-1.9633662
71	0xbe83955f	-0.256999
72	0xbf8febbe	-1.1243818
73	0x3e670a2c	0.22562474
74	0x3ea75daf	0.32688662
75	0xbf5887a6	-0.84581983
76	0xbf6050a3	-0.8762304
77	0x3e23a335	0.15980227
78	0x3ef8fe25	0.48631397
79	0x3f248459	0.64264446
80	0xbeb2389b	-0.34808812
81	0x3f115e3f	0.56784433
82	0xbf33259e	-0.69979274
83	0x3e951ff7	0.2912595
84	0x3ecf7212	0.40516716
85	0x3f68ccf6	0.90937746
86	0xbe1364f6	-0.14393982
87	0x3f4d61bb	0.8022725
88	0x3fdae088	1.7099771
89	0xbe67fedd	-0.22655816
90	0xbe9800b6	-0.29688042
91	0xbed51512	-0.41617638
92	0x40191df5	2.3924534
93	0x3f5de043	0.8667032
94	0xbfad17fc	-1.3522944
95	0xbfc2b940	-1.5212784
96	0x3f7e8712	0.9942485
97	0x3fd1834b	1.6368192
98	0x3f3a732b	0.7283198
99	0xbef6f26c	-0.48231828
100	0x3e025a55	0.12729771
101	0xbda75c32	-0.08171882
102	0x3fa09080	1.2544098
103	0x3eccad3d	0.3997592
104	0x3d3ee250	0.046602547
105	0x3eb2248b	0.34793505
106	0x3f68205e	0.9067439
107	0x402e8464	2.7268305
108	0x3f393328	0.72343683
109	0xbe53899a	-0.2065796
110	0x3e3b6e6e	0.18303844
111	0xbe930d91	-0.28721288
112	0x3fa3bdb8	1.2792273
113	0xbe92c231	-0.2866378
114	0x3fb1f9d1	1.3904363
115	0x3f961ca9	1.1727496
116	0x3ee74598	0.45170283
117	0xbdd041b7	-0.10168784
118	0x3f1359e5	0.57559043
119	0xbf1918ef	-0.5980367
120	0x3f83b5c5	1.0289847
121	0xbd7fd0a7	-0.062454846
122	0xbf6d09f6	-0.92593324
123	0x3e6c21bf	0.23059748
124	0x3ebf5a94	0.37373793
125	0xbf1267d3	-0.57189673
126	0x3f63db5c	0.8900659
127	0x3eedf71a	0.46477586

functional_1/dense_7/BiasAdd/ReadVariableOp/resource f4 [128]
0	0xbeb549c0	-0.3540783
1	0xbd3e3724	-0.046439305
2	0x3e218831	0.15774609
3	0x3faf7d10	1.3710041
4	0x3f126b71	0.5719519
5	0x3e90fc8e	0.28317684
6	0xbdf0c84e	-0.11756955
7	0xbeaaa235	-0.3332688
8	0x3f59da1c	0.85098433
9	0x3dbbe15c	0.09173843
10	0x3f1fe559	0.6245933
11	0x3f53d62a	0.82748663
12	0xbeb60609	-0.3555148
13	0x3f210d49	0.62910897
14	0x3ff4013c	1.9062877
15	0x3fc9d384	1.5767674
16	0xbd1dfcc0	-0.03857112
17	0xbebd0f71	-0.36925843
18	0xbe27739e	-0.16352698
19	0xbeda5006	-0.42639178
20	0xbfbdcda2	-1.4828379
21	0x3ddd6020	0.1080935
22	0x3f00b5dd	0.502775
23	0xbf7a530d	-0.97782975
24	0x3f23e491	0.6402064
25	0xbf110da8	-0.5666146
26	0xbf096256	-0.53665674
27	0x3e27b081	0.16375925
28	0x3dd511d8	0.10403794
29	0xbe39c281	-0.18140604
30	0xbf2cdd64	-0.67525315
31	0xbd936940	-0.07197809
32	0x3ed20d3a	0.41025716
33	0x3f57e466	0.84332883
34	0xbd6a3e28	-0.057188183
35	0x3f3572b0	0.70878124
36	0x401c9351	2.4464915
37	0x3f2f645c	0.6851251
38	0x3faa1f4e	1.3290803
39	0x4072236d	3.7834122
40	0xbf24ca59	-0.6437126
41	0xbca3ffa6	-0.020019364
42	0xbee64e77	-0.4498174
43	0x3ee9e9f8	0.45686316
44	0x3f26ee94	0.6520779
45	0x3dbfb969	0.09361536
46	0xbdebad90	-0.11507714
47	0x3ec948a6	0.3931324
48	0xbeac7f0b	-0.33690676
49	0xbfe10bcf	-1.7581729
50	0x3df862e8	0.1212824
51	0x3f05c1e7	0.52248996
52	0x3fa74eea	1.3070958
53	0x3cd2a850	0.025715023
54	0xbf257e24	-0.646456
55	0xbd892630	-0.06696737
56	0x3e6537d6	0.22384581
57	0xbf35878f	-0.7090997
58	0x3ea1912f	0.3155608
59	0x3f9bdf33	1.217749
60	0xbe63cb05	-0.22245415
61	0xbb7dc880	-0.0038724244
62	0x404ccd6a	3.2000375
63	0x3ee964ee	0.45584816
64	0x3eb46920	0.35236454
65	0x3e00cd4e	0.12578318
66	0xbf128109	-0.5722814
67	0x3fc1dbb8	1.5145178
68	0xbf1aa995	-0.6041501
69	0xbd86c178	-0.0657987
70	0x3eabb9aa	0.33540088
71	0x3f38bfac	0.7216747
72	0x3f4fd19e	0.81179225
73	0xbed8dbc1	-0.4235516
74	0x3dd9ca04	0.106342345
75	0xbe273fcc	-0.1633293
76	0x3fa6d765	1.3034483
77	0xbf79cb80	-0.9757614
78	0x3ecbc1c4	0.3979627
79	0x3fd267a9	1.6437885
80	0x3f2455a6	0.6419319
81	0x3e87b4ac	0.2650503
82	0xbf65310c	-0.89527965
83	0x3f143a55	0.5790151
84	0xbe92bc12	-0.2865911
85	0x3f185660	0.595068
86	0xc01865a6	-2.3812041
87	0x3e7d4ba9	0.24735893
88	0xbf00fcb9	-0.50385624
89	0xbd0d2974	-0.03446336
90	0x3e6dc584	0.23219877
91	0x3f3f30a8	0.7468362
92	0xbd9c7d90	-0.07641137
93	0x3dc18ac8	0.094502985
94	0x4015c137	2.339918
95	0x3ecbc9db	0.3980244
96	0x3e909d22	0.28244883
97	0x3f1b272a	0.60606635
98	0xbf039f98	-0.51415396
99	0x3f7f8da7	0.9982552
100	0x3f2c8db0	0.674037
101	0xbfb0d660	-1.3815422
102	0x3db7c540	0.08973169
103	0x3a632600	0.0008665025
104	0xbee69a56	-0.45039624
105	0x3e133504	0.14375693
106	0x3f7fce7a	0.99924433
107	0x3e365fb4	0.17809945
108	0xbf14d138	-0.5813174
109	0x3fbc9ca0	1.4735298
110	0xbdb2eb18	-0.08736247
111	0x3f99b9c3	1.2009815
112	0xbd6400e0	-0.055664897
113	0xbf421083	-0.75806445
114	0x3f70d5b4	0.94076085
115	0xbf15a75b	-0.5845849
116	0x3d3850c6	0.044998907
117	0xc00513e3	-2.0793388
118	0xbf8348ee	-1.0256631
119	0x3fa8f1ab	1.3198751
120	0x3e797941	0.24362661
121	0x4069cb8d	3.6530488
122	0x402597ae	2.5873828
123	0x3f6ab6b4	0.9168503
124	0xbefc6b1c	-0.49300468
125	0x3ea59dfb	0.32347092
126	0x3d165b9e	0.036708467
127	0xbec967ca	-0.39336997

functional_1/dense_8/BiasAdd/ReadVariableOp/resource f4 [128]
0	0x3fd1ec2b	1.6400198
1	0x3f679edc	0.90476775
2	0x40048096	2.0703483
3	0x3f955a40	1.1668167
4	0x3faa261e	1.3292882
5	0x3f56509e	0.8371676
6	0x3f2bd0c2	0.67115414
7	0x3fb412c0	1.4068222
8	0x3eae5e63	0.34056386
9	0xbfda07be	-1.7033613
10	0x3fcf4aa8	1.6194658
11	0xbe0cda10	-0.13755059
12	0x4003d9b8	2.0601635
13	0x3f6c917e	0.92409503
14	0x3f3fabbb	0.74871415
15	0x3ec33112	0.38123375
16	0x3f2ef70b	0.6834571
17	0x3e3fad74	0.18718511
18	0x3e135808	0.1438905
19	0x40258d64	2.5867548
20	0x3ff5e846	1.9211509
21	0x404b9569	3.1809943
22	0x3edf0ed5	0.43566003
23	0x3f32c208	0.6982732
24	0x3f7907f6	0.9727777
25	0x406e6668	3.7250004
26	0x40236e56	2.5536094
27	0x40260a99	2.5943968
28	0xbed65e16	-0.41868657
29	0x3f6b4e8f	0.91916746
30	0x3f25085f	0.644659
31	0x3f86c93a	1.053016
32	0x4015bb3b	2.3395526
33	0xbe1e6780	-0.1546917
34	0x3f421f9c	0.7582948
35	0xbdced600	-0.10099411
36	0xbf4a997c	-0.7914045
37	0x3d0041b0	0.031312644
38	0x4035328f	2.8312109
39	0x3f1feb86	0.62468755
40	0x401208b3	2.281781
41	0x3f57ff04	0.843735
42	0x3f733dbc	0.95016074
43	0x3e92b6ec	0.28655183
44	0x403fcdfb	2.996947
45	0x3f381401	0.71905524
46	0xbcb6abd0	-0.022298723
47	0x3ff9f16b	1.95268
48	0x403ac4be	2.9182582
49	0x3f165b76	0.5873331
50	0x3fa18bb7	1.2620763
51	0x402838cb	2.6284664
52	0x3eabddf6	0.3356778
53	0x3f5dc355	0.8662618
54	0xbd203430	-0.03911227
55	0x3fa49d07	1.2860421
56	0x3e37ebec	0.17961091
57	0xbd02db90	-0.031947672
58	0x3fe97f5d	1.8241993
59	0xbf14a349	-0.58061653
60	0x400b614e	2.177814
61	0x40498b35	3.1491215
62	0xbf3db633	-0.7410614
63	0x400f0648	2.2347584
64	0x40167cfe	2.351379
65	0x3f6ed7fa	0.93298304
66	0x3f6445ca	0.8916899
67	0x405b58a6	3.4272857
68	0x3e5dd8d4	0.21664745
69	0x4044cbba	3.0749345
70	0xbe261ae4	-0.16221195
71	0x400908e9	2.1411688
72	0x400d32a6	2.2062163
73	0xbe46a9ac	-0.19400662
74	0x3fbe0992	1.4846671
75	0x3fe79067	1.8090943
76	0x4039205d	2.8926003
77	0x3f4fbac8	0.8114438
78	0x400ba28d	2.1817963
79	0x3f9f9c51	1.2469579
80	0x3f2f20af	0.68409246
81	0x3f019554	0.5061848
82	0x3fb98c2a	1.44959
83	0x40193d08	2.39435
84	0x3f881e6c	1.0634284
85	0x3fb339ac	1.4001975
86	0x401d7508	2.460268
87	0x3fdc46d5	1.7209116
88	0x3f655000	0.89575195
89	0x4007603c	2.1152487
90	0x3fb9c864	1.4514279
91	0x4036d9e0	2.857048
92	0x3f69bd45	0.9130443
93	0x3fe404ff	1.7814025
94	0x3eef609a	0.4675339
95	0x3f59e3f0	0.8511343
96	0x400bff74	2.1874666
97	0x408ad3b3	4.338342
98	0x401d1095	2.454137
99	0x3f4d7082	0.802498
100	0x3e00ac74	0.12565786
101	0x3f4e0389	0.80474144
102	0x3fa52418	1.290164
103	0x3fe3464d	1.7755829
104	0x3f04fe68	0.51950693
105	0x3ffebc6a	1.990125
106	0x3fc6c346	1.5528343
107	0x3fb60bf4	1.4222398
108	0xbf164454	-0.5869801
109	0x3e56cb18	0.20975912
110	0x3f0f32a2	0.55936635
111	0x3f058edc	0.5217111
112	0x3fece03b	1.850593
113	0xbffcee46	-1.9760215
114	0x3fe2df44	1.7724385
115	0x3f48c781	0.7842942
116	0x3f77aa06	0.9674381
117	0x3f51085c	0.8165338
118	0x3fe41be6	1.7821014
119	0x3ff364d4	1.9015145
120	0xbf4053e0	-0.75127983
121	0x3f3f3c71	0.747016
122	0x40012e2b	2.0184429
123	0x3fba9b84	1.457871
124	0x403986a4	2.8988428
125	0x3e612ed0	0.21990514
126	0x3f322436	0.69586504
127	0xbe8f17ac	-0.27947748

functional_1/dense_9/BiasAdd/ReadVariableOp/resource f4 [640]
0	0xbf7e0f1d	-0.9924181
1	0xbf1b8afb	-0.6075894
2	0xbea7e25c	-0.32789886
3	0xbc968e96	-0.018378537
4	0x3c8d0909	0.017216222
5	0xbc3a9514	-0.011388082
6	0xbe861147	-0.26185057
7	0xbe21268a	-0.15737358
8	0xbe368215	-0.1782306
9	0xbceb6474	-0.028734423
10	0xbdc47fa8	-0.09594661
11	0xbe58f01b	-0.21185343
12	0xbe80712d	-0.25086346
13	0xbe0b70aa	-0.13617197
14	0xbe7016af	-0.23446153
15	0xbea4ac71	-0.32162812
16	0xbea43417	-0.3207099
17	0xbe076f39	-0.13226022
18	0xbe608c2c	-0.21928471
19	0xbe723987	-0.23654757
20	0xbe531a27	-0.20615445
21	0xbe715f51	-0.23571517
22	0xbe8e02fc	-0.27736652
23	0xbe8fbd08	-0.28073907
24	0xbec0d42b	-0.3766187
25	0xbec50b2e	-0.38485092
26	0xbec422de	-0.38307852
27	0xbe7e165b	-0.24813215
28	0xbeb234bd	-0.3480586
29	0xbea665dd	-0.3249959
30	0xbec3891c	-0.38190544
31	0xbe6b6bb3	-0.22990303
32	0xbe6c7113	-0.2309001
33	0xbeae2326	-0.3401119
34	0xbee9154e	-0.45524067
35	0xbec7574e	-0.38933796
36	0xbebf27e7	-0.3733513
37	0xbea2b3c7	-0.31777784
38	0xbea36c93	-0.31918773
39	0xbebfe8ff	-0.3748245
40	0xbee63a17	-0.44966194
41	0xbe7d4534	-0.2473343
42	0xbe8a3fd3	-0.2700182
43	0xbebc4a7b	-0.36775574
44	0xbeec0d55	-0.46103922
45	0xbe8bf0e7	-0.2733223
46	0xbe853ec7	-0.26024458
47	0xbeb908ce	-0.3613953
48	0xbeb50355	-0.35354105
49	0xbec03437	-0.37539837
50	0xbeb686af	-0.3564963
51	0xbe85a3c3	-0.26101503
52	0xbea48b9a	-0.32137758
53	0xbeaa4085	-0.3325235
54	0xbeb11cd3	-0.34592304
55	0xbeb466ef	-0.35234782
56	0xbec3f874	-0.38275492
57	0xbede9613	-0.43473873
58	0xbef80e4b	-0.48448405
59	0xbedc5c1c	-0.43039024
60	0xbeaf934c	-0.34292066
61	0xbec12b43	-0.3772832
62	0xbec086ab	-0.37602744
63	0xbeccc1cb	-0.39991602
64	0xbee1fd2a	-0.4413846
65	0xbeebbe29	-0.46043518
66	0xbee4fbda	-0.44723397
67	0xbf09209f	-0.535654
68	0xbefcc4fe	-0.49369043
69	0xbeff9ba7	-0.4992344
70	0xbefc5184	-0.4928094
71	0xbefa9e36	-0.4894883
72	0xbef1bf75	-0.47216383
73	0xbec9900f	-0.3936772
74	0xbebe15aa	-0.37125903
75	0xbee84102	-0.45362097
76	0xbef235ce	-0.47306675
77	0xbefceabf	-0.49397847
78	0xbee71dcb	-0.45139918
79	0xbeea1a2b	-0.4572309
80	0xbf134fe2	-0.57543766
81	0xbf13c061	-0.5771542
82	0xbf13f1be	-0.57790744
83	0xbf1b4c24	-0.60663056
84	0xbf2c3874	-0.6727364
85	0xbf34d530	-0.706378
86	0xbf2b255d	-0.66853887
87	0xbf405b59	-0.75139385
88	0xbf18aa92	-0.5963527
89	0xbf26788b	-0.65027684
90	0xbf1d63b1	-0.6148024
91	0xbf157801	-0.58386236
92	0xbf19792f	-0.59950536
93	0xbf361e72	-0.71140206
94	0xbf1a9368	-0.60381174
95	0xbf0d2ba9	-0.55144745
96	0xbf21d5e9	-0.63217026
97	0xbf2e5e51	-0.68112665
98	0xbf23b1aa	-0.6394297
99	0xbf17a0e7	-0.5922989
100	0xbf165a3d	-0.5873144
101	0xbf24a4fd	-0.6431425
102	0xbf2af90a	-0.66786253
103	0xbf3578a7	-0.70887226
104	0xbf36f70e	-0.71470726
105	0xbf39eec7	-0.7262997
106	0xbf290192	-0.6601802
107	0xbf46841f	-0.7754535
108	0xbf69ac29	-0.9127832
109	0xbf4bf97b	-0.7967755
110	0xbf34355a	-0.7039391
111	0xbf37cd21	-0.71797377
112	0xbf36a536	-0.7134584
113	0xbf471abb	-0.7777516
114	0xbf4cf75a	-0.8006493
115	0xbf4e1ce9	-0.80512863
116	0xbf617673	-0.88071364
117	0xbf4ba53e	-0.79549015
118	0xbf4da09a	-0.80323184
119	0xbf515944	-0.81776834
120	0xbf4c7ca5	-0.7987769
121	0xbf39175a	-0.72301257
122	0xbf3fc3a7	-0.74907917
123	0xbf0e582d	-0.55603296
124	0xbf15c615	-0.58505374
125	0xbf2ef299	-0.68338925
126	0xbf7a4379	-0.97759205
127	0xbfbc2275	-1.4698015
128	0xbf7947e7	-0.9737534
129	0xbf13f6bd	-0.5779837
130	0xbe9cad39	-0.30600908
131	0xbd0ca725	-0.03433909
132	0xbcade8aa	-0.021229107
133	0xbd2b7ab9	-0.041865084
134	0xbe852aa2	-0.2600909
135	0xbe2889fc	-0.16458887
136	0xbe36facb	-0.17869107
137	0xbc2cbee9	-0.010543563
138	0xbd9e1a8c	-0.07719907
139	0xbe5b5be4	-0.21421772
140	0xbe7298da	-0.2369112
141	0xbdecc323	-0.11560657
142	0xbe69a620	-0.22817278
143	0xbea22820	-0.31671238
144	0xbea889bf	-0.32917592
145	0xbdfd70e9	-0.123750515
146	0xbe4faf32	-0.20281675
147	0xbe8226e5	-0.254203
148	0xbe6e5c6b	-0.23277442
149	0xbe7bb797	-0.24581753
150	0xbe8e6731	-0.27813104
151	0xbe84de04	-0.25950634
152	0xbeb5772d	-0.35442486
153	0xbebdd8df	-0.37079522
154	0xbeb60042	-0.35547072
155	0xbe7bc58b	-0.24587075
156	0xbeaccd76	-0.33750504
157	0xbe995d01	-0.2995377
158	0xbeb90460	-0.3613615
159	0xbe71d3bc	-0.23615927
160	0xbe73f2d8	-0.23823106
161	0xbeacf859	-0.33783224
162	0xbedf7201	-0.43641666
163	0xbebb0f3a	-0.36535054
164	0xbeb5ba91	-0.354939
165	0xbea165e7	-0.31523058
166	0xbea9d3d0	-0.33169413
167	0xbebe4549	-0.37162235
168	0xbedf98ee	-0.43671364
169	0xbe7b204d	-0.2452404
170	0xbe8b5f2f	-0.27221057
171	0xbebaa5b1	-0.36454538
172	0xbedf2603	-0.43583688
173	0xbe81e617	-0.25370857
174	0xbe758f49	-0.2398044
175	0xbeab626a	-0.3347352
176	0xbe9e42ec	-0.30910432
177	0xbea89087	-0.32922766
178	0xbeb04811	-0.34429982
179	0xbe89f11c	-0.26941764
180	0xbe9eacb6	-0.30991143
181	0xbe9f0c3e	-0.31064028
182	0xbe99ab0e	-0.30013317
183	0xbea7efd3	-0.3280016
184	0xbec1c938	-0.3784883
185	0xbecfa52a	-0.40555698
186	0xbedde15e	-0.43336004
187	0xbecd1ff8	-0.40063453
188	0xbeb9b4b8	-0.3627069
189	0xbebd81fa	-0.37013227
190	0xbebd4f51	-0.36974576
191	0xbec79f55	-0.38988748
192	0xbee14186	-0.43995303
193	0xbede3d99	-0.4340637
194	0xbee60b19	-0.44930342
195	0xbf0f80dd	-0.56056005
196	0xbef85072	-0.48498875
197	0xbefd3002	-0.4945069
198	0xbefa6523	-0.48905286
199	0xbef94dee	-0.48692268
200	0xbeeae902	-0.45880896
201	0xbecfe197	-0.406018
202	0xbec99973	-0.39374885
203	0xbeeb4e7c	-0.45958316
204	0xbeef3ad2	-0.46724564
205	0xbefd0969	-0.49421242
206	0xbef222b1	-0.47292092
207	0xbf0084ba	-0.50202525
208	0xbf17f01d	-0.5935076
209	0xbf1a9767	-0.6038727
210	0xbf160cdf	-0.5861339
211	0xbf1716a3	-0.59018916
212	0xbf29528c	-0.6614158
213	0xbf33ab5a	-0.70183337
214	0xbf243038	-0.64136076
215	0xbf2bf55c	-0.67171264
216	0xbf178811	-0.59191996
217	0xbf2737dd	-0.65319616
218	0xbf145de3	-0.5795576
219	0xbf0afbe5	-0.5429061
220	0xbf1b325c	-0.6062372
221	0xbf328f34	-0.6974976
222	0xbf164916	-0.5870527
223	0xbf0b5867	-0.54431766
224	0xbf20ba94	-0.62784696
225	0xbf30d40b	-0.6907355
226	0xbf1bc4b5	-0.60847026
227	0xbf136e71	-0.57590395
228	0xbf17cdb0	-0.5929823
229	0xbf250e8a	-0.6447531
230	0xbf27f800	-0.6561279
231	0xbf31ce02	-0.6945497
232	0xbf2e02f6	-0.6797327
233	0xbf31aee9	-0.69407517
234	0xbf220082	-0.63282025
235	0xbf3b7d1e	-0.7323779
236	0xbf60b475	-0.87775356
237	0xbf45b3a9	-0.77227265
238	0xbf2bff5d	-0.6718653
239	0xbf28aa28	-0.6588464
240	0xbf358dff	-0.70919794
241	0xbf3aec27	-0.7301659
242	0xbf41b9c8	-0.75674105
243	0xbf4c6c6a	-0.79852927
244	0xbf5d055c	-0.863363
245	0xbf484f35	-0.7824586
246	0xbf4731b4	-0.77810216
247	0xbf4c2de7	-0.7975754
248	0xbf48473e	-0.78233707
249	0xbf3844e8	-0.7198014
250	0xbf3da9c8	-0.7408719
251	0xbf076419	-0.5288711
252	0xbf0c4fa6	-0.54809034
253	0xbf23199c	-0.6371095
254	0xbf712744	-0.9420054
255	0xbfba9c39	-1.4578925

functional_1/dense/MatMul i1 [128, 640] scale=0.00027755965 zero_point=0
0	0x1f	0.00860435
1	0x51	0.022482332
2	0x62	0.027200846
3	0x46	0.019429175
4	0x29	0.011379946
5	0x09	0.002498037
6	0x19	0.006938991
7	0x1a	0.007216551
8	0xfd	-0.000832679
9	0xdf	-0.009159468
10	0x02	0.0005551193
11	0xee	-0.004996074
12	0xe9	-0.006383872
13	0xe9	-0.006383872
14	0x0a	0.0027755965
15	0x0a	0.0027755965
16	0xfd	-0.000832679
17	0x3f	0.017486257
18	0x32	0.013877982
19	0x40	0.017763818
20	0x2c	0.012212625
21	0x43	0.018596496
22	0x75	0.03247448
23	0x56	0.02387013
24	0x48	0.019984296
25	0x37	0.0152657805
26	0xf6	-0.0027755965
27	0xf0	-0.0044409544
28	0x0f	0.0041633947
29	0xf0	-0.0044409544
30	0xb4	-0.021094533
31	0x92	-0.030531561
32	0xd2	-0.012767744
33	0xdc	-0.009992148
34	0x13	0.005273633
35	0x0a	0.0027755965
36	0xe2	-0.008326789
37	0xed	-0.005273633
38	0xd6	-0.011657505
39	0xc0	-0.017763818
40	0xff	-0.00027755965
41	0x0b	0.0030531562
42	0x14	0.005551193
43	0xe5	-0.0074941106
44	0xe6	-0.007216551
45	0xef	-0.004718514
46	0x2f	0.0130453035
47	0x30	0.013322864
48	0x33	0.0141555425
49	0x4b	0.020816974
50	0x4a	0.020539414
51	0x22	0.009437028
52	0xe0	-0.008881909
53	0xeb	-0.0058287526
54	0xe4	-0.0077716704
55	0xdf	-0.009159468
56	0xf5	-0.0030531562
57	0xe5	-0.0074941106
58	0xe1	-0.00860435
59	0x07	0.0019429176
60	0xf5	-0.0030531562
61	0xdf	-0.009159468
62	0xf0	-0.0044409544
63	0x04	0.0011102386
64	0xec	-0.005551193
65	0xee	-0.004996074
66	0xf9	-0.0019429176
67	0xec	-0.005551193
68	0xcd	-0.0141555425
69	0x0c	0.003330716
70	0x14	0.005551193
71	0xf3	-0.0036082754
72	0xf1	-0.0041633947
73	0xf4	-0.003330716
74	0xef	-0.004718514
75	0xe3	-0.00804923
76	0xe9	-0.006383872
77	0xe0	-0.008881909
78	0xdc	-0.009992148
79	0xe8	-0.006661432
80	0x1b	0.0074941106
81	0x08	0.0022204772
82	0xe7	-0.006938991
83	0xd4	-0.012212625
84	0xe0	-0.008881909
85	0xe8	-0.006661432
86	0x01	0.00027755965
87	0x00	0.0
88	0x17	0.006383872
89	0x0b	0.0030531562
90	0x08	0.0022204772
91	0xff	-0.00027755965
92	0xf6	-0.0027755965
93	0x0d	0.0036082754
94	0xf6	-0.0027755965
95	0xf1	-0.0041633947
96	0x0d	0.0036082754
97	0xf9	-0.0019429176
98	0xe9	-0.006383872
99	0x04	0.0011102386
100	0x09	0.002498037
101	0x11	0.004718514
102	0x2a	0.011657505
103	0x17	0.006383872
104	0x1e	0.008326789
105	0x0d	0.0036082754
106	0x09	0.002498037
107	0xf3	-0.0036082754
108	0xfe	-0.0005551193
109	0xf4	-0.003330716
110	0xec	-0.005551193
111	0x09	0.002498037
112	0xfb	-0.0013877982
113	0xf6	-0.0027755965
114	0x0d	0.0036082754
115	0xf9	-0.0019429176
116	0xf7	-0.002498037
117	0xff	-0.00027755965
118	0x11	0.004718514
119	0x12	0.004996074
120	0x0b	0.0030531562
121	0xf5	-0.0030531562
122	0xef	-0.004718514
123	0xf9	-0.0019429176
124	0x02	0.0005551193
125	0xfe	-0.0005551193
126	0x06	0.001665358
127	0xf4	-0.003330716
128	0x21	0.009159468
129	0x37	0.0152657805
130	0x6b	0.029698882
131	0x47	0.019706735
132	0x2c	0.012212625
133	0x14	0.005551193
134	0x07	0.0019429176
135	0x44	0.018874057
136	0x32	0.013877982
137	0xe3	-0.00804923
138	0xdc	-0.009992148
139	0xd9	-0.010824827
140	0xbb	-0.019151617
141	0xd5	-0.011935065
142	0x08	0.0022204772
143	0x03	0.000832679
144	0x02	0.0005551193
145	0x1f	0.00860435
146	0x46	0.019429175
147	0x3a	0.01609846
148	0x2e	0.012767744
149	0x34	0.014433102
150	0x5f	0.026368167
151	0x5d	0.025813047
152	0x1d	0.00804923
153	0x0e	0.0038858352
154	0xeb	-0.0058287526
155	0xbe	-0.018318936
156	0xfe	-0.0005551193
157	0x14	0.005551193
158	0xb3	-0.021372093
159	0xa2	-0.026090607
160	0xb7	-0.020261854
161	0xac	-0.02331501
162	0xf7	-0.002498037
163	0xf7	-0.002498037
164	0xe5	-0.0074941106
165	0xed	-0.005273633
166	0xed	-0.005273633
167	0xd9	-0.010824827
168	0x03	0.000832679
169	0x10	0.0044409544
170	0xf5	-0.0030531562
171	0x03	0.000832679
172	0x03	0.000832679
173	0xff	-0.00027755965
174	0x43	0.018596496
175	0x29	0.011379946
176	0x45	0.019151617
177	0x51	0.022482332
178	0x0f	0.0041633947
179	0xfa	-0.001665358
180	0xf6	-0.0027755965
181	0xc6	-0.01609846
182	0xde	-0.009437028
183	0x02	0.0005551193
184	0x08	0.0022204772
185	0xfa	-0.001665358
186	0xe4	-0.0077716704
187	0xf0	-0.0044409544
188	0xe2	-0.008326789
189	0xca	-0.014988221
190	0xed	-0.005273633
191	0xea	-0.0061063124
192	0xf2	-0.0038858352
193	0xdf	-0.009159468
194	0xf6	-0.0027755965
195	0xec	-0.005551193
196	0xd3	-0.012490184
197	0xef	-0.004718514
198	0xed	-0.005273633
199	0xd3	-0.012490184
200	0xd1	-0.0130453035
201	0xf5	-0.0030531562
202	0xfe	-0.0005551193
203	0xd5	-0.011935065
204	0xdb	-0.010269707
205	0xdf	-0.009159468
206	0xd2	-0.012767744
207	0xf8	-0.0022204772
208	0x0a	0.0027755965
209	0xf2	-0.0038858352
210	0xd8	-0.011102386
211	0xf7	-0.002498037
212	0xf5	-0.0030531562
213	0xe8	-0.006661432
214	0x0d	0.0036082754
215	0x0f	0.0041633947
216	0x10	0.0044409544
217	0x15	0.0058287526
218	0x07	0.0019429176
219	0xee	-0.004996074
220	0x0e	0.0038858352
221	0x0e	0.0038858352
222	0x09	0.002498037
223	0xeb	-0.0058287526
224	0xf3	-0.0036082754
225	0x11	0.004718514
226	0xfe	-0.0005551193
227	0xe0	-0.008881909
228	0x1d	0.00804923
229	0x0b	0.0030531562
230	0xee	-0.004996074
231	0x14	0.005551193
232	0xec	-0.005551193
233	0x11	0.004718514
234	0x0c	0.003330716
235	0x14	0.005551193
236	0x15	0.0058287526
237	0xf9	-0.0019429176
238	0x0d	0.0036082754
239	0xf7	-0.002498037
240	0xd4	-0.012212625
241	0xf2	-0.0038858352
242	0xd0	-0.013322864
243	0xe8	-0.006661432
244	0xf3	-0.0036082754
245	0xe9	-0.006383872
246	0x01	0.00027755965
247	0xfe	-0.0005551193
248	0xfa	-0.001665358
249	0xf8	-0.0022204772
250	0xe8	-0.006661432
251	0x16	0.0061063124
252	0xfc	-0.0011102386
253	0xed	-0.005273633
254	0x0c	0.003330716
255	0x06	0.001665358

functional_1/dense_1/MatMul i1 [128, 128] scale=0.012640552 zero_point=0
0	0xff	-0.012640552
1	0xfe	-0.025281103
2	0xf2	-0.17696773
3	0xff	-0.012640552
4	0xf9	-0.08848386
5	0x03	0.037921656
6	0x04	0.050562207
7	0x04	0.050562207
8	0x03	0.037921656
9	0x01	0.012640552
10	0x00	0.0
11	0xfd	-0.037921656
12	0xfe	-0.025281103
13	0x01	0.012640552
14	0xfe	-0.025281103
15	0xfc	-0.050562207
16	0x04	0.050562207
17	0xfb	-0.06320276
18	0xfa	-0.07584331
19	0x00	0.0
20	0x03	0.037921656
21	0xf5	-0.13904607
22	0x06	0.07584331
23	0xfe	-0.025281103
24	0x01	0.012640552
25	0x02	0.025281103
26	0x07	0.08848386
27	0xfc	-0.050562207
28	0x00	0.0
29	0xff	-0.012640552
30	0x04	0.050562207
31	0x04	0.050562207
32	0x03	0.037921656
33	0x02	0.025281103
34	0x04	0.050562207
35	0x01	0.012640552
36	0xfc	-0.050562207
37	0x01	0.012640552
38	0xfe	-0.025281103
39	0x05	0.06320276
40	0xfd	-0.037921656
41	0x01	0.012640552
42	0x04	0.050562207
43	0xfd	-0.037921656
44	0x01	0.012640552
45	0x02	0.025281103
46	0xff	-0.012640552
47	0xfa	-0.07584331
48	0x04	0.050562207
49	0x04	0.050562207
50	0x02	0.025281103
51	0xfa	-0.07584331
52	0x09	0.113764964
53	0xff	-0.012640552
54	0xff	-0.012640552
55	0x02	0.025281103
56	0xf9	-0.08848386
57	0x04	0.050562207
58	0xf0	-0.20224883
59	0xff	-0.012640552
60	0x00	0.0
61	0xfd	-0.037921656
62	0xfc	-0.050562207
63	0xfc	-0.050562207
64	0x0b	0.13904607
65	0x02	0.025281103
66	0x04	0.050562207
67	0xfe	-0.025281103
68	0x03	0.037921656
69	0x09	0.113764964
70	0x12	0.22752993
71	0xff	-0.012640552
72	0x02	0.025281103
73	0x02	0.025281103
74	0xfd	-0.037921656
75	0xfa	-0.07584331
76	0x04	0.050562207
77	0xf9	-0.08848386
78	0x08	0.10112441
79	0xfd	-0.037921656
80	0x01	0.012640552
81	0xff	-0.012640552
82	0xfd	-0.037921656
83	0xff	-0.012640552
84	0x03	0.037921656
85	0x02	0.025281103
86	0x05	0.06320276
87	0xf9	-0.08848386
88	0xfc	-0.050562207
89	0x00	0.0
90	0x03	0.037921656
91	0xfd	-0.037921656
92	0xfc	-0.050562207
93	0xfb	-0.06320276
94	0x05	0.06320276
95	0x05	0.06320276
96	0x00	0.0
97	0x02	0.025281103
98	0x00	0.0
99	0x00	0.0
100	0x00	0.0
101	0xfe	-0.025281103
102	0xfc	-0.050562207
103	0x01	0.012640552
104	0x00	0.0
105	0x01	0.012640552
106	0x09	0.113764964
107	0xfe	-0.025281103
108	0xfd	-0.037921656
109	0xf7	-0.113764964
110	0x01	0.012640552
111	0x02	0.025281103
112	0x00	0.0
113	0xfd	-0.037921656
114	0x04	0.050562207
115	0x02	0.025281103
116	0x05	0.06320276
117	0xfa	-0.07584331
118	0x00	0.0
119	0x02	0.025281103
120	0xfa	-0.07584331
121	0x04	0.050562207
122	0x00	0.0
123	0x00	0.0
124	0xfe	-0.025281103
125	0xff	-0.012640552
126	0x04	0.050562207
127	0x02	0.025281103
128	0x01	0.012640552
129	0xff	-0.012640552
130	0xfe	-0.025281103
131	0x00	0.0
132	0x04	0.050562207
133	0xfc	-0.050562207
134	0x01	0.012640552
135	0x00	0.0
136	0x04	0.050562207
137	0xfe	-0.025281103
138	0xfe	-0.025281103
139	0xfb	-0.06320276
140	0xfd	-0.037921656
141	0xfc	-0.050562207
142	0x01	0.012640552
143	0x01	0.012640552
144	0xfd	-0.037921656
145	0xff	-0.012640552
146	0xfc	-0.050562207
147	0x07	0.08848386
148	0x00	0.0
149	0xfe	-0.025281103
150	0x02	0.025281103
151	0x04	0.050562207
152	0x03	0.037921656
153	0xf7	-0.113764964
154	0x0b	0.13904607
155	0xff	-0.012640552
156	0x01	0.012640552
157	0x01	0.012640552
158	0xfe	-0.025281103
159	0x00	0.0
160	0x02	0.025281103
161	0xff	-0.012640552
162	0xfa	-0.07584331
163	0x02	0.025281103
164	0x01	0.012640552
165	0xf6	-0.12640552
166	0x04	0.050562207
167	0xfe	-0.025281103
168	0x03	0.037921656
169	0xfc	-0.050562207
170	0x06	0.07584331
171	0xfc	-0.050562207
172	0x00	0.0
173	0x02	0.025281103
174	0x11	0.21488938
175	0x04	0.050562207
176	0x03	0.037921656
177	0xfd	-0.037921656
178	0xfe	-0.025281103
179	0x01	0.012640552
180	0xfe	-0.025281103
181	0xfc	-0.050562207
182	0x05	0.06320276
183	0x06	0.07584331
184	0x02	0.025281103
185	0x01	0.012640552
186	0x00	0.0
187	0x02	0.025281103
188	0x04	0.050562207
189	0xfc	-0.050562207
190	0x01	0.012640552
191	0x0c	0.15168662
192	0xf9	-0.08848386
193	0x02	0.025281103
194	0x08	0.10112441
195	0xff	-0.012640552
196	0x05	0.06320276
197	0x03	0.037921656
198	0x00	0.0
199	0x04	0.050562207
200	0x08	0.10112441
201	0xff	-0.012640552
202	0x0b	0.13904607
203	0x00	0.0
204	0x00	0.0
205	0xfc	-0.050562207
206	0x01	0.012640552
207	0x03	0.037921656
208	0xff	-0.012640552
209	0xfe	-0.025281103
210	0x00	0.0
211	0xfc	-0.050562207
212	0xfd	-0.037921656
213	0x03	0.037921656
214	0x05	0.06320276
215	0xff	-0.012640552
216	0xff	-0.012640552
217	0x00	0.0
218	0xfb	-0.06320276
219	0x0a	0.12640552
220	0x09	0.113764964
221	0x00	0.0
222	0x02	0.025281103
223	0x02	0.025281103
224	0xf4	-0.15168662
225	0x02	0.025281103
226	0xfc	-0.050562207
227	0x01	0.012640552
228	0x01	0.012640552
229	0x01	0.012640552
230	0x00	0.0
231	0x04	0.050562207
232	0x00	0.0
233	0x01	0.012640552
234	0x05	0.06320276
235	0xff	-0.012640552
236	0x02	0.025281103
237	0xfe	-0.025281103
238	0x00	0.0
239	0x02	0.025281103
240	0xf9	-0.08848386
241	0x07	0.08848386
242	0x00	0.0
243	0xfc	-0.050562207
244	0x06	0.07584331
245	0xfe	-0.025281103
246	0x05	0.06320276
247	0xfd	-0.037921656
248	0x00	0.0
249	0x0a	0.12640552
250	0xff	-0.012640552
251	0x04	0.050562207
252	0xfb	-0.06320276
253	0x02	0.025281103
254	0x00	0.0
255	0x02	0.025281103

functional_1/dense_2/MatMul i1 [128, 128] scale=0.03733857 zero_point=0
0	0xfe	-0.07467714
1	0x00	0.0
2	0x01	0.03733857
3	0x00	0.0
4	0x00	0.0
5	0x00	0.0
6	0x01	0.03733857
7	0xff	-0.03733857
8	0x02	0.07467714
9	0x00	0.0
10	0x00	0.0
11	0x01	0.03733857
12	0xfd	-0.11201571
13	0x01	0.03733857
14	0x01	0.03733857
15	0x01	0.03733857
16	0x00	0.0
17	0x01	0.03733857
18	0xff	-0.03733857
19	0x01	0.03733857
20	0xfe	-0.07467714
21	0x02	0.07467714
22	0x01	0.03733857
23	0x01	0.03733857
24	0xff	-0.03733857
25	0xfd	-0.11201571
26	0xfd	-0.11201571
27	0xff	-0.03733857
28	0x01	0.03733857
29	0x01	0.03733857
30	0x01	0.03733857
31	0x02	0.07467714
32	0x03	0.11201571
33	0xfe	-0.07467714
34	0xff	-0.03733857
35	0xff	-0.03733857
36	0x01	0.03733857
37	0x02	0.07467714
38	0xff	-0.03733857
39	0x00	0.0
40	0x00	0.0
41	0xfe	-0.07467714
42	0x02	0.07467714
43	0x00	0.0
44	0x02	0.07467714
45	0x01	0.03733857
46	0xff	-0.03733857
47	0x00	0.0
48	0x01	0.03733857
49	0xfe	-0.07467714
50	0x01	0.03733857
51	0xff	-0.03733857
52	0xfa	-0.22403142
53	0x00	0.0
54	0x00	0.0
55	0xf7	-0.3360471
56	0x02	0.07467714
57	0xfd	-0.11201571
58	0xff	-0.03733857
59	0x00	0.0
60	0xfe	-0.07467714
61	0x01	0.03733857
62	0x00	0.0
63	0x05	0.18669285
64	0x00	0.0
65	0x00	0.0
66	0xfd	-0.11201571
67	0x03	0.11201571
68	0x01	0.03733857
69	0x00	0.0
70	0x01	0.03733857
71	0x02	0.07467714
72	0x00	0.0
73	0x01	0.03733857
74	0x01	0.03733857
75	0x02	0.07467714
76	0x00	0.0
77	0xff	-0.03733857
78	0x00	0.0
79	0xfe	-0.07467714
80	0xfe	-0.07467714
81	0x00	0.0
82	0x01	0.03733857
83	0x00	0.0
84	0x06	0.22403142
85	0xff	-0.03733857
86	0xfe	-0.07467714
87	0x03	0.11201571
88	0xfe	-0.07467714
89	0xfd	-0.11201571
90	0xff	-0.03733857
91	0xfe	-0.07467714
92	0x02	0.07467714
93	0x01	0.03733857
94	0x00	0.0
95	0x02	0.07467714
96	0x00	0.0
97	0xfd	-0.11201571
98	0x00	0.0
99	0xfe	-0.07467714
100	0x00	0.0
101	0x04	0.14935428
102	0x00	0.0
103	0xff	-0.03733857
104	0xf9	-0.26137
105	0xf6	-0.3733857
106	0xfe	-0.07467714
107	0x00	0.0
108	0xff	-0.03733857
109	0x01	0.03733857
110	0x01	0.03733857
111	0x00	0.0
112	0x01	0.03733857
113	0x02	0.07467714
114	0x02	0.07467714
115	0x00	0.0
116	0x01	0.03733857
117	0x00	0.0
118	0x00	0.0
119	0xff	-0.03733857
120	0x02	0.07467714
121	0x01	0.03733857
122	0x03	0.11201571
123	0xd9	-1.4562042
124	0xfe	-0.07467714
125	0x01	0.03733857
126	0x01	0.03733857
127	0x00	0.0
128	0xff	-0.03733857
129	0xff	-0.03733857
130	0xfe	-0.07467714
131	0xff	-0.03733857
132	0xff	-0.03733857
133	0xfe	-0.07467714
134	0xfe	-0.07467714
135	0x03	0.11201571
136	0xfe	-0.07467714
137	0x00	0.0
138	0xfc	-0.14935428
139	0x00	0.0
140	0x01	0.03733857
141	0x00	0.0
142	0xfd	-0.11201571
143	0x00	0.0
144	0xfb	-0.18669285
145	0x02	0.07467714
146	0x01	0.03733857
147	0xfe	-0.07467714
148	0x00	0.0
149	0xfb	-0.18669285
150	0xff	-0.03733857
151	0xff	-0.03733857
152	0x01	0.03733857
153	0x01	0.03733857
154	0x04	0.14935428
155	0xfe	-0.07467714
156	0x01	0.03733857
157	0xf8	-0.29870856
158	0x05	0.18669285
159	0xff	-0.03733857
160	0x01	0.03733857
161	0x06	0.22403142
162	0x04	0.14935428
163	0xfc	-0.14935428
164	0xff	-0.03733857
165	0x03	0.11201571
166	0xfd	-0.11201571
167	0xfd	-0.11201571
168	0x02	0.07467714
169	0xfe	-0.07467714
170	0x01	0.03733857
171	0x02	0.07467714
172	0x01	0.03733857
173	0xfc	-0.14935428
174	0x00	0.0
175	0xf8	-0.29870856
176	0x01	0.03733857
177	0xff	-0.03733857
178	0xfe	-0.07467714
179	0x03	0.11201571
180	0xfe	-0.07467714
181	0x00	0.0
182	0xff	-0.03733857
183	0x02	0.07467714
184	0x04	0.14935428
185	0x00	0.0
186	0x06	0.22403142
187	0x00	0.0
188	0x00	0.0
189	0x04	0.14935428
190	0xfc	-0.14935428
191	0xfe	-0.07467714
192	0xff	-0.03733857
193	0x01	0.03733857
194	0x02	0.07467714
195	0x06	0.22403142
196	0x04	0.14935428
197	0x02	0.07467714
198	0x02	0.07467714
199	0x01	0.03733857
200	0x01	0.03733857
201	0x03	0.11201571
202	0x01	0.03733857
203	0x01	0.03733857
204	0x01	0.03733857
205	0xfd	-0.11201571
206	0xf3	-0.4854014
207	0x00	0.0
208	0x01	0.03733857
209	0xfe	-0.07467714
210	0xfc	-0.14935428
211	0x00	0.0
212	0xff	-0.03733857
213	0x01	0.03733857
214	0xfa	-0.22403142
215	0x02	0.07467714
216	0x01	0.03733857
217	0xfd	-0.11201571
218	0xff	-0.03733857
219	0xfe	-0.07467714
220	0x02	0.07467714
221	0x02	0.07467714
222	0x02	0.07467714
223	0x02	0.07467714
224	0x02	0.07467714
225	0x01	0.03733857
226	0x03	0.11201571
227	0x00	0.0
228	0xfe	-0.07467714
229	0x02	0.07467714
230	0xf9	-0.26137
231	0x06	0.22403142
232	0x01	0.03733857
233	0xff	-0.03733857
234	0xfe	-0.07467714
235	0x02	0.07467714
236	0xfa	-0.22403142
237	0x01	0.03733857
238	0x02	0.07467714
239	0x03	0.11201571
240	0xff	-0.03733857
241	0x00	0.0
242	0xf0	-0.5974171
243	0xfd	-0.11201571
244	0x00	0.0
245	0x01	0.03733857
246	0x01	0.03733857
247	0x03	0.11201571
248	0x05	0.18669285
249	0xf9	-0.26137
250	0xff	-0.03733857
251	0xff	-0.03733857
252	0xff	-0.03733857
253	0xfe	-0.07467714
254	0x03	0.11201571
255	0xfd	-0.11201571
